flwr-mlp/models/global_model_final.pt (torch, 127783 bytes, 7 tensors)

layers.0.weight f4 [256, 19]
00000000: 9e03 43bd 3663 12be 5dc6 f9bc 92a1 96be
00000010: e117 11bd baf2 0dbe b9cf ebbd 7f5d 5dbe
00000020: 05c5 463e 4f65 bdbd 997e 5d3d 7ed5 073e
00000030: 7f9b fdbc bf35 18be f841 513e a083 32bd
00000040: 833b 1dbe 679e 413d 7193 5cbe 24c5 28be
00000050: 18e5 79bd a88a 063e 7ae0 3bbc 1983 cbbd
00000060: 93aa 8cbc 6ba3 403e 700d 57be 4e25 ab3d
00000070: 9720 38bd 6f6f 373e 04cb eb3d 6438 0bbe
00000080: c9a5 8cbd abfe 7a3d eaa0 8dbd 4ed8 ab3d
00000090: f8f8 773e 340b 27bb a347 893d 6320 fe3d
000000a0: 07c8 e83c be71 cfbd 80a7 a63d 0fd2 ffbc
000000b0: 5a0c d53d 61e2 73be 2928 11bd a102 633e
000000c0: d536 ae3d cc12 bcbd 64c1 c13d 0e39 073e
000000d0: d6d6 df3d 7783 f1bb 7af1 a33d 2800 d43d
000000e0: e06e 8dbd 8ef3 983e c7bb 7cbd 99d9 693d
000000f0: 56c6 f03d 4ede 98bd 3795 58be 0a5d 4dbe
00000100: 6813 673e fa08 30bd 2555 1bbd 66ba 583e
00000110: 79b1 0dbe 983b acbd 534e f03c 5f3b febd
00000120: 7bef 95bd 6d44 adbd 0e59 7d3d ec29 053e
00000130: 3171 a8bd b7cd dcbd 503c 313e 85e6 da3c
00000140: 0696 563e b9cf 3e3e 496a 5f3e 25c0 f13d
00000150: 9c61 373e 24a3 b6bc f44c 1ebe 4b39 ecbd
00000160: 5282 4ebe 248f 5ebd 152d c9bd 18b3 803d
00000170: 1702 00bd 2882 5cbd 4edf 1dbe 1d45 4b3d
00000180: 922d 0e3e 515d 15be 2ba3 5f3e f4fb 9f3d
00000190: d192 50be 434e 323e 9edc 653e af1c 15be
000001a0: cd29 77be 6b99 a83d 2d13 a9be 2633 46bd
000001b0: de82 263e 7052 003e 8009 c8bc 2c4b d63d
000001c0: 2426 85bc bc9d 8fbe 3b46 ea3d 283f 273e
000001d0: 1e8c 1c3d 1863 a2bc 0270 20bd 9047 b5bd
000001e0: 02d5 0cbe 7775 3ebe 9baa 50be 0440 953e
000001f0: 4f44 79be ab91 b6bd 6716 f23c 1a20 c2bd
00000200: 20d7 103e 65fb b6bd 0e2d eb3c a31b c4bc
00000210: 40dc 533d f0b3 0c3e 50e4 36be 62c5 f9bc
00000220: 5b42 eabd 5c46 ae3c 72ca 7ebb fd81 1abe
00000230: 04f9 cfbd a26d 0ebd fdf7 17bc 86b5 b03b
00000240: 4323 7d3d 1446 263e 5fd5 e83d 0dce 25bd
00000250: f513 f4bd 2b96 6ebe 6320 9a3c fdc4 64bd
00000260: 10c4 69bc bbed c13d dc27 ba3d 25de 69bd
00000270: 1327 d03d 9eef 753e 24f2 923d 1231 013e
00000280: 0359 793e e134 b33d 9894 a4bd 4b42 8e3e
00000290: 3dd5 86be 4d3d 573e 3d3f 513d 8dfe af3d
000002a0: 729a e33c 77dc 24be 4374 3fbe b77b 533e
000002b0: f79a 71bd 4174 bfbd c424 9abd be34 853e
000002c0: ef60 01be 3a6a b6bc 872b 233e a9ea 6b3e
000002d0: ec92 54bd 8f12 17bd 1ae1 0abd 7be0 f83d
000002e0: 8e7f 043d dc53 003e b35e 0bbd c88e d03d
000002f0: 0f8d de3d b8b4 683a 51ef 00be 0f2d 043c
00000300: 3b85 f23d 6c8d 183d f042 68bd 94c5 b13d
00000310: c29f f0bd f1b6 1a3e 141e 133e 1196 c8be
00000320: 0ec2 85be 36a7 35bd ffd3 e9bd cd88 0cbe
00000330: 56e2 f5bd 1bac 023e de01 063e a8bd da3d
00000340: ed33 df3c b6c5 513e f9e4 c7bd 53c1 49bd
00000350: 08d0 543e 630d 70be 2222 6b3d 5607 90be
00000360: f4c1 d13d 6ab0 6f3e 9685 263e a4ee 383e
00000370: 1d0c 55be 8ef9 283d 7d85 6abe 3bd0 33bd
00000380: 4867 b73b 5737 64bd 7d0c 333e 1a8f 9c3c
00000390: ad33 c4bd 3936 6a3e 7cb6 27bd d640 d8bc
000003a0: 4ce9 e63d c56f 1cbd 240e 15be 845d acbd
000003b0: 56d7 8bbe ff07 a73e 7ce3 64be b547 03bc
000003c0: 7931 ff3d 8420 fb3c 68d7 03bb b6a3 c93d
000003d0: 4813 2abe a00a e53b 620d 043d e51b e7bd
000003e0: b4f7 96bd 7ce1 abba 8687 7fbd 04a2 123e
000003f0: 0b10 4ebe 19c0 7a3c dec7 693d e7e1 12be
-0.04761087 -0.14295658 -0.030490095 -0.29420143 -0.035423163 -0.13862124 -0.11514229 -0.21617697
0.19411094 -0.09247839 0.05407581 0.13265035 -0.030957935 -0.14864253 0.20435321 -0.04358256
-0.15354733 0.047270205 -0.2154062 -0.16481453 -0.061009496 0.1313883 -0.011467094 -0.09937114
-0.01717118 0.18812339 -0.2100122 0.08356725 -0.044952955 0.17913602 0.115133315 -0.1359573
-0.068675585 0.061278027 -0.069154575 0.08390866 0.24216068 -0.0025488855 0.06703117 0.12408521
0.028415693 -0.101291165 0.08137417 -0.031228093 0.104027465 -0.23816825 -0.03543869 0.22168972
0.08506552 -0.09183273 0.094607145 0.13205358 0.109296486 -0.007370408 0.080050424 0.10351592
-0.06905913 0.29873317 -0.061702516 0.057092283 0.117565796 -0.07464276 -0.21150671 -0.20055023
0.22565997 -0.04297731 -0.037922997 0.21164855 -0.13837232 -0.08409804 0.029334223 -0.12413668
-0.07321068 -0.08460317 0.061852507 0.13004273 -0.082247145 -0.107814245 0.17308164 0.026721248
0.20955667 0.18633927 0.21817888 0.11804227 0.17908329 -0.022294588 -0.15459043 -0.11534365
-0.20166901 -0.05433573 -0.09823052 0.062841594 -0.031251993 -0.053835064 -0.15417215 0.04962646
0.13884571 -0.14586379 0.21839587 0.07811728 -0.20368506 0.17412667 0.2244744 -0.14561723
-0.2413704 0.08232387 -0.33022442 -0.048388623 0.1626086 0.12531447 -0.024418592 0.10463557
-0.016253538 -0.2805003 0.11439177 0.16332686 0.038219564 -0.019822642 -0.03916932 -0.0885154
-0.13753131 -0.18599497 -0.20377581 0.29150403 -0.24342464 -0.08914503 0.029551698 -0.09478779
0.14144564 -0.089346685 0.028708007 -0.02393896 0.05172372 0.13740516 -0.17860532 -0.030489627
-0.114384376 0.021273784 -0.003887799 -0.15088649 -0.10154918 -0.034772523 -0.009275434 0.005392733
0.061801206 0.1623767 0.11368822 -0.04047971 -0.11917869 -0.23299472 0.018814271 -0.055851925
-0.014267936 0.094691716 0.09089634 -0.05709662 0.10163703 0.24017188 0.07175091 0.12616375
0.24350362 0.0875032 -0.080361545 0.27784953 -0.26334563 0.21019478 0.0510857 0.085934736
0.027783606 -0.16099726 -0.18696694 0.20652662 -0.058985677 -0.093483455 -0.07526544 0.26016802
-0.12634633 -0.02226745 0.15934573 0.23038734 -0.051897928 -0.036882933 -0.03390608 0.12152191
0.032348208 0.1253199 -0.03402586 0.10183483 0.108667485 0.0008877027 -0.12591292 0.008067383
0.11841818 0.037244245 -0.05670446 0.08680263 -0.117492214 0.15108849 0.14366943 -0.39176992
-0.26124614 -0.044348918 -0.11417388 -0.1372406 -0.12006061 0.12760966 0.1308665 0.10680705
0.02724644 0.20485577 -0.0976047 -0.049256634 0.20782483 -0.23442607 0.0574056 -0.28130597
0.10242072 0.2340714 0.16261896 0.18059784 -0.20805402 0.04125362 -0.22902484 -0.043899756
0.005597029 -0.05571684 0.17485233 0.019111205 -0.09580169 0.22872247 -0.040945515 -0.026398104
0.112749666 -0.03819253 -0.14556175 -0.08416274 -0.27312726 0.32623288 -0.22352403 -0.008012702
0.12460608 0.030655153 -0.0020117406 0.098456785 -0.16608918 0.006989792 0.032239325 -0.11284617
-0.07371464 -0.0013113464 -0.062385105 0.14319617 -0.20123307 0.015304589 0.057075374 -0.14343987

layers.0.bias f4 [256]
00000000: 0ea5 1bbd 4e39 d8bd 9dff b5be feba 8bbe
00000010: 77e5 86be 3a6c 31be ae59 16be b32b 91be
00000020: 74af 9abe 0858 38bd e221 783d f6b1 f2bd
00000030: 0463 e1bc b566 cfbe 9189 81be 8475 71be
00000040: 1ed6 0dbd 1ef2 4dbd 237f 8bbe 0508 a3be
00000050: 1b49 34be 5bea 83be 9583 5abd a648 63be
00000060: 532c 25be cdb1 33be 6eb9 90bd aad1 95be
00000070: a76c 29bd bc51 8bbd 6d5f 1dbe a465 8ebc
00000080: 28be 9cbe dcb5 aebb 00ea 6dbe 3bb9 45be
00000090: 9093 8fbd b32f dcbd ee6b 9cbe 9f1c d33c
000000a0: 5051 99be 4bfb 8cbe 3960 7dbe 3feb 9fbe
000000b0: 000f 94be 8598 43be d9d2 54be 2f7f 673d
000000c0: a68a 2fbe 9ded cfbe 7cce 8fbe a6de 66be
000000d0: 55a8 0dbe 33d7 a6bd 0b37 00be 7016 9ebd
000000e0: 6b3c d5be 42f6 b0bd fac1 3ebe c943 49be
000000f0: c7f2 e5be 4546 a1be 82a7 44be 3092 c6be
00000100: 5cc3 f4bd b201 8ebd f8d2 afbe 0348 f1be
00000110: 3084 c7be 3bfe 97be efe6 b8be ee23 853d
00000120: acf7 44be 5124 91be d9ae 59be 7919 3abe
00000130: 804e a1be d3a9 adbe bc0f 31be 23b7 14bd
00000140: bcaa 72bd ea6f 7dbe cbb5 d1bd d284 64be
00000150: 6134 9ebe 7a07 a1be 1782 3cbe 8748 ac3d
00000160: f3b4 45be 5a12 96bd 48d6 a7be a62c 11bd
00000170: 0b42 79be 488e cfbd c774 c0be 0ee0 8abe
00000180: 235e bfbe e21b 8ebe a9f7 d8be fd49 aebe
00000190: 6593 54be 89a9 8fbe cb8f 0dbe 891e a1be
000001a0: 8dc3 71be 2605 c8be 1fe2 96be 3aaf a9be
000001b0: fbe7 9fbc 8335 bfbe 0d35 d2be 148d c7bc
000001c0: cc7f 72be 4827 57be dda0 99be 3139 99bd
000001d0: afd9 963c c625 65be 9308 35be a02f 51be
000001e0: a416 76be 14fd 7abe 2699 a9be a0b9 83be
000001f0: b07f 06be 3bbd cabe 2ece 893d fea9 59be
00000200: 501d b3bc edfc 43be 5f00 7cbd af74 babe
00000210: 27ae 513c e959 2abe bba2 b2bd 7cbc 6dbe
00000220: 569b 8b3d 9d1b 60be 4381 e9bc 8228 94be
00000230: 31cd 0cbe 70ed a3be 4a77 58be df6d 15be
00000240: b19e 41be 4178 54be 02c0 dfbc 4740 cc3d
00000250: 51b7 b7be fa13 5bbe 1e61 d7be fe79 26be
00000260: d187 3ebe fa6c f0bd 3da4 20be 51bf 94be
00000270: 4bd1 2ebe 86c6 5dbe ef24 53be 93a5 81be
00000280: 1b92 c0be 7ce2 17be 141b fabd d2b8 c7bc
00000290: 3b86 6abe 5219 6dbd 7340 8bbe 9074 76be
000002a0: 8419 20be a9e4 b3be 1bfa c0bd a508 b8bc
000002b0: d521 88be d21e 3ebe 72e8 aebe 960b 8fbe
000002c0: efa2 b0be fd2b a6bd b446 07be 9766 31be
000002d0: 3cc5 b0bc 7732 25bd c46b d4be b1ea 73be
000002e0: 4fc5 9ebc 5d49 d6bb 1e05 19bd 1c7a 43be
000002f0: f667 0cbe 6fa9 9dbe 80e0 30be 3cb7 e0bd
00000300: 3834 333c 051c 463d a513 8bbe 85c0 45be
00000310: 8bfe 56be 2cd6 b3be 92e9 05be f51e 41be
00000320: 089d 6fbd 48e0 13bd 120d a1be bb28 bcbd
00000330: 78a5 6fbe 37ed cbbe aa5f e7be b574 8dbd
00000340: a06b a4bd 3634 a2bd b52a 39be a795 5fbe
00000350: 1d30 c0be 28aa c6be 14c3 0ebe 7467 09be
00000360: 4a7a a1be 98f0 aebe 9348 283d bc9a 87be
00000370: 64df b7be e569 ebbd 4ac1 06be 6354 68be
00000380: c411 e3be 3d05 02be f169 3dbd 1cea 0cbe
00000390: 992f a8be 290c bfbe a4c1 6dbe 76c4 afbe
000003a0: cba8 8abe be46 acbe f648 b2be 8d29 14be
000003b0: ea18 22bd 9a1a 9abd f844 a0be 5932 dfbe
000003c0: 9923 9cbe a921 cfbe ee2d 8fbe 5c12 803d
000003d0: 71d4 a7be 3225 53be 2263 9abe f21d babd
000003e0: ba45 c0be ff84 17be 1b67 0cbd d079 0dbe
000003f0: d0af 04bd 6b73 4bbd 2fdc 97be adc1 a03b
-0.037999205 -0.10557805 -0.3554658 -0.272911 -0.26346943 -0.17326441 -0.14682648 -0.28353652
-0.30211985 -0.04500583 0.06057919 -0.118503496 -0.027513035 -0.40508047 -0.25300267 -0.23579985
-0.034628026 -0.05027973 -0.27245435 -0.31842056 -0.17606013 -0.25764737 -0.053348143 -0.22195682
-0.1613019 -0.17548294 -0.07066618 -0.29261523 -0.041363385 -0.06802699 -0.15368433 -0.01738245
-0.30613828 -0.005331738 -0.23233795 -0.19308941 -0.07010567 -0.107512854 -0.30551094 0.025770484
-0.2994485 -0.2753547 -0.24743737 -0.31234166 -0.28917694 -0.1910115 -0.20783557 0.056517776
-0.17142734 -0.40610972 -0.28087223 -0.22545871 -0.13833745 -0.08146515 -0.12520997 -0.07719123
-0.41647658 -0.0864072 -0.18628684 -0.19654764 -0.44911787 -0.31498924 -0.19204524 -0.38783407
-0.11951324 -0.06933917 -0.34340644 -0.47125253 -0.3896804 -0.2968615 -0.36113688 0.06500994
-0.19235104 -0.2834802 -0.21258105 -0.1817378 -0.31505203 -0.33918628 -0.17291158 -0.036307465
-0.059244856 -0.24749723 -0.102397524 -0.22316292 -0.30899337 -0.31451017 -0.18409 0.08412271
-0.19307308 -0.07327719 -0.3278067 -0.03544297 -0.243416 -0.1013456 -0.37589094 -0.27124065
-0.37376508 -0.27755648 -0.4237645 -0.34040824 -0.20759352 -0.28059033 -0.13824384 -0.3146861
-0.23609753 -0.39066428 -0.29469392 -0.331415 -0.019519797 -0.37345514 -0.410561 -0.024359263
-0.23681563 -0.21011078 -0.3000554 -0.074816115 0.018414347 -0.2237769 -0.17679052 -0.20428324
-0.24032074 -0.24510604 -0.33124655 -0.25727558 -0.13134646 -0.39597496 0.06728779 -0.21256253
-0.021864563 -0.19139452 -0.06152379 -0.36417148 0.012797869 -0.1663586 -0.087224446 -0.23216432
0.06816737 -0.21885534 -0.02850402 -0.28937155 -0.1375015 -0.32017088 -0.21139255 -0.14592694
-0.18908192 -0.20748998 -0.027313236 0.099731974 -0.35882047 -0.21394339 -0.42066282 -0.16257474
-0.18606497 -0.11739536 -0.15687652 -0.29052213 -0.17072026 -0.21657762 -0.20619558 -0.25321636
-0.3761147 -0.1483249 -0.12212196 -0.024380121 -0.22902767 -0.057885475 -0.27197608 -0.24067903
-0.15634733 -0.3513539 -0.09422704 -0.02246506 -0.26588312 -0.18566445 -0.34161717 -0.27938527
-0.34499308 -0.08113859 -0.13210565 -0.17324291 -0.021578424 -0.04033133 -0.4148847 -0.23819996
-0.019381193 -0.0065395073 -0.037358396 -0.1908955 -0.13711533 -0.3079333 -0.1727314 -0.10972449
0.010937743 0.048366565 -0.27163425 -0.19311722 -0.20995538 -0.35124338 -0.13077381 -0.18859465
-0.058499366 -0.036102563 -0.31455284 -0.09187456 -0.23402965 -0.39829418 -0.45190173 -0.06907026
-0.0802834 -0.07920115 -0.18082698 -0.21834432 -0.37536708 -0.38801694 -0.13941604 -0.1341837
-0.31538612 -0.34167933 0.041084837 -0.2648524 -0.3591262 -0.11494807 -0.13159671 -0.22688441
-0.44349492 -0.12697311 -0.04624361 -0.1376118 -0.32848814 -0.37313965 -0.232184 -0.34329575
-0.27081904 -0.33647722 -0.3482129 -0.14468975 -0.03957454 -0.07524605 -0.3130262 -0.435931
-0.3049591 -0.40455368 -0.2796473 0.06253502 -0.32779267 -0.20619658 -0.30153757 -0.09087743
-0.37553197 -0.14796828 -0.034278017 -0.13815999 -0.03239423 -0.049670618 -0.29660174 0.0049059005

layers.3.weight f4 [80, 256]
00000000: 14d7 38bd 6150 393d 6a59 ac3d 9900 53bc
00000010: a40f 74bd 9776 60bd c24f 7b3d 0b83 f43d
00000020: 8489 0e3e ac0e 2ebe d770 15bd dfeb c6bd
00000030: 8270 e4bc de30 763e a9b6 013d 9ddf 983d
00000040: ac58 d1bd 932b cabd d17f 083e 1ecf fb3d
00000050: b1be bd3d ad1a 8b3d f9a5 083d ca52 173d
00000060: 7477 a63d 8b5d 8a3c 6361 05bd 05c1 2d3e
00000070: 47a3 01be 2338 9dbc 1273 bc3d f6e3 e53b
00000080: 2bba 5e3e a92d a1bd f69a 923d 2f4c f53d
00000090: 674b 0cbe 6b6c ae3c b03d 033e 786c 26be
000000a0: 87c3 0f3d e267 cdbd b816 01be f49c 1e3e
000000b0: d104 193e e978 51bc 4bd2 9f3d 58ba 6dbb
000000c0: 9b59 3ebd 2cd2 0f3e e8db 2c3e 2b5b b9bc
000000d0: 5a3e 0ebd 8af3 c1bd 9c35 adbd 0a20 5abd
000000e0: b9b3 103e 9615 4e3d e521 f53c 80ae e0bd
000000f0: 4377 9e3e 0b84 31bb d0ce 203e 8a65 b33e
00000100: ea4f e8bc 09b7 28bd 89e7 d23d b9d3 123e
00000110: ff3b 883e 7cf4 9c3d 9349 ea3d 0b72 62be
00000120: 95d4 bf3d 4ad2 acbc f896 1ebd 7450 0e3e
00000130: 39b7 12be a2e5 343e a1e8 0a3d cc13 f3bd
00000140: 7448 68bd fc9a 8e3b 3539 863d f0d5 d83d
00000150: e41d 5cbc 672b 513e 7e7b 693e c183 6bbd
00000160: 845f aa3b 3119 ff3b eb16 193d 86cd 033c
00000170: 5d0d 4bbd 9e89 9abd c700 b83d a1c6 193d
00000180: 223f 8b3d 50cb 933c 4187 413e 605f dc3d
00000190: f7ab aebd 3f16 2a3d 9118 8e3d 4ad7 89bc
000001a0: ebdb cebc b99a 0c3e e8ef 513e 982c de3d
000001b0: 2e23 fabd 2dcc 453e df2e 163e 9bfd d83c
000001c0: dbc5 9d3d 00ab 803d a035 8cbd 41c9 6abd
000001d0: 3ef7 d9bd 5329 db3d bbe9 d53d 8b90 5ebd
000001e0: b0fd 56bb cee6 e83d e64b d23d 72d1 263d
000001f0: 78f1 f23d 7a6a e23d 4ea2 55bd d2b9 143e
00000200: 5ef5 85bd c718 e83c 9e9f afbb f32b 583e
00000210: a2c8 2fbe 0ba2 18be 443c 3fbd 7bf2 1e3b
00000220: 37af 0bbe c42e ce3d d817 1a3b bf69 0a3e
00000230: 54b6 cdbd 5342 db3d e5da a9bc 46e2 b43d
00000240: 5e99 583d 2d86 12bc 1e49 17be cd0a 8ebd
00000250: 615e 773e f556 323e a4a6 313e 70c3 963c
00000260: 4926 813d 8dfc a33c b9bc 1f3d cd13 d03d
00000270: e87c e0bb 6c8d b8bb 59a7 8c3d 32b8 603d
00000280: 5a10 8a3e 7644 e83d c7d5 443d 3b13 f83a
00000290: 5f17 e23a f0b5 fbbc f19c 263d cb1e fd3b
000002a0: 7124 163e 1991 303e d3f4 b43b b9ad 52bd
000002b0: fda3 0c3e 1418 4f3c de9f 1f3e e8cb 7abd
000002c0: d18f 7cbd 6f1b 3dbc 1043 323e b18d 77bd
000002d0: 9656 91bd cb41 4d3d fb55 933d f7c2 093e
000002e0: cfb0 e0b8 3e37 5fbb 9ebe 12be 194a e83d
000002f0: 78b6 f7bc 72e2 4b3d 183d 343d c1e1 e9bd
00000300: 4a11 e4bc e3b9 e3bd 04c4 d13d 2d86 f43d
00000310: 5c10 063e 100b b93d cd90 2e3d ee8a 463c
00000320: 9f85 72bd 4695 0c3e 5e0a 803c 2682 87bd
00000330: f816 6c3d f0b9 813d b753 433e 1400 353a
00000340: 8f6f 11bd daac 523c 2d8d 0cbe 7c9f 903c
00000350: 37f0 f03d e3e3 853e 2156 023e c79b 98bc
00000360: 0b6a b83d 5e50 813e 564f 90bd e211 1d3e
00000370: 9a88 333d 04c6 a6bd 8eb8 38bd cfb2 943d
00000380: b48c eb3d c323 8ebc d2fc 97bd 7f81 a53d
00000390: de27 c83d 9a9c 853e 8b24 2c3d 1a9d fc3d
000003a0: 64cc e83d 1653 5f3e 8c7e 893d 09c2 e2ba
000003b0: 122d fdbc 61ed ab3c 0aa5 de3b 2a3b ca3d
000003c0: a9ea df3d 7afe 69bb 7d59 0cbd 0e11 b0bc
000003d0: 0e00 893e 0ab1 5e3e 894d 243e dbc3 db3c
000003e0: 0457 cb3e a809 28bd eaf3 37bd 5808 aabc
000003f0: 089a adbd 4eee 73bd 98e4 233e 64c2 aebd
-0.04512699 0.04524267 0.08415492 -0.01287856 -0.05958523 -0.054800596 0.06135536 0.11939057
0.13919646 -0.16997784 -0.036484566 -0.097129576 -0.02788568 0.24042079 0.03166834 0.07464526
-0.10221991 -0.098715924 0.13330008 0.12295364 0.09264887 0.067921974 0.03336141 0.03694419
0.081282526 0.016890308 -0.03256358 0.16968162 -0.12659942 -0.019191807 0.092016354 0.0070157005
0.21750705 -0.07870037 0.07158463 0.119774215 -0.13700639 0.021291932 0.128165 -0.16252315
0.03509858 -0.1002958 -0.12606323 0.1548956 0.14943244 -0.012785175 0.07803782 -0.00362744
-0.046472173 0.14045018 0.16880763 -0.02262648 -0.03472743 -0.094702795 -0.08457491 -0.05325321
0.14131059 0.050313555 0.029923389 -0.10970783 0.30950364 -0.002708676 0.15703893 0.35038406
-0.028358418 -0.04119018 0.10298068 0.14338578 0.26608273 0.07663819 0.114398144 -0.22113816
0.09366719 -0.021096367 -0.038718194 0.13897878 -0.14327706 0.17665723 0.03391326 -0.1186901
-0.05670972 0.0043519717 0.0655388 0.1058768 -0.013434861 0.20426713 0.22801015 -0.057498697
0.0051993746 0.0077849855 0.037375372 0.008044606 -0.04957329 -0.0754578 0.08984523 0.037542943
0.06799151 0.018041283 0.18899252 0.10760379 -0.085288934 0.04152512 0.069382794 -0.01682629
-0.02525135 0.13730897 0.20501673 0.10848349 -0.12213741 0.19316168 0.14666317 0.026488116
0.077037536 0.06282616 -0.06846166 -0.057320837 -0.10642861 0.10701241 0.10444971 -0.054337066
-0.0032805018 0.113721475 0.10268383 0.040727086 0.11862463 0.11055465 -0.05215674 0.1452401
-0.06540941 0.028332127 -0.005359604 0.21110515 -0.17166379 -0.14905564 -0.046688333 0.0024253416
-0.13641058 0.100675136 0.0023512747 0.13516901 -0.10044542 0.1070601 -0.02073426 0.08832221
0.052880637 -0.008943123 -0.14773986 -0.06935654 0.24157096 0.17415984 0.17348725 0.018403739
0.063061304 0.020017887 0.03899834 0.10160027 -0.0068508275 -0.005632093 0.068678565 0.054863162
0.269656 0.11341183 0.048055436 0.001892663 0.0017249397 -0.030726403 0.040677015 0.007724618
0.14662339 0.1724285 0.0055223494 -0.051435206 0.13734432 0.012640018 0.15588328 -0.061229616
-0.06166059 -0.011542185 0.17408395 -0.06043786 -0.07096593 0.050111573 0.07194134 0.1345328
-0.000107140855 -0.0034060027 -0.14330527 0.11342258 -0.030238375 0.049776502 0.044003576 -0.11420012
-0.027840275 -0.111194395 0.10242465 0.119396545 0.13092178 0.09035313 0.04261856 0.012118084
-0.059209462 0.13728818 0.015629943 -0.06616621 0.057639092 0.06334293 0.19074903 0.00069046137
-0.03550678 0.012858594 -0.1372573 0.017654173 0.11764567 0.26150426 0.12728168 -0.018628968
0.09004601 0.25256628 -0.07046382 0.15338853 0.043831445 -0.08143237 -0.04509788 0.072606675
0.11501446 -0.017351037 -0.074212685 0.0808134 0.09773229 0.2609604 0.042027038 0.12334652
0.113671094 0.21809039 0.0671359 -0.0017300259 -0.03090528 0.020987215 0.0067945765 0.09874566
0.1093343 -0.0035704658 -0.03426503 -0.021492507 0.26757854 0.21747223 0.16045202 0.02682679
0.39714825 -0.041024834 -0.04491035 -0.020755932 -0.08476645 -0.059553437 0.1600517 -0.08533171

layers.3.bias f4 [80]
00000000: aff6 42be 13a1 8b3d 9de7 47be 8a76 7abd
00000010: 4134 30be 6e71 47be 3789 19be ecef edbd
00000020: b533 f33a 98e1 e0bd e8d1 c7bd c623 2cbd
00000030: 4bd8 9abd c883 e03b 2f97 6cbd a97d a03d
00000040: 1601 d93c 2ba8 f83c 6dce ccbd e995 35bd
00000050: 5451 25be 7ef0 fbbd ed39 023d f940 07bd
00000060: d12c 093b 3179 15be 24a6 ddbd 159f 023c
00000070: 4abd 603d af55 aebc 6f3d 84be 6ccf c4bd
00000080: a95b 0fba 9ab1 3f3d a885 54be 7500 90be
00000090: 6f78 8a3b 146b 833d 2e3e 0fbb 1649 a2bd
000000a0: 03ce 00be b21c 36bd a130 1bbe cbd4 003d
000000b0: f6c8 d8bc 0ab1 f1bd 70be 73bd e520 62be
000000c0: f45e 0bbe b474 723d 52dd 37be e75f 1fbb
000000d0: becb 5fbe 09a8 393c 007b 73bd 2b43 d4bb
000000e0: ee8f bbbd 4832 6abe d917 f0bc cae2 883d
000000f0: 2210 423d ff8a 47be 4f05 da3c 17f3 2a3c
00000100: f74f dbbd 9e4c 273c a4a4 18bc 3149 0bbe
00000110: 3edc 5bbc ee36 10be 1423 343d 3a73 49be
00000120: 471b 703c f80a 7bbd 6566 83be cfa0 0fbe
00000130: f989 77be a8fa 82bd 9278 d5bd cb10 95be
-0.19039415 0.06817832 -0.19521947 -0.061148204 -0.17207433 -0.19476864 -0.1499375 -0.11618027
0.0018554839 -0.109805286 -0.09756833 -0.042026304 -0.07560786 0.006851647 -0.057761367 0.07836468
0.026489776 0.030353626 -0.1000031 -0.04433242 -0.16144305 -0.123017296 0.031793524 -0.033020947
0.0020931254 -0.14597012 -0.108227044 0.007972498 0.05486802 -0.021281091 -0.2582812 -0.09609875
-0.00054686755 0.046800233 -0.20754111 -0.2812535 0.0042257826 0.06416908 -0.002185713 -0.07924096
-0.12578587 -0.04446096 -0.15155269 0.031452935 -0.026463013 -0.11801346 -0.059507787 -0.22082861
-0.1361044 0.059193328 -0.17955521 -0.0024318637 -0.21855065 0.011331567 -0.059443474 -0.0064777336
-0.09158312 -0.22870743 -0.029308246 0.066838816 0.047378667 -0.19486617 0.02661386 0.010433934
-0.107086115 0.010211138 -0.009316597 -0.13602139 -0.013419209 -0.14083454 0.043978766 -0.19672862
0.014654941 -0.061289757 -0.25664058 -0.14026187 -0.24173726 -0.06395465 -0.104233876 -0.29114375

layers.6.weight f4 [64, 80]
00000000: 0871 eb3d 8b26 57be d0ab 69bd aa33 cfbd
00000010: 1945 b33d 1c77 f4bd 5a9d dc39 30c2 4c3d
00000020: 4595 d0bd dcf5 d2bc 2a59 1a3e e18e 97bd
00000030: 68f1 5a3d eabd 02be 1b2b 323e bcee 79be
00000040: f208 873d a681 3ebe 6053 a63d 1c79 4b3e
00000050: e69f f4bc 1ae8 b7bd 4950 12be c581 f8bd
00000060: ef28 cd3c cf73 0bbe f810 003d 79b8 aabd
00000070: ef39 323d 9726 35be c442 243e b74d 343e
00000080: 4941 79be cfca 6cbe 52bb 69bb b428 86bd
00000090: 2f89 b33d 8dc7 66be 2ffc ea3d 5f2d 9e3c
000000a0: ce5b 403d e720 f0bd bc3c 653e a14c e7bd
000000b0: 4774 5ebe d199 51be 7cff 2fbe ac3e d23d
000000c0: 1d1a cc3d 5593 46be 326e b0bc 5874 4ebe
000000d0: d40e 413d f9ed f1bd f140 05bd beb2 63be
000000e0: 4913 a33d 4c93 073e e95f 22be 95d4 26be
000000f0: ab7b 29be 52d3 f93d 5f80 9cbd aef3 0f3e
00000100: fbb4 8d3d b35b 69be 5c3b cbbc 5471 023e
00000110: c007 dbbd 3af8 0b3e c8a1 5d3d 5a64 c43d
00000120: dd34 86be 5638 b9bd 3316 233e 4c32 ae3d
00000130: 8b89 e13d 1b43 cc3d 5953 2c3d 3161 9fbd
00000140: 186d 203e e05d 9cbe 318c cabd 97fc 2ebe
00000150: ca21 253e f930 babd b8ad 1fbd 019e 563e
00000160: 3d86 17be 4b5d 743d 8b43 223d 06de 34bd
00000170: 2feb 24bd 808f 43be 21fb c43c 5a41 8fbe
00000180: 95c7 923d 740f 46be ea81 233e d250 da3c
00000190: ffee 90bd f6e7 8a3d 8540 33be d6b0 21be
000001a0: 9bb2 e83d f85d 17be 1673 273e 28a7 1ebe
000001b0: 588c 243e 6800 87be acee 283d 8cba 073d
000001c0: b1a3 20be 0f5c 35be aa45 b6ba 31ee cf3d
000001d0: ae6b bf3c 3236 5fbe 8619 983d 00f4 683d
000001e0: 3b41 64bc e22e cabd b686 943e a064 82be
000001f0: a0bd 82be 83d3 89be acfe 74be 388f c33d
00000200: f5d1 0e3e a031 20be 017b abbd da1a 7cbe
00000210: 33cd a6bd 4358 5cbe b025 10bc 7b62 7abe
00000220: fae9 f83d 81f4 853d 6df1 30be e5f2 69be
00000230: a0c6 43be 3b3c fa3c 8769 aabd 2f86 4a3e
00000240: 4f5f d8bc 9a61 7abe 71ea 263d 3020 6a3d
00000250: c230 6cbe 7516 f63d bb85 0f3d 3ec4 ce3d
00000260: 8ec7 66be 44b9 75bd 4de9 433e 5e8e e6bc
00000270: d87b c63d 95b3 203d 031f ba3d 8b2b 82bd
00000280: b646 48bc a795 043d b87c b7bd b018 9dbd
00000290: 269b 0f3d aea0 a83d 9b9f 073e 4652 8abb
000002a0: 9426 1dbd 7d37 2bbd 3736 6e3d d2be 273e
000002b0: 8d73 783d ac15 0f3e e433 8fbd 6c63 303a
000002c0: 59d3 c33c 4d7f 71bd 132e 983d 6230 a6bd
000002d0: 046b bc3d a972 bbbd 45d2 86bd 6c00 cdba
000002e0: 2790 b13d 4ed2 173e 5b42 463d f518 213e
000002f0: aaa4 233e d886 eabc 96a0 b8bb 3d8a 74bd
00000300: 56ed f8bd 0851 16bd 80f6 263d 845a 9e3b
00000310: f56e 3a3e cd4c 1f3d 6a47 b73d 44dd b9bd
00000320: 4f4d 12bd d31f 49bd 848c 2b3d da85 63bd
00000330: 6817 4cbd 68b1 b23c 23aa c3bd d360 ba3c
00000340: 8e19 813d 15d1 b43d c963 253d 3552 c2bd
00000350: 23c3 fcbc f517 cf3b 2e47 c7bb a6e4 84bd
00000360: 3c4b 653d 55d4 493e fe3b 723d 57ed b93d
00000370: dbfb 09be 8c72 503d f15f 383c 1bb5 a6bd
00000380: 8da2 c4bc 5c95 2abc d48a e23d c0af 983c
00000390: 42e2 503d cd0c 8f3b bda4 883d 06cb 2c3d
000003a0: cbed 8fbd 185b 6b3d 4b35 4c3d a670 cdbc
000003b0: c634 233c 4532 94bc 2ac1 223e ac14 883d
000003c0: 4093 9a3d 1845 72be 20d6 f83c fec0 10be
000003d0: 2003 c7bc e1f0 1dbe 4c7d 49bc 64c8 1a3e
000003e0: a3ca b5bd f5ba 893d b974 713c 0dc4 d63c
000003f0: f345 c1bc f4f3 19be 31c5 363e 797d 60be
0.114961684 -0.21010797 -0.05704862 -0.10117276 0.08753414 -0.11936781 0.00042078906 0.04998988
-0.10184721 -0.025752 0.15073076 -0.07400299 0.05345288 -0.12767759 0.17399256 -0.24407476
0.06593503 -0.18604144 0.08121371 0.19870418 -0.029861402 -0.08979817 -0.14288439 -0.121341266
0.025043933 -0.13618396 0.031266183 -0.083359666 0.04351228 -0.17690502 0.16041094 0.17607771
-0.2434131 -0.2312424 -0.003566463 -0.06550732 0.087664 -0.2253706 0.114738815 0.019308744
0.04696255 -0.117250256 0.2238645 -0.11293913 -0.21724044 -0.20468833 -0.17187303 0.1026586
0.09965918 -0.1939214 -0.02153692 -0.20161569 0.04713328 -0.11812968 -0.032532636 -0.22236153
0.07962663 0.13239783 -0.158569 -0.16292031 -0.16551082 0.12198509 -0.07641672 0.140578
0.06919285 -0.22788887 -0.024808578 0.12738544 -0.106948376 0.1366891 0.054109365 0.09589453
-0.26212206 -0.09043948 0.15926437 0.08505687 0.11012562 0.09973737 0.042071674 -0.0778221
0.15666616 -0.3054037 -0.09890021 -0.17088543 0.16126171 -0.09091372 -0.03898403 0.20958711
-0.14797302 0.059659284 0.039615195 -0.04415705 -0.04026335 -0.1909771 0.024045529 -0.27979547
0.071669735 -0.19341832 0.15967527 0.026649866 -0.07076835 0.06782524 -0.17505081 -0.15790114
0.11362191 -0.1478194 0.16352496 -0.15493453 0.16069162 -0.26367497 0.04124324 0.03313689
-0.15687443 -0.17710899 -0.001390626 0.10152853 0.023366775 -0.21798018 0.07426743 0.05687332
-0.013931568 -0.098722234 0.29009026 -0.25467396 -0.25535297 -0.26919183 -0.23925275 0.09548801
0.1394728 -0.1564393 -0.083730705 -0.24619618 -0.081446074 -0.21518044 -0.008798048 -0.2445163
0.121540025 0.06540776 -0.17279597 -0.22846563 -0.19118738 0.030546298 -0.08320909 0.1977775
-0.026412634 -0.24451295 0.040750924 0.057159603 -0.23065475 0.12016002 0.035039645 0.10096024
-0.22537062 -0.059991136 0.19131966 -0.028144058 0.0969159 0.039233763 0.09087946 -0.063559614
-0.01222389 0.032369282 -0.08959335 -0.076707244 0.03506007 0.08233772 0.13244478 -0.0042212335
-0.03836687 -0.041800965 0.058157172 0.16381386 0.060657073 0.13973111 -0.06992319 0.0006728682
0.02390449 -0.058959294 0.07430663 -0.08114697 0.09200099 -0.09152729 -0.065830745 -0.0015640385
0.08670073 0.14826319 0.048403125 0.15732177 0.15980783 -0.028628752 -0.0056343777 -0.059702147
-0.12154643 -0.03669837 0.040762424 0.0048325676 0.18206389 0.038891602 0.08949168 -0.09075406
-0.03571826 -0.049102616 0.041882053 -0.055547573 -0.04982701 0.02181311 -0.095539354 0.022751248
0.06303702 0.08828942 0.040378366 -0.09488336 -0.030854767 0.0063199946 -0.0060814833 -0.06488924
0.055979952 0.19709904 0.059139244 0.09078472 -0.13474981 0.05089049 0.011253343 -0.08140012
-0.024003292 -0.010411587 0.110616356 0.018638492 0.050997026 0.0043655396 0.06672046 0.042185806
-0.07027777 0.05745992 0.04985551 -0.025078129 0.009961313 -0.018090377 0.15893999 0.06644568
0.07547617 -0.2365917 0.03037554 -0.1413612 -0.024293482 -0.1542392 -0.0122979395 0.15115505
-0.088765405 0.06725112 0.0147373015 0.026216531 -0.023592925 -0.15034467 0.1784866 -0.21922864

layers.6.bias f4 [64]
00000000: 0391 2e3e 6dbf 7e3e 1118 93be 68dd 2e3e
00000010: 18d5 87be 0f22 a7be c70b 003e 2520 a73d
00000020: 6452 d13d ade9 043e 848c 1e3e f7cc 30be
00000030: 5daa 603e b65f d33d 8b1e 333e 9fd6 083e
00000040: 2c1e 5a3d 07e4 143c 830b 793e 37e7 e33b
00000050: 0f8d 393e 649a ea3d a94f 92be 69e7 933d
00000060: 5f2f 163e c92e 31bc 8c6b 8d3d 0798 abbe
00000070: 512c 393e 983c 673e ae76 23be 82b7 bbbe
00000080: 1b72 833e 4012 893e 331e 053e 3062 6d3c
00000090: 1cc5 d53d 6e8b 613e b404 f73d 8a35 2c3e
000000a0: b32b 163e d361 4f3e 80d6 413e 2673 1ebe
000000b0: c474 213e b332 733e 3d36 043e 3aaf a2be
000000c0: 15e2 043e ba81 93be b9d2 283e c1b8 82be
000000d0: b77f 163e 432b 55be dd0b 2bbe a69b 3c3e
000000e0: 95c1 15be 2fa0 0e3e b363 6e3e fec8 91bd
000000f0: 6434 463e c4f2 403e 275d 183d 25de b9be
0.17047505 0.2487771 -0.287293 0.17076647 -0.26529765 -0.32643172 0.12504493 0.08160428
0.10220793 0.12979765 0.1548329 -0.17265688 0.21939988 0.1032099 0.1749212 0.13363121
0.05325143 0.009087569 0.24320798 0.006955053 0.18120216 0.11455229 -0.285764 0.07221872
0.14666508 -0.010814377 0.069052786 -0.33514425 0.18083312 0.22581708 -0.15963241 -0.36663443
0.25672993 0.26771736 0.12999801 0.014488742 0.10437986 0.22025844 0.12061444 0.16817299
0.14665107 0.2025216 0.18929482 -0.15473613 0.15767199 0.23749809 0.12911315 -0.31774312
0.12976868 -0.2880991 0.16486634 -0.2553158 0.14697157 -0.20817284 -0.16703744 0.1841875
-0.14624627 0.13928293 0.2328022 -0.07118414 0.19355923 0.18842608 0.037198212 -0.36302295

layers.8.weight f4 [1, 64]
00000000: 2410 c0bd 78ee 24be 7c80 4abc 924f 06be
00000010: de6e 7cbc b04c 49bb 814f 0a3e 47b0 1e3e
00000020: 25eb 813e c895 f43d 7db2 75bd 474b 413b
00000030: da96 333e 3269 94bd b65c 4b3e 06b6 083e
00000040: 62db 3f3e 7137 e93d 454a 04be bb30 c23d
00000050: 32a5 10be 1d49 033e d7d6 b4bc c55d 243d
00000060: dac4 023e 454a c43d 5185 2f3e c1fb eabb
00000070: 3af5 1bbe 5985 d0bd d821 2f3d d962 c9bc
00000080: d7a2 2cbe 0e41 27be db49 4f3e 3fdb 083e
00000090: d039 acbd ea97 813e 1104 4f3e e26b ffbd
000000a0: d899 b5bd 5a40 443e 18e9 753e 0455 a3bb
000000b0: 3fae 413e 8150 7b3e c110 58bd e28f b2bc
000000c0: f512 353e 55fc 4cb9 ad42 d43d b2fc 01bc
000000d0: cbe5 153e d2e7 ffb9 987e 8fbb 42db b4bd
000000e0: b1d4 5e3b edce 2e3e 1d60 24be 07e7 82bd
000000f0: 58b9 09be b281 bbbd a5aa 4f3e 0c47 babc
-0.093780786 -0.16106594 -0.012359735 -0.13116291 -0.015407292 -0.0030715875 0.13506891 0.15496932
0.25374714 0.11942631 -0.059984673 0.0029494332 0.17538014 -0.07246627 0.19859585 0.13350686
0.18736032 0.11387528 -0.12918957 0.09481951 -0.14125517 0.12820859 -0.0220751 0.040128488
0.12770405 0.09584478 0.171407 -0.0071711247 -0.15230265 -0.10181684 0.042756885 -0.024583267
-0.16858993 -0.1633341 0.20243017 0.13364886 -0.08409464 0.25311214 0.20216395 -0.12471749
-0.08867234 0.19165173 0.240147 -0.0049845 0.18914126 0.24542429 -0.052750353 -0.021797124
0.17683013 -0.00019548957 0.1036428 -0.007933782 0.1463844 -0.0004881011 -0.004379105 -0.088308826
0.0034001286 0.17071123 -0.1605229 -0.06391721 -0.1344961 -0.09155597 0.2027994 -0.022738956
