flwr-mlp/models/checkpoints/round_003.pt (torch, 127593 bytes, 7 tensors)

layers.0.weight f4 [256, 19]
000000 dd ea 87 bd 45 d5 12 be c0 10 64 3c 39 84 fa bd
       -0.066365935 -0.14339168 0.013920009 -0.12232251
000010 d3 d3 98 3c 81 db db bd a5 de a8 bd cb 36 42 be
       0.018655693 -0.107352264 -0.08245591 -0.18966214
000020 55 74 25 3e 0e c9 0c be e9 1d 29 3d 28 52 33 3e
       0.16157658 -0.13748571 0.04128829 0.17511809
000030 4c 13 7c bd 9c 1a 14 be 27 0f 3a 3e 6a 89 91 ba
       -0.06154184 -0.14463276 0.18169843 -0.0011103575
000040 69 09 da bd 82 10 b4 3d c4 c9 40 be 96 82 40 be
       -0.10646326 0.08792211 -0.18826967 -0.18799815
000050 50 29 57 bd 92 ed 48 3d a7 0a 80 bc 27 63 75 bd
       -0.052529633 0.04905469 -0.01563008 -0.059909012
000060 dc 17 29 bd b2 e1 45 3e b5 a5 5f be d2 01 16 3e
       -0.04128252 0.19324377 -0.21840556 0.14649132
000070 9c b9 c0 3b 19 a4 dd 3d 6d 39 07 3e 6e 2a 16 be
       0.0058815014 0.10822315 0.132055 -0.14664623
000080 51 8b 8f bd 5a b0 a0 3d 73 52 bf bd 18 d7 da 3d
       -0.07008994 0.078461364 -0.09341898 0.10685557
000090 c4 bf 02 3e 9e 9f 1a bd 5c 1c 02 3e f3 22 05 3e
       0.12768465 -0.03774988 0.1270613 0.13001613
0000a0 0f b8 83 bd 18 22 09 be 0f 43 68 3d 65 02 56 bd
       -0.06431591 -0.13391912 0.056704577 -0.052248377
0000b0 11 73 c9 3d c4 bb 6a be b8 68 ad 3d 86 74 78 3e
       0.098364 -0.2292319 0.08467239 0.242632
0000c0 e9 6b 36 3e 48 29 44 bd 34 7e 11 3d 48 ec 35 3e
       0.17814602 -0.04789093 0.035520747 0.17765915
0000d0 08 cb 05 3e 22 0c bd 3c 76 32 1f 3d af 3d 15 3e
       0.13065732 0.023077074 0.038866483 0.14574312
0000e0 04 c1 0d be 8f 5e 7a 3e db c9 73 bd 72 2b 4f 3d
       -0.13843161 0.24450134 -0.059518676 0.050578542
0000f0 74 5c da 3d cd c9 b1 bd ee ac 59 be cd 7e 45 be
       0.10662165 -0.086810686 -0.21257374 -0.19286652
000100 bd af 61 3e 81 28 89 bd a8 4e 30 3d 17 c0 2a 3e
       0.22039695 -0.06697179 0.043043762 0.16674839
000110 67 18 e0 bd 36 fe f1 bd 0c c2 b6 3d b4 30 1f be
       -0.109421544 -0.11816065 0.0892373 -0.15545923
000120 19 a0 dd bd 59 97 a9 bc c0 83 70 3d d0 61 2d 3e
       -0.10821552 -0.020702051 0.058719397 0.16931844
000130 e9 66 b5 bd e9 ea 9d bd 4c 0c 30 3e f4 3f 0d bd
       -0.08857519 -0.07710821 0.17192191 -0.03448482
000140 03 92 2e 3e bf 75 0d 3e 52 4b 2b 3e a4 75 3a 3e
       0.17047887 0.13814448 0.16727951 0.18208939
000150 9b b3 29 3e ca 7f 5c 3c c3 79 0d be d2 1e e8 bd
       0.1657242 0.013458202 -0.1381598 -0.113340035
000160 a0 3d 62 be 93 e0 64 bd dc 6e 10 be 55 42 d8 3d
       -0.2209382 -0.055878233 -0.1410479 0.10559527
000170 3a 7f 45 bd cd a6 45 bd 24 70 2b be 47 ea 42 3d
       -0.048217036 -0.048254777 -0.16741997 0.047586706
000180 a0 78 29 3e db f1 87 bd f2 9b 5a 3e fa 9a 20 3e
       0.16549921 -0.06637927 0.21348551 0.15684119
000190 89 76 65 be a4 5a dd 3d 2e 52 65 3e 31 b7 00 be
       -0.22408499 0.10808304 0.2239463 -0.12569882
0001a0 23 c4 14 be 57 57 b2 3d aa e7 7f be 84 ba 27 3d
       -0.14527945 0.08708065 -0.24990717 0.04094936
0001b0 d0 0d 1f 3e 1c 73 36 3e bc 16 dd 3a 0d 0f 31 3e
       0.15532613 0.17817348 0.0016867737 0.17290898
0001c0 31 97 1f bd 69 45 53 be 12 c0 a7 3d 6c 3e 3d 3e
       -0.038962547 -0.20631947 0.081909314 0.18480843
0001d0 ca 38 0e 3e f9 73 ed 3c 96 a2 2f be 4e 86 9c bd
       0.13888851 0.028985964 -0.17151865 -0.07642804
0001e0 fb 72 28 be 64 4d 3d be f9 77 f4 bd 3b 9b 4e 3e
       -0.16450112 -0.18486553 -0.119369455 0.20176403
0001f0 99 8a 5d be c0 4f e2 bd 50 ee 77 3d 7e 33 2c be
       -0.21634902 -0.11050367 0.060530007 -0.16816518
000200 52 92 ec 3d 07 d1 17 be f2 1a 22 bc b7 69 88 bd
       0.11551346 -0.14825831 -0.00989412 -0.066607885
000210 18 7d e8 bc 2a e9 29 3e 70 50 2d be b5 54 32 bd
       -0.028379962 0.16592851 -0.16925216 -0.043537814
000220 0b 50 ea bd 08 fe c7 3b c9 72 93 bc 72 2b 31 be
       -0.11441048 0.006103281 -0.01799907 -0.1730173
000230 00 a0 a8 bd 3c 3b 8a bd 1b 7a 18 be 96 16 30 3d
       -0.082336426 -0.06749579 -0.1489033 0.04299029
000240 51 31 62 3d c8 d6 56 3e 3b 2a 13 3e 5e 30 5f bb
       0.055222813 0.2098037 0.14371578 -0.0034055929
000250 75 61 85 bd 3a 20 63 be 18 eb 23 bd 8d bb 41 bd
       -0.06512729 -0.22180262 -0.040019125 -0.047298003
000260 da 03 18 bd 4a 54 67 3d 03 3d 5b 3d 7e 4d ab bd
       -0.037113048 0.05647687 0.053524982 -0.0836439
000270 b8 62 d4 3d 66 31 18 3e d7 01 35 3e 10 af 32 3e
       0.103703916 0.14862594 0.17676483 0.17449594
000280 d3 88 61 3e 8f e7 bf 3c ae ac e4 bd 22 62 6a 3e
       0.2202485 0.023425845 -0.111657485 0.22888997
000290 86 d4 5b be 6e ea fd 3d ba ba 5e 3d 97 cf ee 3d
       -0.2146779 0.123982295 0.054377295 0.11660688
0002a0 3a 80 d2 b9 30 e2 07 be 59 fc 3a be c5 bb 65 3e
       -0.00040149858 -0.13269877 -0.18260325 0.2243491
0002b0 fa 49 26 bb 03 c6 26 bd be 42 95 bd bb 2e 13 3e
       -0.0025373683 -0.040716182 -0.07288121 0.14373295
0002c0 0f 51 f2 bd ae 2a 78 3b 85 bf 70 3e 15 53 e8 3d
       -0.11831867 0.0037867236 0.23510559 0.11343972
0002d0 aa 30 0a bd e9 2e 25 bd 1c 8b 98 bc ff eb 23 3e
       -0.033737816 -0.04032794 -0.01862102 0.16007994
0002e0 b3 f5 5b 3d 47 db 00 3e bd ae 45 3c 4e 54 f8 3d
       0.053701114 0.12583648 0.012065587 0.12125455
0002f0 31 62 cf 3d 9c 7a d4 3b ab 66 69 bd e5 18 11 3d
       0.101261504 0.0064843427 -0.056982677 0.035424132
000300 4d 40 0a 3e de 76 dd 3d e9 1a 75 bd 62 4e f9 3d
       0.13501091 0.10813688 -0.059840117 0.121731535
000310 e0 0f e7 bd 02 52 3b 3e 9a bc f0 3d d2 72 5a be
       -0.11282325 0.18293002 0.11754723 -0.21332863
000320 d2 e4 62 be 66 ba 7d bc a8 b5 de bd e1 74 2b be
       -0.221576 -0.015486335 -0.10874492 -0.16743805
000330 5d db dd bd 99 41 2d 3e 89 7f 3c 3e b7 08 01 3e
       -0.10832856 0.16919555 0.18408026 0.1260098
000340 39 1c d6 3c 10 22 72 3e b8 82 da bd 20 9c 91 3c
       0.026136504 0.23645806 -0.10669464 0.017774642
000350 e5 c3 3c 3e ec 57 4c be fa 39 d0 3d 47 14 56 be
       0.18434103 -0.19955415 0.10167308 -0.20906173
000360 3a 3e fc 3d 62 a9 2c 3e 6a 5a 2d 3e 58 d5 14 3e
       0.12316556 0.1686149 0.16929021 0.14534509
000370 21 bd 44 be 10 35 29 3d a2 5c 0c be ca 45 cb 3c
       -0.19212772 0.04131037 -0.13707212 0.024813551
000380 c3 c0 14 3d 5d 18 05 bd 36 fb 39 3e 29 4c b9 3d
       0.036316644 -0.032493938 0.18162236 0.090477295
000390 26 09 f1 bd 23 e1 59 3e 91 83 f6 bc 57 d3 a9 bb
       -0.11769323 0.21277289 -0.030092033 -0.0051826644
0003a0 e2 cd c6 3d c3 34 73 3d 61 b0 5f be c6 84 e0 bd
       0.09707238 0.05937649 -0.21844627 -0.109628245
0003b0 bf 7a 33 be 8f 9a 88 3e 90 fb 4e be 71 3a 8e bc
       -0.17527293 0.2668042 -0.20213151 -0.017361851
0003c0 c4 3e 45 3e 54 8e 5d 3c bb f8 45 3c d0 57 98 3d
       0.19262224 0.013522703 0.012083228 0.07438624
0003d0 c9 d7 6a be 59 78 05 3d 2c 09 d0 3c bf 8f d4 bd
       -0.22933878 0.032585476 0.025394998 -0.1037898
0003e0 d4 09 d6 bd 38 86 64 3d e3 a8 0a 3d 67 37 9f 3d
       -0.10451093 0.055792063 0.03385247 0.07774239
0003f0 e8 63 02 be 52 6c cf 3d 42 9a f9 3d 4f 38 43 be
       -0.12733424 0.10128082 0.121876255 -0.19064449

layers.0.bias f4 [256]
000000 fc b7 23 3e ee c9 42 3d ae 10 fa bd 7e c2 42 be
       0.15988153 0.047555856 -0.12210213 -0.19019505
000010 70 e2 e0 bd f4 5d 96 bd c1 ac 92 3d d8 2a eb bc
       -0.109806895 -0.07342139 0.071618564 -0.028706953
000020 83 2d 43 be 4b f9 26 3b a9 94 a5 3d 0c d9 23 bc
       -0.1906033 0.002547818 0.08084995 -0.0100004785
000030 7e 60 52 3e b4 8d 7d be 17 fc 63 bd 75 50 82 bd
       0.20544621 -0.24761087 -0.055660333 -0.06363002
000040 12 a3 26 3e 46 b7 c3 3d da 82 f8 3b be a7 21 bd
       0.16273144 0.09556441 0.007583958 -0.039466612
000050 ba ab cd 3c e3 3e 15 bd 62 10 53 3e c9 dc 79 bd
       0.0251063 -0.036436927 0.20611718 -0.061001573
000060 df fc ec bc d6 04 26 3b f2 e1 4f 3d 65 9d a0 bd
       -0.028929172 0.0025332472 0.050752588 -0.078425206
000070 e0 0b 83 3d 01 08 d8 3d af 01 62 3d eb fb c4 3d
       0.06398749 0.105484016 0.055177387 0.09618362
000080 0f ba ab bd 83 cd 1f 3e bd 5e 08 bd c9 96 25 3d
       -0.08385097 0.1560574 -0.033293474 0.040427003
000090 d4 92 12 3c 3d 12 6c bc 55 cb c1 bd 84 a8 36 3e
       0.008946139 -0.014408645 -0.09462611 0.17837721
0000a0 cc 56 38 be 59 3c 18 be 6f 47 31 be 03 2c 10 be
       -0.1800186 -0.14866771 -0.17312406 -0.14079289
0000b0 e9 e4 43 be b8 d1 27 be 3e 61 89 3d 9d 94 e1 3d
       -0.19130291 -0.16388595 0.067080006 0.11014674
0000c0 f7 28 a7 bd b2 a7 e9 bd f6 6c 11 bd d0 93 57 3c
       -0.0816211 -0.114089385 -0.035504304 0.0131578
0000d0 c6 e7 c9 bd 74 9a 2e 3d cc 3c 6a bd 48 2e 00 3e
       -0.098586604 0.042627767 -0.057186887 0.12517655
0000e0 70 eb 41 be 7d 0b a9 3d e4 28 31 be 3a 82 e8 bd
       -0.18937469 0.08254144 -0.17300755 -0.11352964
0000f0 2f 73 49 be 32 98 f3 bd 5c 85 02 bd 88 16 56 be
       -0.19672845 -0.11894263 -0.031865463 -0.20907032
000100 72 d2 80 bd 61 00 b5 3d a1 a7 16 be 01 1a 87 be
       -0.06290139 0.08837963 -0.14712383 -0.26387027
000110 5d d5 2f be 53 ba 86 bd a3 95 4f be 08 5f 09 3e
       -0.17171235 -0.06578507 -0.20271926 0.13415158
000120 89 03 e5 ba 70 3c 46 be 83 ec 4f be 3b 6c 4c bc
       -0.0017472367 -0.19358993 -0.20305066 -0.012476976
000130 1d dc 73 be 09 32 cb bd 82 d1 0b 3d 3a a5 9a 3d
       -0.23814435 -0.09921653 0.03413535 0.07551046
000140 77 b2 08 3e 0f e8 61 3c e9 46 36 3e c6 33 c8 bd
       0.13349329 0.013788237 0.17800488 -0.097755
000150 07 ba 38 be 15 49 20 be a8 a9 e3 3c be 4b 34 3e
       -0.18039714 -0.15652879 0.02779086 0.17607018
000160 b8 59 4e bc 5e af 19 3e 64 7d 5b be 45 d5 22 3e
       -0.012594633 0.15008304 -0.21434551 0.15901668
000170 97 70 1e be 51 e5 b2 3d 45 1b 2f be 8f 29 b9 bd
       -0.15472637 0.08735145 -0.17100246 -0.0904113
000180 bd 35 57 be 55 27 b2 bd d4 ab 59 be b0 8a 55 be
       -0.21016593 -0.08698908 -0.21256953 -0.20853686
000190 3a ee c0 3c 96 42 cf 3b cd d1 ae 3c fb 99 59 be
       0.023551095 0.0063250763 0.021340275 -0.21250145
0001a0 10 a5 7d be ca 12 19 be 59 1b 28 be 96 53 ad bd
       -0.24769998 -0.14948574 -0.16416682 -0.084632084
0001b0 4b d7 02 3e c4 24 fd bd c3 be 44 be c2 30 bb 3d
       0.1277744 -0.12360528 -0.19213395 0.09140159
0001c0 50 68 28 bd 57 9f 79 3b f4 53 43 be 8f ac 17 3c
       -0.041115105 0.0038089359 -0.19074994 0.00925745
0001d0 ff 99 ee 3d 80 49 0c 3d 2e b4 c1 3d 87 c5 fa bd
       0.11650466 0.034249783 0.09458195 -0.122447066
0001e0 bf 87 1b be c6 f6 68 bd c2 bd d3 bd 2a e2 dd bc
       -0.15188502 -0.056875966 -0.10338928 -0.027085382
0001f0 85 4d c3 3d 36 f3 2a be 17 f6 33 3e b1 20 87 bd
       0.0953627 -0.1669434 0.17574345 -0.06598032
000200 e8 bf 7b 3d 1a 9c 4b 3b cd 16 94 3d 4e 2b ce bd
       0.061462313 0.0031068386 0.072309114 -0.100668535
000210 5c f1 08 3e 1d bb f3 bd e5 8a 94 3d 7b 54 2d be
       0.13373321 -0.119009234 0.072530545 -0.16926758
000220 41 27 f5 3d 08 56 92 bc 62 de 24 3e 84 80 f7 bd
       0.11970378 -0.017863289 0.16100457 -0.12085059
000230 93 88 7e bd 5c 1f 98 bd 5d ec 82 bb c5 b4 1a 3e
       -0.062141966 -0.07427856 -0.003995462 0.1510802
000240 ed 60 9a 3d 3c ce 91 bc 54 81 53 ba 75 69 cb 3d
       0.075380184 -0.017798536 -0.00080682826 0.09932224
000250 6a dc 4c be b5 2e 33 3c 5f 74 46 be bc 46 ff 3b
       -0.20005956 0.010936429 -0.1938033 0.0077904146
000260 38 bc ef 3d e0 2c 51 3e df 44 4a 3d 6b 2f d4 bd
       0.11705822 0.20427275 0.049382087 -0.10360607
000270 01 a3 be bd 9a 8a 18 bd 2d 37 d7 3c 9f c5 28 3b
       -0.09308434 -0.037241556 0.026271427 0.0025752557
000280 6d 01 41 be d2 a9 99 3b 64 e1 ad 3d 5a e8 d0 3d
       -0.188482 0.0046894336 0.084902555 0.102005675
000290 9c 1b f0 b9 13 21 0d 3e 22 a6 4a be 47 13 56 be
       -0.00045796938 0.13782148 -0.19789937 -0.20905791
0002a0 08 5c 82 3a 4c 03 46 be 28 39 18 3e f7 6c 1b 3e
       0.000994564 -0.19337195 0.14865553 0.15178286
0002b0 58 b9 33 be 94 9e 2f 3c d0 dd ff bd a5 4f 4b be
       -0.17551172 0.01071896 -0.12493479 -0.198546
0002c0 d8 0a 67 be 40 6e 9e 3a fa 1c ad 3d 69 1e 6f 3c
       -0.2256273 0.00120873 0.084527925 0.014594653
0002d0 11 a4 25 3e c0 e1 50 3e cd 4b 50 be 7b 20 ea bd
       0.16175868 0.20398617 -0.20341416 -0.114319764
0002e0 0b 80 04 3e 19 12 06 3e 94 4f 9e 3d aa 5f 8f bb
       0.1293947 0.13092841 0.07730022 -0.0043754177
0002f0 4d 83 9e bd 47 14 2d be aa 82 81 3d d8 3c 38 bd
       -0.077398874 -0.16902266 0.0632375 -0.0449799
000300 0e 6a 1a 3e d5 43 3f 3e e8 e2 00 be a3 3d 32 3d
       0.15079519 0.1867822 -0.12586558 0.043515813
000310 cf 21 3f 3d 2f be 4c be e7 06 d8 bc 90 0a 37 3d
       0.0466631 -0.19994424 -0.026370479 0.044687808
000320 40 5d 30 3e 6e 1b 37 3e 0a 62 c5 bd f7 7f 71 3d
       0.17223072 0.17881557 -0.0963784 0.058959927
000330 22 73 af 3c f2 1f 44 be a6 32 2a be b8 5d f7 3c
       0.021417204 -0.19152811 -0.16620883 0.030196056
000340 5f 60 16 3e 43 38 01 3e b5 0d 86 bd 0d aa a3 bd
       0.146852 0.12619118 -0.06545583 -0.07991419
000350 54 00 83 be 83 6d 2e be 19 13 43 3d 12 c8 ae 3d
       -0.25586188 -0.17033963 0.047625635 0.08534254
000360 4e c3 e5 bd cf 41 45 be 7a cc ea 3d 12 f3 09 be
       -0.11218892 -0.19263385 0.11464782 -0.1347163
000370 4f b3 6b be 75 39 ad 3d 33 7c 4c bd 6b 0e 0f 3d
       -0.2301762 0.08458225 -0.049923133 0.03492586
000380 62 0e 81 be 11 82 0f bb 24 ec ee 3d 42 9a f8 3c
       -0.25206286 -0.0021897594 0.11666134 0.030346993
000390 35 74 74 bd 4e 5a 17 be 7e db 1a be 71 0e 94 bd
       -0.059681136 -0.14780542 -0.15122792 -0.07229317
0003a0 94 4a b6 bd 13 3e 12 be d1 aa b0 bd 3f 98 8c bd
       -0.089009434 -0.14281492 -0.08626331 -0.06864976
0003b0 08 16 0d 3e af 5c 83 3d 44 09 37 be 9d ef 22 be
       0.13777936 0.06414162 -0.17874628 -0.15911718
0003c0 f3 7b 25 be b3 ee 66 be f1 26 52 be 24 e1 69 3e
       -0.16160564 -0.22551994 -0.20522667 0.2283979
0003d0 78 0d b9 bd 54 f7 18 3a d6 f9 04 be f0 71 03 3e
       -0.09035772 0.00058351946 -0.1298593 0.12836432
0003e0 0f de 44 be f4 9a d4 3d 92 3d a9 3d 60 fd e0 3d
       -0.19225334 0.103811175 0.08263697 0.109858274
0003f0 cf 0d 20 3e b2 71 03 3e c7 cb b4 bd a4 7e da 3d
       0.15630268 0.1283634 -0.0882793 0.10668686

layers.3.weight f4 [80, 256]
000000 70 36 19 bd d1 0e 62 3d 78 e8 95 bc 80 e7 7f bc
       -0.03740543 0.05518991 -0.018299326 -0.015619159
000010 49 d3 0d bd c7 00 a4 bd 92 d2 aa 3d 94 e9 77 3d
       -0.034625325 -0.08007961 0.08340944 0.06052549
000020 6b 77 26 3c 2c d5 9c bd 1e 85 b8 bc 76 e4 a3 3c
       0.010160307 -0.07657847 -0.022524413 0.0200064
000030 62 47 b9 3c 26 e2 ba 3c b4 4d fd 3c 96 9a 85 3c
       0.022617046 0.022812914 0.03092084 0.016309064
000040 69 e7 97 bc 8a b6 cf bc 86 33 2c 3b 7d 9b 2a 3d
       -0.018542962 -0.025355596 0.0026275828 0.04165219
000050 4f 78 a6 3d 67 6f 1c 3d e6 17 18 3d 91 35 41 3d
       0.08128416 0.03819218 0.037132166 0.047170226
000060 46 69 98 3d 27 c1 7b bd d2 fa c6 3c f8 48 38 3d
       0.07441954 -0.0614635 0.024289522 0.044991463
000070 d6 7b db bc 17 84 2d bc 74 99 ee 3b 37 b3 75 3b
       -0.026792448 -0.010590575 0.0072814766 0.0037490854
000080 f7 81 06 3d 53 90 52 bd dc 4e 56 3d 77 1e 86 3d
       0.032838788 -0.05140717 0.0523213 0.065487795
000090 ca 0b a1 bd 64 9d 8a b9 a8 1a c9 3c 36 5a 9c bd
       -0.07863577 -0.00026438676 0.024548844 -0.07634394
0000a0 ea 87 be 3c d9 6f a4 bd fd 5c 8e bd 72 3a a5 3c
       0.023258168 -0.08029146 -0.0695133 0.02016947
0000b0 de 87 ec 3c 4b 2e 3e bd 0b 69 b4 bb d6 37 81 3d
       0.02887338 -0.046430867 -0.005505686 0.06309478
0000c0 f5 95 8b bc b3 56 45 3c a8 0b 9f 3b d8 80 97 39
       -0.017039279 0.0120445965 0.0048536845 0.0002889696
0000d0 fe d7 8f bc 9c 9c c1 bb 0e 95 56 bc 78 48 b3 3b
       -0.017559048 -0.005908562 -0.013097061 0.0054712854
0000e0 77 ac 7f 3d 40 ea 8d 3c 91 e9 98 bc 6c f4 8b bd
       0.062420335 0.017323613 -0.01866606 -0.06833729
0000f0 24 39 b5 3d de 12 a0 bc 24 d5 85 bc f6 dc 88 bc
       0.08848789 -0.019540247 -0.016336985 -0.016706925
000100 f2 6a 7f bd e6 d1 ab 3c 86 b8 8a 3d a6 12 98 bc
       -0.06235785 0.02097411 0.06773476 -0.01856358
000110 9d 23 8f bc 53 84 8a bd 94 1c 03 bd 3d 60 af bd
       -0.017473036 -0.0676352 -0.032009676 -0.08563278
000120 fc 3e 11 bc ba d4 4b bd 6d b5 c0 bc 90 3d f0 b7
       -0.008865114 -0.04976342 -0.02352401 -2.8638897e-05
000130 dc 09 98 bd 9d c9 1e bd b5 fb 40 3d 12 65 86 bd
       -0.074237555 -0.038766492 0.047115047 -0.065622464
000140 c8 20 00 bd a9 11 0d 3d 0d 53 be bc 9f 37 83 3d
       -0.031281263 0.03444067 -0.023232961 0.06407093
000150 62 86 8d bd b2 8f 7e bc cc d0 83 3d 1b f5 0b 3c
       -0.06910397 -0.015537189 0.06436309 0.008542324
000160 98 bb 16 3d f8 1d 45 3b d4 b7 c3 bb f7 f8 b7 3d
       0.036799997 0.0030077677 -0.0059728418 0.08983033
000170 9a ef 71 bd 0b 53 8e bc db 97 57 bd 3f ff 22 bd
       -0.059066392 -0.017373582 -0.052635055 -0.039794203
000180 40 ef 7e bc f0 7e ab bc 2d 79 7c bd a1 68 01 bc
       -0.015559971 -0.020934552 -0.061639 -0.007898481
000190 8e f6 83 bd bf d5 4f bd 0b 22 63 3c 64 85 7f bd
       -0.06443511 -0.050740954 0.013863097 -0.06238307
0001a0 c6 87 81 bd 99 82 1a bd 70 8d 4b 3d e2 b1 ce bc
       -0.06324725 -0.037722204 0.049695432 -0.025231306
0001b0 67 8e b1 3a 80 25 0a 3d 4f d6 08 bc 47 8a ec bb
       0.0013546468 0.03372717 -0.008351876 -0.0072186324
0001c0 76 61 f6 ba 7b c5 95 3d 6e bb b6 bd 71 fd cb bc
       -0.0018797356 0.07313057 -0.08922468 -0.024901124
0001d0 cb 03 4e bd bd 7c 65 bc ee d3 4e bc 66 3c da bc
       -0.050296586 -0.014006791 -0.01262377 -0.026640128
0001e0 a2 7d 40 3d 56 cf 0e 3d 04 f2 60 3d c5 99 bd 3b
       0.046994813 0.0348657 0.054918304 0.005786153
0001f0 2f 54 86 3c 4a 29 3a bd 33 e3 15 bc 71 58 66 3d
       0.016397564 -0.045449533 -0.009148407 0.056236688
000200 79 97 80 bc f5 a5 90 3c 80 f6 81 bb 3f 06 d8 3d
       -0.015697228 0.01765726 -0.0039661527 0.10548066
000210 02 6e 77 bd 98 90 96 bd 0a e4 50 bd 10 9c 86 bc
       -0.060407646 -0.07351798 -0.050998725 -0.016431838
000220 96 1d 01 bd 8b c0 63 3d 68 1e ba bc 47 62 04 3c
       -0.031522356 0.055603545 -0.022719577 0.008080072
000230 f4 79 0e bd d4 c8 8a 3c 17 96 cd bc 7a 66 32 3d
       -0.034784272 0.016941465 -0.025095982 0.04355476
000240 eb 61 29 3c f3 4a 30 bd 86 13 93 bd cc 0f 13 ba
       0.010338287 -0.043040227 -0.07181458 -0.0005609959
000250 7b 1a b7 3d 18 7c b7 3c 6e 15 7e bd 1b 90 34 bd
       0.089405976 0.02239804 -0.062032156 -0.044082742
000260 f3 03 1b bd 4f c9 8f 3c 67 2a e0 bc 8b 0b 1e 3d
       -0.037845563 0.017552046 -0.027363969 0.038585227
000270 52 62 f1 bc 0b 4d b5 bc 3d f6 ee bb 80 51 90 bd
       -0.029465828 -0.022131464 -0.0072925375 -0.07046795
000280 e0 92 73 3d 4b e8 81 3d 76 e3 ab 39 8b 14 0e 3d
       0.059466243 0.063431345 0.00032785133 0.03468756
000290 25 e4 26 bd 0a 3d 2f bd 89 e7 bf bc ee 38 ea 39
       -0.04074492 -0.04278282 -0.023425834 0.00044674374
0002a0 dd cb 66 3c c6 19 a1 3b 2a ce 5e bb 96 4c a5 3c
       0.014086691 0.0049164025 -0.0033997395 0.02017812
0002b0 d2 fe 89 3c 7c 84 36 bc 73 b4 63 3d aa ea 60 bc
       0.01684514 -0.011139985 0.05559201 -0.013727823
0002c0 d7 86 6b bd 19 be 5f 3d ef 90 a6 3d 8d a3 e8 bc
       -0.05750164 0.05462465 0.08133113 -0.0283983
0002d0 fe 0a 1e bd 54 ef a7 3c 7c 78 47 3d 6c 5e 00 bc
       -0.0385847 0.020499863 0.048698887 -0.007835012
0002e0 79 a5 07 bc 5d 29 dd 3c 3a 0b 80 bd 42 fe 66 3d
       -0.008279198 0.026997263 -0.06252141 0.056394823
0002f0 76 c6 15 3d cc 4d 35 bd 44 5d 36 bc fa 47 de bc
       0.03656622 -0.044263646 -0.011130635 -0.02713393
000300 d3 97 05 3d a5 7d 14 bd 5a d4 ac 3c 90 27 c9 bc
       0.032615494 -0.036252636 0.02109735 -0.024554998
000310 11 8a 91 3d 9f 82 3b bd 48 b3 ed 3c 94 93 87 bc
       0.07106412 -0.045778867 0.029016152 -0.016549863
000320 d3 e6 37 bd d1 04 92 3d 64 0b 80 bc 83 d6 e5 bc
       -0.044897866 0.07129825 -0.015630431 -0.028056389
000330 60 09 5b 3c 7e f6 5e 3a 2d 8d a3 3d 26 92 3d 3c
       0.013368934 0.0008505358 0.079859115 0.011570489
000340 8b e1 e7 bb 80 37 b1 bc 2e 5a 38 bd 44 2d 90 3c
       -0.0070764474 -0.02163291 -0.045007877 0.01759971
000350 64 8f 82 3c 4d 29 f0 3b f8 32 47 3d c3 e5 07 3d
       0.015937515 0.007329142 0.048632592 0.033178102
000360 24 d5 73 3c 9a cc 84 bb 57 4e 05 3d e4 2d 4a bd
       0.01488236 -0.0040527107 0.032545414 -0.04936017
000370 c6 5b 99 bd 2a eb 83 bd 9b ee db bc 07 66 18 3d
       -0.074882075 -0.06441338 -0.026847174 0.037206676
000380 0f d3 82 3d a9 78 3a bd a6 95 0b bc af 1d 47 3d
       0.063879125 -0.045525227 -0.008519566 0.048612293
000390 20 aa 4e 3d a5 9a d6 bc 3c 1a e8 3b bf 22 06 3d
       0.050455213 -0.026196787 0.0070832055 0.03274798
0003a0 5c 46 74 bc 72 81 8f 3d 9c 68 ab 3c eb 44 47 bd
       -0.014909353 0.070071116 0.020923905 -0.04864971
0003b0 be 8c 3a 3d ed 52 05 3d c0 90 31 3c 0e b8 8d 3d
       0.04554438 0.032549787 0.010837734 0.06919871
0003c0 6e cb 42 bd 78 c7 90 bd 96 f4 43 bd c3 13 23 3d
       -0.047557287 -0.07069296 -0.047840677 0.039813768
0003d0 aa 01 4b bb c7 1d 33 3d 07 9f 8f 3c cc b3 1b 3c
       -0.0030976334 0.04372957 0.017531885 0.009503316
0003e0 4f 82 46 3d e2 e5 66 3c ac 5f e8 39 a4 e2 2d 3b
       0.048464116 0.014092894 0.0004432177 0.0026532793
0003f0 a0 c3 1c bd 21 3c 09 3d dc 3f 9f 3d ad 61 4a 3c
       -0.0382725 0.03350461 0.07775852 0.012352389

layers.3.bias f4 [80]
000000 93 47 86 3b 58 79 52 3d d3 b3 9c bb 12 66 3e bd
       0.004097888 0.051385254 -0.004782179 -0.04648406
000010 f8 e8 8f 3b 4b 9d 8e bd d6 b0 8d bd be 89 85 bc
       0.0043917857 -0.06963595 -0.069184944 -0.016301032
000020 f5 7f eb bb 47 8a 3e bd 8b ac 1b 3d dc cd 72 bd
       -0.0071868845 -0.04651859 0.038006347 -0.059278354
000030 4f af 39 3d 26 8e 6b bc 2c 01 68 3d 23 16 04 3d
       0.045333203 -0.014377153 0.056641743 0.032247674
000040 22 8f e3 3b ef aa 3f 3d a5 87 8b 3c b1 dd ff 3c
       0.006944553 0.046793874 0.017032454 0.03123364
000050 9a 9a 71 bd 7e bf 0a bd 34 9e 11 bc 68 7c 39 bc
       -0.05898533 -0.033874027 -0.008887816 -0.011321165
000060 28 f6 c1 bc 85 76 b3 bd 2f db a5 3b d8 81 12 3d
       -0.023676947 -0.0876284 0.005061529 0.03576836
000070 8e 1e b2 3b 7f 64 75 bd 5e 66 82 bd 52 ea f2 3c
       0.0054357713 -0.059910294 -0.06367181 0.029652748
000080 26 c0 6a 3c a5 01 1e 3d 44 3a 33 bd f6 17 75 bd
       0.014328038 0.038575787 -0.04375674 -0.059837304
000090 77 b2 12 bd 02 e0 10 3d 53 61 6d 3d e3 de 8f bd
       -0.03581473 0.03536988 0.057954144 -0.07024934
0000a0 50 b7 12 3c 05 da 93 39 57 09 dd 3b cf 5a 88 3c
       0.008954838 0.00028200462 0.006745498 0.016644863
0000b0 d7 dd 47 3b a9 83 6f bd 8e 7b 8d bd 31 4f 0f bd
       0.0030497217 -0.05847517 -0.06908332 -0.034987632
0000c0 95 5d 44 3c 15 57 70 3d 8b 02 7c bc 83 eb de 3b
       0.011985202 0.058676798 -0.015381466 0.0068029775
0000d0 e0 bd 7d bd 04 26 7d 3b c8 ad d3 bc 36 ad b7 bc
       -0.061948657 0.0038627395 -0.025839701 -0.02242146
0000e0 bd 18 f2 3b e7 2a 32 bd 80 7f 91 bc 38 d9 52 3d
       0.007388203 -0.043497946 -0.017760992 0.051476687
0000f0 c4 6e 7c 3d e6 9b 64 bd 80 a9 1a 3d d3 bc 90 3d
       0.06162907 -0.05581274 0.037759304 0.07067265
000100 fe da b9 3c 35 82 57 bc 51 2e ab bc dc 57 a0 3c
       0.022687431 -0.013153602 -0.020896109 0.019573145
000110 ef c4 f3 bb 67 b8 60 bd 14 ad 5c 3d 59 da 33 bd
       -0.007439248 -0.05486336 0.053875998 -0.043909404
000120 0e 29 57 bd 6e 23 17 bd be 0b 7d bd 48 e9 9a 3c
       -0.052529387 -0.036899023 -0.061778776 0.018910065
000130 01 c9 6a bd 10 4d ae 3c 05 d4 80 bd bd b3 85 bd
       -0.0573206 0.02127698 -0.062904395 -0.06528423

layers.6.weight f4 [64, 80]
000000 08 eb 9d 3d a9 f8 73 bd 1c 2c d3 bc 29 78 6b 3b
       0.07710844 -0.059563313 -0.025777869 0.0035929775
000010 1f 56 9f 3d e3 9f 1d bd 1c ca fd 3a 72 94 88 bc
       0.07780098 -0.038482558 0.0019362601 -0.016672347
000020 d0 ef 31 3c a4 c3 be bb da 28 0a 3e 50 2e 94 bd
       0.010860398 -0.005821662 0.13492146 -0.07235396
000030 19 32 18 3d 0c 90 55 3b eb b3 07 3e 27 f6 99 bd
       0.03715715 0.003258708 0.13252227 -0.07517653
000040 60 fa 80 3d c9 d6 d6 bd 73 69 fd bc 22 7c 13 3e
       0.06297755 -0.10490186 -0.030934071 0.14402822
000050 cb 30 37 bc 7f 6e 89 bd 50 f7 53 b8 82 02 9c bc
       -0.011181067 -0.067105286 -5.0536648e-05 -0.019044165
000060 e4 3a 08 b8 c0 67 c5 bc 12 9b 4a bd b7 bd 73 bd
       -3.2479773e-05 -0.024097323 -0.049464293 -0.059507098
000070 de fa 72 bb a5 e9 28 bd 22 04 10 3e d6 43 12 3e
       -0.0037075798 -0.041238446 0.14064077 0.1428369
000080 f2 2e 83 bd e7 d4 98 bd 19 65 a0 bc 3d 9c 2b bd
       -0.064054385 -0.07462483 -0.019579457 -0.041897047
000090 c0 a5 70 3d 08 94 9e bd 29 b5 81 3d 56 ef 36 3c
       0.05875182 -0.077430785 0.06333382 0.011165461
0000a0 7c f1 1b 3d 51 b2 85 3c 20 d7 66 3d 04 20 44 3d
       0.038072094 0.01632038 0.056357503 0.047882095
0000b0 ff 7f 23 bd 18 e8 b2 bc 65 8a d8 bc 43 8b b3 3d
       -0.03991699 -0.021839187 -0.02643318 0.087667964
0000c0 b3 be ad 3d a7 d3 bc bd b8 bb 3e 3d fe 95 73 3c
       0.084836386 -0.09220057 0.04656574 0.014867304
0000d0 69 ab 88 3d ea de 6a 3b 0c 1f 82 bd fe 3b 88 bd
       0.06673319 0.0035838434 -0.06353578 -0.066520676
0000e0 15 33 ea 3b 15 3b 13 bb 21 2e 67 bd 1d ff a2 bc
       0.0071472027 -0.0022465636 -0.056440476 -0.019897038
0000f0 1f 58 d5 bd 78 50 9e 3d c2 4c b3 bb 85 6d c5 3d
       -0.104171984 0.07730192 -0.0054717967 0.0964003
000100 b0 a5 2e 3d ad 9d 83 bd 32 43 34 bd d4 64 04 3e
       0.04263848 -0.06426559 -0.044009395 0.12929088
000110 5d 8c 74 3d 86 bb 02 3e d7 e4 f5 3c 0b 3a a7 3d
       0.059704173 0.12766847 0.030016346 0.08165368
000120 df 43 e5 bc dd 6e 4f bc 6e 48 a3 3d 16 af bd 3d
       -0.027986465 -0.012660709 0.07972799 0.092619106
000130 a0 8d 1e 3e f7 5b 96 3d 46 03 b5 3c 67 b3 5d bd
       0.15483713 0.0734176 0.022096287 -0.05412617
000140 33 4f d8 3d cd 97 0f be 0e 63 ad bd 70 4c b5 bd
       0.10561981 -0.14022751 -0.08466159 -0.0885247
000150 1f 6f 0c 3e 93 19 c6 bc 8f 37 3f bd 82 68 fe 3d
       0.13714264 -0.024182117 -0.046683844 0.12422277
000160 88 0c b1 3b ee 9b 87 3d 20 bb 87 3b 5f 94 84 3d
       0.005403105 0.06621538 0.00414218 0.06473612
000170 60 11 9c bd ec 41 fc bc b1 96 1b bd bc 28 f7 bc
       -0.076205015 -0.030793153 -0.037985507 -0.03017079
000180 1b 45 3f 3d 10 73 eb bd 04 89 0c 3d 81 e9 57 bd
       0.046696763 -0.11496556 0.034310356 -0.05271292
000190 f7 ed 91 bd 4c d0 99 3d 36 71 0d 3d 45 ed d8 bc
       -0.07125466 0.075104326 0.034531794 -0.026480326
0001a0 c5 b7 a2 3d 54 bf 57 bc 99 5c 8d 3d 77 f9 ce bd
       0.079452075 -0.013168175 0.06902427 -0.101061754
0001b0 c5 2c f1 3d b9 3b ca bd bc e9 d1 3b 08 25 a8 bc
       0.11776117 -0.098746724 0.006406037 -0.02052547
0001c0 81 5e e6 3c aa 92 bf 3c 6f ef 0f bd af 68 ea 3d
       0.028121235 0.023385365 -0.03514045 0.11445748
0001d0 4c 14 69 bc 28 46 2f bd b2 d8 a4 3b da b1 47 3d
       -0.014226031 -0.042791516 0.005030715 0.048753597
0001e0 86 3d 2d bd e6 1b 80 3d f4 78 df 3d 04 6a 0c be
       -0.042295 0.06255321 0.10911742 -0.13712317
0001f0 f1 90 ed bd e6 a9 ba bd 72 ab 9a bd da 75 86 3d
       -0.11599911 -0.09114437 -0.07552232 0.06565447
000200 f6 a3 df 3d 51 4b a0 bc 05 f2 06 bd 19 ed 2e bd
       0.10919945 -0.019567164 -0.03294565 -0.042706583
000210 6f 76 a8 bd bc d7 ec bd 2b b7 30 bd ca 59 76 bd
       -0.082257144 -0.115645856 -0.043143433 -0.060144223
000220 65 75 03 3d 96 a1 ac bd b6 04 d8 bc 88 65 b8 bd
       0.032094378 -0.084292576 -0.026369434 -0.090037405
000230 c1 8f f9 bd 00 58 05 bd 3a 93 7e 3d 40 c0 0b 3e
       -0.12185622 -0.032554626 0.062152125 0.13647556
000240 a9 73 98 bd ed af 64 bd 14 cc c4 3c 61 cc 2c 3d
       -0.074439354 -0.05583184 0.024023093 0.0421871
000250 c2 b4 b2 bd 9f 50 bb 3d 9f 20 12 bc 97 5c 8f 3d
       -0.08725883 0.09146237 -0.00891891 0.07000082
000260 7c 4f dc 3c f9 03 b2 3d 26 59 d0 3d 68 3c 24 bd
       0.02689337 0.08692164 0.10173254 -0.04009667
000270 8d 40 00 3e d6 d7 f4 bb e6 8f 89 3d d0 dd 67 bd
       0.12524624 -0.0074720187 0.067168996 -0.05660802
000280 01 9a fe bc 28 47 64 3d b0 93 97 bd 54 ca cc bd
       -0.031079294 0.055731922 -0.07401216 -0.099995285
000290 cd f9 23 3d 06 1c 18 3d 26 44 b5 bc 07 42 af bc
       0.04003315 0.0371361 -0.022127222 -0.021393789
0002a0 36 11 4d bd 13 53 11 bc b6 5a ca 3d b4 fb 88 3a
       -0.05006524 -0.008869904 0.09880583 0.001045099
0002b0 3d 12 c2 3d 22 40 3d bc ef c0 9a bd cf 3c 35 3d
       0.09476135 -0.011550935 -0.075563304 0.044247445
0002c0 16 37 85 3d cd 87 39 bd 6e be cc 3c e7 3a 6a bd
       0.065046474 -0.045295525 0.024993148 -0.05718508
0002d0 29 74 de 3d 22 ae 45 bd 27 5c 65 bd 8b 12 57 3d
       0.108619995 -0.04826177 -0.055996086 0.05250792
0002e0 e8 2d 2f 3d ce a6 33 3d cc fe 1e 3d 15 09 ba 3d
       0.04276839 0.04386025 0.038817212 0.090837635
0002f0 65 fa 62 3d 32 9f 03 3d 2c 56 6b bd ba 38 6f bd
       0.055414576 0.032134242 -0.057455227 -0.058403708
000300 05 68 8f bd 87 dc cd bd 50 0f 38 3d ef 89 f6 3c
       -0.07002262 -0.10051828 0.04493648 0.030095069
000310 f4 98 0e bd 19 6c d2 bb 29 89 f0 3d 8f 97 c7 bd
       -0.034813836 -0.0064215777 0.11744911 -0.097457044
000320 2b b1 ab bb 13 45 ee bd a1 5c d7 bc e1 0d c0 bd
       -0.005239626 -0.116342686 -0.026289286 -0.09377647
000330 7d ef a0 bb f5 37 91 3d 74 ce 47 bd 24 78 02 3d
       -0.0049113617 0.07090751 -0.048780873 0.031852856
000340 c7 6b ae 3d 12 01 25 3d a6 e6 bc 3d 11 7a c7 bd
       0.08516651 0.040284224 0.0922368 -0.09740079
000350 89 79 35 bb 06 89 e5 bd f9 fd bc bd 4c da 0b be
       -0.0027690849 -0.11207776 -0.09228129 -0.13657492
000360 31 d1 21 3d 19 52 f1 3d f7 7d 36 3d 48 39 d1 3c
       0.03950614 0.11783237 0.044553723 0.02554001
000370 1c 3a fe bd 1f 4a 94 3d 02 17 c8 bd 79 34 24 bd
       -0.12413427 0.072407 -0.097700134 -0.040089104
000380 3f 9a 87 bc f5 85 24 bd 63 5d 29 3d 93 39 80 3d
       -0.016553042 -0.040166814 0.041348826 0.062609814
000390 9b cd 03 3d b8 44 2e 3d ef 6e c6 3d 89 76 4f 3d
       0.032178503 0.042546004 0.09689128 0.050650153
0003a0 d6 a1 ab bd 5a 05 d9 bc 69 79 20 3c 5d d3 4b 3c
       -0.08380477 -0.02649181 0.009794571 0.01244053
0003b0 63 07 5b 3d 1d 6d df ba ec 9b c2 3d 4e b0 d0 3d
       0.05347384 -0.0017046068 0.09502396 0.101898775
0003c0 74 8a ce 3c be 34 63 bd 9e a9 4d 3d b5 5f 21 bd
       0.025212504 -0.05547022 0.050210588 -0.039397914
0003d0 c2 fd 4c bd a2 38 b4 bd 8e 2f af bc 43 58 93 3d
       -0.05004669 -0.08799864 -0.02138498 0.07194569
0003e0 b1 de 92 3d 08 0d a0 3d d9 b9 84 bc 22 4f c7 3d
       0.07171381 0.078149855 -0.0162019 0.0973189
0003f0 79 b2 69 bd 0c 53 bb bd c6 a8 fc 3d ee 60 13 3b
       -0.05705497 -0.09146699 0.123368785 0.0022488195

layers.6.bias f4 [64]
000000 5a 33 69 3d 07 dc f5 3d 01 cb 9c bd ae ab 36 3d
       0.05693374 0.120048575 -0.076559074 0.04459732
000010 25 1c e1 bd c8 5a d5 bd 65 9d 28 bd 0b ed aa 3c
       -0.10991696 -0.10417706 -0.041165728 0.020864984
000020 57 f9 ef 3c db d2 21 bc 62 8d 47 3d 5e 7b 07 3d
       0.0292937 -0.009876932 0.048718818 0.033076636
000030 c0 17 d4 3d c1 7a 92 bc 81 20 f2 3c 1a 92 29 bd
       0.103560925 -0.0178808 0.029556515 -0.0413991
000040 d1 0d 57 bd 40 47 d7 bd c6 8c ff 3d e7 fd 9d bc
       -0.05250341 -0.10511637 0.12478022 -0.01928611
000050 82 b7 4b 3d a1 76 5f 3d 85 4a b3 bd 35 6e 04 3b
       0.049735554 0.054556493 -0.08754448 0.002020729
000060 2f e4 16 3c 67 10 cc bd 49 91 d6 bd 35 aa 6f bd
       0.009209677 -0.09964066 -0.1047693 -0.05851193
000070 82 f0 0c 3d 6c aa f0 3d 97 df 04 be bf 9d d8 bd
       0.034409054 0.117512554 -0.12975918 -0.10576963
000080 31 43 06 3e dd 0a 11 3e 95 29 a9 bd 2c c2 7b bc
       0.13111569 0.141643 -0.08259884 -0.015366118
000090 38 87 a3 b9 f5 8a 94 3d 9c e4 8c bd 41 5d 1b 3d
       -0.00031190529 0.072530665 -0.06879541 0.03793073
0000a0 70 7b 12 3d 22 58 91 3d 63 fd d5 3c 10 83 28 3d
       0.03576225 0.07096888 0.0261218 0.041140616
0000b0 7a b3 c4 bc 83 f3 dd 3d aa 7d 1d 3d 12 52 a5 bd
       -0.024011362 0.10837462 0.03844992 -0.08072294
0000c0 2d 05 b0 bd c9 ab 90 bd ca ca 72 3d b1 d6 4a bd
       -0.08594737 -0.070640154 0.059275426 -0.049521152
0000d0 40 f2 15 bd bd 87 65 3c 92 fc 16 bd 83 98 a2 3d
       -0.03660798 0.014009413 -0.036861964 0.079392456
0000e0 89 b1 81 3d 39 5d 96 bc 56 3e d1 3d a1 f7 ec 3b
       0.0633269 -0.018354999 0.10216968 0.007231668
0000f0 f5 03 6a 3d 17 a4 8a 3d 5a 34 d7 bd 55 09 b1 bd
       0.05713268 0.06769579 -0.10508032 -0.08644358

layers.8.weight f4 [1, 64]
000000 d6 96 98 bd 1e fe dd bd 32 0d af bd e7 1f db bd
       -0.07450645 -0.10839485 -0.08547439 -0.10699444
000010 c3 06 d3 bd a7 e5 4f bd 37 c9 cd 3d d6 67 7f 3c
       -0.10304024 -0.050756123 0.10048144 0.015588721
000020 c7 78 d1 3c 9b a0 a4 3d 6a 79 65 bd b9 3a 43 bd
       0.025570286 0.080384456 -0.056023993 -0.047663424
000030 24 2f aa 3d 9e 22 d3 bd 01 96 e1 3d 96 ed da 3d
       0.083097726 -0.10309337 0.11014939 0.10689847
000040 26 1b b8 3d 55 83 9f 3c 35 76 ed bd f3 1a 8b 3c
       0.08989553 0.019471804 -0.11594812 0.016980624
000050 8e a3 12 be 43 8d f4 3c 3a cc 53 bd f0 45 25 3d
       -0.14320204 0.029852515 -0.051708438 0.0403499
000060 a2 c0 53 3d 94 aa 13 3d 82 7b 02 3e b8 4c b0 bd
       0.05169738 0.036051348 0.12742427 -0.08608383
000070 cb 3a 10 be 7e 08 aa bd 84 48 2e 3d e5 72 7c bd
       -0.14084928 -0.08302401 0.042549625 -0.06163301
000080 f1 45 fe bd 91 91 09 be 4a 00 f2 3d d8 69 c5 3c
       -0.12415684 -0.13434435 0.118164614 0.024098322
000090 e0 8b f2 bd 4b 6e 24 3e ca c3 e9 3d 64 d0 f8 bd
       -0.11843085 0.16057698 0.11414297 -0.12149122
0000a0 6d 39 bf bd e2 b8 ca 3d 14 85 16 3e e0 7f 78 3c
       -0.09337125 0.09898545 0.14699203 0.0151672065
0000b0 7e ee 98 3d 58 59 0a 3e 9e a4 65 bd 63 45 1a bd
       0.07467364 0.13510644 -0.056065194 -0.03766383
0000c0 4f e7 9e 3d 64 cc 70 bd ab 02 9e 3d a8 6b 61 bd
       0.07758962 -0.058788672 0.077153526 -0.05503431
0000d0 f9 a4 d3 3d a5 b9 0d bd d5 62 b0 bd 23 ba 4f bd
       0.103342004 -0.034600873 -0.08612601 -0.050714623
0000e0 2f dd 2e bd b9 b5 f3 3d 81 92 01 be 6d d1 bb bd
       -0.042691406 0.11899895 -0.12653543 -0.09170804
0000f0 fc 48 e5 bd 50 44 9f bd 79 e3 7b 3c 49 cc 15 bd
       -0.11195561 -0.077767015 0.015374058 -0.036571775
