flwr-mlp/models/checkpoints/round_008.pt (torch, 127593 bytes, 7 tensors)

layers.0.weight f4 [256, 19]
000000 c4 e0 8c bd f1 29 16 be 2e 2c bc 3c 27 7a 2f be
       -0.06878808 -0.14664437 0.022970285 -0.17136441
000010 2a 45 dd 3c 42 9f f9 bd a5 87 9f bd 20 95 41 be
       0.027010519 -0.12188579 -0.07789544 -0.18904543
000020 bb dc 26 3e e9 39 ff bd 79 7c 28 3d a2 d0 28 3e
       0.1629514 -0.12462217 0.04113433 0.16485837
000030 95 f4 1a bd 6b 2c 14 be 66 d5 3b 3e 53 ab bb bc
       -0.037830908 -0.14470069 0.18343124 -0.022908842
000040 74 76 06 be 11 26 8a 3d ef 94 45 be 16 42 3b be
       -0.13131124 0.06745542 -0.19295095 -0.18286929
000050 a3 dd 28 bd 4d 82 b6 3d d5 e5 41 bb 6c 18 84 bd
       -0.041226994 0.08911572 -0.0029586453 -0.064499706
000060 6e 29 d8 bc 6a cd 3f 3e 0a 19 61 be e4 2a e1 3d
       -0.026386943 0.18730703 -0.21982208 0.10994509
000070 5f ff c9 3a 68 39 04 3e 7b b8 0e 3e 93 1b 01 be
       0.001541119 0.12912524 0.13937561 -0.12608175
000080 63 77 5a bd bd 6a 87 3d c3 da ad bd 36 1f f8 3d
       -0.053336512 0.066121556 -0.08488991 0.12115328
000090 81 54 1f 3e 2b b5 19 bd 38 ce c4 3d 8e 94 fd 3d
       0.1555958 -0.03752629 0.096096456 0.1238185
0000a0 2e a8 e9 bc f4 72 11 be 23 a6 68 3d 62 99 84 bd
       -0.028522577 -0.14204007 0.056799065 -0.06474568
0000b0 e7 ab d6 3d 85 bc 6f be 1e 02 2c 3d df 19 73 3e
       0.104820065 -0.23411758 0.041994207 0.23740338
0000c0 f4 96 22 3e 6a f2 6d bd 45 eb 5b 3d 5d 25 21 3e
       0.15877897 -0.058092512 0.053691167 0.15736909
0000d0 55 15 03 3e a9 01 a0 ba 2f 3f 59 3d 5e 8f 14 3e
       0.12801106 -0.0012207526 0.053038772 0.14507815
0000e0 96 fd e0 bd 00 57 87 3e 73 37 61 bd cd b7 3f 3d
       -0.10985868 0.26433563 -0.05498452 0.046806145
0000f0 dd 2d be 3d b8 50 a6 bd d5 5d 5e be b3 22 54 be
       0.092860915 -0.08120865 -0.21715482 -0.20716362
000100 94 4b 6c 3e 9d 52 31 bd 24 bd b4 3c 4a 66 3e 3e
       0.23075706 -0.043291677 0.022062846 0.18593708
000110 82 99 df bd 57 89 d1 bd 4d 95 a2 3d 75 53 16 be
       -0.10917951 -0.102312736 0.07938633 -0.14680274
000120 bb 91 c0 bd 77 66 2e bd 0d 90 68 3d 14 64 18 3e
       -0.09402796 -0.042578187 0.056778003 0.14881927
000130 c3 7c b3 bd fc ce 98 bd ea 0f 33 3e 98 9e 76 bc
       -0.08764031 -0.07461354 0.1748654 -0.01505246
000140 bf 9a 3b 3e 5d ef 2c 3e e0 34 2c 3e e9 51 1c 3e
       0.1832075 0.16888185 0.16817045 0.15265621
000150 32 15 39 3e 33 07 ab bb bc 55 07 be eb a4 cd bd
       0.18074492 -0.005219364 -0.13216299 -0.10041221
000160 c0 c2 54 be 81 af 2e bd 36 37 ee bd a1 95 d3 3d
       -0.20777416 -0.042647842 -0.116316244 0.10331274
000170 81 5c 51 bd fb 56 3e bd 44 7a 2a be 09 8d 70 3d
       -0.05111361 -0.04646967 -0.16648203 0.05872825
000180 14 40 1c 3e 16 0a 92 bd e6 de 3f 3e 40 78 0c 3e
       0.15258819 -0.0713083 0.18737373 0.13717747
000190 2c 40 66 be 5e 55 f5 3d d2 87 6a 3e a2 41 c0 bd
       -0.22485417 0.11979173 0.22903374 -0.093875185
0001a0 a3 e2 31 be dd de b5 3d 94 bf 87 be 80 6a 34 3d
       -0.17371611 0.088803984 -0.2651335 0.04404688
0001b0 7d 00 30 3e 6d 86 34 3e 2f d6 87 3a f5 be 11 3e
       0.17187686 0.17629404 0.0010363514 0.14233
0001c0 92 a1 02 bd e5 a4 62 be 07 70 c8 3d c6 fb 3c 3e
       -0.031892367 -0.22133215 0.097869925 0.18455419
0001d0 ad a1 04 3e 7d d3 99 3c 84 e1 0e be 8d b6 b1 bd
       0.129523 0.018777603 -0.13953215 -0.08677397
0001e0 14 75 1a be 64 2e 33 be c1 8c 24 be e4 0d 6e 3e
       -0.15083724 -0.17498165 -0.16069318 0.23247486
0001f0 e5 de 59 be 93 96 d5 bd 91 6d 77 3d 4d 2c 0e be
       -0.21276434 -0.104291104 0.060407225 -0.13884087
000200 f8 7f 03 3e e8 e9 fb bd 4f f8 e4 3b 1f 3c 6e bd
       0.12841785 -0.123004735 0.0069876085 -0.058162805
000210 f5 31 e8 bb d0 d7 27 3e 43 cf 38 be 79 d6 1f bd
       -0.0070860335 0.1639092 -0.18047814 -0.039022896
000220 db d2 04 be c5 b2 d4 3c 42 8c df bc f4 d2 37 be
       -0.1297106 0.02596415 -0.02728856 -0.17951566
000230 93 0c c8 bd 3c 76 62 bd 54 48 b5 bd 29 18 0f 3d
       -0.09768023 -0.05528854 -0.08851686 0.03493515
000240 2f f3 55 3d ee 90 4e 3e c5 f7 18 3e ea eb 84 bc
       0.05223387 0.20172474 0.14938267 -0.016225774
000250 d4 f5 82 bd fd 40 6f be a7 a3 b8 bc 10 74 01 bd
       -0.06394544 -0.23364635 -0.022538973 -0.031604826
000260 81 bd 2f bd 13 c2 95 3d c4 d7 8e 3d 0b 19 6a bd
       -0.042905334 0.07312407 0.06974748 -0.05715279
000270 ec 28 ff 3d e1 33 64 3e b9 eb 1e 3e d4 e3 20 3e
       0.12458977 0.22285415 0.15519609 0.1571191
000280 f8 ae 6a 3e dd 03 4b 3d 3e 1d d3 bd 38 b3 83 3e
       0.22918308 0.04956423 -0.10308312 0.2572267
000290 e9 49 70 be 68 6a 05 3e 77 ac 05 3d d8 3e d6 3d
       -0.23465694 0.13028872 0.03263518 0.10461205
0002a0 59 db 2c 3b b5 8e 28 be 88 36 3d be 87 ce 6c 3e
       0.0026375859 -0.16460688 -0.18477833 0.23125659
0002b0 13 9b 15 bc 8d e9 01 bd 12 63 80 bd 24 b5 38 3e
       -0.009131211 -0.031716872 -0.06268896 0.1803785
0002c0 6c 47 e6 bd 54 65 9b bc cb d9 55 3e 72 6b 1f 3e
       -0.112440914 -0.018969215 0.20883863 0.15568331
0002d0 38 12 4f bd 86 20 f8 bc f1 c2 85 bc 1c cb 1f 3e
       -0.050554484 -0.030288946 -0.016328307 0.15604824
0002e0 13 cf 12 3d 83 9e ff 3d 4c f3 89 3a 23 19 e5 3d
       0.035842013 0.124814056 0.0010524779 0.11186435
0002f0 50 da cc 3d 87 12 be 3a 51 0e 96 bd ae 3a b8 3c
       0.10002577 0.0014501371 -0.073269494 0.022488918
000300 30 35 fa 3d a7 dc bd 3d 1a c4 4d bd 23 28 e0 3d
       0.12217176 0.09270602 -0.050235845 0.109451555
000310 77 99 e5 bd da 72 1e 3e be ae 10 3e 05 74 89 be
       -0.11210912 0.154735 0.14129159 -0.26846328
000320 c7 67 6e be 93 d5 d9 bc 4a f9 ba bd ac 71 22 be
       -0.23281775 -0.026591098 -0.09129579 -0.15863675
000330 6c ea d9 bd 40 80 27 3e 15 57 2b 3e 1c b9 00 3e
       -0.106404155 0.16357517 0.16732438 0.12570614
000340 e5 54 7f 3c 2b 00 76 3e 8b 65 cf bd 71 5e 45 3c
       0.015584205 0.24023502 -0.1012679 0.012046442
000350 25 04 35 3e 88 a9 52 be 66 3c c5 3d 41 4f 71 be
       0.17677362 -0.20572484 0.09630661 -0.23565389
000360 b1 64 e6 3d 26 88 48 3e 6f 81 1d 3e c7 6b 26 3e
       0.11249674 0.19583187 0.15381406 0.16252051
000370 72 23 42 be ff 39 0c 3d 96 c9 24 be f6 f5 51 3c
       -0.18958834 0.034234997 -0.16092524 0.012814989
000380 e9 34 ce 3b d9 da 52 bd 08 78 33 3e 73 d9 73 3d
       0.0062929285 -0.05147824 0.17526257 0.059533548
000390 ec 78 e6 bd 7c ab 59 3e 1a b7 36 bd d4 01 07 bc
       -0.11253533 0.21256822 -0.044608213 -0.008240182
0003a0 45 99 ba 3d db c1 8b 3c e9 4e 49 be 2f 65 a6 bd
       0.09111265 0.01706021 -0.19659008 -0.08124768
0003b0 7c dd 61 be a6 93 92 3e 7f 8f 5a be cd 4b 9a bc
       -0.22057146 0.28628272 -0.21343802 -0.018834973
0003c0 8d 85 2c 3e e5 b5 96 3c 62 22 48 3c 80 ff be 3d
       0.1684782 0.018397281 0.012215229 0.093260765
0003d0 80 73 6d be 05 43 0c 3d ba ac 25 3d ae 16 b4 bd
       -0.23188591 0.034243602 0.040447928 -0.08793388
0003e0 91 6d c2 bd a3 e0 15 3d 8c 8b 16 3c 8a 6f c1 3d
       -0.094935544 0.036591183 0.009188544 0.094451025
0003f0 a1 de 19 be e6 ae b8 3d 04 f8 01 3e 31 ab 28 be
       -0.15026332 0.09017734 0.12692267 -0.16471554

layers.0.bias f4 [256]
000000 fb 65 a0 3d e0 42 ad bb 34 8c 36 be 63 6d 54 be
       0.07831951 -0.005287513 -0.17826921 -0.20744853
000010 80 ae 30 be d8 c2 d1 bd 78 7a d7 3c 31 40 b0 bd
       -0.17254066 -0.102422416 0.026303515 -0.086059935
000020 eb bd 40 be 04 54 0b bd 7a 75 9b 3d f8 6b 2f bd
       -0.18822448 -0.03401567 0.07590766 -0.042827576
000030 d5 a3 17 3e a2 a1 91 be cb b9 03 be 75 5a cf bd
       0.1480859 -0.2844363 -0.12863843 -0.10124675
000040 eb bb ec 3d 6a 42 26 3d e0 39 8a bd e4 1e d7 bd
       0.1155928 0.04059068 -0.0674932 -0.10503939
000050 bd f5 d0 bc f6 26 95 bd 37 32 1b 3e 5d bf da bd
       -0.025507802 -0.07282822 0.15155874 -0.10681031
000060 cf 62 42 bd ed e4 9a bd 3a 84 b8 3c a7 bd ec bd
       -0.047457512 -0.075631954 0.022523988 -0.11559611
000070 70 c8 99 3c b3 3d 7e 3c 14 3c 54 3c ce 26 83 3d
       0.018772334 0.01551764 0.012953777 0.06403886
000080 ae c7 10 be e8 1f 82 3d db 31 b3 bd 79 64 8d bc
       -0.14138672 0.06353742 -0.087497436 -0.017259823
000090 8f 1c 54 bc 9a 04 41 bd e4 d6 02 be da 97 01 3e
       -0.012946262 -0.04712353 -0.12777287 0.12655583
0000a0 da 7a 68 be 90 14 38 be a6 e8 47 be 09 ab 35 be
       -0.22703114 -0.17976594 -0.19522342 -0.17741026
0000b0 73 44 56 be 04 1f 2c be df e9 c0 bc 3d 89 3b 3d
       -0.20924549 -0.16808707 -0.023549018 0.045785177
0000c0 45 f4 d5 bd db 5e 30 be b6 44 e1 bd bc 13 91 bc
       -0.10446981 -0.17223684 -0.10999434 -0.017709605
0000d0 8e 47 ed bd 1b dc 3d bc 61 da e6 bd cc cd 87 3d
       -0.115859136 -0.011588122 -0.11272121 0.066310495
0000e0 29 ce 69 be ee 72 1b 3d 86 b3 36 be b5 98 1d be
       -0.2283255 0.037951402 -0.1784192 -0.15390284
0000f0 16 f5 83 be 18 61 26 be d3 c7 a3 bd e0 29 7e be
       -0.25772923 -0.16247976 -0.07997098 -0.24820662
000100 9f 02 87 bd 53 87 c6 3c 5b 9f 33 be fb ff a3 be
       -0.06592297 0.02423445 -0.17541258 -0.32031235
000110 10 3a 65 be 5f 29 e9 bd aa 57 73 be 13 7b db 3d
       -0.2238543 -0.11384844 -0.2376391 0.10716834
000120 3a ae 32 bd d0 7a 67 be ce 32 47 be 1d dc 4b bd
       -0.043623187 -0.22605443 -0.19452974 -0.049770463
000130 47 ca 86 be ff 25 1a be aa da d8 bc 3c 11 e9 3c
       -0.263262 -0.15053557 -0.026471455 0.0284506
000140 35 32 91 3d 05 55 94 bd 91 43 df 3d b2 9c 06 be
       0.07089654 -0.07242779 0.10901559 -0.13145712
000150 29 f2 67 be 1b 70 3b be a6 59 a1 bc d1 cb 1c 3e
       -0.2265097 -0.18304484 -0.019696068 0.15312125
000160 8a e9 a6 bd 39 5d a9 3d 23 a0 6e be 34 b9 94 3d
       -0.08150013 0.08269734 -0.23303275 0.07261887
000170 e2 d8 41 be 8c bc 65 3c 32 35 5c be 39 36 0c be
       -0.1893039 0.014022004 -0.21504667 -0.1369256
000180 b8 43 77 be 9a c4 02 be f3 11 8e be a6 de 7a be
       -0.24146926 -0.1277031 -0.2774807 -0.24498996
000190 28 9f 72 bd 54 4b 81 bd 02 57 17 bd 7d ca 5a be
       -0.059233814 -0.06313196 -0.03694821 -0.21366306
0001a0 34 28 6f be d2 fb 3f be 5f c8 46 be 3b f8 16 be
       -0.2335518 -0.18748406 -0.19412373 -0.1474313
0001b0 f3 83 3d 3d 3e fb 38 be 41 15 7f be 46 dc 2a 3d
       0.046268415 -0.18064591 -0.24910451 0.041713975
0001c0 85 58 a6 bd c3 e7 70 bd 1f 69 58 be 47 1a d7 bc
       -0.081223525 -0.058814775 -0.2113385 -0.026257647
0001d0 fe ad 95 3d 6c c6 40 bc a2 cc 0f 3d b4 ef 1b be
       0.07308577 -0.011766057 0.035107262 -0.15228158
0001e0 00 a6 51 be 84 bb d8 bd f4 4b 33 be 99 3f c0 bd
       -0.2047348 -0.10582641 -0.17509443 -0.0938713
0001f0 b8 2e 40 3d 1c 95 69 be 77 8a 0e 3e 9e d4 bf bd
       0.046919554 -0.22810787 0.13920008 -0.093667254
000200 21 fc 11 3d bb 6b 0e bd 36 c1 00 3d 4d 6e 34 be
       0.03564084 -0.03477071 0.03143426 -0.17620201
000210 88 66 ab 3d 39 c7 00 be 01 72 3a 3d 11 8b 39 be
       0.08369166 -0.12575997 0.04551888 -0.18119456
000220 3a 0b a0 3d d4 27 77 bd 08 f8 ef 3d 91 ba 15 be
       0.07814641 -0.060340717 0.1171723 -0.1462195
000230 7a f6 cd bd 6d b4 0a be 7f 7c 9b bd b7 37 a3 3d
       -0.10056777 -0.1354539 -0.07592105 0.07969611
000240 cc 59 6c bb 32 7a 88 bd 2e f6 a6 bb de fa ac 3d
       -0.0036064265 -0.06663932 -0.005095265 0.084462866
000250 6d 54 6c be 05 66 55 bd 75 b9 76 be 7e dd 45 bd
       -0.23079081 -0.052099247 -0.24094184 -0.048306935
000260 90 de 17 3d 53 5f fe 3d 6f 2f 20 bd b8 a8 24 be
       0.037077487 0.124205254 -0.039107736 -0.16079986
000270 62 c5 e4 bd d8 e8 ab bd 3a 96 05 bd 0a 2c 81 bd
       -0.1117046 -0.08394021 -0.03261397 -0.06307228
000280 3c e5 62 be 94 66 4e bd e4 97 09 3d b8 e6 39 3c
       -0.22157758 -0.050390795 0.03359212 0.011346512
000290 6a fe 9c bd b4 a5 7d 3d 68 d7 5a be 19 c6 5b be
       -0.07665713 0.061925605 -0.21371233 -0.21462287
0002a0 73 af 0a bd 60 4b 4d be 0e 15 ae 3d b5 bb c5 3d
       -0.033858728 -0.20048285 0.085001096 0.09654943
0002b0 db e4 3d be c3 a0 22 bd 7b 80 37 be 58 b6 54 be
       -0.18544333 -0.039704096 -0.17920105 -0.20772684
0002c0 cf de 88 be 2d 8b 92 bd b0 19 e7 3c 54 a7 28 bd
       -0.2673249 -0.07155452 0.028210491 -0.0411752
0002d0 19 1b d8 3d 66 8d 1b 3e e4 30 7c be 26 b4 11 be
       0.105520435 0.15190658 -0.24628025 -0.14228877
0002e0 25 0d 90 3d 1e a3 a6 3d 3c 80 e9 3c 77 20 82 bd
       0.07033757 0.08136581 0.02850353 -0.063538484
0002f0 56 fa f1 bd 14 04 4e be c7 c7 85 3c ec 9d af bd
       -0.11815326 -0.20118743 0.016330613 -0.08575043
000300 a7 86 84 3d f1 8c fc 3d 23 d3 28 be e7 3e 30 bd
       0.064709954 0.1233157 -0.16486792 -0.04302874
000310 0d 6a 36 bc 89 b8 6b be fd 84 82 bd 82 e7 6c bb
       -0.011133683 -0.23019613 -0.06373022 -0.0036148732
000320 43 b7 f1 3d af 13 04 3e 99 7c 20 be 6e 26 20 3c
       0.118025325 0.12898134 -0.1567253 0.009774787
000330 5a 8d 15 bd 88 a5 7f be e5 47 67 be 50 57 d2 38
       -0.036511756 -0.24965489 -0.2258602 0.000100298435
000340 90 c5 a5 3d f4 1c ad 3d a2 c3 d4 bd c8 62 07 be
       0.08094323 0.08452788 -0.103888765 -0.13221276
000350 77 ff 91 be 1c bc 56 be a5 d0 27 3c bc 91 ef 3c
       -0.28515217 -0.20970196 0.010242616 0.029244296
000360 bb e3 14 be 4f 23 6d be 37 45 ce 3d e4 ea 3e be
       -0.14539997 -0.23158 0.100717954 -0.18644291
000370 d2 fc 8b be f9 76 1f 3d ff 12 b2 bd b7 85 08 bd
       -0.27341324 0.03893182 -0.086950295 -0.033330645
000380 c5 3d 93 be 3e 0c 09 bd f5 64 7a 3d 52 9c 42 bb
       -0.28758064 -0.03345894 0.061131436 -0.0029695225
000390 99 5a d3 bd 22 80 3e be 14 21 3a be a4 3a 18 be
       -0.103200145 -0.18603566 -0.18176681 -0.1486612
0003a0 5d cc 03 be 8d 2f 2f be e2 8e 19 be 49 4e a1 bd
       -0.12870927 -0.17107983 -0.14995912 -0.0787626
0003b0 19 67 8c 3d 11 6e 0e bd d5 73 5c be 38 2a 66 be
       0.06855602 -0.034772936 -0.21528561 -0.22477043
0003c0 53 0c 26 be 2a 95 8a be 28 f4 5a be 91 93 23 3e
       -0.16215639 -0.27066928 -0.213822 0.15974261
0003d0 bc f2 0f be 2e 14 e0 bc 90 ca 1f be 44 18 7a 3d
       -0.1405744 -0.027353372 -0.15604615 0.061058298
0003e0 60 d1 69 be 99 ad 6c 3d 2c 7b 70 3d 92 80 00 3d
       -0.22833776 0.057782743 0.058711216 0.031372614
0003f0 ec 09 da 3d 8c a2 21 3d 31 41 09 be 57 63 48 3d
       0.10646424 0.039461657 -0.13403775 0.048922863

layers.3.weight f4 [80, 256]
000000 be 81 5f bd ac fa 56 3d 19 12 8f bb 20 b4 d7 bc
       -0.05456709 0.052485153 -0.004366171 -0.026331007
000010 75 5e 5f bd 8c 57 9e bd 7f d0 a4 3d e5 e5 82 3d
       -0.05453344 -0.07731542 0.0804758 0.06391505
000020 72 04 47 3d 1d f5 c4 bd c7 34 27 bc 16 de b4 ba
       0.048588224 -0.09617064 -0.010205454 -0.0013799097
000030 84 35 7e 3c 1e a9 ec 3c 90 42 15 3d 6e 23 45 3d
       0.015515689 0.028889235 0.036440432 0.04812949
000040 d1 c1 31 bd 20 71 53 bd 28 cd 72 3c 2d 39 4e 3d
       -0.04339773 -0.051621556 0.014819421 0.050347496
000050 a9 7d ac 3d b1 7b ee 3c 2e 78 13 3d b6 08 4c 3d
       0.08422405 0.029111715 0.036003284 0.049812995
000060 d2 67 d0 3d 35 eb 71 bd f5 c7 d2 3c 09 d1 72 3d
       0.10176052 -0.0590622 0.025730113 0.059281383
000070 3d a2 56 bd 45 fc 84 bc 2d f0 ad 3c c2 58 28 3c
       -0.052400816 -0.016233573 0.021232689 0.010275068
000080 3b f7 34 3d e4 41 af bd 67 82 7b 3d 14 0d 6d 3d
       0.04418109 -0.085574895 0.06140366 0.0578738
000090 56 70 b7 bd 68 4a 29 bc 5a 66 2a 3d a8 20 c1 bd
       -0.08956973 -0.010332681 0.041601516 -0.09430057
0000a0 d5 1e 89 3c de b9 a5 bd c5 bd 9b bd 03 31 1e 3d
       0.016738335 -0.08092092 -0.07604555 0.03862096
0000b0 2d 50 64 3d 17 b7 80 bd 8d a5 5d bc b1 e7 8d 3d
       0.055740524 -0.062849216 -0.01352824 0.06928957
0000c0 00 f4 47 bd ee 64 e5 3c 41 f8 4d 3c e5 6c dc 3b
       -0.04881668 0.028002229 0.012571395 0.0067268484
0000d0 08 0d 85 bc e7 07 d6 bc 8e 56 fe bc a5 40 04 bc
       -0.016241565 -0.026126815 -0.031047132 -0.008072053
0000e0 65 a5 9a 3d 75 89 d3 3c a7 dd 0e bc 5b 8c d8 bd
       0.07551078 0.02582238 -0.008719838 -0.10573646
0000f0 5b 28 e5 3d e4 61 9b bc 33 e8 85 39 10 48 01 3d
       0.11189338 -0.018967576 0.0002554074 0.031562865
000100 35 7b 76 bd a8 04 6f 3c 55 e6 b9 3d 38 e9 ee b9
       -0.060176093 0.0145885125 0.090771355 -0.0004556866
000110 34 ad 03 3d 0b c4 53 bd d7 66 15 bc 74 f0 04 be
       0.0321476 -0.051700633 -0.009118757 -0.1298235
000120 21 36 7e 3c fb d1 09 bd d6 bc f5 bc 6d 43 1e 3d
       0.015515835 -0.03364752 -0.02999727 0.03863852
000130 83 15 d4 bd 6f a9 fd bc 49 e9 35 3d 41 2d 95 bd
       -0.103556655 -0.030964581 0.04441193 -0.07284022
000140 99 83 51 bd be 5a e8 3c 10 62 98 bc f9 2e 9d 3d
       -0.051150892 0.028363582 -0.018601447 0.07674975
000150 ba da a4 bd 3f a2 77 3c b7 42 b7 3d b0 7b 85 3a
       -0.08049531 0.015114366 0.08948272 0.0010183956
000160 8a 9d e6 3c 0f 4f 7d 3c 3d 7f a1 3c 48 40 93 3d
       0.028151292 0.015460744 0.019713992 0.07189995
000170 c0 9c 85 bd 23 a6 18 bd 4e 25 04 bd cf cc ad bc
       -0.06524038 -0.037267815 -0.03226214 -0.021215824
000180 4d fa 10 3c 55 84 d6 bb 24 a9 5e bd 88 fd 25 3b
       0.008848739 -0.006546537 -0.054360524 0.0025328118
000190 18 0f a3 bd 21 30 16 bd ee 7b 87 3c 0a 59 9b bd
       -0.07961863 -0.036666993 0.016538586 -0.07585342
0001a0 ac 64 b5 bd 66 a3 94 3b d9 09 b2 3d 0e a8 e4 3b
       -0.08857092 0.00453608 0.086932845 0.0069780415
0001b0 ca 69 12 bd f3 6a 60 3d c5 bc f5 3b 0e a5 66 bc
       -0.03574542 0.054789495 0.0074993097 -0.014077438
0001c0 95 12 a6 3c c8 1d 87 3d c0 b4 ba bd c9 d5 09 bd
       0.020272532 0.06597477 -0.091165066 -0.033651147
0001d0 46 43 99 bd ea d0 16 3b 18 ca 27 bc bb 76 4a bd
       -0.074835345 0.0023012706 -0.010241054 -0.049429636
0001e0 c4 d7 2a 3d 05 89 1b 3d 9e ce 85 3d 73 f0 00 3c
       0.041709676 0.03797247 0.0653355 0.007869828
0001f0 c9 2e f6 3b ba a2 2b bc 65 c1 ae bc 4c 7b 87 3d
       0.0075129014 -0.010475809 -0.021332452 0.06615314
000200 f0 5c 0b bd 82 7c b4 3c ec de 61 bc fc 82 02 3e
       -0.03402418 0.022032026 -0.013786059 0.12745279
000210 8a d7 a1 bd b8 34 bc bd 40 8b 48 bd fe 49 b1 bc
       -0.07902439 -0.09189743 -0.048960924 -0.021641728
000220 a6 00 7e bd 76 e0 8b 3d 53 0b 79 bc 3f 6d 7e 3c
       -0.062012337 0.06829922 -0.015200454 0.015528976
000230 60 ce 58 bd 67 63 26 3c de 08 79 bc 3c c1 31 3d
       -0.05293119 0.010155535 -0.015199868 0.043397173
000240 c3 bc 16 3b cf 5c 22 bd 16 2e cf bd 1e 00 f1 bc
       0.0023000694 -0.03963929 -0.10116212 -0.029419001
000250 e3 4c 03 3e cd 65 f1 3c 05 6b 7c bd 2f 4e 02 bd
       0.12822299 0.029467488 -0.0616255 -0.031812843
000260 f5 57 cb bc a0 7b 5a 3c 6e 9c 90 bc be 98 61 3d
       -0.024822215 0.013335139 -0.017652716 0.055077307
000270 0e fe 38 bd 92 d8 ff bb ee 3d 94 bb 8a 18 49 bd
       -0.04516416 -0.0078077996 -0.004523984 -0.049095668
000280 ab 34 e4 3d 83 a9 8c 3d e8 ba 59 3c ac dc c7 3c
       0.11142858 0.06868269 0.013289191 0.024397217
000290 fe d8 2e bd 6a 49 3b bd 61 64 b3 bb c8 fa f7 39
       -0.04268741 -0.04572431 -0.0054746126 0.00047298358
0002a0 df 3d 09 3d 29 14 43 3d e7 15 4c bc ec 9c 9d ba
       0.03350627 0.047626648 -0.012456394 -0.0012024916
0002b0 ef 66 86 3d e7 73 12 bc 37 ee a3 3d d8 c0 09 bd
       0.06562602 -0.008938766 0.0800442 -0.033631176
0002c0 14 e6 65 bd 7d 54 3b 3d bc a5 be 3d ad 69 13 bd
       -0.056127623 0.04573487 0.09308955 -0.035989452
0002d0 4d 6e 85 bd 0d 08 05 3d c2 44 51 3d 9e d1 3a 3c
       -0.06515179 0.03247838 0.051090963 0.011402516
0002e0 30 19 80 bc 3a 28 0e 3d b2 b8 92 bd 2f 9a 84 3d
       -0.01563701 0.03470633 -0.07164134 0.06474721
0002f0 6a d6 d4 3c b2 27 3e bd e7 5b 2b bc 28 a6 71 bd
       0.025981147 -0.046424575 -0.010458923 -0.05899635
000300 e3 75 e6 3c d0 60 65 bd ce 0a f5 3c 01 24 44 bc
       0.028132385 -0.05600053 0.029912379 -0.011971475
000310 e5 2f 98 3d 2e ea 9d bc a6 6e 5a 3d c7 e9 a9 bc
       0.0743101 -0.019276705 0.05332818 -0.020741357
000320 fb 03 83 bd 42 15 be 3d ed 82 90 bc d6 62 16 bd
       -0.063972436 0.09281398 -0.017640555 -0.03671535
000330 a3 86 f0 3c 79 20 86 3c 3f 44 b3 3d 48 85 b1 3b
       0.029361075 0.016372906 0.08753251 0.0054174997
000340 79 3f 5e bc 1d 9e 65 bc 8a dc 64 bd ba 56 9f 3b
       -0.013564938 -0.014014748 -0.055874385 0.0048626335
000350 a9 bc 37 3c 76 d9 d2 3c c3 75 8a 3d 94 f7 5e 3b
       0.011214414 0.02573846 0.067607425 0.003402208
000360 49 71 b5 3c e4 d5 f3 3c b7 af 22 3c 25 da 9f bc
       0.022148745 0.029765077 0.009929589 -0.0195132
000370 b3 a6 8c bd 41 6c 53 bd 50 47 51 bd f6 36 e8 3c
       -0.06867733 -0.05161691 -0.0510934 0.02834652
000380 b8 11 c3 3d 19 31 51 bd 08 bd 23 bd b6 11 77 3d
       0.09524864 -0.051072214 -0.039975196 0.060319625
000390 05 74 8c 3d 62 3f a6 bb 88 3b a4 3c d0 55 1f 3d
       0.068580665 -0.005073474 0.020047918 0.038900197
0003a0 87 4e 6c 3c 0e c4 fa 3d f7 61 0c 3d 71 27 82 bd
       0.014423019 0.12244426 0.034273114 -0.06355179
0003b0 58 0d 91 3c 8e b1 09 3c 8d 33 89 bc 05 16 ac 3d
       0.017706558 0.008404149 -0.016748214 0.084026374
0003c0 18 37 05 bd d8 5c b7 bd cf 93 70 bd f4 40 39 3c
       -0.032523245 -0.089532554 -0.05873471 0.01130699
0003d0 d4 e6 4a 3c d0 1c 54 3d 24 43 f9 3c b6 fa 62 3c
       0.012384135 0.05178529 0.030427523 0.013853719
0003e0 59 ae 80 3d f7 2f 31 bb c1 ae 34 bc b5 75 15 bc
       0.06283254 -0.0027036646 -0.011027993 -0.009122302
0003f0 e1 65 6e bd 77 f6 e5 3c 24 95 b2 3d 1b 43 e6 bc
       -0.058202628 0.028071625 0.087198526 -0.02810817

layers.3.bias f4 [80]
000000 e6 9d cc bc 12 fb 85 3d 0e 56 00 bd 8a 3c 44 bd
       -0.024977636 0.065420285 -0.03133207 -0.047909297
000010 b2 e7 e8 bc ff fc cb bd a6 65 96 bd 49 2f 12 bd
       -0.028430793 -0.099603646 -0.07343607 -0.035689626
000020 e5 6b b0 39 14 2d 8b bd 3b 21 c9 3b 03 98 5a bd
       0.00033649724 -0.06795707 0.0061379946 -0.053367626
000030 30 78 c2 3c 1a 71 26 bb 37 d2 0b 3d 37 b5 30 3d
       0.02373895 -0.0025397004 0.034136023 0.04314157
000040 8d 0b 31 bc da c7 4f 3d fa ea e1 bb 25 b8 75 3c
       -0.010805977 0.050727703 -0.0068944665 0.014997517
000050 e5 16 ad bd 01 bc 55 bd cc 36 0e 3b d8 49 a0 bb
       -0.084516324 -0.052181248 0.0021700142 -0.0048916154
000060 5d 6b 13 bd a9 71 d7 bd 18 91 67 bc 96 dc 01 3d
       -0.03599106 -0.10519726 -0.014133714 0.031704508
000070 98 6d 84 3b 2c 8d 4d bd ea af ba bd 73 8b d1 3b
       0.004041385 -0.05018346 -0.09115584 0.0063947975
000080 c2 03 87 3c f7 d0 44 3d 7f 13 94 bd 5c 17 ba bd
       0.016481284 0.048050847 -0.07230281 -0.09086487
000090 89 20 15 bd d4 2d 34 3d 0a cd 10 3d 6b d7 92 bd
       -0.03640798 0.043989018 0.03535179 -0.07169994
0000a0 3d 79 84 bc d5 7a 78 bb 1f 6d 72 bc bc dd cf 3c
       -0.016171092 -0.003791501 -0.014796524 0.025374286
0000b0 4e 4f b0 ba b5 eb 95 bd 14 a8 7b bd 9a 0e 89 bd
       -0.0013451369 -0.07320348 -0.06143959 -0.06692238
0000c0 e3 63 11 bc 0c c3 7e 3d ae 4d 25 bd e6 d4 70 3b
       -0.0088739125 0.06219773 -0.040357284 0.003674799
0000d0 f3 7f bc bd be fe e5 3b ed 6d eb bc 07 93 82 bc
       -0.09204092 0.007018893 -0.02873894 -0.015939249
0000e0 fa c4 08 bc dc 86 93 bd d5 a1 c2 bc 96 2a 95 3d
       -0.008347744 -0.07203457 -0.023758808 0.07283513
0000f0 7a cd 95 3d 48 f8 9b bd 48 f6 26 3d 43 13 62 3d
       0.07314582 -0.07615715 0.040762216 0.05519415
000100 0d 86 1d 3a 89 f0 c2 bb 81 7f 03 bd 09 aa e2 bb
       0.000600905 -0.005949084 -0.03210402 -0.0069172424
000110 28 00 27 bb af 8f a8 bd 1c da 10 3d ca 69 77 bd
       -0.002548227 -0.082305305 0.035364255 -0.060403623
000120 9a 18 21 bd 07 0b 1a bd 24 47 ba bd 2e 94 e5 bb
       -0.039330103 -0.037608173 -0.090956 -0.00700619
000130 78 88 ae bd 3f 02 89 3b 5e 43 a7 bd 19 18 bc bd
       -0.08522123 0.004181176 -0.08167146 -0.09184284

layers.6.weight f4 [64, 80]
000000 dd 34 e2 3d a3 89 d3 bd 7d d6 3b bc ef e5 98 ba
       0.11045239 -0.103289865 -0.011464712 -0.0011665205
000010 f9 ef b4 3d 72 bb cd bc 7f be c1 3b 6b e7 14 3c
       0.08834834 -0.025113795 0.0059126015 0.0090883775
000020 29 02 75 bb 52 21 ce 3b 4c c8 13 3e 77 bb 2c bd
       -0.003738532 0.006290593 0.14431876 -0.042170968
000030 78 90 4b 3d b3 ca 05 bc d0 4e 18 3e b3 c2 fc bd
       0.049698323 -0.008166003 0.14873815 -0.123418234
000040 98 22 86 3d 14 75 09 be 22 3e 1b bc 6c a4 24 3e
       0.06549567 -0.13423568 -0.009475263 0.16078347
000050 c4 2a 44 3c 80 3a 84 bd 7e fa fd bc e9 7a 9c bc
       0.011973087 -0.064564705 -0.031003233 -0.019101577
000060 a4 b8 3d 3c 54 02 28 3b 3a 50 ef bc 3f 64 4c bd
       0.011579666 0.0025636153 -0.02921306 -0.04990029
000070 a6 9e 70 bc e6 f9 52 bd 6d 54 26 3e 63 5f 24 3e
       -0.014686262 -0.051507853 0.16243143 0.16052012
000080 16 9b b7 bd 31 1b db bd 4a f4 50 bb 81 16 ea bc
       -0.08965127 -0.10698546 -0.003188389 -0.028575184
000090 8c 2c 8b 3d 82 3f dd bd c1 db 98 3d 61 99 41 3c
       0.06795606 -0.10803129 0.0746379 0.011816354
0000a0 31 dc 40 3d 13 a2 35 ba c7 5d ad 3d ec 95 20 3d
       0.04708499 -0.0006928753 0.08465152 0.039205477
0000b0 2c 4f 85 bd e7 55 75 bc 0b d9 61 bd 6f d7 d1 3d
       -0.065092415 -0.014974094 -0.05513863 0.10246169
0000c0 a1 23 cb 3d 87 41 e4 bd 62 76 58 3d 1d 32 98 bc
       0.09918905 -0.11145311 0.052847274 -0.018578583
0000d0 2d a7 93 3d 11 70 16 bc 68 4e 7a bd 2f 25 ab bd
       0.072096206 -0.009181992 -0.06110993 -0.083567016
0000e0 02 04 13 3d 2b 8b 2a 3d 03 7b 43 bd 65 3d 00 bd
       0.035892494 0.041636627 -0.047724735 -0.03130855
0000f0 c6 2d e9 bd 30 a6 b3 3d e2 a2 19 bc b9 7b dc 3d
       -0.11385684 0.08771932 -0.009377213 0.10765786
000100 42 b7 72 3d 5b db 93 bd 90 ab 20 bd c6 a2 12 3e
       0.0592568 -0.07219573 -0.039226115 0.14319906
000110 e7 d9 dd 3c 5e bd 09 3e 24 54 48 3d 6d ff c1 3d
       0.027081443 0.13451144 0.048908368 0.09472547
000120 62 85 83 bd 3a cd b9 bb b9 92 cd 3d 30 e6 cc 3d
       -0.06421925 -0.005670217 0.10037751 0.10004842
000130 a3 50 2c 3e fe 96 a5 3d 8f 8b 3b 3d 95 6e 20 bd
       0.16827635 0.0808544 0.04578739 -0.03916796
000140 ee 90 11 3e 24 f8 42 be 0f 50 89 bd 2e 81 c0 bd
       0.14215443 -0.1903997 -0.06704723 -0.09399639
000150 ed 54 1b 3e 54 cf 01 bc c2 69 2a bd 30 5b 1c 3e
       0.15169115 -0.007922966 -0.041604765 0.1526916
000160 77 2e d4 bc a7 aa a7 3d e9 0e 85 3c 38 be 8c 3d
       -0.025901062 0.08186846 0.016242461 0.06872219
000170 62 23 76 bd 50 df 2b bd 0b 91 95 bc ea 1c b9 bd
       -0.060092337 -0.041961014 -0.018257638 -0.09038718
000180 8c 99 5b 3d e3 01 10 be f0 54 71 3d e7 2e 01 bd
       0.05361323 -0.1406322 0.058918893 -0.03153887
000190 12 a9 31 bd 5a a8 a4 3d c0 30 79 bb 63 bc 10 bd
       -0.04337413 0.08039923 -0.0038023442 -0.03533591
0001a0 7a ee bb 3d 4b 5e 49 3c 8f c7 ba 3d 65 a7 e2 bd
       0.09176345 0.012290548 0.09120094 -0.11067084
0001b0 33 e1 d6 3d 4b e8 f8 bd 1f d7 f7 3c 18 7d 0a 3a
       0.10492172 -0.12153681 0.030253945 0.00052829226
0001c0 37 6d 39 3c e8 b9 93 bc 66 d2 84 bc 93 aa 04 3e
       0.011317543 -0.018032983 -0.016213607 0.12955694
0001d0 44 e8 f4 bb 50 d8 99 bd 3c ac 90 3c f0 37 4b 3d
       -0.0074739773 -0.075119615 0.017660253 0.049613893
0001e0 e8 e9 f7 bc 7b 77 e3 3c b3 fc 0f 3e 58 a6 12 be
       -0.030262902 0.027766934 0.14061241 -0.14321268
0001f0 42 63 0d be c5 41 b0 bd fe 12 e0 bd 61 9d aa 3d
       -0.13807395 -0.086062945 -0.109411225 0.08330799
000200 65 34 01 3e d6 81 46 bd 84 5c bd bc 0b 22 99 bd
       0.12617643 -0.048463665 -0.023115404 -0.07477196
000210 40 1a 94 bd dd be 01 be 2e 96 26 bd 82 15 b5 bd
       -0.07231569 -0.12670465 -0.040670566 -0.08841993
000220 3b 44 83 3d 75 9f 1c bd ac fe 14 bd 94 fd ca bd
       0.06409498 -0.038238008 -0.036375687 -0.099116474
000230 68 d2 14 be b3 e8 96 bc 60 d4 1e 3d 71 80 19 3e
       -0.14533389 -0.018421507 0.038776755 0.14990403
000240 39 9e 58 bd ac a3 9d bd c6 e5 e1 3c 52 fd 71 3d
       -0.052885268 -0.076972336 0.027575385 0.059079476
000250 61 5f 06 be f9 9a d0 3d 73 51 77 3c d0 06 b2 3d
       -0.13122322 0.10185809 0.015095103 0.08692706
000260 3a d7 69 bc 4f 13 a5 3d ad 04 fc 3d 9b 70 f0 bc
       -0.014272505 0.080603234 0.12305579 -0.02935057
000270 be b7 11 3e 29 50 a3 3b 98 b4 c1 3d 54 1b 15 bd
       0.14230248 0.004983921 0.09458274 -0.036403015
000280 0c 0e 71 ba ad 58 d6 3b 27 31 81 bd 5c a4 bc bd
       -0.00091955136 0.0065413327 -0.06308203 -0.092110366
000290 2d 62 5c 3d c9 21 4b 3d 24 4b 81 bc 48 70 ed 3a
       0.053804565 0.049592767 -0.0157829 0.0018115127
0002a0 bc 5c 52 bd 78 99 85 3b 25 94 d6 3d 2c b7 68 3c
       -0.05135797 0.004077133 0.10477475 0.014203828
0002b0 44 47 d6 3d 5e ba 7a 3b 7e de 77 bd 28 d4 2c bb
       0.104628116 0.0038258056 -0.06051492 -0.0026371572
0002c0 00 dd 8b 3d cd 7c 84 bd 85 30 22 3d a4 ee 4a bd
       0.06829262 -0.06469116 0.039597053 -0.04954399
0002d0 5a b5 06 3e 66 40 53 bd 63 e2 9d bd 45 14 41 3d
       0.13155118 -0.051575087 -0.077091955 0.04713847
0002e0 e4 4a 6e 3d 4a 29 9a 3d ab 18 5e 3d cc 3f e0 3d
       0.05817689 0.075274065 0.054222744 0.10949668
0002f0 2f b9 5b 3d 88 9f 06 3d ce 4f 11 bd ea 74 35 bd
       0.0536434 0.032866985 -0.0354765 -0.04430095
000300 23 95 85 bd 23 ff d3 bd 46 8c 6e 3d d9 25 33 3d
       -0.06522586 -0.10351398 0.058239244 0.043737266
000310 52 61 b1 3a b0 78 cb bc c4 a6 fc 3d df e6 c7 bd
       0.0013533032 -0.024837822 0.123364955 -0.09760832
000320 3c ac 46 b9 7d 57 cd bd 36 4c aa bb 65 14 b1 bd
       -0.00018946914 -0.10026453 -0.0051970733 -0.08646468
000330 b8 83 85 bc 2f 65 a5 3d 76 c5 a0 bd be 01 3e 3d
       -0.01629816 0.0807594 -0.07850163 0.04638838
000340 f9 f3 cb 3d f7 b6 e2 3c 4c a2 bb 3d f0 d6 e3 bd
       0.099586435 0.027675135 0.09161815 -0.111249804
000350 10 77 2b b9 52 9e bc bd 8b d9 b8 bd 3e f0 0d be
       -0.00016352185 -0.09209885 -0.09025868 -0.13861176
000360 e3 4f 80 3d f8 f7 24 3e 96 02 12 3d b8 ea 38 3d
       0.06265237 0.16110218 0.035646997 0.04514572
000370 ff 1d f2 bd a5 0a a1 3d 2d 42 97 bd 6c 9c 1e bd
       -0.118221276 0.078633584 -0.07385669 -0.038723394
000380 a4 c7 6e 39 6d ef d7 bc 03 7a 20 3d be 79 93 3d
       0.0002277182 -0.026359284 0.03917886 0.07200955
000390 4a 9b 0c 3b 06 de 3c 3d a4 4a ea 3d 58 ec 81 3d
       0.0021454864 0.046110176 0.11440018 0.06343907
0003a0 c5 83 c6 bd cc 42 8d bc 22 aa ca 3c 1b c2 89 3c
       -0.09693102 -0.017243765 0.024739329 0.01681619
0003b0 43 4c 85 3d ce e4 fa 3a 15 69 fa 3d e3 2c ea 3d
       0.065086864 0.0019141675 0.12227074 0.11434343
0003c0 26 78 82 3d bc 12 dd bd fe 1c 8a 3d bd 60 5c bd
       0.06370573 -0.10794589 0.06743811 -0.053803194
0003d0 9c 48 0c bd 4d c2 91 bd 48 04 75 bc 34 e3 cd 3d
       -0.034248933 -0.07117138 -0.014954634 0.10053101
0003e0 01 9b 35 3d 5e 77 bf 3d a3 82 3e bb 73 a5 de 3d
       0.044337276 0.09348939 -0.0029069565 0.10871401
0003f0 15 79 24 bd f0 2f be bd ac 2f 12 3e ec bb 65 bd
       -0.040154535 -0.09286487 0.14275998 -0.05608742

layers.6.bias f4 [64]
000000 47 01 84 3d dc 4f 05 3e f1 75 b0 bd b7 b4 58 3d
       0.06445556 0.13018745 -0.086162455 0.052906718
000010 03 3c eb bd 06 59 0a be f3 c6 7d 3c 74 76 cf 3c
       -0.11486056 -0.13510522 0.015489328 0.025325038
000020 48 61 51 3d 2d 7b 50 3d 81 1e 51 3d 76 df d7 3c
       0.051118165 0.05089872 0.05105448 0.026351672
000030 40 c0 16 3e 9f cc ce bb 68 29 ab 3d 02 15 9d 3c
       0.14721775 -0.006311014 0.08357507 0.019175056
000040 0e c5 da bc 82 fc ea bd d3 30 0b 3e 93 49 3c bd
       -0.026705291 -0.11473943 0.13592844 -0.045968603
000050 7e 18 74 3d f7 c2 a8 3d 54 77 c4 bd b8 4a 1b 3d
       0.05959367 0.082403116 -0.095930725 0.037913054
000060 84 01 70 3d bf 10 e4 bd a9 a3 8d bd 76 58 c1 bd
       0.058595195 -0.111360066 -0.06915981 -0.09440701
000070 66 fa 60 3d c6 f9 f9 3d f6 d5 0d be 92 a3 0f be
       0.0549263 0.122058436 -0.13851151 -0.14027241
000080 46 57 11 3e 9d b6 1e 3e 8b 50 60 bc 6b 5e 13 bd
       0.14193448 0.15499349 -0.013691078 -0.035978716
000090 b1 db e3 ba d8 f8 02 3e d2 59 1e bb 26 ec 48 3d
       -0.0017384199 0.12790239 -0.0024162424 0.049053334
0000a0 12 62 20 3d fa e7 fb 3d b7 a9 ac 3d 83 22 94 3c
       0.039156027 0.123001054 0.08430808 0.018082863
0000b0 f4 08 ff 3c 0f a9 21 3e ac 66 26 3d 9b e8 d1 bd
       0.031132199 0.15787147 0.04062526 -0.10249444
0000c0 38 d0 c5 bc 7f b6 a4 bd 2b 05 e0 3d e9 d9 77 bd
       -0.024147138 -0.08042621 0.10938486 -0.06051055
0000d0 6a 7b cc 3c 7f a7 b8 3a fe 46 1e bd 7f b9 a6 3d
       0.024961192 0.0014088004 -0.038641922 0.08140849
0000e0 2c ca 62 3d e3 1e 21 3d e9 8e e9 3d 46 c2 2d bb
       0.055368587 0.039336096 0.11404211 -0.00265135
0000f0 d8 c5 8d 3d 8e 02 9c 3d c6 ea b3 bd a9 ac 0b be
       0.06922501 0.07617675 -0.08785014 -0.13640083

layers.8.weight f4 [1, 64]
000000 1b 2f a1 bd 9f 0c dd bd 0f 3e 7e bd 49 d7 e3 bd
       -0.07870313 -0.10793423 -0.062070902 -0.11125047
000010 5d 3f bf bd 55 ed da bc d5 e5 d4 3d ad 19 39 3d
       -0.093382575 -0.026724497 0.103953995 0.045190502
000020 21 e9 5e 3d 65 d4 b5 3d b6 d9 75 bd c3 0c 08 bd
       0.054421548 0.08878402 -0.06002208 -0.033215296
000030 7e 6a e1 3d 5a c3 bc bd fb 2a 03 3e a4 7a cb 3d
       0.1100664 -0.09216948 0.12809364 0.09935501
000040 18 44 bd 3d 10 4d 13 3d 81 52 f3 bd f0 5f 8d 3c
       0.092415035 0.035962164 -0.11880971 0.01725766
000050 b6 86 16 be 04 2f 2a 3d ff 8a 31 bd 08 d0 35 3d
       -0.14699826 0.041548744 -0.043345448 0.044387847
000060 17 31 8c 3d 20 46 d3 3c 15 9d e9 3d 09 ce 4a bd
       0.06845301 0.025790274 0.11406914 -0.049512897
000070 99 95 15 be 75 82 ab bd 47 1d 04 3d 10 1e 18 bd
       -0.14607848 -0.08374492 0.032254484 -0.037138045
000080 2a e5 03 be 1b 29 0e be 58 72 00 3e 1c 67 ac 3c
       -0.12880388 -0.13882868 0.12543619 0.02104526
000090 d8 10 f0 bd 8c 6e 39 3e 16 be 04 3e ba 86 00 be
       -0.11721963 0.18108577 0.12963137 -0.12551394
0000a0 12 0b bc bd 06 d9 fb 3d 09 7e 29 3e c3 aa 1a 3c
       -0.09181799 0.12297253 0.16551985 0.009440127
0000b0 a0 2d bf 3d 3e 2d 28 3e 71 a2 5e bd 3a 6c f0 bc
       0.09334874 0.16423509 -0.054354135 -0.029348481
0000c0 dc f0 b5 3d cf b7 4b bd d9 1e af 3d e1 83 35 bd
       0.08883831 -0.04973584 0.085508056 -0.044315223
0000d0 eb d4 d1 3d 55 bc ef bc 80 24 9a bd 7c e7 5e bd
       0.10245689 -0.029264608 -0.07526493 -0.05441998
0000e0 97 82 ea bc f6 e0 f6 3d 23 4e 08 be 6e aa a4 bd
       -0.028626723 0.12054627 -0.13311057 -0.080403194
0000f0 ba 89 f5 bd 38 4c a8 bd 26 23 55 3d be a5 24 bc
       -0.1198916 -0.082176626 0.052035473 -0.010049282
