flwr-mlp/models/checkpoints/round_009.pt (torch, 127593 bytes, 7 tensors)

layers.0.weight f4 [256, 19]
0	0xbd86b41b	-0.06577321
1	0xbe1588a6	-0.14602908
2	0x3cc389e1	0.023869457
3	0xbe3930f7	-0.18085085
4	0x3d01ef3b	0.03172229
5	0xbdfc5966	-0.12321739
6	0xbda29e0b	-0.079403006
7	0xbe45a705	-0.19301994
8	0x3e28217f	0.16419028
9	0xbdfff6d8	-0.124982536
10	0x3d303fff	0.04302978
11	0x3e28c5c4	0.16481692
12	0xbd0d0bb8	-0.034435004
13	0xbe123efa	-0.14281836
14	0x3e4048a8	0.18777716
15	0xbd06bc44	-0.032894388
16	0xbe07ccb2	-0.13261679
17	0x3d739811	0.059471194
18	0xbe44db0e	-0.19224188
19	0xbe3c67ea	-0.18399015
20	0xbd23d19d	-0.039994825
21	0x3dbdde76	0.09270947
22	0xbb51e9f4	-0.0032030316
23	0xbd8cb6dd	-0.06870816
24	0xbcd06549	-0.025438922
25	0x3e4026b4	0.18764764
26	0xbe613213	-0.21991758
27	0x3dd63442	0.10459186
28	0xbba33d02	-0.004981638
29	0x3e0657bb	0.13119404
30	0x3e100762	0.14065316
31	0xbdfbf8ae	-0.12303291
32	0xbd5518d6	-0.05202564
33	0x3d8693e1	0.065711744
34	0xbdabf36d	-0.08396039
35	0x3dfcb33c	0.12338874
36	0x3e287758	0.16451776
37	0xbd158b18	-0.036509603
38	0x3dbda145	0.09259275
39	0x3df7f58c	0.12107381
40	0xbca5fdd4	-0.020262636
41	0xbe124173	-0.1428278
42	0x3d702b00	0.058634758
43	0xbd871ab5	-0.06596891
44	0x3dd3e610	0.10346615
45	0xbe7034ef	-0.23457693
46	0x3d179817	0.03701028
47	0x3e742919	0.23843803
48	0x3e1e1cc5	0.15440662
49	0xbd79dfc5	-0.06100442
50	0x3d6d8902	0.05799199
51	0x3e1d5411	0.153641
52	0x3e011eab	0.12609355
53	0xbbb47cd1	-0.0055080433
54	0x3d5361ca	0.05160693
55	0x3e11a288	0.14222157
56	0xbddcefbc	-0.10787913
57	0x3e8648af	0.26227328
58	0xbd6c8514	-0.0577441
59	0x3d3cbc1b	0.04607783
60	0x3dc0e14f	0.09417974
61	0xbda0bd44	-0.078485996
62	0xbe5cf462	-0.215776
63	0xbe5432e5	-0.2072254
64	0x3e6d98f9	0.23202886
65	0xbd274a3c	-0.04084228
66	0x3c96b133	0.018395042
67	0x3e3c5304	0.18391043
68	0xbde8259c	-0.113352984
69	0xbdc74812	-0.09730543
70	0x3da39d9f	0.07989048
71	0xbe15cf37	-0.14629827
72	0xbdbf8d18	-0.09353083
73	0xbd37d68a	-0.044882335
74	0x3d5f6493	0.054539274
75	0x3e13f89f	0.1445031
76	0xbdb679ff	-0.08909988
77	0xbda0e539	-0.07856221
78	0x3e351bc4	0.17686373
79	0xbc2b7a55	-0.010466178
80	0x3e405950	0.1878407
81	0x3e2fa78c	0.17153758
82	0x3e2f68b8	0.17129791
83	0x3e186a0d	0.14884205
84	0x3e3b5e42	0.18297675
85	0xbbc8d321	-0.006128684
86	0xbe0a98b7	-0.13534819
87	0xbdd3f389	-0.10349185
88	0xbe50ca44	-0.20389658
89	0xbd233d69	-0.039853487
90	0xbdeba2a3	-0.1150563
91	0x3dd203bf	0.10254621
92	0xbd4a760a	-0.049428977
93	0xbd3eede1	-0.046613578
94	0xbe2a3581	-0.16621973
95	0x3d791493	0.060810637
96	0x3e1b1dfb	0.15148155
97	0xbda00c34	-0.078148276
98	0x3e3fafdd	0.1871943
99	0x3e0832a4	0.13300568
100	0xbe65c1a2	-0.22437146
101	0x3df62ee8	0.120206654
102	0x3e6a3514	0.2287181
103	0xbdbb3c0c	-0.091423124
104	0xbe35e84e	-0.17764398
105	0x3db9acd1	0.09066165
106	0xbe888dab	-0.26670584
107	0x3d2446d5	0.040106613
108	0x3e2fa861	0.17154075
109	0x3e319da8	0.17345297
110	0x3b14e8ca	0.002272176
111	0x3e0b2f3c	0.13592237
112	0xbd05694b	-0.03257112
113	0xbe690af7	-0.22758089
114	0x3dd195c9	0.102336474
115	0x3e3c9bfc	0.18418878
116	0x3e0352a2	0.1282449
117	0x3c6f6bf6	0.014613142
118	0xbe05efc2	-0.13079742
119	0xbdb45888	-0.088059485
120	0xbe1a1e4a	-0.15050617
121	0xbe3103ac	-0.17286557
122	0xbe2a00d1	-0.16601874
123	0x3e723f0c	0.23656863
124	0xbe57e589	-0.21083654
125	0xbdd13807	-0.102157645
126	0x3d6fe6ab	0.05856959
127	0xbe0b3b12	-0.13596752
128	0x3e025ac2	0.12729934
129	0xbdf67328	-0.12033683
130	0x3c037650	0.008023813
131	0xbd5c142f	-0.053730186
132	0xbbb59f3d	-0.0055426643
133	0x3e260184	0.16211516
134	0xbe395f36	-0.18102726
135	0xbd19d709	-0.03755859
136	0xbe0682b9	-0.13135804
137	0x3ce2d5bb	0.027689805
138	0xbcddc2bb	-0.027070394
139	0xbe361bdd	-0.17784066
140	0xbdccf953	-0.10008492
141	0xbd5aed91	-0.053449217
142	0xbda61bad	-0.081107475
143	0x3d04fd10	0.0324679
144	0x3d54b39f	0.051929113
145	0x3e4f9a14	0.2027362
146	0x3e16c001	0.14721681
147	0xbc7f014b	-0.015564273
148	0xbd85b914	-0.065294415
149	0xbe71664c	-0.2357418
150	0xbca1d67f	-0.0197556
151	0xbcf821b6	-0.030289512
152	0xbd2a2770	-0.041541517
153	0x3da0fa07	0.07860189
154	0x3d99734e	0.07492696
155	0xbd5f4a8f	-0.054514464
156	0x3dff5e98	0.12469214
157	0x3e6b6d20	0.22990847
158	0x3e1b6e1a	0.15178719
159	0x3e1cd505	0.15315636
160	0x3e68c3ec	0.22730988
161	0x3d4f3489	0.05058721
162	0xbdcae0ba	-0.099061444
163	0x3e86a712	0.2629934
164	0xbe72c6c8	-0.23708642
165	0x3e07208f	0.13196014
166	0x3d02f174	0.03196855
167	0x3dd1a161	0.10235859
168	0x3c123103	0.008922818
169	0xbe2dd8bc	-0.16977209
170	0xbe3d1f40	-0.18468952
171	0x3e6a8ca5	0.22905214
172	0xbc40e7ca	-0.011774013
173	0xbd11eeb4	-0.035628036
174	0xbd7b3260	-0.06132734
175	0x3e3d9bc1	0.18516447
176	0xbde41290	-0.11136353
177	0xbcb299fd	-0.021801943
178	0x3e4fe69e	0.20302817
179	0x3e264450	0.16236997
180	0xbd527a47	-0.051386144
181	0xbcf74a57	-0.030186815
182	0xbc912612	-0.017718349
183	0x3e1bc5ac	0.15212125
184	0x3d143a6a	0.03618852
185	0x3dfd0930	0.12355268
186	0xbb3d788f	-0.002891097
187	0x3de2f005	0.11080936
188	0x3dce65c5	0.10078005
189	0x3b4b881d	0.0031056472
190	0xbd93285d	-0.07185433
191	0x3cc48516	0.023989242
192	0x3df724d2	0.1206757
193	0x3db6459e	0.08899997
194	0xbd528a6e	-0.051401548
195	0x3ddfe60e	0.10932551
196	0xbde28b9a	-0.11061783
197	0x3e1d3722	0.15353063
198	0x3e0fa855	0.14029057
199	0xbe8f5704	-0.27996075
200	0xbe6dcbb0	-0.23222232
201	0xbcd2d97e	-0.025738474
202	0xbdbd1c18	-0.09233874
203	0xbe21cde0	-0.15801191
204	0xbdd5d427	-0.104408555
205	0x3e246fa1	0.16058208
206	0x3e2c32a7	0.16816197
207	0x3dfe34f5	0.124124445
208	0x3c538a91	0.012911455
209	0x3e710de6	0.23540458
210	0xbdd4ee46	-0.103970096
211	0x3c212dc3	0.009837571
212	0x3e36cac2	0.17850783
213	0xbe564c9e	-0.20927665
214	0x3dbd0738	0.092298925
215	0xbe764654	-0.24050266
216	0x3de20477	0.11036008
217	0x3e4aba3d	0.19797607
218	0x3e1bae54	0.1520322
219	0x3e25b895	0.16183694
220	0xbe46a20c	-0.19397753
221	0x3d0a966e	0.033834867
222	0xbe2c1cf5	-0.16807921
223	0x3c25f22d	0.01012854
224	0x387ec1ec	6.0738923e-05
225	0xbd5b65b9	-0.053563807
226	0x3e2c8801	0.16848756
227	0x3d5adb70	0.05343193
228	0xbde3ad94	-0.11117092
229	0x3e5ae255	0.21375401
230	0xbd43b30a	-0.047778167
231	0xbc16ae4f	-0.009196832
232	0x3db69e9b	0.0891697
233	0x3c1317cc	0.008977842
234	0xbe44d912	-0.19223431
235	0xbda33cf0	-0.07970607
236	0xbe66da5b	-0.22544234
237	0x3e94f196	0.29090565
238	0xbe5c6d91	-0.21526171
239	0xbc8fe6f9	-0.017566191
240	0x3e2693ee	0.16267368
241	0x3c99c9cb	0.01877298
242	0x3c2735b3	0.010205674
243	0x3dc39c79	0.09551329
244	0xbe6de366	-0.23231277
245	0x3d0bbae9	0.0341138
246	0x3d29bae0	0.041437984
247	0xbdbb4e97	-0.09145849
248	0xbdcdb019	-0.100433536
249	0x3d08f6a3	0.033438336
250	0x3b932afc	0.004491208
251	0x3dd01f43	0.10162213
252	0xbe2265ef	-0.15859197
253	0x3dbae31d	0.0912535
254	0x3e04379e	0.12911841
255	0xbe23ad40	-0.15984058

layers.0.bias f4 [256]
0	0x3d8e9872	0.069626704
1	0xbc3a4b9c	-0.011370566
2	0xbe41daf1	-0.18931176
3	0xbe59eccf	-0.21281742
4	0xbe353fab	-0.17700069
5	0xbdd9d1f8	-0.106357515
6	0x3c807e8b	0.01568534
7	0xbdc85ff0	-0.097839236
8	0xbe42d815	-0.19027741
9	0xbd2502f0	-0.040286005
10	0x3d976a61	0.07393337
11	0xbd45008f	-0.048096236
12	0x3e0a50c7	0.13507377
13	0xbe92103a	-0.28528005
14	0xbe0f96f5	-0.1402243
15	0xbde8b4ba	-0.11362596
16	0x3dd889a6	0.10573129
17	0x3d03b8cd	0.03215866
18	0xbda05b12	-0.0782987
19	0xbdf27141	-0.11838008
20	0xbd0b1698	-0.033957094
21	0xbdaba086	-0.08380227
22	0x3e1084e3	0.14113192
23	0xbde8fbb0	-0.113761306
24	0xbd66ce0a	-0.056348838
25	0xbdb23f3f	-0.087034695
26	0x3c4aff90	0.012390032
27	0xbdfb8db9	-0.12282891
28	0x3bced26a	0.0063117044
29	0xbacae0ba	-0.0015478351
30	0x3b4990ee	0.003075655
31	0x3d6e19d6	0.058130108
32	0xbe15b462	-0.14619592
33	0x3d59f34a	0.053210534
34	0xbdc9b013	-0.098480366
35	0xbce6baa5	-0.02816517
36	0xbc6ee4ed	-0.014580947
37	0xbd570759	-0.05249724
38	0xbe0af966	-0.135717
39	0x3deed42e	0.11661564
40	0xbe6d60c7	-0.23181449
41	0xbe3f1d5c	-0.18663543
42	0xbe4c52b4	-0.19953424
43	0xbe3a9f20	-0.18224764
44	0xbe5816ff	-0.21102522
45	0xbe2bfeda	-0.16796437
46	0xbd12a506	-0.03580191
47	0x3d1a17da	0.037620403
48	0xbde1fc16	-0.1103441
49	0xbe3ab767	-0.18234025
50	0xbdf894cd	-0.121377565
51	0xbce0867c	-0.027407877
52	0xbdf61cf6	-0.120172426
53	0xbc9c9191	-0.01911238
54	0xbdf6b30a	-0.12045868
55	0x3d6938a6	0.05693879
56	0xbe73a829	-0.23794617
57	0x3cfbf9e6	0.03075881
58	0xbe36dcdd	-0.1785769
59	0xbe241b66	-0.16026077
60	0xbe8a77be	-0.2704448
61	0xbe2dd199	-0.16974486
62	0xbdb4d858	-0.08830327
63	0xbe82005e	-0.25390905
64	0xbd85d1dd	-0.06534169
65	0x3c5cf2e0	0.01348564
66	0xbe380268	-0.17969668
67	0xbea6b95d	-0.32563296
68	0xbe6dbeda	-0.23217335
69	0xbdfcf255	-0.12350909
70	0xbe77e8ad	-0.24209853
71	0x3dce3201	0.10068131
72	0xbd4a074d	-0.04932337
73	0xbe6d66e9	-0.23183788
74	0xbe469fcc	-0.19396895
75	0xbd690140	-0.056885958
76	0xbe87bb08	-0.2650988
77	0xbe27cd16	-0.16386828
78	0xbd0ac86d	-0.033882547
79	0x3cb4865d	0.022036726
80	0x3d6f1512	0.058369704
81	0xbdae49b2	-0.0851015
82	0x3dbf50a4	0.09341553
83	0xbe0be93f	-0.13663195
84	0xbe7269ca	-0.23673168
85	0xbe3f731c	-0.18696254
86	0xbce4d8f2	-0.027935479
87	0x3e1b074c	0.15139502
88	0xbdbc5dd1	-0.091975816
89	0x3d953be4	0.07286814
90	0xbe6f2868	-0.23355258
91	0x3d657b9f	0.056026097
92	0xbe4b36f3	-0.1984518
93	0x3b7528bc	0.0037408313
94	0xbe628dbc	-0.2212438
95	0xbe1763a9	-0.14784111
96	0xbe7bc449	-0.24586596
97	0xbe0a2248	-0.1348964
98	0xbe939eb5	-0.2883202
99	0xbe7ff033	-0.24993972
100	0xbd91524b	-0.07095774
101	0xbd9f3329	-0.0777343
102	0xbd2cbe25	-0.042173523
103	0xbe5b64d1	-0.21425177
104	0xbe6f8cc4	-0.23393542
105	0xbe4865d3	-0.19570093
106	0xbe483d93	-0.19554739
107	0xbe209f7f	-0.15685843
108	0x3d1eaf3a	0.038741328
109	0xbe45cb1a	-0.19315758
110	0xbe84f258	-0.25966144
111	0x3d126982	0.03574515
112	0xbdbff574	-0.09372988
113	0xbd898c94	-0.06716266
114	0xbe5cfedf	-0.215816
115	0xbce397d5	-0.02778236
116	0x3d83cab8	0.0643515
117	0xbcb70fa1	-0.02234632
118	0x3cc3664b	0.023852488
119	0xbe1ecd3a	-0.15507975
120	0xbe592293	-0.21204595
121	0xbde640c0	-0.11242819
122	0xbe3ac030	-0.18237376
123	0xbdd189c7	-0.10231357
124	0x3d117a09	0.035516772
125	0xbe73992a	-0.23788896
126	0x3e0636b1	0.131068
127	0xbdc695b7	-0.096965246
128	0x3d01ef92	0.031722613
129	0xbd369910	-0.044579566
130	0x3ccb853c	0.024843805
131	0xbe40e80a	-0.18838516
132	0x3d9fb575	0.07798282
133	0xbe0355ee	-0.12825748
134	0x3d2174eb	0.039418142
135	0xbe3ceda8	-0.18450034
136	0x3d9c5c25	0.07634763
137	0xbd8a9776	-0.0676717
138	0x3dd4e671	0.10395516
139	0xbe18ed8c	-0.14934367
140	0xbdd54afb	-0.10414692
141	0xbe169e21	-0.14708759
142	0xbdb600ba	-0.08886857
143	0x3d89e5a1	0.06733251
144	0xbc91f64f	-0.017817644
145	0xbd97e1bd	-0.07416103
146	0xbc01f3fd	-0.0079317065
147	0x3da734ee	0.081643924
148	0xbe74419b	-0.23853152
149	0xbd81d868	-0.06340104
150	0xbe7f9040	-0.24957371
151	0xbd6e8401	-0.058231357
152	0x3caa0914	0.020756282
153	0x3dd5521f	0.10416054
154	0xbd4eed1b	-0.05051909
155	0xbe28998b	-0.16464822
156	0xbdec0658	-0.115246475
157	0xbdb86ee1	-0.090055235
158	0xbd31c9c9	-0.043405328
159	0xbd9870de	-0.07443403
160	0xbe6abfa2	-0.22924665
161	0xbd64f95d	-0.055901874
162	0x3cd8c0cf	0.026459126
163	0x3b844b55	0.0040373006
164	0xbda902b5	-0.082524695
165	0x3d40d366	0.047076605
166	0xbe5bdf82	-0.2147198
167	0xbe5e4f0b	-0.2170984
168	0xbd2b8515	-0.041874964
169	0xbe526048	-0.20544541
170	0x3d9444ae	0.07239662
171	0x3db2747e	0.08713625
172	0xbe3edeec	-0.18639725
173	0xbd411373	-0.04713769
174	0xbe407394	-0.1879409
175	0xbe58930a	-0.21149841
176	0xbe8b26b3	-0.27177963
177	0xbd962c84	-0.073327094
178	0x3c8c7d27	0.017149521
179	0xbd487e0b	-0.04894833
180	0x3dcc0519	0.0996191
181	0x3e0f8a27	0.14017545
182	0xbe805341	-0.25063518
183	0xbe1671d5	-0.14691861
184	0x3d7f0d56	0.062268578
185	0x3d91f976	0.07127659
186	0x3c9b3cdb	0.018949917
187	0xbd9584f3	-0.07300749
188	0xbdf76706	-0.12080197
189	0xbe51fee2	-0.20507386
190	0x3bfe40e4	0.0077592004
191	0xbdbd4d69	-0.092432804
192	0x3d480e23	0.048841607
193	0x3de46ebc	0.111539334
194	0xbe2e427b	-0.17017548
195	0xbd555666	-0.05208435
196	0xbca3412b	-0.019928535
197	0xbe70f4f1	-0.23530938
198	0xbd8d8e50	-0.069119096
199	0xbc550a79	-0.013002985
200	0x3dd4fb58	0.103995025
201	0x3df0b4ab	0.1175321
202	0xbe2ddbc7	-0.1697837
203	0xbb13c66a	-0.0022548684
204	0xbd42b08f	-0.04753166
205	0xbe857e0d	-0.26072732
206	0xbe733ae0	-0.23752928
207	0xbbb876b7	-0.0056293863
208	0x3d8a99cf	0.06767618
209	0x3d9db751	0.077009805
210	0xbde38f16	-0.11111276
211	0xbe0f61a1	-0.14002086
212	0xbe92291b	-0.28546986
213	0xbe5f42c5	-0.21802814
214	0x3b380248	0.0028077532
215	0x3c9c3c97	0.01907186
216	0xbe1b0d92	-0.15141895
217	0xbe732574	-0.23744756
218	0x3dca7da5	0.09887246
219	0xbe489598	-0.19588315
220	0xbe8ec8be	-0.2788753
221	0x3cf61c71	0.030042859
222	0xbdbd542e	-0.092445716
223	0xbd317a53	-0.043329548
224	0xbe9635d0	-0.2933793
225	0xbd170158	-0.036866516
226	0x3d585098	0.052811235
227	0xbc1f5fe6	-0.009727454
228	0xbde6bde6	-0.11266689
229	0xbe473777	-0.19454752
230	0xbe3df00b	-0.185486
231	0xbe25a7cb	-0.16177289
232	0xbe0bf5ce	-0.13667986
233	0xbe37d239	-0.17951287
234	0xbe250abf	-0.1611738
235	0xbda96acb	-0.08272322
236	0x3d693eef	0.056944784
237	0xbd3f6c6c	-0.04673426
238	0xbe64121b	-0.22272532
239	0xbe728fe6	-0.23687705
240	0xbe25b501	-0.16182329
241	0xbe8e5188	-0.27796578
242	0xbe5e7b24	-0.21726662
243	0x3e16c26a	0.147226
244	0xbe1b05c5	-0.1513892
245	0xbd05c944	-0.032662645
246	0xbe230fe5	-0.15924032
247	0x3d462b2d	0.04838102
248	0xbe73128d	-0.23737545
249	0x3d41d6ea	0.0473241
250	0x3d64e5ec	0.055883333
251	0x3c94fc02	0.018186573
252	0x3dce1e63	0.100643896
253	0x3cf29534	0.029612161
254	0xbe10f3f1	-0.14155556
255	0x3d34567e	0.044027798

layers.3.weight f4 [80, 256]
0	0xbd5812ba	-0.052752234
1	0x3d52ec58	0.051494926
2	0xbb802f79	-0.003911909
3	0xbcc1c095	-0.0236514
4	0xbd704e96	-0.058668695
5	0xbda31e52	-0.079647675
6	0x3d9e8bca	0.077415064
7	0x3d7ca900	0.06168461
8	0x3d5b68b9	0.05356667
9	0xbdcbf4ac	-0.09958777
10	0xbc6a7414	-0.014309902
11	0xbbe7369e	-0.0070560714
12	0x3c34f468	0.011044599
13	0x3cf72585	0.030169258
14	0x3d1203ad	0.035648037
15	0x3d4db7a6	0.05022397
16	0xbd365d4f	-0.04452258
17	0xbd650c5c	-0.05591999
18	0x3c94a98c	0.018147253
19	0x3d56a2ca	0.05240134
20	0x3da9f6dd	0.082990386
21	0x3cdedb86	0.027204286
22	0x3d2ca544	0.042149797
23	0x3d487c31	0.048946563
24	0x3dc8e962	0.09810139
25	0xbd6f409c	-0.058411226
26	0x3cc1a906	0.023640167
27	0x3d81c653	0.063366555
28	0xbd60a785	-0.05484726
29	0xbc8d9dad	-0.0172871
30	0x3cc4596f	0.023968427
31	0x3c1f7cb0	0.009734318
32	0x3d6b7ca3	0.05749191
33	0xbdb823e2	-0.08991219
34	0x3d849652	0.06473984
35	0x3d74dbd8	0.05977997
36	0xbdcffef9	-0.10156054
37	0xbc2a79c6	-0.01040501
38	0x3d2e3066	0.042526625
39	0xbdca714e	-0.098848924
40	0x3c3a1348	0.011357136
41	0xbda65a85	-0.08122734
42	0xbd9c4cd8	-0.07631844
43	0x3d173a87	0.03692105
44	0x3d7e8f2e	0.062148266
45	0xbd82b32e	-0.06381832
46	0xbc0a2a3c	-0.008432921
47	0x3d8e13dd	0.06937382
48	0xbd4acbe9	-0.04951087
49	0x3d02ec2b	0.03196351
50	0x3ca3c48f	0.019991187
51	0x3ba498ad	0.005023083
52	0xbc54dad0	-0.012991622
53	0xbd04b9ac	-0.032403633
54	0xbd16a513	-0.03677852
55	0xbc3a8df6	-0.011386385
56	0x3d9f5ad1	0.07780994
57	0x3cef2415	0.02919201
58	0xbc07169f	-0.008245139
59	0xbdddf745	-0.108381785
60	0x3deec517	0.11658686
61	0xbca0c7ad	-0.019626463
62	0x3c0ce598	0.008599661
63	0x3d2af919	0.041741464
64	0xbd70a942	-0.058755167
65	0x3c35aae6	0.011088109
66	0x3dbc61f6	0.09198372
67	0x3b90dc97	0.0044208276
68	0x3d164130	0.03668326
69	0xbd3b4b7b	-0.04572628
70	0xbb1b7c8d	-0.002372536
71	0xbe0b03cb	-0.13575666
72	0x3cd44535	0.025911907
73	0xbd031c96	-0.032009684
74	0xbd0b1f3d	-0.033965338
75	0x3d460595	0.048345167
76	0xbdd34c68	-0.10317308
77	0xbcbaa538	-0.02278386
78	0x3d36e651	0.04465324
79	0xbd94cca0	-0.072655916
80	0xbd57018f	-0.05249172
81	0x3cd92aee	0.026509728
82	0xbc704f75	-0.0146673815
83	0x3da14132	0.07873763
84	0xbda08e5e	-0.078396544
85	0x3ca53b78	0.020169958
86	0x3dc927a9	0.09822018
87	0xbb0ef540	-0.002181366
88	0x3ccf74a9	0.025324183
89	0x3c907ade	0.017636713
90	0x3cab52e9	0.020913558
91	0x3d9148a3	0.070939325
92	0xbd81a93b	-0.06331106
93	0xbd297213	-0.041368555
94	0xbcde36ed	-0.0271258
95	0xbc9e362d	-0.019312942
96	0x3bf7939b	0.0075554377
97	0xbbd15912	-0.006388792
98	0xbd43ae5a	-0.047773696
99	0x3b94789b	0.004530979
100	0xbdaa0d7b	-0.083033524
101	0xbd16a99c	-0.036782846
102	0x3cbb887f	0.022892235
103	0xbd99b86c	-0.07505879
104	0xbdb3da53	-0.087818764
105	0x3c150677	0.00909578
106	0x3dc9994b	0.098436914
107	0x3c228244	0.009918753
108	0xbd32b339	-0.04362795
109	0x3d69936d	0.05702536
110	0x3c07b93f	0.008283912
111	0xbc82b5b3	-0.015955782
112	0x3cd036e7	0.025416804
113	0x3d80095a	0.06251784
114	0xbdb75750	-0.089522004
115	0xbd153a80	-0.036432743
116	0xbda1c6fc	-0.078992814
117	0x3a5ab030	0.0008342294
118	0xbc03f823	-0.008054766
119	0xbd4c48b1	-0.04987401
120	0x3d2f6027	0.042816307
121	0x3d363188	0.04448083
122	0x3d8aef7c	0.06783959
123	0x3c30f8dc	0.01080152
124	0x3c080c3c	0.008303698
125	0xbb3ed3a1	-0.002911784
126	0xbcbb0186	-0.022827875
127	0x3d96ae56	0.07357471
128	0xbd1fd529	-0.039021645
129	0x3ca5168e	0.020152356
130	0xbc86b7e5	-0.01644511
131	0x3e068268	0.13135684
132	0xbdb0132b	-0.08597406
133	0xbdc5d79e	-0.09660266
134	0xbd3eb860	-0.046562552
135	0xbc845850	-0.016155392
136	0xbd8f14dc	-0.069864005
137	0x3d907c20	0.07054925
138	0xbc216ae5	-0.009852146
139	0x3ca7813c	0.020447366
140	0xbd545c0a	-0.051845588
141	0x3c455e80	0.012046456
142	0xbc9c3914	-0.019070186
143	0x3d26863b	0.040655356
144	0x3b8398c7	0.004016015
145	0xbd228725	-0.039679665
146	0xbdd87ee7	-0.1057108
147	0xbcf693f7	-0.030099852
148	0x3e08a53a	0.13344279
149	0x3d13c903	0.03608037
150	0xbd5384b1	-0.051640216
151	0xbcfecf7b	-0.031104794
152	0xbcba0ec7	-0.022712125
153	0x3c4087e3	0.011751148
154	0xbc848299	-0.016175555
155	0x3d6f5fcb	0.058440965
156	0xbd307e9f	-0.043089505
157	0xbc02f11c	-0.007992055
158	0xbb3e4f75	-0.002903906
159	0xbd2c2f97	-0.042037573
160	0x3e00c4bb	0.12575047
161	0x3d93da64	0.07219389
162	0x3c4094b9	0.011754208
163	0x3ce2b088	0.027672067
164	0xbd282f5d	-0.041060794
165	0xbd2f25f3	-0.0427608
166	0xbb9bc30d	-0.0047534765
167	0xb91b3507	-0.00014801706
168	0x3d1eb788	0.038749248
169	0x3d6a7eda	0.05724988
170	0xbc423bfe	-0.011855124
171	0xbb7d17d7	-0.0038618946
172	0x3d9f6410	0.07782757
173	0xbc35f91c	-0.011106756
174	0x3db44baf	0.08803498
175	0xbd115f3b	-0.03549121
176	0xbd60133e	-0.05470585
177	0x3d20b363	0.039233577
178	0x3dbc365b	0.09190055
179	0xbd0faa18	-0.035074323
180	0xbd8748ed	-0.06605706
181	0x3d1b34a2	0.03789199
182	0x3d59a32a	0.05313412
183	0x3c8fd3be	0.017557021
184	0xbc794c61	-0.015215964
185	0x3d0df5f2	0.03465838
186	0xbd9de084	-0.077088386
187	0x3d90d1c2	0.07071258
188	0x3ccb9afb	0.024854174
189	0xbd37657e	-0.044774525
190	0xbc09e018	-0.0084152445
191	0xbd736a91	-0.0594278
192	0x3ce13637	0.027491672
193	0xbd6d67fa	-0.057960488
194	0x3d134bc6	0.035960935
195	0xbb29d3b1	-0.0025913531
196	0x3d9ca45d	0.07648537
197	0xbc2c99a7	-0.01053468
198	0x3d54aa0e	0.05191999
199	0xbcacf3fe	-0.021112438
200	0xbd89bc75	-0.067253985
201	0x3dbc8d64	0.092066556
202	0xbc8722d6	-0.016496103
203	0xbd08711f	-0.033311006
204	0x3d05b4a6	0.032642983
205	0x3c6a5b56	0.014304003
206	0x3db2ead8	0.08736199
207	0x3b0c4cc2	0.0021408056
208	0xbc5a748c	-0.013333451
209	0xbc928850	-0.017887264
210	0xbd7d4ab9	-0.06183884
211	0x3b7e3b14	0.0038792538
212	0x3c89418a	0.016754884
213	0x3d00447e	0.03131532
214	0x3da22b9d	0.07918475
215	0x3b0a4a74	0.0021101506
216	0x3ce8364c	0.028346203
217	0x3d2d73ed	0.042346884
218	0x3bdd6ffb	0.006757734
219	0xbc6c7309	-0.014431723
220	0xbd83373e	-0.06407021
221	0xbd4e44e9	-0.050358687
222	0xbd5e5e2e	-0.054289035
223	0x3d07eae3	0.03318299
224	0x3dc74761	0.09730411
225	0xbd4690a7	-0.048477795
226	0xbd35c411	-0.044376437
227	0x3d81007e	0.06298922
228	0x3d956656	0.0729491
229	0xbbbfd329	-0.0058540297
230	0x3cac13e4	0.021005578
231	0x3d2242c3	0.03961445
232	0x3c9fdef1	0.019515486
233	0x3e041b11	0.1290095
234	0x3d0f68e8	0.035012156
235	0xbd72013c	-0.05908321
236	0x3c4934eb	0.012280683
237	0x3c1a9451	0.009434775
238	0xbc84d880	-0.016216516
239	0x3daf319b	0.08554383
240	0xbce1d5e5	-0.027567813
241	0xbdacc27f	-0.08435535
242	0xbd5c8e76	-0.0538468
243	0x3c047b17	0.0080859875
244	0x3ca80f38	0.02051507
245	0x3d61b9dc	0.05510889
246	0x3d101c36	0.035183154
247	0x3c9b0ba2	0.018926445
248	0x3d8d0728	0.068861306
249	0xbc2fc462	-0.010727974
250	0xbc92f9cd	-0.01794138
251	0xbc27dd51	-0.010245637
252	0xbd70a795	-0.05875357
253	0x3cca2516	0.024675887
254	0x3dbc2066	0.09185867
255	0xbcf1d57b	-0.02952074

layers.3.bias f4 [80]
0	0xbd01389f	-0.03154814
1	0x3d882e4d	0.06649456
2	0xbd14eb34	-0.03635712
3	0xbd4992b3	-0.04921217
4	0xbd07ac01	-0.03312302
5	0xbdda93be	-0.10672711
6	0xbd98c8c6	-0.074601695
7	0xbd1f30f6	-0.038865052
8	0x39ef1427	0.00045600647
9	0xbd97ed32	-0.07418288
10	0x3b2e672e	0.0026611793
11	0xbd547697	-0.05187091
12	0x3c85abca	0.016317267
13	0xba6d642e	-0.00090557605
14	0x3cea3c6e	0.028593268
15	0x3d446058	0.047943443
16	0xbc5daece	-0.013530446
17	0x3d5a90b4	0.053360656
18	0xbc44114d	-0.011967015
19	0x3c4b308b	0.01240171
20	0xbdbb29a6	-0.09138803
21	0xbd6c19aa	-0.057641663
22	0x3bd59d4f	0.006518997
23	0xbb74f466	-0.0037377118
24	0xbd21ca22	-0.03949941
25	0xbdded615	-0.10880677
26	0xbc9a94cf	-0.018869786
27	0x3d02958a	0.031880893
28	0x3be3f188	0.006956283
29	0xbd41d868	-0.04732552
30	0xbdc62f92	-0.09677042
31	0x3a8955f1	0.0010477883
32	0x3c9be4a2	0.019029919
33	0x3d50f04d	0.05101042
34	0xbd9ed87c	-0.07756135
35	0xbdca4d43	-0.09878018
36	0xbd0225ab	-0.031774204
37	0x3d39428e	0.045229487
38	0x3d0bf4f9	0.03416917
39	0xbd92d76a	-0.07169993
40	0xbcaa523d	-0.020791167
41	0xbb8398bf	-0.0040160115
42	0xbcaf6815	-0.021411935
43	0x3cd38650	0.025820881
44	0xbb1d4dfe	-0.0024002786
45	0xbd966fe3	-0.073455594
46	0xbd6eb967	-0.058282282
47	0xbd95bd47	-0.073114924
48	0xbc68c233	-0.014206457
49	0x3d8356b4	0.06413022
50	0xbd421cb8	-0.04739067
51	0x3b7f4118	0.003894871
52	0xbdc9f6d9	-0.098615356
53	0x3c0a633c	0.008446511
54	0xbcf38cc3	-0.029730206
55	0xbc5b0d7b	-0.013369913
56	0xbc52f6b7	-0.012876204
57	0xbda33885	-0.079697646
58	0xbcbf5894	-0.023357667
59	0x3d9ab766	0.07554512
60	0x3d98d76a	0.07462962
61	0xbda1688d	-0.078812696
62	0x3d33f2f9	0.04393289
63	0x3d4d04da	0.050053455
64	0xbb8bca50	-0.004266061
65	0xbb5beedd	-0.0033559122
66	0xbd0b7b95	-0.034053404
67	0xbc2c80b9	-0.010528737
68	0xb901eca6	-0.00012390557
69	0xbdb6a53b	-0.08918234
70	0x3d043c61	0.032284144
71	0xbd892da0	-0.066981554
72	0xbd182962	-0.03714884
73	0xbd16e738	-0.0368416
74	0xbdc1a46a	-0.094551876
75	0xbc40dfab	-0.011772077
76	0xbdbc9147	-0.09207397
77	0x39c4ebd1	0.0003755973
78	0xbdb04a1d	-0.08607886
79	0xbdc667b6	-0.0968775

layers.6.weight f4 [64, 80]
0	0x3de88509	0.113534994
1	0xbdd9a46b	-0.10627063
2	0xbc2a855a	-0.01040777
3	0xbb9eaad1	-0.0048421402
4	0x3dbd7091	0.09249986
5	0xbcdc73e2	-0.026910726
6	0x3bce1e2d	0.0062902183
7	0x3c2ba086	0.0104752835
8	0xbb98127c	-0.0046408754
9	0x3b9fd7b5	0.004878009
10	0x3e15fd2a	0.14647356
11	0xbd200d59	-0.03907523
12	0x3d528caf	0.051403698
13	0xbc445830	-0.011983916
14	0x3e1b6bd3	0.1517785
15	0xbe045d72	-0.12926272
16	0x3d86f6c6	0.06590037
17	0xbe1014e2	-0.14070466
18	0xbbaf8883	-0.0053568496
19	0x3e274b2a	0.16337267
20	0x3c605197	0.013691328
21	0xbd8481f1	-0.06470097
22	0xbd0ebfb0	-0.034850776
23	0xbcca3fe2	-0.024688665
24	0x3c2a8a8e	0.010409011
25	0x3b4b9215	0.0031062413
26	0xbce1fc7d	-0.027586216
27	0xbd465878	-0.048424214
28	0xbc8ad1fd	-0.016945833
29	0xbd6e115d	-0.058122028
30	0x3e2c2c85	0.16813858
31	0x3e273ed3	0.1633256
32	0xbdbe7e94	-0.093014866
33	0xbdefcb2a	-0.11708672
34	0x3a728e7a	0.0009252798
35	0xbce28809	-0.027652757
36	0x3d84ecbc	0.06490466
37	0xbdea7f1e	-0.11450027
38	0x3da5038e	0.08057319
39	0x3c419961	0.011816354
40	0x3d4a6014	0.049408033
41	0xbbd21339	-0.006410983
42	0x3db247a3	0.0870507
43	0x3d037271	0.03209156
44	0xbd906c42	-0.070518985
45	0xbc7149c5	-0.014727061
46	0xbd81ffec	-0.06347641
47	0x3dd6f291	0.104954846
48	0x3dcab377	0.098975115
49	0xbdec1524	-0.1152747
50	0x3d590bdc	0.052989826
51	0xbc890815	-0.016727487
52	0x3d9373ad	0.07199798
53	0xbc6f4601	-0.014604093
54	0xbd76ab71	-0.060222093
55	0xbdbe3ebb	-0.09289309
56	0x3d2e0ff0	0.042495668
57	0x3d3d34f3	0.046193074
58	0xbd5f3d5f	-0.054501887
59	0xbd18bd60	-0.037289977
60	0xbdedb853	-0.11607423
61	0x3dba0b4b	0.09084185
62	0xbc927a5a	-0.017880607
63	0x3dda37b2	0.10655154
64	0x3d75e0d6	0.060028873
65	0xbdacbaa0	-0.084340334
66	0xbd35cf26	-0.044387005
67	0x3e15d029	0.14630188
68	0x3ca418d6	0.020031374
69	0x3e097b51	0.13425948
70	0x3d4cd0e8	0.050003916
71	0x3dc46da0	0.09591222
72	0xbd905afc	-0.07048604
73	0xbc1281dd	-0.008942095
74	0x3dd9b114	0.10629478
75	0x3dcc9fae	0.09991394
76	0x3e2b46ae	0.16726181
77	0x3da6b435	0.081398405
78	0x3d337bf9	0.0438194
79	0xbd1b2a04	-0.037881866
80	0x3e155be0	0.14585829
81	0xbe4a80fe	-0.19775769
82	0xbd85d398	-0.06534499
83	0xbdc77def	-0.09740817
84	0x3e1ff7e2	0.15621904
85	0xbc160c4c	-0.009158205
86	0xbd26b697	-0.040701475
87	0x3e1edf4d	0.1551487
88	0xbcd5f1a0	-0.026116192
89	0x3da5b7c0	0.08091688
90	0x3c9ca621	0.019122185
91	0x3d870a32	0.065937415
92	0xbd6b45b4	-0.05743952
93	0xbd521284	-0.05128719
94	0xbc6872b3	-0.014187503
95	0xbdcf3665	-0.10117797
96	0x3d60aa33	0.054849815
97	0xbe19f883	-0.15036206
98	0x3d82d254	0.06387773
99	0xbce5e134	-0.028061487
100	0xbd267706	-0.040640853
101	0x3da690dd	0.08133099
102	0xbc4ca2be	-0.012489973
103	0xbd2fb989	-0.04290155
104	0x3dba424b	0.09094676
105	0x3c65fcec	0.014037352
106	0x3dbf074e	0.09327565
107	0xbde4e9c2	-0.11177398
108	0x3dcf842c	0.10132632
109	0xbe09170a	-0.13387695
110	0x3d121a4f	0.03566962
111	0x3b864323	0.004097359
112	0x3be085bd	0.0068518803
113	0xbceea7a4	-0.029132672
114	0xbc32397d	-0.010877964
115	0x3e0639f9	0.13108052
116	0xbc2bc3dc	-0.010483708
117	0xbda5b796	-0.08091657
118	0x3cc3e29c	0.023911767
119	0x3d4b37f0	0.049613893
120	0xbcd9d16e	-0.026589122
121	0x3c9e7fcb	0.019348046
122	0x3e12dfac	0.14343137
123	0xbe15f6c1	-0.1464491
124	0xbe0f4415	-0.13990815
125	0xbdb1dee7	-0.086850934
126	0xbdfb3275	-0.12265483
127	0x3db1749f	0.08664822
128	0x3e013e03	0.12621312
129	0xbd4c27ab	-0.049842518
130	0xbcb58bcc	-0.022161387
131	0xbd9e8e56	-0.07741992
132	0xbd9335d3	-0.071880005
133	0xbe030bef	-0.12797521
134	0xbd22d66a	-0.039755262
135	0xbdcad577	-0.099039964
136	0x3d91f301	0.071264274
137	0xbd094fb9	-0.033523295
138	0xbd33bd61	-0.043881778
139	0xbdd891eb	-0.10574707
140	0xbe1550b2	-0.14581564
141	0xbc6fcd4a	-0.014636347
142	0x3ce25202	0.027626995
143	0x3e193c81	0.14964487
144	0xbd5090d1	-0.050919358
145	0xbdbd3354	-0.09238306
146	0x3cbff26d	0.023431027
147	0x3d808981	0.06276227
148	0xbe0960fc	-0.13415903
149	0x3dd187f6	0.102310106
150	0x3c8a5c53	0.016889727
151	0x3db58d1e	0.088648066
152	0xbccfa51f	-0.02534729
153	0x3d89b909	0.06724746
154	0x3e04a79f	0.12954567
155	0xbcec3c4a	-0.028837342
156	0x3e113454	0.14180118
157	0x3bbe984a	0.005816494
158	0x3dbf3761	0.093367346
159	0xbd0d897c	-0.034554943
160	0x3a40f6cc	0.00073609944
161	0x3ba1c97e	0.00493735
162	0xbd81964f	-0.06327497
163	0xbdbb4b5a	-0.091452315
164	0x3d67519f	0.056474324
165	0x3d428404	0.04748918
166	0xbc793e22	-0.0152125675
167	0x3aaca868	0.0013172748
168	0xbd593c77	-0.05303618
169	0x3ab5e08d	0.0013876125
170	0x3dd7beae	0.10534416
171	0x3ca4b105	0.02010394
172	0x3dd70c6f	0.105004184
173	0x3b8d786e	0.004317335
174	0xbd73b206	-0.05949595
175	0xbc0c3c5c	-0.008559313
176	0x3d8b938e	0.06815253
177	0xbd87f34c	-0.06638202
178	0x3d32032f	0.043460067
179	0xbd4ca2b8	-0.04995987
180	0x3e069f29	0.13146652
181	0xbd61ba63	-0.055109393
182	0xbd9add2f	-0.07561719
183	0x3d2d597a	0.04232166
184	0x3d686ebd	0.056746233
185	0x3d9d6102	0.076845184
186	0x3d5b4e78	0.05354163
187	0x3de845a4	0.11341408
188	0x3d560da4	0.052259102
189	0x3cdb5ef9	0.026778685
190	0xbcf9d13c	-0.030495279
191	0xbd2d9819	-0.04238138
192	0xbd8f8a8d	-0.07008848
193	0xbdcf75e0	-0.10129905
194	0x3d785594	0.06062849
195	0x3d3779c2	0.04479385
196	0x39d72c90	0.00041041197
197	0xbcfa39fd	-0.03054523
198	0x3e0166d6	0.12636885
199	0xbdc7e6df	-0.09760832
200	0x395064cb	0.00019873974
201	0xbdc4fb8e	-0.09618293
202	0xbb870c1a	-0.0041213157
203	0xbdb739a0	-0.08946538
204	0xbcc5d27b	-0.024148216
205	0x3d9fba39	0.07799191
206	0xbdbbddce	-0.09173165
207	0x3d4550a3	0.048172604
208	0x3dc9ce2b	0.098537765
209	0x3c99bf1d	0.018767888
210	0x3db836c8	0.08994824
211	0xbde85847	-0.113449626
212	0xbacef26e	-0.0015788802
213	0xbda02d82	-0.0782118
214	0xbdb71444	-0.08939412
215	0xbe110c13	-0.14164762
216	0x3d8a7475	0.06760494
217	0x3e28e7d8	0.16494691
218	0x3cf7e7a8	0.03026183
219	0x3d2f6a17	0.042825785
220	0xbdfd58f6	-0.123704836
221	0x3da42487	0.080147795
222	0xbd97d08f	-0.07412826
223	0xbd2a42fe	-0.041567795
224	0xb9ac678c	-0.00032883545
225	0xbd001071	-0.03126568
226	0x3d0be05f	0.034149524
227	0x3d97935c	0.074011534
228	0xbb9316e7	-0.004488814
229	0x3d327fbe	0.043578856
230	0x3dea074d	0.11427174
231	0x3d831619	0.06400699
232	0xbdcbc915	-0.09950463
233	0xbc72291d	-0.01478031
234	0x3ce958cc	0.028484724
235	0x3c6acd11	0.014331118
236	0x3d7f636d	0.06235068
237	0x397f579d	0.00024351334
238	0x3df34654	0.118786484
239	0x3deb45c3	0.11487915
240	0x3d8a9e3d	0.06768463
241	0xbde72a5e	-0.11287378
242	0x3d8dc6c5	0.06922678
243	0xbd5bd5be	-0.053670637
244	0xbcf0e693	-0.029406821
245	0xbd93e1f0	-0.072208285
246	0xbc6bf183	-0.014400843
247	0x3dd327b4	0.10310307
248	0x3d3421d9	0.043977592
249	0x3dbe1f14	0.092832714
250	0x39ae5e8f	0.00033258318
251	0x3ddd1e62	0.10796811
252	0xbd1955df	-0.03743541
253	0xbdc04bd9	-0.09389467
254	0x3e16513d	0.14679427
255	0xbd8a602d	-0.06756625

layers.6.bias f4 [64]
0	0x3d856cd7	0.065149
1	0x3e061ca9	0.1309687
2	0xbdb4957f	-0.088175766
3	0x3d61541b	0.05501185
4	0xbded6a55	-0.11592547
5	0xbe195b28	-0.1497618
6	0x3ce3ae55	0.027793089
7	0x3d19d175	0.03755327
8	0x3d75658b	0.059911292
9	0x3d82126e	0.063511714
10	0x3d5547fe	0.05207061
11	0x3cba3f2d	0.022735203
12	0x3e1fa795	0.15591271
13	0xbbc786ac	-0.006089052
14	0x3dc1924b	0.09451731
15	0x3d045e7d	0.032316674
16	0xbc91c1fa	-0.01779269
17	0xbdee7586	-0.116435096
18	0x3e0c265c	0.13686508
19	0xbd4b3c25	-0.049617905
20	0x3d7ed989	0.062219176
21	0x3db818fe	0.08989142
22	0xbdcdde86	-0.100522086
23	0x3d463dd0	0.048398793
24	0x3d8fff25	0.07031087
25	0xbde5502a	-0.11196931
26	0xbd849669	-0.06474001
27	0xbdd7fa4f	-0.105457895
28	0x3d6ac896	0.0573202
29	0x3dfcf5fb	0.123516046
30	0xbe1017a5	-0.1407152
31	0xbe1a1223	-0.15045981
32	0x3e12d95a	0.14340726
33	0x3e20685b	0.15664808
34	0x3aeaa790	0.0017902721
35	0xbd1c109d	-0.03810178
36	0xba54b288	-0.00081137614
37	0x3e0ec034	0.13940507
38	0x3c3d6d32	0.011561679
39	0x3d4fc2ce	0.05072289
40	0x3d219480	0.03944826
41	0x3e083f69	0.13305439
42	0x3dc93c2c	0.0982593
43	0x3c8879d1	0.01665965
44	0x3d33734c	0.043811128
45	0x3e2b420f	0.16724418
46	0x3d21ecc3	0.039532434
47	0xbde3198c	-0.11088857
48	0xbc1901a7	-0.009338773
49	0xbdacccc3	-0.08437493
50	0x3df4fe3a	0.11962552
51	0xbd80471a	-0.062635615
52	0x3d17a21a	0.037019826
53	0xbb60ec67	-0.0034320594
54	0xbd21f83d	-0.03954338
55	0x3da67271	0.08127297
56	0x3d4c6f60	0.049910903
57	0x3d5ae485	0.05344059
58	0x3ded62db	0.11591121
59	0xbbdb218a	-0.006687348
60	0x3d91fc49	0.07128198
61	0x3da01b49	0.07817704
62	0xbda4ff79	-0.0805654
63	0xbe16f66d	-0.14742441

layers.8.weight f4 [1, 64]
0	0xbda24921	-0.079241045
1	0xbddb44e6	-0.10706501
2	0xbd6b1720	-0.0573951
3	0xbde437fb	-0.1114349
4	0xbdb8a2a3	-0.090153955
5	0xbc99697a	-0.018727053
6	0x3dd83170	0.105563045
7	0x3d523cc0	0.051327467
8	0x3d87dd69	0.066340275
9	0x3dbb55f2	0.09147252
10	0xbd7523f7	-0.059848752
11	0xbcf38421	-0.02972609
12	0x3debfc2a	0.11522706
13	0xbdb88149	-0.09009034
14	0x3e068f19	0.13140525
15	0x3dca4b55	0.0987765
16	0x3dc3e22e	0.09564625
17	0x3d142257	0.03616556
18	0xbdf3358f	-0.1187545
19	0x3c8d28e6	0.017231416
20	0xbe16a1c7	-0.1471015
21	0x3d3ec4fe	0.046574585
22	0xbd279c12	-0.040920325
23	0x3d3bd0ed	0.045853544
24	0x3d90a57d	0.070628144
25	0x3cd19414	0.025583304
26	0x3de70d53	0.11281838
27	0xbd29444e	-0.041324906
28	0xbe160812	-0.14651516
29	0xbdaa7f19	-0.08325023
30	0x3cfefb2f	0.031125633
31	0xbcf9cf8e	-0.030494478
32	0xbe04bc5d	-0.1296248
33	0xbe0efb91	-0.13963152
34	0x3e02a523	0.12758307
35	0x3cc1d9e8	0.023663476
36	0xbdeca26a	-0.115544155
37	0x3e3d2bfe	0.18473813
38	0x3e0829f4	0.13297254
39	0xbe004ea7	-0.12530003
40	0xbdba22f4	-0.09088698
41	0x3e0282d2	0.12745216
42	0x3e2d935e	0.16950747
43	0x3b000db8	0.0019539427
44	0x3dc5d682	0.09660055
45	0x3e2e237b	0.17005722
46	0xbd5b0fc4	-0.053481832
47	0xbcc5b8c6	-0.024135958
48	0x3dbbee0b	0.091762625
49	0xbd3c7c69	-0.046017084
50	0x3db28cbc	0.08718249
51	0xbd2723db	-0.04080568
52	0x3dd25623	0.102703355
53	0xbcd80c09	-0.026372926
54	0xbd9554a2	-0.07291533
55	0xbd5f2223	-0.054475915
56	0xbcb9b6f0	-0.02267024
57	0x3dfa4ed2	0.12222065
58	0xbe0926ab	-0.13393657
59	0xbd9d7f09	-0.07690246
60	0xbdf5dbaf	-0.12004792
61	0xbda7d4a3	-0.08194854
62	0x3d730fde	0.059341304
63	0xbc6fd5e5	-0.014638399
