flwr-mlp/models/checkpoints/round_028.pt (torch, 127593 bytes, 7 tensors)

layers.0.weight f4 [256, 19]
000000 d1 0a 4b bd a8 11 14 be 1e b7 dc bc c2 89 97 be
       -0.049570862 -0.1445986 -0.026942786 -0.29597288
000010 45 c9 10 bd 64 e9 11 be 8a d2 da bd 0d 7c 58 be
       -0.035348196 -0.14249188 -0.106846884 -0.21141072
000020 ce 53 41 3e dc 81 cb bd 5d 5e 52 3d 25 91 0a 3e
       0.18879625 -0.09936878 0.051359523 0.1353193
000030 c9 5c f8 bc 99 a7 17 be 83 95 50 3e bb 20 36 bd
       -0.03031768 -0.14810027 0.20369534 -0.044464808
000040 7e 4f 1b be e1 0b 31 3d 4b 1d 5d be f8 5a 2e be
       -0.15167043 0.04322422 -0.21593206 -0.1702689
000050 f4 9e 80 bd af 6c 0a 3e 5c ac 75 bc 15 60 cd bd
       -0.06280318 0.13518022 -0.014994707 -0.10028092
000060 c5 a7 6c bc f0 30 48 3e ca 2c 50 be 6d 26 af 3d
       -0.014444296 0.19549918 -0.20329586 0.08552251
000070 1f 73 32 bd e5 6a 2f 3e fa 4c ed 3d 46 a4 03 be
       -0.04356682 0.17130621 0.11586948 -0.12855634
000080 00 46 8f bd a7 1a 74 3d b9 f0 89 bd 87 5d b0 3d
       -0.06995773 0.05959573 -0.06735367 0.08611589
000090 03 d4 6c 3e e4 df 2c bc 62 66 8b 3d 60 f6 f4 3d
       0.23127751 -0.010551427 0.06806637 0.11961055
0000a0 65 28 9c 3c c6 18 d1 bd 88 a5 9f 3d 11 3a 16 bd
       0.01906223 -0.10209803 0.077952445 -0.03667647
0000b0 09 80 e0 3d cf a0 71 be 42 ef c4 bc 5e ee 6a 3e
       0.10961921 -0.235965 -0.024039868 0.22942492
0000c0 2d ad b5 3d fc 10 c0 bd a5 e4 b7 3d a1 59 0d 3e
       0.08870921 -0.093782395 0.08979157 0.13803722
0000d0 12 c9 d8 3d f9 e7 1b bc 81 9a 95 3d c1 51 de 3d
       0.10585226 -0.009515756 0.0730486 0.10855437
0000e0 ff c9 97 bd 78 06 97 3e c5 de 73 bd d8 b9 56 3d
       -0.074115746 0.29497123 -0.05953862 0.05242333
0000f0 73 ea e6 3d 33 9d 99 bd 71 c3 5a be 0f fb 4e be
       0.112751864 -0.075006865 -0.21363617 -0.20212959
000100 f1 fc 65 3e c2 ed 20 bd 45 ae fc bc 1f 9c 57 3e
       0.2245977 -0.039289244 -0.030844817 0.21055649
000110 d4 1b 0a be 81 37 af bd 88 fe 02 3d 42 f6 00 be
       -0.13487178 -0.085555084 0.03198102 -0.1259394
000120 15 47 8a bd 15 67 a5 bd 6e ef 79 3d 74 68 03 3e
       -0.06751839 -0.08076302 0.061019354 0.12832814
000130 a7 7d a4 bd 8e 06 d7 bd ea 04 31 3e 36 2e b5 3c
       -0.08031779 -0.10499297 0.17287031 0.022116762
000140 10 45 5a 3e 3e 5a 38 3e 5b 3d 54 3e 9e 11 ea 3d
       0.21315408 0.18003175 0.2072653 0.114291415
000150 1f 17 3c 3e 2f bd 8a bc 91 ab 18 be c8 6f e6 bd
       0.18368195 -0.016935913 -0.14909197 -0.11251789
000160 67 95 50 be 3b ac 51 bd c5 56 c3 bd 18 4d 8d 3d
       -0.20369492 -0.051189642 -0.09538034 0.0689947
000170 db f4 10 bd 3a 6d 41 bd ad 76 1d be 5d a6 44 3d
       -0.035389762 -0.047223307 -0.15377302 0.04801022
000180 a3 3c 0b 3e db 4d 10 be 5d 90 5d 3e 64 b5 b3 3d
       0.1359735 -0.140922 0.21637101 0.08774832
000190 f5 1d 51 be c5 af 2d 3e b1 ae 63 3e cd 5a 12 be
       -0.20421584 0.16961582 0.22234608 -0.1429245
0001a0 c1 60 77 be 82 03 a3 3d 65 0f a7 be 08 eb 13 bd
       -0.24158002 0.079596534 -0.32628933 -0.036112815
0001b0 4b e0 25 3e 93 2f 02 3e fd 12 a7 bc 5b 26 cb 3d
       0.16198842 0.1271346 -0.020394797 0.09919425
0001c0 c1 91 a8 bc b2 53 8c be d2 db ea 3d ae 69 26 3e
       -0.020577313 -0.27407604 0.11467709 0.16251251
0001d0 21 46 49 3d 6d 31 9a bc 60 56 46 bd 62 a5 bd bd
       0.049139146 -0.018822396 -0.048422217 -0.0926006
0001e0 42 47 0c be fc 70 3b be 7d 46 4c be 6a ca 95 3e
       -0.13699058 -0.18304819 -0.19948764 0.29255992
0001f0 35 c8 76 be 44 dd ba bd a9 2f 08 3d ff 84 cd bd
       -0.2409981 -0.09124234 0.033248577 -0.100351326
000200 10 23 13 3e 7b bb b3 bd d8 5e ef 3c b9 5c dc bc
       0.14368844 -0.087759934 0.02922003 -0.026899682
000210 28 6c 4d 3d 48 26 13 3e fc 09 36 be 99 dd fa bc
       0.050151974 0.14370072 -0.17777246 -0.030623244
000220 ce 76 ef bd 5d 02 cc 3c ae 8c 57 bb 8e 87 1e be
       -0.11692582 0.02490347 -0.0032890248 -0.15481398
000230 c4 f0 d9 bd 10 6e 1b bd 4b 5d 81 bc 18 8f 14 3c
       -0.106416255 -0.03794676 -0.015791556 0.009067319
000240 ac 4c 7f 3d 36 8a 27 3e 88 03 e8 3d 32 e1 27 bd
       0.06232898 0.16361317 0.113287985 -0.040986247
000250 3e 9d e7 bd e9 19 70 be f3 f6 9e 3c 8f d2 56 bd
       -0.113092884 -0.23447384 0.019404864 -0.052446898
000260 ac 2a 7e bc f2 7a c6 3d e5 1c b4 3d 70 8c 6f bd
       -0.015513103 0.09691419 0.08794574 -0.05848354
000270 8a 96 cf 3d 22 bd 76 3e ed b5 99 3d 9f 85 fe 3d
       0.10136135 0.24095586 0.07505403 0.1242783
000280 bc 29 79 3e 7f e7 b1 3d f3 b6 9e bd 42 5c 8f 3e
       0.24332327 0.086867325 -0.077497385 0.28000075
000290 41 29 87 be 0e 5e 50 3e af 7b 52 3d ba 5a b3 3d
       -0.26398662 0.20348379 0.051387485 0.08757539
0002a0 f1 e4 d9 3c ef a6 2a be 5b 6a 43 be b6 47 53 3e
       0.026598426 -0.16665243 -0.1908354 0.20632824
0002b0 5d d5 59 bd d3 97 b5 bd 2d e7 90 bd 5a 40 7f 3e
       -0.053181995 -0.08866849 -0.07075343 0.24926892
0002c0 48 f1 f4 bd 8c da b3 bc c4 7f 25 3e e8 54 66 3e
       -0.11960083 -0.021954797 0.1616202 0.22493327
0002d0 24 c9 63 bd 33 11 14 bd 73 71 00 bd 12 04 01 3e
       -0.055611745 -0.036149215 -0.031358194 0.12599209
0002e0 90 de 05 3d 24 a0 fd 3d ab 1c 07 bd b8 ab d5 3d
       0.032682955 0.1238406 -0.032986324 0.104331434
0002f0 ab 1d e8 3d f7 ab 9c 3b e6 6a f3 bd 19 18 22 3c
       0.11333784 0.004781242 -0.11885624 0.009893441
000300 ec 33 e9 3d 7a 62 05 3d 59 99 81 bd 61 8a a3 3d
       0.113868564 0.032564618 -0.06328077 0.07985378
000310 2b 11 e3 bd c2 82 1b 3e 74 77 16 3e b4 ca c3 be
       -0.11087259 0.15186599 0.14694005 -0.38240588
000320 15 dc 83 be 57 87 35 bd 64 dd ea bd 26 8c 0e be
       -0.25753847 -0.044318523 -0.11468008 -0.1392065
000330 9e 9b e6 bd 4b 2f 01 3e 57 75 10 3e ed d9 dc 3d
       -0.112601504 0.12615697 0.14107262 0.107837535
000340 2c 63 b2 3c 5c 12 57 3e 43 4f c6 bd 2b e5 3b bd
       0.021775804 0.21003097 -0.09683087 -0.04587285
000350 58 e9 4c 3e 68 6c 6e be 99 7e 73 3d fe 44 8e be
       0.20010889 -0.23283541 0.059446905 -0.27787012
000360 a7 12 d0 3d 00 bb 6b 3e 25 77 23 3e 9a 69 3c 3e
       0.10159808 0.23020554 0.15963419 0.18399659
000370 70 fc 51 be 17 34 1c 3d 3b 8c 65 be 27 c4 34 bd
       -0.20506454 0.038135614 -0.22416775 -0.044132378
000380 dc 32 04 3c 7f fc 68 bd b3 ad 31 3e 36 21 59 3c
       0.008068766 -0.056881424 0.17351417 0.013252547
000390 30 7a c7 bd da 26 6a 3e 6d ff 2d bd a9 a3 a3 bc
       -0.09740102 0.22866383 -0.04247992 -0.0199755
0003a0 db 6d e5 3d 75 20 10 bd 8a 7b 1a be 33 2d b1 bd
       0.11202594 -0.035187203 -0.15086189 -0.08651199
0003b0 48 b8 8c be 83 b4 a4 3e 52 37 67 be 14 93 f1 bb
       -0.27484345 0.3216897 -0.22579697 -0.0073722694
0003c0 df c3 01 3e 05 ca eb 3c fe 05 32 bb 65 f0 c6 3d
       0.12672375 0.028782854 -0.0027164216 0.0971382
0003d0 ab a5 31 be 5c a4 1f 3c c4 47 f0 3c fc b3 e8 bd
       -0.17348354 0.009743776 0.029331096 -0.11362454
0003e0 84 51 a0 bd a8 00 62 3a 01 7c 6e bd 32 f2 0d 3e
       -0.07828048 0.00086213136 -0.058223728 0.13861921
0003f0 88 c4 4d be 8c 80 a8 3c 8d c2 7a 3d a2 f6 14 be
       -0.20094502 0.020569108 0.061220694 -0.14547208

layers.0.bias f4 [256]
000000 ef 33 fd bc bc 1e d7 bd 70 cd ae be 6c bb 89 be
       -0.030908553 -0.10503909 -0.3414111 -0.26900804
000010 fa 08 84 be dd 86 2b be 55 de 05 be 2f 70 8a be
       -0.257881 -0.16750665 -0.13073094 -0.27038714
000020 13 62 95 be cb 56 49 bd 33 2e 84 3d 84 86 ea bd
       -0.29176387 -0.049155038 0.06454124 -0.11451438
000030 2f 4d 64 bc ca fc ca be a0 46 7f be c6 f4 67 be
       -0.013934418 -0.39645988 -0.24929285 -0.22651967
000040 54 3c cb bc be 5a 40 bd 17 d0 83 be b1 25 9c be
       -0.02480904 -0.04696154 -0.25744697 -0.30497506
000050 f7 4a 2e be 9c 30 78 be 4b 31 1e bd 47 6f 5c be
       -0.17020784 -0.24237293 -0.03862123 -0.21526824
000060 12 b0 1e be 1b 6e 33 be ef 18 91 bd a5 2c 8f be
       -0.15496853 -0.1752247 -0.07084834 -0.2796375
000070 b4 a3 21 bd b9 a0 a3 bd b4 6d 12 be 5b 4e ed bb
       -0.03946276 -0.0798964 -0.14299661 -0.0072420067
000080 f7 cc 90 be 78 00 2f bb 98 d7 67 be e3 b0 38 be
       -0.28281376 -0.002670316 -0.22640836 -0.18036227
000090 39 db 88 bd 1e 52 d2 bd 19 f2 93 be 63 9c ff 3c
       -0.066824384 -0.10269569 -0.28895643 0.0312025
0000a0 5e da 96 be b5 96 8a be 90 c5 77 be c6 3c 98 be
       -0.29463476 -0.27068105 -0.24196458 -0.29733866
0000b0 02 42 8e be ef 47 40 be 28 2f 46 be 87 09 5b 3d
       -0.27784735 -0.1877744 -0.19353926 0.053475883
0000c0 6d 6c 2d be 3a 4c c8 be 6a cd 89 be e4 e8 56 be
       -0.16935892 -0.39120656 -0.2691453 -0.20987278
0000d0 1b 33 0c be 80 4c a4 bd 09 6a fa bd f7 4b 94 bd
       -0.1369137 -0.08022404 -0.12227256 -0.07241052
0000e0 b1 9f ce be 44 8a 99 bd 79 7b 38 be 7c 0e 41 be
       -0.4035621 -0.07497075 -0.18015851 -0.18853182
0000f0 8d 66 e0 be 39 81 9a be 0d 61 3a be d7 f1 c1 be
       -0.4382824 -0.30176714 -0.18201084 -0.37879822
000100 56 64 e3 bd ad 04 88 bd 1d fc aa be 59 25 ed be
       -0.11103122 -0.06641517 -0.33395472 -0.46317557
000110 85 52 c0 be f8 a6 90 be b1 80 b4 be 71 26 89 3d
       -0.37562957 -0.28252387 -0.35254434 0.06696785
000120 6e e9 3a be c2 36 91 be 5d 92 58 be 27 db 2d be
       -0.18253109 -0.2836209 -0.21149583 -0.16978131
000130 ae 71 a0 be 22 8a a5 be 4f 28 27 be 4f 7b e0 bc
       -0.3133673 -0.3233195 -0.1632397 -0.027402548
000140 33 48 57 bd 24 43 77 be d2 66 ba bd 93 0a 61 be
       -0.05255909 -0.24146706 -0.09101643 -0.2197669
000150 41 c0 99 be c2 0c 9d be 56 61 2a be e1 ef ab 3d
       -0.3002949 -0.30673796 -0.16638693 0.08395363
000160 4b 53 43 be 9c 17 89 bd a6 8c a5 be 8f 0a 2b bd
       -0.19074742 -0.06693956 -0.3233387 -0.041758116
000170 6d 5f 79 be 8b 92 c6 bd 72 35 b8 be 03 8e 85 be
       -0.24352808 -0.096959196 -0.35978276 -0.2608491
000180 1e 3f b8 be 3d b8 88 be dc 82 d4 be 4f 3b a9 be
       -0.35985655 -0.26703063 -0.41506088 -0.3305306
000190 0b 79 48 be ab 4e 88 be c3 b0 fb bd 91 50 9c be
       -0.19577424 -0.2662252 -0.12289574 -0.30530217
0001a0 c0 bf 6d be bf b5 c0 be e3 e7 91 be c9 b9 a0 be
       -0.23217678 -0.3763866 -0.28497228 -0.31391743
0001b0 03 e3 83 bc 1d 10 bb be e1 ee cd be 9b 21 a5 bc
       -0.016099459 -0.3653573 -0.40221313 -0.020157626
0001c0 b3 8e 69 be 99 c7 49 be cf 49 97 be 85 49 92 bd
       -0.22808342 -0.19705047 -0.295485 -0.07142929
0001d0 73 22 8b 3c 11 8e 55 be ae fb 27 be 0a 62 4b be
       0.0169842 -0.20854975 -0.16404602 -0.19861618
0001e0 08 b6 77 be ec ea 70 be 98 19 a0 be 63 16 7f be
       -0.24190533 -0.23527116 -0.31269526 -0.24910884
0001f0 94 ed f0 bd 86 1d c6 be 1a e1 89 3d 36 73 52 be
       -0.117640644 -0.386944 0.06732388 -0.20551762
000200 c6 d7 9f bc fb 2b 3a be e3 92 71 bd 23 2a b5 be
       -0.019512068 -0.1818084 -0.058977973 -0.3538371
000210 11 1a 32 3c 1e 95 2a be 3a 24 a5 bd c6 20 69 be
       0.0108704725 -0.16658446 -0.0806355 -0.22766408
000220 af 3e 80 3d 11 5a 51 be ef 32 03 bd 1b 7e 8d be
       0.06261956 -0.20444514 -0.032030996 -0.27635273
000230 a2 4f 0d be 87 15 9e be b8 ee 56 be a5 c6 07 be
       -0.13799909 -0.308758 -0.20989501 -0.1325937
000240 5a fb 34 be cc 99 4b be 90 5b ba bc d0 95 c2 3d
       -0.17674008 -0.19882888 -0.022748739 0.09501231
000250 c2 7e b4 be a2 e8 51 be 24 33 ce be d5 9b 1d be
       -0.3525296 -0.20498899 -0.40273392 -0.15391476
000260 bf 10 2e be ea 07 d8 bd 48 ab 1c be 1b bf 8f be
       -0.16998576 -0.105483845 -0.15299714 -0.2807549
000270 7b 76 29 be 69 39 5a be f8 ec 46 be e0 aa 7a be
       -0.16549103 -0.21310963 -0.19426334 -0.24479246
000280 e9 4e b7 be e1 70 11 be 4f e8 e8 bd 69 9e ac bc
       -0.3580239 -0.14203216 -0.11372434 -0.02107163
000290 66 dc 5d be 41 4d 66 bd 93 e1 89 be ba c8 77 be
       -0.21666107 -0.05622602 -0.26929912 -0.24197665
0002a0 57 9e 16 be 6b 34 ae be 7a d3 a6 bd a4 2a 82 bc
       -0.1470884 -0.34024367 -0.08145805 -0.015889473
0002b0 ab 7c 83 be 2d d4 36 be a7 38 a7 be 95 61 8e be
       -0.25681052 -0.17854376 -0.3266041 -0.27808824
0002c0 73 84 ae be c9 bd b0 bd 8e be f4 bd 53 c8 26 be
       -0.34085426 -0.08629949 -0.11950408 -0.16287355
0002d0 5b 94 14 bc 65 29 f6 bc 2c 66 ce be 63 95 68 be
       -0.009068574 -0.030049035 -0.40312326 -0.22713237
0002e0 e4 c5 80 bc 72 60 c6 bb 79 77 0e bd a9 dd 39 be
       -0.015719362 -0.0060539776 -0.034781907 -0.18150963
0002f0 d6 f3 0b be bb 7e 98 be 22 44 23 be cd 85 dd bd
       -0.13667235 -0.29784188 -0.1594396 -0.10816536
000300 19 30 b1 3b f7 a1 3f 3d ed 53 88 be 22 b0 39 be
       0.005407345 0.04678532 -0.2662653 -0.18133596
000310 6f dd 48 be 18 52 ac be 31 d9 02 be ae 96 2f be
       -0.1961572 -0.33656383 -0.12778164 -0.17147323
000320 46 e0 4a bd 2c 2e f6 bc 8f 26 99 be 66 51 b4 bd
       -0.04953029 -0.030051313 -0.2991223 -0.08804588
000330 7c 9e 63 be a3 1b c7 be 75 47 e0 be cc f9 80 bd
       -0.22228426 -0.38888273 -0.43804517 -0.06297645
000340 3e e6 9a bd 40 80 8b bd cc 42 32 be 17 42 5a be
       -0.075634465 -0.06811571 -0.17408293 -0.21314274
000350 1f c1 ba be 66 bd bb be 4f fb 01 be f6 cf 02 be
       -0.36475465 -0.36667937 -0.12693523 -0.12774643
000360 34 aa 99 be a1 b7 a9 be bc 1f 27 3d a4 b2 84 be
       -0.30012667 -0.3314791 0.04080175 -0.25917542
000370 bb fa af be dd 9e e4 bd 6d dc 04 be 62 a0 59 be
       -0.3437098 -0.11163113 -0.12974711 -0.21252587
000380 94 d6 db be 4f 0b f2 bd f4 48 30 bd f6 ef fe bd
       -0.42937148 -0.11818563 -0.043038324 -0.12448113
000390 82 5d a0 be 97 f3 b6 be 7e b8 6c be 2f 44 a7 be
       -0.3132134 -0.3573272 -0.23117253 -0.32669207
0003a0 97 b1 82 be 55 04 a4 be be 7b ac be e9 d1 10 be
       -0.25526115 -0.32034555 -0.33688158 -0.14142574
0003b0 2e d9 1d bd d1 79 98 bd 82 c2 9c be 25 a3 d7 be
       -0.038537197 -0.0744511 -0.30617148 -0.42116657
0003c0 bd d8 96 be bf ec c4 be d3 f1 8c be dc b3 8b 3d
       -0.29462233 -0.38461873 -0.27528247 0.06821415
0003d0 88 b2 9f be a5 70 41 be 4a 06 94 be dd 9a 9e bd
       -0.31190896 -0.18890627 -0.28911048 -0.077443816
0003e0 2f a2 ba be e0 fc 09 be fa 1f e9 bc b8 e3 02 be
       -0.3645186 -0.1347537 -0.02845763 -0.1278218
0003f0 17 0f c9 bc f8 1c 39 bd cf b2 90 be 13 2f b6 3a
       -0.024543328 -0.045193642 -0.2826142 0.0013899527

layers.3.weight f4 [80, 256]
000000 92 59 37 bd c3 50 44 3d f3 c6 7c 3d ae 3a 88 bc
       -0.044763155 0.047928583 0.06171317 -0.016629543
000010 18 90 84 bd 71 f8 74 bd ff cc 5f 3d c1 26 da 3d
       -0.06472796 -0.059807245 0.05463886 0.10651923
000020 99 36 0e 3e be ff 26 be 20 32 05 bd f7 a1 ac bd
       0.13888015 -0.16308495 -0.032518506 -0.0842933
000030 88 2b 9a bc f0 12 50 3e a7 97 ff 3c c8 e6 8e 3d
       -0.018819585 0.20319724 0.031200243 0.06977612
000040 2d 14 d0 bd 5e db bd bd 2d 4c ec 3d e2 06 d6 3d
       -0.10160098 -0.092703566 0.11537967 0.104505315
000050 7a 26 b8 3d 67 f4 71 3d c9 13 01 3d a7 4b 1d 3d
       0.08991714 0.05907097 0.03151301 0.038402226
000060 4b 19 b2 3d a1 ab 95 3c 5e e1 c1 bc 40 93 19 3e
       0.086962305 0.018270316 -0.023667034 0.14997578
000070 1f 9c 02 be 80 8b 4f bc e6 d3 ab 3d 91 52 d3 3b
       -0.12754868 -0.012667537 0.08390026 0.0064490517
000080 66 fa 42 3e 4b 71 a9 bd 8e 2f 8f 3d 36 57 d7 3d
       0.19040832 -0.08273562 0.06991492 0.10514681
000090 20 c7 06 be 16 22 a1 3c 16 a1 f1 3d 5f 0c 23 be
       -0.13161898 0.019669574 0.11798303 -0.15922688
0000a0 fe 0c 08 3d bc 77 e0 bd 6b 69 01 be a3 a9 13 3e
       0.033215515 -0.109603375 -0.1263787 0.1442018
0000b0 05 8f 10 3e 96 20 9a bc 96 cd 8e 3d 8b 0a 8e 3b
       0.14117058 -0.018814366 0.06972806 0.004334753
0000c0 04 7f 49 bd 9e fe f0 3d 04 dd 17 3e 2a e2 bd bc
       -0.049193397 0.117673144 0.14830405 -0.023179132
0000d0 ef ac 1c bd 8c 3b b2 bd f7 81 b4 bd 11 14 4b bd
       -0.03825086 -0.08702764 -0.08813851 -0.049579684
0000e0 d4 f2 fe 3d 80 26 30 3d 6d b0 f4 3c 30 b3 fb bd
       0.124486595 0.043005466 0.029869283 -0.12290037
0000f0 d5 35 90 3e 3d c0 44 bc 67 46 0b 3e 23 f6 9f 3e
       0.2816607 -0.012008724 0.13601075 0.31242475
000100 97 d5 e4 bc 36 93 23 bd 11 92 c8 3d 7d 72 01 3e
       -0.027933879 -0.039935313 0.09793485 0.1264133
000110 48 45 7a 3e 84 62 86 3d 41 fb be 3d 48 f6 5f be
       0.24440491 0.06561759 0.09325267 -0.21871293
000120 9d 8a ac 3d e0 f6 bf bc be 6a 15 bd 16 f8 ff 3d
       0.08424876 -0.023433149 -0.03647875 0.124984905
000130 55 b3 17 be ee c6 16 3e dc 72 12 3d 66 9c f5 bd
       -0.14814503 0.14724323 0.03575407 -0.11992721
000140 c8 3d 6f bd 58 09 e4 3b 1a f4 41 3d 79 ab d4 3d
       -0.05840853 0.0069591217 0.047351934 0.10384268
000150 9f f5 e4 bc f6 f7 3c 3e ad 0c 55 3e d5 c6 47 bd
       -0.027949153 0.18453965 0.20805617 -0.048773605
000160 65 1e b9 3b 3c f4 9c 3a c4 ef 23 3d 1a bf 91 3c
       0.0056493753 0.0011974643 0.04002358 0.01779132
000170 b0 c9 4c bd 6e 8f a5 bd dc a3 a3 3d a9 3a 0e 3d
       -0.04999703 -0.08083998 0.07990238 0.03472391
000180 7b 66 66 3d 12 eb 99 3c a7 a8 21 3e b1 fe bc 3d
       0.056250077 0.018788848 0.15786992 0.09228266
000190 f2 42 bc bd 54 09 0a 3d b2 a4 8a 3d 9b cf b9 bc
       -0.09192456 0.033700302 0.067696944 -0.022682002
0001a0 6c 27 2c bd f3 ef f1 3d 53 0e 48 3e f2 91 c8 3d
       -0.042029783 0.11813345 0.19536714 0.09793462
0001b0 d2 55 ff bd be 93 30 3e 74 3f 01 3e 89 6f b3 3c
       -0.12467541 0.17243859 0.12621862 0.02190377
0001c0 c3 4f 80 3d 10 75 81 3d 96 cf a0 bd 79 8e 6f bd
       0.06265213 0.06321156 -0.07852094 -0.058485482
0001d0 a6 7b c8 bd ad a8 a1 3d f6 63 ae 3d 9d ca 81 bd
       -0.09789209 0.078935005 0.0851516 -0.063374735
0001e0 12 27 ab ba 1d 23 d6 3d f8 cf c3 3d 90 4c 1d 3d
       -0.0013057909 0.10455916 0.09561151 0.038403094
0001f0 0a 20 c3 3d 85 5d ca 3d 45 ff 4d bd c9 55 09 3e
       0.09527595 0.09881119 -0.050292272 0.1341163
000200 b5 76 76 bd 07 0e f0 3c 59 ec 19 bc 17 06 53 3e
       -0.0601718 0.029303564 -0.009394729 0.20607792
000210 d4 1d 25 be 12 0c 14 be 88 7d 46 bd 27 3e 81 ba
       -0.1612466 -0.1445773 -0.04845956 -0.0009860442
000220 65 a8 05 be 9b 43 cc 3d 29 f4 58 bb 74 96 e1 3d
       -0.13052519 0.09973832 -0.0033104515 0.11015025
000230 d0 7f d3 bd 9b 6e b3 3d d7 b0 87 bc 4b 78 a1 3d
       -0.10327113 0.08761331 -0.016563816 0.07884272
000240 67 a3 2a 3d 87 90 a1 bc 37 f0 14 be b8 f2 8f bd
       0.04165974 -0.019722236 -0.1454476 -0.07028717
000250 72 75 66 3e 1a 21 1b 3e a3 5f 14 3e 6c 79 84 3c
       0.2250574 0.15149346 0.14489608 0.01617118
000260 0b 34 53 3d 11 f9 a9 3c 96 31 12 3d fd b0 b6 3d
       0.051563304 0.020748647 0.03569182 0.089204766
000270 70 f2 55 bc dc 9a 14 bc 44 1e 6b 3d 5e bf 12 3d
       -0.01305829 -0.0090701245 0.05740191 0.035827033
000280 82 ea 80 3e 2e bb e8 3d 45 96 46 3d 00 d9 74 3b
       0.25178915 0.11363827 0.048483152 0.0037360787
000290 44 b4 71 bc e8 49 ee bc b5 a6 3b 3d 00 34 bb 3b
       -0.014752451 -0.029087976 0.04581328 0.005712986
0002a0 2e 9f 08 3e 40 e2 20 3e 6f 1c 85 3b d7 c8 3f bd
       0.13341972 0.15711308 0.0040622274 -0.046822395
0002b0 64 fc 00 3e 87 4f 52 3c 96 fa 16 3e d6 a4 67 bd
       0.1259628 0.012836344 0.14744028 -0.056553684
0002c0 8d e1 86 bd af 94 01 bc 5c 01 2c 3e d9 d7 82 bd
       -0.06585989 -0.007908984 0.16797394 -0.06388826
0002d0 72 ab 9b bd db 18 46 3d 82 04 79 3d 01 5b 01 3e
       -0.0760106 0.048363548 0.060795315 0.12632371
0002e0 be a6 7c bb 9c 60 8d 3b 60 f6 10 be ce 86 cc 3d
       -0.0038551535 0.0043144953 -0.14156485 0.099866495
0002f0 94 70 fe bc ce 9f 25 3d 62 b3 07 3d d4 83 e8 bd
       -0.03105954 0.040435605 0.033130057 -0.11353269
000300 86 f6 bc bc 4e 86 d8 bd f0 ee be 3d 4e a3 d4 3d
       -0.02306677 -0.105724916 0.093229175 0.103827104
000310 e4 ca eb 3d 5f 23 84 3d 5d d4 2b 3d 03 e3 60 bb
       0.11513308 0.06452059 0.041950572 -0.0034314997
000320 e2 50 84 bd 78 90 01 3e c4 03 b5 3b 08 c6 82 bd
       -0.0646074 0.12652767 0.0055241305 -0.06385428
000330 9b 0f 49 3d 50 f4 71 3d 3a 1a 29 3e b5 7e 21 bb
       0.04908715 0.059070885 0.16513911 -0.0024642174
000340 4b 14 18 bd 10 b6 03 3c 62 70 0b be af 87 64 3c
       -0.037128728 0.008039013 -0.1361709 0.013948365
000350 90 f9 d5 3d 5b 48 67 3e 8a 37 f8 3d 05 30 86 bc
       0.10447991 0.22586195 0.12119968 -0.01638032
000360 e7 55 af 3d f0 c7 5c 3e 78 a6 7b bd 71 f3 04 3e
       0.085613064 0.21560645 -0.061438054 0.1298349
000370 72 16 f8 3c d9 54 9f bd 8f 88 4a bd c5 8d 88 3d
       0.03028414 -0.07779855 -0.04944664 0.066676654
000380 05 c5 dd 3d 3e c7 b6 bc b9 49 99 bd 5f f5 9a 3d
       0.10828594 -0.022311803 -0.074847646 0.07566332
000390 8b b7 b0 3d 7e 39 62 3e 3c aa 3b 3d b1 da d5 3d
       0.08628758 0.22092244 0.045816645 0.10442103
0003a0 df d1 d4 3d ac 5e 5b 3e 93 38 89 3d 3e 07 e2 ba
       0.10391592 0.21422833 0.06700244 -0.001724459
0003b0 54 1d f2 bc 3d 68 88 3c 66 bb 81 bb 7d 78 bd 3d
       -0.029555 0.016651267 -0.003959107 0.09251497
0003c0 13 91 c3 3d 93 2a c5 bc f7 eb 19 bd 7a d0 a6 bc
       0.09549155 -0.024068153 -0.03757855 -0.020363081
0003d0 ee 9c 70 3e d6 7d 40 3e c6 4f 0e 3e 16 87 08 3d
       0.23497364 0.18798003 0.13897619 0.033331953
0003e0 82 7d b4 3e 39 b0 37 bd 31 df 19 bd 3c df b3 bc
       0.35252005 -0.044845793 -0.037566368 -0.021957032
0003f0 85 34 a1 bd 2a 8f 56 bd 27 1e 15 3e 51 2e a1 bd
       -0.078713454 -0.052382626 0.14562283 -0.07870162

layers.3.bias f4 [80]
000000 6f f0 32 be ba 81 8b 3d 98 d4 32 be 38 68 7e bd
       -0.1747453 0.06811853 -0.1746391 -0.06211111
000010 5b 0a 1f be b1 b7 4a be 28 65 14 be 49 19 e5 bd
       -0.15531294 -0.19796635 -0.14491713 -0.111864634
000020 40 26 3a b8 cc 2d e3 bd 82 30 ad bd 7f f9 13 bd
       -4.438148e-05 -0.110927194 -0.08456518 -0.03612661
000030 eb 34 87 bd ae 5d fe 3b 1a 8e 49 bd 4f 72 a3 3d
       -0.0660189 0.0077626323 -0.049207784 0.07980787
000040 38 1f 90 3c 8e fd ee 3c e8 c8 b9 bd ee 18 1e bd
       0.017593011 0.029173639 -0.09071523 -0.038597994
000050 51 39 25 be 9e 14 ec bd 76 ba 15 3d f3 d4 d6 bc
       -0.16135146 -0.1152737 0.036554776 -0.026224589
000060 fc 85 fd ba 07 85 0f be cc 4f cc bd 95 12 0f 3c
       -0.0019342299 -0.1401559 -0.099761575 0.008732458
000070 86 f6 62 3d fe f1 c6 bc 78 77 74 be 3a 34 b1 bd
       0.055410884 -0.024285313 -0.23873699 -0.086525396
000080 51 a3 74 ba e1 c6 48 3d a0 a9 45 be bb cd 81 be
       -0.00093321974 0.04901779 -0.19302988 -0.25352272
000090 a2 cc 21 3b 59 91 73 3d 4d 80 2f bb 14 49 a2 bd
       0.002468862 0.059464786 -0.0026779354 -0.07924095
0000a0 5f 70 eb bd 48 a5 25 bd 19 ca 0e be 2a a0 06 3d
       -0.114960425 -0.040440828 -0.13944282 0.032867588
0000b0 05 d5 a1 bc bb 3b ed bd 44 80 81 bd 47 79 50 be
       -0.019754896 -0.11583658 -0.06323293 -0.20358764
0000c0 8c 23 fe bd 53 3c 6c 3d 41 d9 2b be 7d 92 32 ba
       -0.12409124 0.057674717 -0.16782095 -0.00068119896
0000d0 34 bd 52 be 9a ca 50 3c 0b ae 28 bd 16 38 52 bb
       -0.20579988 0.0127436165 -0.041181605 -0.0032076887
0000e0 c4 27 aa bd c2 ca 5a be 7f 83 e9 bc 6f 99 8a 3d
       -0.08308366 -0.21366408 -0.028505085 0.067675464
0000f0 9a 5f 4f 3d 15 a0 3a be a5 06 02 3d 03 e5 51 3c
       0.050628282 -0.18225129 0.031744618 0.012810948
000100 45 02 cd bd a7 9c 2c 3c 13 f7 82 bc ff 4b fd bd
       -0.100101985 0.010535396 -0.015986955 -0.12368011
000110 80 48 2b bc 1f 14 0d be 3e 4c 1f 3d 6d 5b 38 be
       -0.010454297 -0.13777207 0.03889107 -0.18003626
000120 47 ae 62 3c 14 ca 72 bd 80 8b 79 be 06 8e 03 be
       0.013835496 -0.059274748 -0.24369621 -0.12847146
000130 79 d4 68 be 9c bf 7c bd 08 4b e6 bd 48 21 86 be
       -0.22737302 -0.06170617 -0.1124478 -0.26197267

layers.6.weight f4 [64, 80]
000000 53 1c f4 3d b3 31 50 be dd 32 39 bd 73 89 ae bd
       0.11919465 -0.20331459 -0.045214523 -0.0852231
000010 dc 66 c0 3d ac bf 00 be 60 2b e2 bb ed 69 4d 3d
       0.09394619 -0.12573117 -0.0069021434 0.050149847
000020 3f 01 b1 bd 8b f7 08 bd 65 4d 22 3e 5b 20 8d bd
       -0.08642816 -0.0334392 0.15849836 -0.06890937
000030 e2 6b 67 3d b1 51 f3 bd 00 8e 2f 3e e8 2d 72 be
       0.05649937 -0.11880816 0.17144012 -0.23650324
000040 ab 8f 82 3d b1 77 38 be b7 16 9b 3d a2 da 4a 3e
       0.06375059 -0.18014409 0.07572692 0.19809964
000050 df 18 a2 bc 26 2b b0 bd 3b 08 11 be 56 03 e7 bd
       -0.01978725 -0.0860198 -0.14163296 -0.11279933
000060 75 c6 bc 3c b9 5b 03 be 8d 2d da 3c d1 e0 a3 bd
       0.02304385 -0.12827958 0.026633048 -0.08001865
000070 5b cb 3b 3d 5e 69 2a be d5 29 2a 3e 27 52 33 3e
       0.04584823 -0.16641757 0.1661752 0.17511807
000080 9e ec 67 be 09 fd 65 be 65 b3 ae 39 4f 28 70 bd
       -0.22648856 -0.22459807 0.00033321526 -0.05863219
000090 6c c4 a3 3d 50 83 57 be 42 7c e5 3d 5f 2d 9e 3c
       0.07996449 -0.21046185 0.11205341 0.019308744
0000a0 cc 29 4e 3d 2b 40 da bd 3b a2 5a 3e 58 be ce bd
       0.05033283 -0.1065677 0.21350949 -0.10094899
0000b0 d1 45 4f be 0a 00 35 be 1d 9e 1f be 38 09 db 3d
       -0.20241477 -0.17675796 -0.15587659 0.10695118
0000c0 37 59 d8 3d 68 a2 3e be 64 c8 99 bb bc 66 38 be
       0.105638914 -0.1861664 -0.004693078 -0.1800794
0000d0 50 72 4b 3d 10 1a d7 bd fb 80 fd bc 42 d8 65 be
       0.049669564 -0.10503018 -0.030945292 -0.22445777
0000e0 ca 55 a5 3d a5 5f 02 3e 36 ff 11 be ed c5 18 be
       0.080730036 0.12731798 -0.14257511 -0.14919253
0000f0 c3 d1 19 be 73 20 fc 3d eb 04 91 bd 31 47 0c 3e
       -0.15021424 0.12310877 -0.07081016 0.13699032
000100 ea 64 8c 3d fc c3 56 be 82 11 da bc ee 9e 0b 3e
       0.06855185 -0.209732 -0.026619677 0.13634846
000110 82 8e c1 bd 34 d8 0e 3e 30 1d 49 3d e3 58 d0 3d
       -0.09451009 0.13949662 0.0491001 0.10173204
000120 70 25 80 be d9 fe 9e bd c1 70 25 3e d5 8a b5 3d
       -0.25028563 -0.07763452 0.16156293 0.08864371
000130 4a 8d fb 3d 95 65 d1 3d c4 21 3a 3d e2 2f 88 bd
       0.12282808 0.10224453 0.045442358 -0.06649758
000140 c6 8d 23 3e 37 7f 98 be 4b 40 b5 bd f3 7a 1f be
       0.15972051 -0.29784557 -0.088501535 -0.15574245
000150 94 e0 2a 3e 7d 53 c7 bd f4 bf 3f bd dd a8 55 3e
       0.16687232 -0.09732721 -0.04681392 0.20865197
000160 61 d9 05 be 53 cb 50 3d c9 d0 3a 3d 9d 28 08 bd
       -0.13071205 0.050975155 0.04560927 -0.033241857
000170 3e f7 1e bd e6 a0 39 be 79 c2 a2 3c b9 95 86 be
       -0.038810007 -0.18127784 0.019868122 -0.26286104
000180 6f a9 8a 3d ad 71 3b be d2 08 1d 3e d4 07 c9 3c
       0.06770598 -0.18305083 0.15335396 0.024539866
000190 e3 d8 7d bd 61 9f 92 3d 40 09 2d be 33 bb 12 be
       -0.061974417 0.07159305 -0.1689806 -0.14329223
0001a0 f1 9b e2 3d 4a b4 0c be a8 fc 21 3e cd dd 1a be
       0.110649 -0.1374065 0.15819037 -0.15123673
0001b0 fc d0 25 3e f4 0a 81 be b2 d5 3c 3d 62 59 fa 3c
       0.16193002 -0.2520367 0.046102233 0.0305602
0001c0 5f 1f 0d be b5 67 2a be 98 ff a8 3a 69 ef dc 3d
       -0.13781498 -0.16641124 0.0012893556 0.10787851
0001d0 c4 b0 6a 3c aa 8a 4e be 27 e7 90 3d ff f3 68 3d
       0.014324371 -0.20170084 0.07075339 0.056873318
0001e0 53 81 3d bc 4d f7 ba bd bd f2 8e 3e e8 98 7a be
       -0.011566478 -0.091292 0.2791957 -0.24472392
0001f0 de 88 77 be c7 ca 79 be f1 1e 62 be 9b bf ca 3d
       -0.24173304 -0.2439376 -0.22082116 0.09899827
000200 1c c1 13 3e 00 d0 13 be 2b 9d 8b bd c2 31 6b be
       0.14429134 -0.14434814 -0.06817087 -0.229682
000210 d7 8b a5 bd 2f 78 50 be 20 1f 07 bc a2 20 7a be
       -0.08083313 -0.20358346 -0.008247167 -0.24426511
000220 c0 e1 f8 3d 09 af 72 3d 18 2c 1f be 6a 7f 5a be
       0.121524334 0.059248958 -0.15544164 -0.21337667
000230 23 2b 34 be b9 14 fc 3c bb 0c 95 bd 3a ae 45 3e
       -0.1759458 0.0307716 -0.07277819 0.19304743
000240 aa 6b e9 bc 88 ff 69 be 2d d3 1d 3d cf 57 85 3d
       -0.028493721 -0.22851384 0.03853147 0.06510889
000250 17 4d 60 be 8b 00 f9 3d ae da e7 3c c6 14 d8 3d
       -0.21904407 0.12158307 0.028302517 0.10550837
000260 37 b7 55 be 26 3d 24 bd 44 6c 45 3e 5d 3e d4 bc
       -0.20870672 -0.04009738 0.19279581 -0.025908643
000270 83 b7 dd 3d 7b 17 25 3d 75 17 c1 3d 41 a2 5c bd
       0.10826018 0.040305596 0.09428302 -0.053865675
000280 a6 41 7a bc 83 13 b7 3c 21 1c c1 bd d1 7d 8c bd
       -0.015274441 0.022348171 -0.09429193 -0.06859935
000290 b3 c3 16 3d a0 f7 1a 3d 9c 05 da 3d aa d4 75 bb
       0.036807727 0.03783381 0.10645601 -0.003751079
0002a0 ab 23 fe bc ff 79 2f bd 30 70 7b 3d 7c 09 15 3e
       -0.031022867 -0.042840954 0.061386287 0.14554399
0002b0 e6 41 80 3d d7 dd 06 3e 58 f8 97 bd fd 15 8a 3b
       0.06262569 0.13170563 -0.07420415 0.004214047
0002c0 58 63 ca 3c 72 b4 70 bd e9 92 8d 3d c8 d1 a0 bd
       0.024705574 -0.058765836 0.069127865 -0.078525126
0002d0 f7 34 b2 3d 47 97 b5 bd fa 7a 97 bd e4 1a 96 3b
       0.087015085 -0.088667445 -0.07396503 0.0045808423
0002e0 08 e8 a6 3d 5d 7e 14 3e 53 89 35 3d d5 79 1d 3e
       0.08149725 0.14501329 0.044320416 0.15378506
0002f0 4c 48 24 3e 15 49 ba bc 2e b9 3a bc 2c 97 78 bd
       0.16043204 -0.022739926 -0.011396689 -0.060691044
000300 26 04 de bd 02 9f 14 bd 43 ec 20 3d f2 97 72 3b
       -0.10840635 -0.036284454 0.039287817 0.0037016836
000310 56 c2 27 3e 95 7b f9 3c db 7e bf 3d 46 dd b9 bd
       0.16382727 0.030454436 0.09350368 -0.09075408
000320 9f 0b 0a bd a7 c3 36 bd 89 f6 1a 3d 84 fa 65 bd
       -0.03370249 -0.044620182 0.03783277 -0.056147113
000330 cc 05 21 bd 74 2c de 3c 3d 97 c5 bd b8 12 e1 3c
       -0.03931217 0.027120806 -0.09647987 0.027474746
000340 d4 77 8d 3d 2d d4 9c 3d 54 cd 20 3d 3a 00 b7 bd
       0.06907621 0.07657657 0.039258316 -0.0893559
000350 28 4c 07 bd d8 78 35 bb d2 60 82 bc 98 74 93 bd
       -0.033031613 -0.0027690437 -0.015915308 -0.07199973
000360 27 ed 5c 3d 0b 92 47 3e 25 dc 76 3d 6b c8 a1 3d
       0.053937104 0.19489305 0.06026854 0.07899555
000370 52 4a 0a be 0c 1a 4c 3d f9 be 2e 3c c0 0b a7 bd
       -0.13504913 0.049829528 0.010665649 -0.08156538
000380 8f b5 bb bc c7 63 2f bc 78 4f c0 3d 5c 3b 98 3c
       -0.022913722 -0.010704941 0.093901575 0.018582992
000390 93 d1 04 3d 45 1f 02 3c fe e8 89 3d 3f e5 26 3d
       0.032426428 0.007942026 0.06733893 0.04074597
0003a0 64 96 99 bd be ea 68 3d 53 5e 58 3d 24 af c3 bc
       -0.07499388 0.056864493 0.05282433 -0.023887224
0003b0 17 95 50 3c 67 be c1 bc 3f 85 1c 3e 3a e4 8c 3d
       0.012730858 -0.023650361 0.15285204 0.06879468
0003c0 65 29 a2 3d e4 98 6b be 52 e5 29 3d 6a 89 fc bd
       0.07918052 -0.23007542 0.041478463 -0.12330897
0003d0 ea 04 98 bc 60 54 26 be e9 c7 9f bc ff 81 1a 3e
       -0.01855703 -0.16243124 -0.019504504 0.15088652
0003e0 39 ad 92 bd 99 ff 75 3d aa a2 b1 3c bd 99 0c 3d
       -0.07161946 0.06005821 0.02168401 0.034326304
0003f0 1b 36 b1 bc 61 ff 10 be ea 68 33 3e 54 0b 56 be
       -0.021632245 -0.1415992 0.1752049 -0.20902759

layers.6.bias f4 [64]
000000 56 c0 23 3e 62 83 73 3e ad 33 89 be af 8a 22 3e
       0.15991339 0.23780587 -0.26797238 0.15873216
000010 54 27 77 be a3 1f a2 be c3 54 fa 3d 4d 71 a0 3d
       -0.24136096 -0.31664762 0.12223198 0.078341104
000020 04 c5 d3 3d 5a 54 05 3e ed 33 13 3e e7 d4 20 be
       0.10340312 0.13020459 0.14375277 -0.15706216
000030 fe 59 5d 3e b4 40 b9 3d 4d d7 2d 3e 88 41 06 3e
       0.2161636 0.09045544 0.16976662 0.13110936
000040 e9 8c 54 3d 50 53 1b 38 93 2c 6f 3e c1 64 a5 3b
       0.051892195 3.703247e-05 0.23356847 0.005047411
000050 b0 87 2f 3e 20 24 ed 3d 15 79 89 be 30 50 9e 3d
       0.17141604 0.11579156 -0.2685019 0.07730138
000060 51 b0 10 3e 0c 9b 6c bc be b9 86 3d c3 75 a0 be
       0.1412976 -0.014441263 0.06578396 -0.31339845
000070 05 07 2e 3e 29 b9 5c 3e 20 38 1f be 36 8c b4 be
       0.16994865 0.21555008 -0.15548754 -0.35263222
000080 44 a9 7c 3e 50 29 84 3e 58 92 f6 3d 03 e6 00 3c
       0.24673945 0.2581277 0.120396316 0.007867339
000090 9e f3 ba 3d 5b fe 5b 3e 3c 05 f0 3d a2 7a 21 3e
       0.091284975 0.21483748 0.117197484 0.15769437
0000a0 a4 e7 0a 3e 9b 32 4b 3e 0b a1 39 3e 8b bb 0d be
       0.13564926 0.19843523 0.1812784 -0.13841073
0000b0 f7 00 17 3e 5c 4e 6d 3e 75 e1 f2 3d aa 3b 9a be
       0.14746462 0.23174423 0.11859409 -0.30123645
0000c0 e0 05 f4 3d b5 ec 88 be c3 2b 2a 3e 32 32 76 be
       0.11915183 -0.26743093 0.16618256 -0.24042585
0000d0 a4 9f 0f 3e 6e b1 44 be 5f 19 18 be 52 73 31 3e
       0.14025742 -0.19208309 -0.14853428 0.17329147
0000e0 6b 71 04 be 51 a4 0b 3e 74 3b 63 3e e8 42 80 bd
       -0.1293389 0.136369 0.22190648 -0.06262761
0000f0 b7 c9 3a 3e 0c 66 36 3e 4c 5c 0d 3d 6f d8 b1 be
       0.1824101 0.17812365 0.03451185 -0.34735438

layers.8.weight f4 [1, 64]
000000 da 3c bd bd 4c a0 1e be 6e 69 6f bc c8 b6 02 be
       -0.09240122 -0.15490836 -0.014612539 -0.12765038
000010 46 76 94 bc 11 46 05 3c 7b da 0c 3e 3b 2c 15 3e
       -0.018122803 0.008134381 0.13755219 0.14567654
000020 ab 17 7b 3e be 7a fc 3d 04 f9 6a bd 46 5a c0 bb
       0.24520747 0.12328099 -0.057366386 -0.0058701364
000030 f5 0f 33 3e 4f d7 92 bd 2d 40 4a 3e fc 10 0c 3e
       0.17486556 -0.07169973 0.19751044 0.13678354
000040 e8 a9 3a 3e e0 17 dd 3d ae 0b 04 be 1d 4f c4 3d
       0.18228877 0.107955694 -0.1289508 0.09585402
000050 80 32 11 be f4 c3 fc 3d b1 b2 a9 bc 88 21 39 3d
       -0.1417942 0.123420626 -0.02071509 0.045197994
000060 a1 7e 00 3e 93 cd c5 3d a8 a7 34 3e 00 c5 3d bc
       0.12548305 0.09658351 0.17642081 -0.011582613
000070 58 22 1b be f3 62 cd bd f1 49 4c 3d 28 3b be bc
       -0.1514982 -0.10028639 0.049875204 -0.023221567
000080 0d 6d 28 be 03 b6 25 be 75 86 48 3e 30 75 01 3e
       -0.1644785 -0.16182713 0.19582541 0.1264236
000090 0a 4c af bd 1a c3 7f 3e f1 52 50 3e 11 fc fe bd
       -0.08559425 0.24976769 0.2034414 -0.124504216
0000a0 60 39 b3 bd 79 a8 42 3e e4 e9 72 3e b5 07 69 bb
       -0.08751178 0.1900958 0.23722035 -0.0035557572
0000b0 22 36 3c 3e c1 72 78 3e a9 21 4f bd c2 a8 b5 bc
       0.18380025 0.24262525 -0.05056921 -0.022175197
0000c0 11 be 2e 3e 8b 66 08 bc 97 88 dc 3d cd 48 8e bb
       0.17064692 -0.008325229 0.1076824 -0.0043421746
0000d0 62 ba 16 3e 69 f3 09 3b 4b 26 a9 bb d9 02 a8 bd
       0.14719537 0.0021049625 -0.0051620356 -0.08203668
0000e0 0c d7 45 bb 33 0f 2f 3e ae e4 20 be 14 43 80 bd
       -0.0030187992 0.17095642 -0.15712234 -0.06262794
0000f0 a4 8d 07 be d4 30 b9 bd cb 23 47 3e 8c 52 c5 bc
       -0.13237625 -0.09042516 0.19447248 -0.024087213
