flwr-mlp/models/checkpoints/round_007.pt (torch, 127593 bytes, 7 tensors)

layers.0.weight f4 [256, 19]
000000 b2 fb 8c bd 60 e1 16 be 87 19 c2 3c 5b fe 25 be
       -0.068839446 -0.14734411 0.023693813 -0.1621031
000010 54 ba d0 3c a9 0b f7 bd 3c dc 99 bd 4b d1 3f be
       0.025479473 -0.12062771 -0.075127095 -0.18732183
000020 51 01 24 3e 0a be 00 be 7f 6b 25 3d 5c 64 29 3e
       0.16016127 -0.12572494 0.04038572 0.1654219
000030 57 23 23 bd 79 65 15 be 57 7b 3e 3e 91 9e 8e bc
       -0.039828625 -0.1458949 0.18601738 -0.017409595
000040 2f 61 02 be df 8a 8b 3d 94 8a 43 be 4d 9d 3b be
       -0.12732385 0.06813597 -0.19095832 -0.18321724
000050 98 59 21 bd 3e 15 ae 3d 10 49 9d bb 38 7e 6f bd
       -0.039392084 0.085001454 -0.0047999695 -0.05846998
000060 74 cb e3 bc ef 93 3d 3e 37 5a 5f be f2 e0 ed 3d
       -0.027806975 0.18513463 -0.21811758 0.116151705
000070 d3 ee d4 3b c2 46 03 3e e3 ba 10 3e 43 36 02 be
       0.0064981966 0.1281996 0.14133792 -0.12716012
000080 5a a6 5d bd 72 7c 86 3d 83 b6 a9 bd 6b fe f3 3d
       -0.054113723 0.06566705 -0.082867645 0.11913761
000090 61 2f 1d 3e 95 07 1a bd 2b 9d d0 3d 31 30 01 3e
       0.15350105 -0.037604887 0.101862274 0.1261604
0000a0 83 6d 0d bd 17 10 10 be 21 8a 63 3d 33 7a 7c bd
       -0.034528267 -0.14068638 0.055551652 -0.061639976
0000b0 a2 96 ce 3d 05 ff 6f be 9b b0 4b 3d 07 dd 74 3e
       0.10087325 -0.23437126 0.04972897 0.2391244
0000c0 02 c1 28 3e 2e 20 64 bd df f9 50 3d fb ea 24 3e
       0.16479877 -0.05569475 0.051019546 0.16105263
0000d0 d1 ab 03 3e 76 a4 26 3b 34 34 4d 3d 6c 6e 15 3e
       0.12858512 0.0025427616 0.050098613 0.14592904
0000e0 11 52 ea bd ab c7 85 3e 7c 7b 69 bd 26 10 38 3d
       -0.11441434 0.26128897 -0.05700253 0.044937275
0000f0 00 aa c8 3d 8b 4d a6 bd 88 49 5d be 02 78 54 be
       0.0979805 -0.08120259 -0.21610081 -0.20748904
000100 83 bf 6c 3e 41 d0 41 bd 72 22 d2 3c c8 94 3c 3e
       0.23119931 -0.047317747 0.02565119 0.1841613
000110 55 9e e1 bd b8 72 dd bd 34 e6 a0 3d bd 36 16 be
       -0.110165276 -0.108128965 0.07856408 -0.14669318
000120 c8 78 cb bd 12 97 05 bd b9 46 5f 3d 46 58 1c 3e
       -0.099351466 -0.032614775 0.054510806 0.15268049
000130 4f 10 b9 bd f2 59 94 bd 1c 3d 33 3e c6 48 a8 bc
       -0.09036314 -0.07243718 0.1750378 -0.020542514
000140 da 57 38 3e 44 21 29 3e 00 67 28 3e ce 40 1f 3e
       0.18002263 0.16516596 0.16445541 0.15552065
000150 64 5a 35 3e f0 67 ac bb d0 2b 08 be 8d c7 cc bd
       0.17710263 -0.0052614138 -0.13297963 -0.09998999
000160 a6 3a 55 be 02 b4 37 bd 30 d8 f7 bd 2a e0 d6 3d
       -0.20823154 -0.044849403 -0.12101781 0.10491975
000170 e0 2d 51 bd a4 4c 4b bd 16 ba 2b be 14 46 73 3d
       -0.05106914 -0.049633637 -0.16770205 0.059393004
000180 e8 81 1f 3e 56 6d 91 bd a3 2d 42 3e ad 6c 0e 3e
       0.15576899 -0.07100932 0.18962722 0.13908644
000190 b7 70 69 be 1a 0d ea 3d 2d f5 69 3e 0b d9 ca bd
       -0.22796904 0.1142828 0.22847433 -0.09904679
0001a0 14 01 30 be 10 d1 b8 3d 0c 4d 85 be 14 c5 2d 3d
       -0.17187911 0.090242505 -0.26035345 0.042424276
0001b0 19 e3 30 3e 43 ff 33 3e 25 43 c1 3b 14 ed 13 3e
       0.17274131 0.17577843 0.005897897 0.14445907
0001c0 04 ec f4 bc d1 62 62 be 96 8b c3 3d 8c ea 3c 3e
       -0.029897697 -0.22108008 0.09548108 0.18448848
0001d0 44 e0 09 3e 29 0a b4 3c 64 b9 13 be b6 6d a7 bd
       0.13464457 0.021977501 -0.1442619 -0.081752226
0001e0 f5 36 1e be 38 20 35 be 53 75 1e be 05 93 6a 3e
       -0.15450652 -0.17688072 -0.15474443 0.22907646
0001f0 fe e7 59 be a9 dd d9 bd a6 94 80 3d 94 cb 14 be
       -0.21279904 -0.106379814 0.062783524 -0.14530784
000200 9a bf 00 3e 42 d9 02 be d2 02 4d 3b 09 9e 72 bd
       0.1257309 -0.1277819 0.0031282199 -0.059232745
000210 57 13 45 bc 01 e4 26 3e 6c 63 39 be fd b8 2c bd
       -0.012028537 0.16297914 -0.18104333 -0.042168606
000220 3a 60 07 be 1e 10 b1 3c a4 41 eb bc fc 6e 36 be
       -0.13220301 0.02161413 -0.028717823 -0.17815775
000230 d6 b7 be bd 16 41 64 bd eb 0c c4 bd eb 17 10 3d
       -0.09312408 -0.055726133 -0.095727764 0.03517906
000240 b4 c0 4d 3d 6c 1f 51 3e ad 1c 1a 3e f6 f7 86 bc
       0.050232604 0.20422143 0.15050001 -0.016475659
000250 84 87 80 bd 92 72 6f be f8 77 cb bc 12 cf 0c bd
       -0.062758476 -0.23383549 -0.024837479 -0.034377165
000260 06 d6 2c bd ea 9e 91 3d c5 3a 89 3d 76 db 7a bd
       -0.042196296 0.071103886 0.067006625 -0.06124445
000270 de 2e fd 3d 5b 73 5c 3e 82 c8 24 3e f8 7c 20 3e
       0.12362455 0.2152838 0.16092113 0.15672672
000280 d3 09 6c 3e 95 11 48 3d 30 08 d9 bd 6c de 81 3e
       0.23050623 0.048844893 -0.10597265 0.25365007
000290 61 bf 6d be 1d 2a 05 3e bb d0 23 3d 06 57 e6 3d
       -0.23217537 0.13004346 0.039993983 0.11247067
0002a0 08 9e 50 3b dc cb 22 be 26 c9 3a be ae ae 6d 3e
       0.0031832475 -0.15898079 -0.18240795 0.23211166
0002b0 a4 28 ac bb d1 19 08 bd 03 24 76 bd 7c 1e 31 3e
       -0.005253868 -0.033227745 -0.060092937 0.17296785
0002c0 d4 77 e9 bd d2 1e 9c bc a4 44 59 3e 26 55 17 3e
       -0.113998085 -0.019057665 0.2121759 0.14778575
0002d0 7a 8a 4d bd 64 5a ee bc b3 90 61 bc 3f 11 1f 3e
       -0.05018089 -0.029095836 -0.013767409 0.15533923
0002e0 d7 0e 28 3d 91 0a fc 3d ee ec 56 3b 29 26 e6 3d
       0.041029777 0.12306703 0.003279503 0.11237747
0002f0 75 0d ce 3d 80 7a 7f 37 9b 22 8c bd 28 71 d0 3c
       0.100611605 1.5227706e-05 -0.06842538 0.025444582
000300 fa 10 01 3e 6a 2a c5 3d 0b 6d 51 bd 6b 76 e1 3d
       0.12604132 0.096272305 -0.051129382 0.110089146
000310 1e 7a df bd 6b 1f 26 3e f4 3b 0c 3e 11 83 85 be
       -0.10911964 0.16222923 0.13694745 -0.26076558
000320 c8 49 6b be ea b1 b5 bc b8 0c be bd 2c fc 22 be
       -0.22977364 -0.022179563 -0.0927977 -0.15916508
000330 3c b7 dc bd 24 e8 28 3e 8d 8a 2d 3e 1a 98 00 3e
       -0.10777137 0.16494805 0.16947384 0.12558022
000340 86 d3 92 3c 27 c2 79 3e 3d c1 c9 bd 08 d1 38 3c
       0.017923128 0.2439047 -0.098513104 0.011280306
000350 29 61 36 3e 38 bb 4f be 9f 3a c9 3d e7 06 6c be
       0.17810501 -0.20286262 0.09825634 -0.23049508
000360 65 e5 ed 3d 82 c4 44 3e e1 7f 1e 3e fa c6 27 3e
       0.11616019 0.19215587 0.1547847 0.16384497
000370 d5 aa 3e be de 1b 03 3d bc 80 1e be 6d dd 78 3c
       -0.18619855 0.032008998 -0.15478796 0.015189511
000380 b3 fe 48 3c 9c e1 43 bd 75 0e 37 3e 52 eb 84 3d
       0.012267756 -0.04782258 0.17876609 0.06490196
000390 4d 38 ea bd b8 8d 57 3e 7b b6 2e bd e8 07 01 bc
       -0.1143652 0.21050155 -0.042654496 -0.00787542
0003a0 26 a5 b7 3d ee f9 d8 3c 42 29 4d be a3 fc ab bd
       0.089670464 0.026486363 -0.2003527 -0.08397796
0003b0 7d 34 5a be a5 1d 91 3e 67 6c 59 be 9c df b0 bc
       -0.21309085 0.2834293 -0.21232758 -0.021591
0003c0 02 66 34 3e 52 62 7c 3c a6 e2 75 3c 41 b6 b6 3d
       0.17617038 0.015404301 0.0150076505 0.08921481
0003d0 83 0a 6c be 74 3b 06 3d 11 e4 1d 3d aa 9f b0 bd
       -0.23050885 0.032771543 0.03854758 -0.086242035
0003e0 e8 33 c1 bd 43 22 1f 3d d2 b3 83 3c 9b 46 b7 3d
       -0.094337285 0.038851034 0.016076956 0.08949014
0003f0 4e 74 14 be 89 72 be 3d 6b 06 03 3e b9 a0 2f be
       -0.14497492 0.092991896 0.12795417 -0.17151155

layers.0.bias f4 [256]
000000 10 e7 bb 3d 7b 46 e5 3a a2 16 2c be 89 9d 51 be
       0.09174931 0.0017492318 -0.16805509 -0.20470251
000010 52 a7 28 be 38 fe c9 bd 7b 9d 19 3d fd 45 98 bd
       -0.16470078 -0.098629415 0.0375037 -0.07435224
000020 e8 aa 3b be 59 e5 02 bd 2d b3 9b 3d b9 3a 15 bd
       -0.18326914 -0.031957004 0.076025344 -0.036432955
000030 32 65 23 3e 37 b7 8d be e7 f8 ef bd d4 b1 bb bd
       0.15956572 -0.27678844 -0.11717396 -0.091647774
000040 92 7c fe 3d 77 f6 40 3d 63 0f 5c bd 18 79 bc bd
       0.12426104 0.047110047 -0.05372561 -0.09202784
000050 b5 bd 79 bc c0 f7 84 bd 33 ea 26 3e 42 10 ca bd
       -0.015242984 -0.06492567 0.16300277 -0.09866382
000060 b3 5c 29 bd a6 bb 85 bd df 20 dd 3c b1 71 d9 bd
       -0.04134817 -0.06529932 0.026993213 -0.10617388
000070 38 da ee 3c 22 cf 0a 3d 4f 7a ae 3c 79 01 85 3d
       0.02915679 0.033888943 0.021298556 0.064944215
000080 0a 98 04 be e5 61 9a 3d 78 d3 99 bd 8d 0d 8f bb
       -0.12948623 0.07538203 -0.075110376 -0.004365629
000090 08 c8 1f bc ff 42 25 bd 6f 1e fb bd b2 f3 09 3e
       -0.009752281 -0.040347096 -0.12261664 0.13471869
0000a0 6e 2a 5e be 9d 92 33 be 37 db 43 be 8a 94 2c be
       -0.21695873 -0.17536397 -0.19126593 -0.16853538
0000b0 73 b7 51 be 16 f8 2c be 7a 9b 07 bc 97 c1 4d 3d
       -0.20480137 -0.16891512 -0.008276815 0.05023345
0000c0 20 80 cd bd be 9d 22 be 2d 5c c3 bd 1c e4 52 bc
       -0.100342035 -0.15880486 -0.095390655 -0.012871768
0000d0 34 70 e5 bd 42 5d 0e bb 47 04 d7 bd 68 13 9c 3d
       -0.11203042 -0.0021723066 -0.10498863 0.07620889
0000e0 58 df 62 be 1d 66 33 3d cc 51 35 be 22 bf 15 be
       -0.22155511 0.043798555 -0.17706984 -0.14623693
0000f0 98 45 7e be 41 a4 1e be 55 be 91 bd e6 89 77 be
       -0.24831235 -0.15492345 -0.07116381 -0.24173698
000100 a2 15 88 bd c4 a0 13 3d 0b c8 2d be 07 3c 9f be
       -0.06644751 0.03604199 -0.16970842 -0.31100485
000110 5e 29 59 be 81 e0 d9 bd 0d d9 6a be 95 bf e1 3d
       -0.21207187 -0.10638524 -0.22934361 0.110228695
000120 a0 b7 18 bd 04 48 60 be 7a cb 48 be d7 11 41 bd
       -0.037284493 -0.21902472 -0.1960887 -0.047136154
000130 e5 51 84 be 2f 35 10 be 6a f6 a5 bc 7e d9 0f 3d
       -0.2584373 -0.14082788 -0.020259101 0.035119526
000140 0e 5a a7 3d f5 58 6b bd 5a c3 f8 3d 4f 74 03 be
       0.081714734 -0.057457883 0.12146635 -0.12837337
000150 dd 17 5f be 7e 96 37 be f8 fc 20 bc fb a6 23 3e
       -0.21786447 -0.17928502 -0.009825937 0.15981667
000160 e7 52 8e bd c2 5e b9 3d 67 ae 6b be 28 1e b7 3d
       -0.06949406 0.09051277 -0.23015748 0.08941299
000170 85 85 38 be 0f 40 cd 3c 8d 5d 55 be a1 b8 01 be
       -0.18019684 0.02505496 -0.20836468 -0.12668087
000180 a9 86 6f be 9e 0b f5 bd 2e 37 89 be e9 20 72 be
       -0.23391213 -0.119651064 -0.2679991 -0.23645367
000190 e0 66 29 bd 10 91 52 bd 7c b6 f9 bc a0 12 58 be
       -0.041357875 -0.051407874 -0.030482523 -0.21100855
0001a0 f6 d3 72 be 85 f2 36 be 1e a6 40 be 32 8d 0e be
       -0.23713669 -0.17865951 -0.18813369 -0.13921049
0001b0 90 e0 73 3d 30 c3 2f be 47 12 78 be 06 38 41 3d
       0.05954033 -0.17164302 -0.24225722 0.04717257
0001c0 f2 6a 95 bd a8 51 45 bd 44 14 55 be 92 5b af bc
       -0.07295789 -0.048173577 -0.20808512 -0.021405969
0001d0 b8 4c a5 3d 95 f2 26 bb f0 3a 44 3d c1 44 16 be
       0.080712736 -0.002547418 0.04790777 -0.14674665
0001e0 49 99 4a be 69 7b c3 bd 67 1d 24 be c6 00 a0 bd
       -0.19785036 -0.09545023 -0.16026841 -0.078126475
0001f0 3a 06 6e 3d 3d d7 5d be 30 8e 19 3e 4e 0a b0 bd
       0.058111407 -0.21664138 0.14995646 -0.085957155
000200 10 77 14 3d cb 20 de bc 24 3a 1a 3d 46 a6 24 be
       0.03624636 -0.027115246 0.037653103 -0.16079053
000210 a8 b2 b8 3d a9 c4 02 be b2 bd 47 3d dd 47 36 be
       0.09018451 -0.12770332 0.048764892 -0.17800851
000220 0c ed a6 3d 87 c4 67 bd 9d 1a fe 3d ad 90 12 be
       0.08150682 -0.056583907 0.1240742 -0.14313002
000230 08 44 c1 bd e7 f5 f5 bd bf 9f 83 bd 8c f2 bb 3d
       -0.09436804 -0.12009793 -0.064269535 0.091771215
000240 39 70 41 3c 55 ee 6f bd c1 c9 1a bb 95 be a8 3d
       0.011806541 -0.0585769 -0.002361879 0.08239476
000250 c6 d9 63 be cb 44 26 bd 66 27 6f be 22 53 1a bd
       -0.22251043 -0.04059295 -0.23354873 -0.037676938
000260 50 16 65 3d 24 aa 0f 3e 44 3a d1 bc 92 7d 1d be
       0.055929482 0.14029747 -0.025540479 -0.15379933
000270 c0 12 e1 bd 8e c4 9c bd 4f 1a b1 bc e8 5c 4d bd
       -0.109899044 -0.07654677 -0.02161899 -0.05013743
000280 91 f1 5d be 77 87 2f bd 02 70 31 3d 95 8f c7 3c
       -0.21674182 -0.0428538 0.04331971 0.024360457
000290 f0 11 85 bd 08 34 99 3d 7d 1d 56 be 56 55 5a be
       -0.06497562 0.07480627 -0.20909686 -0.21321616
0002a0 8f bc f1 bc c8 42 49 be d7 12 c3 3d 4d 19 dc 3d
       -0.029508857 -0.19654381 0.09525078 0.10747013
0002b0 72 c4 37 be 95 30 f8 bc 91 d1 2f be 26 a8 53 be
       -0.17946032 -0.030296603 -0.17169787 -0.20669612
0002c0 8b d5 84 be 05 bf 90 bd b7 4b 25 3d 0c d1 0b bd
       -0.2594417 -0.07067684 0.04035541 -0.03413491
0002d0 b0 73 ee 3d 85 ce 26 3e 3e c1 74 be 07 a8 0c be
       0.116431594 0.16289718 -0.23901841 -0.13735972
0002e0 50 08 a1 3d e7 5a b8 3d 51 94 24 3d 7f e1 57 bd
       0.078629136 0.09001713 0.040180508 -0.052705284
0002f0 13 57 e5 bd 67 7d 4b be d8 51 da 3c 19 eb a2 bd
       -0.11198249 -0.19872056 0.026650354 -0.079549976
000300 40 7d a2 3d b5 8d 0c 3e 2f 49 21 be 3f 1d d0 bc
       0.07934046 0.13725932 -0.15750574 -0.02540457
000310 f5 8e 8e ba c6 d2 69 be b9 73 66 bd 94 f4 ee 3b
       -0.0010876345 -0.2283431 -0.056262705 0.0072923396
000320 ff 5b 06 3e c8 07 0d 3e 55 7f 15 be ce d9 8c 3c
       0.13121031 0.137725 -0.14599355 0.017193701
000330 07 82 f2 bc 8d 3e 75 be 9c d3 5d be c8 a7 d5 3b
       -0.029603017 -0.23949642 -0.21662754 0.006520245
000340 3d d0 bc 3d 08 c9 bc 3d 20 3f ca bd c7 bf 00 be
       0.09219406 0.09218031 -0.098753214 -0.12573157
000350 6b 0d 8e be fc 73 50 be ea 0f 9b 3c c3 4b 27 3d
       -0.27744612 -0.20356745 0.018928487 0.040843736
000360 c6 56 0f be e3 00 68 be 92 68 d5 3d b9 de 33 be
       -0.13997945 -0.22656588 0.10420336 -0.1756543
000370 0b fb 89 be 37 35 48 3d 04 08 ac bd 4a 82 bd bc
       -0.26949343 0.048878875 -0.08399966 -0.023133416
000380 0b 45 8e be 58 d3 ed bc 42 8f 95 3d 61 f7 4c 3b
       -0.2778705 -0.02903144 0.07302715 0.003127538
000390 48 5b c2 bd 6c 0e 35 be e6 81 33 be 3a fc 0a be
       -0.09490067 -0.17681283 -0.17530021 -0.1357278
0003a0 1e 28 f4 bd b1 85 29 be c8 fa 0c be 47 6b 9a bd
       -0.11921714 -0.16554905 -0.1376754 -0.07539993
0003b0 89 de a7 3d 66 0f b2 bc ce ee 53 be ca 1d 59 be
       0.08196742 -0.021735858 -0.20696566 -0.2120277
0003c0 79 41 27 be 90 92 87 be 11 a8 58 be a1 b5 30 3e
       -0.1633357 -0.26479006 -0.21157862 0.17256786
0003d0 cb e8 04 be bb 5d a9 bc ad 33 1a be 94 bc 95 3d
       -0.12979428 -0.020674577 -0.15058775 0.07311359
0003e0 3a ce 61 be c8 10 82 3d 5f 43 80 3d 44 bd 32 3d
       -0.22051325 0.06350857 0.0626285 0.04363753
0003f0 f1 81 ed 3d c3 0e 4f 3d 20 3d 01 be ed bd 62 3d
       0.1159705 0.050551187 -0.12620974 0.05535691

layers.3.weight f4 [80, 256]
000000 a4 d2 58 bd bf 3a 52 3d d8 2a 12 bc 27 7f d8 bc
       -0.052935258 0.051325556 -0.008921348 -0.026427818
000010 8b 19 4b bd c3 67 a0 bd 3a 91 a4 3d 92 5c 7b 3d
       -0.049584907 -0.07832291 0.08035512 0.06136758
000020 7a c6 27 3d 50 32 be bd c2 b5 49 bc dd 19 37 3b
       0.040960766 -0.0928694 -0.012311401 0.0027939
000030 57 a1 8e 3c a7 2c b2 3c d3 0f 0c 3d 44 fb 46 3d
       0.017410917 0.021749808 0.03419478 0.04857947
000040 1b db 23 bd 62 bf 38 bd 3d 90 4c 3c ce a6 41 3d
       -0.040003877 -0.045104392 0.012485561 0.047278218
000050 9b c4 ae 3d 4f 48 e3 3c 9e 84 1a 3d 68 76 46 3d
       0.08533593 0.02774444 0.03772413 0.048452765
000060 fd 06 c8 3d 3b aa 81 bd da af cb 3c 18 6a 71 3d
       0.09766958 -0.06331297 0.024864126 0.05893907
000070 27 c7 4d bd 91 23 8f bc dd a9 a9 3c ae 2e 39 3c
       -0.050238755 -0.017473014 0.02071088 0.011302633
000080 c7 5f 26 3d b8 2e a0 bd 5f 79 7f 3d ec 57 7c 3d
       0.040618684 -0.07821411 0.062371608 0.061607286
000090 e0 47 b2 bd 22 b5 e1 bb de 6e 1c 3d 7b 30 b9 bd
       -0.08705115 -0.006888048 0.03819167 -0.0904245
0000a0 e5 1d 90 3c bd bf a8 bd 9d 07 9c bd 97 ca 10 3d
       0.01759238 -0.08239696 -0.076186396 0.035349455
0000b0 a6 77 47 3d 12 b9 80 bd 82 f8 50 bc b9 2c 8c 3d
       0.04869809 -0.06285299 -0.012754561 0.06844468
0000c0 a4 49 3b bd 28 05 da 3c 61 ef 2e 3c c4 e9 e6 3b
       -0.045724526 0.026613787 0.01067719 0.00704691
0000d0 ea 1e 90 bc 54 2e bc bc d1 5f ca bc 1b 0c 94 bb
       -0.017592866 -0.02297131 -0.024703892 -0.0045180446
0000e0 18 97 94 3d 05 3e be 3c a1 68 3d bc 3f f0 cb bd
       0.07255381 0.023222933 -0.01156059 -0.09957933
0000f0 f8 e0 d9 3d ff c9 95 bc ae fa d7 ba b7 38 92 3c
       0.106386125 -0.018284796 -0.0016477907 0.01784931
000100 d4 1f 79 bd a6 ee 92 3c 42 39 b2 3d 72 ea b1 bb
       -0.06082137 0.017936062 0.08702327 -0.0054295594
000110 ad cd ae 3c 12 c9 60 bd 8d bc 58 bc 18 6b f9 bd
       0.021338308 -0.054879256 -0.013228548 -0.1217863
000120 ad f9 57 3c b5 a9 13 bd 7d 3e e9 bc bc 75 04 3d
       0.013182086 -0.036050517 -0.02847218 0.032338843
000130 bc 3a ce bd 6f 06 06 bd 2d 9d 2e 3d 8b b2 9e bd
       -0.100697964 -0.03272098 0.042630363 -0.07748898
000140 fc a2 3f bd ff c7 ed 3c 24 12 af bc 3e 9b 98 3d
       -0.046786293 0.02902603 -0.021370955 0.07451485
000150 e4 62 9e bd ff 2c 09 3c 52 28 a4 3d 88 f9 47 3a
       -0.07733706 0.008372544 0.08015503 0.00076284306
000160 d0 1f f4 3c 86 43 81 3c 83 3b 7e 3c df 0e 9a 3d
       0.029800326 0.015779268 0.015517118 0.07522368
000170 cb 54 85 bd 3e 82 12 bd 6a e8 22 bd 76 e3 ba bc
       -0.065103136 -0.03576874 -0.03977243 -0.02281354
000180 5d 64 e7 3b d0 b3 36 bc 5a 36 5c bd d1 71 10 3b
       0.007061525 -0.011151269 -0.05376277 0.0022040496
000190 2f 03 9e bd db 6e 22 bd 5d 5d 62 3c 7c 20 a1 bd
       -0.07715451 -0.0396565 0.013816205 -0.07867524
0001a0 91 b6 af bd 7e 03 a9 bb 03 4f 9f 3d fa 1a 01 bb
       -0.08579744 -0.005157887 0.07778742 -0.0019699917
0001b0 eb 43 e9 bc e5 46 5d 3d d3 d1 4c 3b 50 00 57 bc
       -0.028474769 0.05402269 0.0031252995 -0.013122633
0001c0 d3 b1 6c 3c b1 11 87 3d 24 25 b5 bd 7e 2d 09 bd
       0.0144466935 0.06595171 -0.08844975 -0.03349065
0001d0 ba b9 96 bd 90 14 d9 ba 0e 36 1c bc 34 8e 3d bd
       -0.07359643 -0.0016561914 -0.009534372 -0.046278194
0001e0 48 bf 37 3d e8 7c 12 3d 45 a5 74 3d 35 15 be 3b
       0.044860154 0.03576365 0.059727926 0.005800868
0001f0 de f0 23 3c a6 7c 9b bc 28 9e b4 bc 56 ec 86 3d
       0.010006158 -0.018980335 -0.022048071 0.06588046
000200 be 2e 03 bd 90 5c af 3c 48 4e 50 bc cd 91 ff 3d
       -0.032027 0.021406442 -0.012713976 0.12478981
000210 77 cf 99 bd ab 7a be bd b2 90 44 bd 5e e5 d4 bc
       -0.07510274 -0.09300741 -0.047989555 -0.025988277
000220 49 1b 73 bd 19 ec 81 3d 6d 37 94 bc e6 ea 68 3c
       -0.059352193 0.0634386 -0.018092835 0.01421616
000230 70 d2 4b bd ec a1 2a 3c e0 00 66 bc 65 08 3b 3d
       -0.049761236 0.010414582 -0.014038295 0.045662303
000240 f6 10 49 3b 31 dc 34 bd bb b3 cc bd 48 b2 be bc
       0.0030680276 -0.044155303 -0.09995218 -0.02327837
000250 26 8d f4 3d b1 b5 e5 3c 2d 1c 83 bd 28 8d 0f bd
       0.119409844 0.028040739 -0.064018585 -0.035046726
000260 00 91 d7 bc 7d 48 53 3c f1 9b a3 bc 48 fb 4f 3d
       -0.026314259 0.0128957005 -0.01997182 0.05077675
000270 c7 79 38 bd a9 db 30 bc a1 2f ef bb 75 15 4e bd
       -0.04503801 -0.010794559 -0.007299379 -0.05031343
000280 be 22 d1 3d 1a a3 8a 3d f7 d3 5b 3c 7e 1c d7 3c
       0.10211705 0.067693904 0.013417236 0.026258703
000290 c6 97 2a bd 4d b9 34 bd ff 53 13 bc 4a 9c ce ba
       -0.04164865 -0.04412203 -0.008992194 -0.001576313
0002a0 69 d1 ed 3c 91 e6 12 3d 31 46 38 bc ec e2 57 ba
       0.029030519 0.035864417 -0.011247204 -0.0008235413
0002b0 b8 e9 68 3d 3e a0 0c bc bd 22 9a 3d aa 77 ef bc
       0.056863517 -0.008583127 0.07526157 -0.029231865
0002c0 7a e8 65 bd 1d 6b 47 3d 90 d3 ba 3d d0 55 0c bd
       -0.05612991 0.048686136 0.091223836 -0.034261525
0002d0 e1 64 77 bd dc 15 03 3d 99 02 63 3d 64 65 e4 3b
       -0.06039894 0.03200327 0.0554224 0.0069700945
0002e0 0e b1 6f bc 27 aa 06 3d 2b 21 90 bd 7f 3f 8a 3d
       -0.0146296155 0.032877114 -0.07037576 0.06750392
0002f0 72 ab eb 3c e9 07 47 bd 0c 8d 27 bc 13 22 55 bd
       0.028768275 -0.048591528 -0.010226499 -0.05203445
000300 01 fd e8 3c 18 42 5e bd af ff da 3c 8b 54 65 bc
       0.028440954 -0.05426225 0.026733248 -0.013997207
000310 46 9f 95 3d 45 b3 b0 bc 19 36 4d 3d a3 1f aa bc
       0.073057696 -0.021569857 0.05010042 -0.020767039
000320 ef 5f 78 bd 21 11 b9 3d b8 54 a7 bc ad 20 18 bd
       -0.060638364 0.0903647 -0.02042614 -0.037140537
000330 9e d1 d6 3c 00 aa 68 3c c2 a8 b2 3d 37 83 f3 3b
       0.026223 0.014200687 0.08723594 0.0074314135
000340 b0 2c 39 bc 6f e5 59 bc 6e 64 60 bd 96 56 d9 3b
       -0.011302158 -0.01329933 -0.054783277 0.0066326363
000350 26 8b dc 3b 77 d6 a1 3c 55 37 84 3d 02 a5 40 3c
       0.006730455 0.019755585 0.06455866 0.011758091
000360 a5 da 9a 3c 2f 40 b4 3c f5 5e 64 3c ac 87 cc bc
       0.018903086 0.022003261 0.013938655 -0.024967037
000370 ff 36 90 bd 7b 42 53 bd f6 94 2f bd e6 e4 f6 3c
       -0.0704174 -0.051577073 -0.04286667 0.030138444
000380 b7 8e c0 3d 59 94 57 bd ca 85 0a bd 04 a5 69 3d
       0.09402221 -0.05263171 -0.033818997 0.057042137
000390 c5 d1 88 3d 27 72 0e bc f5 13 93 3c cc ed 17 3d
       0.06680635 -0.008694208 0.017953852 0.037092015
0003a0 72 47 cd 3b 3f 21 ed 3d 98 39 02 3d 5a db 7c bd
       0.0062646205 0.11578607 0.031793207 -0.061732627
0003b0 25 23 b4 3c 11 df 61 3c 26 49 72 bc 58 57 a8 3d
       0.021989414 0.013786093 -0.014787948 0.082197845
0003c0 42 82 18 bd 6c 36 ae bd 9a 38 77 bd 55 ea 92 3c
       -0.0372336 -0.08506474 -0.060356714 0.017934004
0003d0 de 52 4a 3c 0e d1 46 3d a0 cf e8 3c ba 5c 70 3c
       0.012348859 0.048539214 0.028419316 0.014670545
0003e0 d5 44 71 3d 8d e9 ab 3a 24 8e 3e bc 06 4b 0c bc
       0.058903534 0.0013115868 -0.011630569 -0.008562809
0003f0 1c 98 67 bd 9c ab f7 3c 07 d4 b0 3d bf 11 b7 bc
       -0.056541547 0.030233197 0.08634191 -0.02234733

layers.3.bias f4 [80]
000000 68 3e 9a bc ee 3c 88 3d 6a 89 d3 bc 73 7a 43 bd
       -0.018828586 0.066522464 -0.02582236 -0.0477242
000010 4e bf b3 bc b1 87 bf bd a5 65 96 bd 38 60 00 bd
       -0.021941807 -0.09352053 -0.07343606 -0.03134176
000020 b0 37 ee b8 4a b5 84 bd 58 ab 4a 3c 41 3b 63 bd
       -0.00011359097 -0.06479891 0.012369953 -0.05547643
000030 98 03 de 3c 26 1c ce bb bc 2b 19 3d fd 44 21 3d
       0.027101323 -0.0062899766 0.037395224 0.039372433
000040 29 b4 06 bc e2 ad 44 3d 56 d6 95 bb d2 b6 97 3c
       -0.0082216645 0.04801739 -0.00457267 0.018519793
000050 1b 68 a6 bd ac 1a 48 bd c2 24 5b 39 0b 10 0d bc
       -0.08125325 -0.04885356 0.00020899161 -0.008609782
000060 e1 27 15 bd 90 4d d2 bd 6c 7a 12 bc e5 74 0b 3d
       -0.036414985 -0.102687 -0.00894032 0.034047026
000070 a0 37 bf 3a 9e 69 5f bd 82 c9 aa bd 94 c0 41 3c
       0.0014588721 -0.054544084 -0.08339216 0.011825699
000080 b8 58 80 3c a4 b4 36 3d 0b 00 87 bd 2a 21 ac bd
       0.015667304 0.044605866 -0.06591805 -0.08404763
000090 47 a6 20 bd fd 82 2c 3d 47 38 27 3d 8c e3 92 bd
       -0.039221074 0.042117108 0.040825155 -0.07172307
0000a0 b6 91 40 bc 76 31 68 bb ed b3 2f bc 3f 23 ba 3c
       -0.01175349 -0.0035429872 -0.01072405 0.022721885
0000b0 80 f9 c7 b9 1e 2b 90 bd 76 a2 82 bd ff ce 7f bd
       -0.0003814213 -0.07039474 -0.06378643 -0.062453266
0000c0 05 fe e2 bb 60 e0 7d 3d de 8e 1a bd e7 7a 5d 3b
       -0.006927254 0.06198156 -0.037733905 0.003379518
0000d0 14 e0 af bd 85 c2 c0 3b 4f fe e7 bc 82 da 89 bc
       -0.085876614 0.0058825635 -0.028319506 -0.016827825
0000e0 e0 8a 80 bb 1b bf 89 bd b2 2e b9 bc ad f5 8a 3d
       -0.003922805 -0.067259036 -0.022605274 0.0678514
0000f0 72 f5 8f 3d 96 fb 8f bd f7 fb 1f 3d 8b c9 73 3d
       0.07029237 -0.07030408 0.03905865 0.05951838
000100 84 1e bf 3b 03 7a 96 bb bb 9c f2 bc 90 c7 0d 3a
       0.005832495 -0.0045921816 -0.02961575 0.000540846
000110 57 93 59 bb 6a a7 9d bd b2 fb 20 3d f4 16 69 bd
       -0.0033199394 -0.07697947 0.039302535 -0.056906655
000120 a2 c7 2d bd df 77 26 bd ce 78 ac bd c4 46 5c bb
       -0.042426713 -0.04064166 -0.08421479 -0.0033611516
000130 99 11 a3 bd 7b d8 ef 3b 63 dd 9b bd 16 4a b0 bd
       -0.07962341 0.0073195077 -0.076105855 -0.08607881

layers.6.weight f4 [64, 80]
000000 14 6d d7 3d e9 d5 c8 bd 8a af 43 bc 29 78 c6 b9
       0.10518852 -0.09806425 -0.011943707 -0.0003785503
000010 a4 7c b4 3d e2 1e c3 bc 80 be c1 3b ee 0e 26 3b
       0.08812836 -0.023818437 0.005912602 0.0025338489
000020 c6 15 3d bb 07 5c 4d 3b d9 04 12 3e 63 2d 40 bd
       -0.002885209 0.003133537 0.14259662 -0.046918284
000030 fc 7d 43 3d c4 86 97 bb 8c 3f 13 3e fa 32 ea bd
       0.04772757 -0.0046242196 0.1437971 -0.11435504
000040 c9 77 86 3d 20 72 01 be 97 8c 6a bc 2b e4 22 3e
       0.06565816 -0.12641191 -0.014315746 0.15907352
000050 60 b0 84 3b 49 00 7d bd 5d c9 c6 bc 90 20 d7 bc
       0.004049346 -0.06176785 -0.02426594 -0.026260644
000060 7c e2 2e 3c 27 c0 21 ba 0b be 06 bd f0 b5 5d bd
       0.010674115 -0.00061702955 -0.032896083 -0.054128587
000070 e1 a0 45 bc 98 12 5c bd d9 d9 21 3e 62 f2 20 3e
       -0.012062282 -0.05372867 0.15805759 0.15717462
000080 64 00 af bd 97 21 c7 bd 52 27 b4 bb 9b 26 ed bc
       -0.085449964 -0.09723204 -0.0054978514 -0.028949073
000090 25 b0 81 3d 50 7f d1 bd 9f 52 92 3d 6c 8e 38 3c
       0.06332425 -0.10229361 0.07144665 0.011264425
0000a0 d2 d8 3a 3d f2 c8 7f 3b 6f 41 9d 3d 54 c7 2e 3d
       0.045616932 0.0039029685 0.07678496 0.042670563
0000b0 e3 ed 68 bd 36 e0 43 bc 2b fa 4a bd fb 74 ca 3d
       -0.05686749 -0.0119553115 -0.049554985 0.098855935
0000c0 84 02 cb 3d d0 f4 d8 bd eb b0 51 3d e3 1e 79 bc
       0.09912589 -0.10593569 0.051194113 -0.015205118
0000d0 51 d2 98 3d ef 0b 5e bc f2 ff 7b bd ca 5a ae bd
       0.0746199 -0.01355265 -0.061523385 -0.085134104
0000e0 23 6a f7 3c e0 65 0f 3d cf 14 66 bd 96 8b 86 bc
       0.030201977 0.035009265 -0.05617219 -0.016423982
0000f0 a0 70 ee bd 1a b1 b1 3d f6 b0 1e bc e1 27 d4 3d
       -0.11642575 0.086763576 -0.009685745 0.10359169
000100 85 4b 69 3d a4 16 97 bd 12 15 15 bd dd 4d 0f 3e
       0.056956787 -0.07377365 -0.036397047 0.13994546
000110 5e ae ff 3c 3c a7 07 3e 4e da 41 3d 91 26 bc 3d
       0.031211074 0.13247389 0.047327332 0.091870435
000120 2f 81 62 bd dd 14 9e ba a3 74 c1 3d 8d cd cc 3d
       -0.05529898 -0.0012060661 0.09446075 0.10000143
000130 b1 2b 2d 3e 58 17 a3 3d d6 87 33 3d d5 9f 31 bd
       0.16911198 0.07963437 0.043830715 -0.04336532
000140 3c 45 0b 3e 05 36 36 be 24 44 8c bd a4 3c c8 bd
       0.1360063 -0.17794044 -0.06848934 -0.09777191
000150 d5 5d 1a 3e ae 9c ea bb c3 69 2a bd 46 25 15 3e
       0.15074857 -0.007159791 -0.04160477 0.14565
000160 84 1d bd bc 4b e8 a0 3d 23 80 62 3c 37 4f 95 3d
       -0.023085363 0.07856806 0.0138244955 0.072905
000170 31 9b 80 bd 02 bd 11 bd c9 5a c7 bc 27 c6 98 bd
       -0.062796004 -0.035580643 -0.024335282 -0.074596696
000180 da 97 57 3d 11 a4 0b be 92 48 5b 3d 68 76 0c bd
       0.05263505 -0.13636805 0.053536005 -0.03429261
000190 f2 8c 56 bd f6 f1 a8 3d 3d e6 80 3b d7 ec 0e bd
       -0.05238051 0.082492754 0.0039336965 -0.034893837
0001a0 50 33 bc 3d aa c5 48 3c 90 23 b2 3d bd a0 dd bd
       0.091894746 0.012254158 0.08698189 -0.10821674
0001b0 77 3d de 3d 37 f2 f4 bd 93 a3 d0 3c e4 5f 71 bb
       0.10851567 -0.11960261 0.025468623 -0.0036830837
0001c0 17 eb 73 3c 21 6c 02 bc ea 5f 9c bc 4e 84 03 3e
       0.014887593 -0.00796035 -0.019088704 0.12843439
0001d0 d3 a6 58 bc 38 04 8c bd ff ce 64 3c 35 ad 49 3d
       -0.013223368 -0.06836742 0.013965367 0.04923745
0001e0 1c 89 05 bd e9 43 19 3d 10 27 07 3e 6e 9a 15 be
       -0.03260146 0.03741828 0.13198495 -0.14609692
0001f0 ac 27 05 be c6 fa b1 bd 50 10 d0 bd 30 06 a2 3d
       -0.13003415 -0.08690409 -0.10159361 0.079113364
000200 a2 5d 00 3e 1e b6 2b bd 06 43 d5 bc 05 4b 89 bd
       0.12535718 -0.041921727 -0.026032936 -0.06703762
000210 12 72 90 bd ad 18 07 be 4b 49 28 bd f4 1e ac bd
       -0.07053007 -0.13193007 -0.041085523 -0.08404341
000220 16 d0 6c 3d b6 50 3a bd a3 07 14 bd 5c 1e b4 bd
       0.057815634 -0.04548713 -0.036140095 -0.08794853
000230 07 60 14 be 22 3e a3 bc 23 1e 29 3d bf 34 14 3e
       -0.14489757 -0.019927088 0.041288506 0.14473246
000240 70 2d 65 bd 02 51 92 bd 42 6d 03 3d ac 4c 62 3d
       -0.055951536 -0.07144357 0.03208662 0.0552489
000250 29 9e fa bd 18 e3 ca 3d b1 ad 49 3c dd 2b ab 3d
       -0.12237198 0.09906596 0.012309478 0.08357976
000260 aa 6b 71 bb f1 db b2 3d e7 7e ef 3d 83 d6 f6 bc
       -0.0036837854 0.08733357 0.116941266 -0.030131584
000270 22 9b 11 3e 22 69 42 3b 07 d3 bc 3d cb fa 2a bd
       0.14219335 0.0029664715 0.09219938 -0.04174308
000280 dc ce ab bb 96 0f 2b 3c fc 39 80 bd 99 c5 ce bd
       -0.0052431654 0.010440728 -0.0626106 -0.100962825
000290 7c 8e 59 3d ac cb 57 3d 24 4b 81 bc 80 e5 58 bb
       0.0531144 0.05268447 -0.0157829 -0.0033095777
0002a0 9a 88 68 bd 5b c2 b5 3a 35 c2 d3 3d a7 aa 44 3c
       -0.0567709 0.0013867127 0.103397764 0.012003577
0002b0 01 b6 d4 3d 98 0e 37 3a 16 95 83 bd 35 01 e7 3b
       0.10386277 0.00069830706 -0.0642492 0.0070497044
0002c0 4c 54 8c 3d ea 66 70 bd 04 1e 1b 3d 04 a3 4c bd
       0.06852016 -0.058691896 0.037870422 -0.04996015
0002d0 1d 0b 01 3e bf 5f 3c bd 50 b2 94 bd 52 e2 21 3d
       0.12601896 -0.045989748 -0.07260573 0.039522476
0002e0 7d f9 6f 3d 6e b0 94 3d 92 d6 53 3d b5 e2 d0 3d
       0.05858754 0.07260214 0.051718302 0.10199491
0002f0 ac 96 64 3d dc de 02 3d 0d a0 1e bd 11 50 3b bd
       0.055807754 0.031950817 -0.038726855 -0.045730654
000300 21 73 88 bd 36 71 cc bd ad 4b 68 3d b5 7c 31 3d
       -0.06662584 -0.09982531 0.056712795 0.04333182
000310 b6 9f 01 bc 3f 33 a6 bc ce 90 fa 3d 15 68 c7 bd
       -0.007911613 -0.020288108 0.122346506 -0.09736649
000320 57 bb b7 39 dd dc d2 bd fd 20 21 bc 48 0a b0 bd
       0.0003504406 -0.102960326 -0.009834525 -0.08595711
000330 76 bd 78 bc 90 d8 a7 3d ab 65 99 bd bb d9 30 3d
       -0.01518189 0.08195603 -0.07490095 0.043176394
000340 c8 36 ce 3d 73 b4 ed 3c 3c 1e bd 3d 5c 2f e6 bd
       0.100690424 0.029016709 0.092342824 -0.11239502
000350 0c 80 70 3b 93 4d cc bd 8a d9 b8 bd 44 85 11 be
       0.0036697416 -0.099757336 -0.09025867 -0.14210993
000360 03 6e 70 3d 50 e3 1e 3e b2 c2 e9 3c cd 54 47 3d
       0.058698665 0.155164 0.02853522 0.048664857
000370 8d 6c fe bd bb 8e a1 3d 5c 3c a2 bd 0b 39 24 bd
       -0.12423048 0.07888552 -0.07921669 -0.040093463
000380 ab d7 f4 ba 58 70 16 bd e6 c2 36 3d 40 96 8e 3d
       -0.0018679997 -0.036728233 0.044619463 0.06962252
000390 c2 6c 76 3b 27 0d 3a 3d 59 69 e8 3d cd 04 7d 3d
       0.0037601446 0.0454227 0.113482185 0.061772157
0003a0 0c dd bc bd a2 0f 6c bc e2 cb aa 3c a9 0e 96 3c
       -0.09221849 -0.014408024 0.020849172 0.018317537
0003b0 4e bd 88 3d f2 f4 c4 3a 5e fb f4 3d a8 dd e5 3d
       0.06676732 0.0015026613 0.11962007 0.11223918
0003c0 a2 48 6f 3d da 3d cc bd cf bb 87 3d 92 8d 60 bd
       0.058418877 -0.09972735 0.066276185 -0.054822512
0003d0 38 fc 10 bd 54 3e 90 bd 49 04 75 bc 44 9b bf 3d
       -0.035396785 -0.07043138 -0.014954635 0.093557864
0003e0 59 65 41 3d 2a 8e b8 3d d3 50 af bb 0d 01 e5 3d
       0.047215793 0.09011491 -0.005350211 0.11181841
0003f0 8c 95 2d bd 96 77 b3 bd 06 8f 0c 3e 60 d5 23 bd
       -0.042378947 -0.087630436 0.13726434 -0.039998412

layers.6.bias f4 [64]
000000 e7 47 7b 3d 12 27 02 3e 4c 6a a8 bd 5f 24 50 3d
       0.06134787 0.12710217 -0.082233995 0.050815936
000010 af fa e3 bd e2 b6 fd bd 1d 54 0d 3a 93 20 93 3c
       -0.111317985 -0.12388398 0.0005391257 0.017959869
000020 d4 0b 28 3d 2a 9d 21 3d 83 2a 49 3d fc 19 f5 3c
       0.041026905 0.039456524 0.049112808 0.029919617
000030 15 a8 0d 3e d9 e9 0a bc 3b 9c 96 3d 61 3b c4 3b
       0.1383365 -0.008478605 0.07354017 0.005988524
000040 29 69 09 bd 2c 9f e9 bd 0b 14 08 3e ce a3 2f bd
       -0.033547554 -0.11407313 0.13288896 -0.042880826
000050 b9 95 67 3d c8 b4 9c 3d f1 4f c0 bd 4d c1 fb 3c
       0.05653927 0.07651669 -0.093902476 0.030731821
000060 d2 42 4e 3d ce 5c dd bd ab 5a 9f bd ae 76 a9 bd
       0.050356694 -0.10808717 -0.077809654 -0.082745895
000070 ee 47 4d 3d d1 6a f5 3d d8 20 0d be fe 65 05 be
       0.050117426 0.11983264 -0.1378206 -0.13027188
000080 5d 75 0c 3e 11 f7 1a 3e ef ea f2 bc 89 e2 00 bd
       0.13716646 0.15133311 -0.02965304 -0.03146604
000090 fc 35 d6 ba 73 77 f5 3d c0 52 9d bc 29 c5 3d 3d
       -0.0016342993 0.11985674 -0.019204497 0.046330605
0000a0 1f 1b 1c 3d d0 f7 e8 3d c5 95 97 3d 51 83 a4 3c
       0.038111802 0.113753915 0.07401613 0.020082148
0000b0 72 72 91 3c 7a 32 19 3e ea 85 1e 3d 9c 99 c3 bd
       0.017754767 0.14960662 0.03870193 -0.09550783
0000c0 56 63 18 bd ac 66 9e bd 72 41 cb 3d 0a f3 6b bd
       -0.03720411 -0.07734427 0.09924592 -0.057604827
0000d0 5e d3 2d 3c 06 91 b1 3b 80 75 1c bd e0 e7 a1 3d
       0.010609476 0.0054188995 -0.038197994 0.07905555
0000e0 9c 40 6a 3d 5c e1 d7 3c c6 ab e1 3d b8 3d 37 ba
       0.057190523 0.026352577 0.11019091 -0.0006990093
0000f0 e3 b9 84 3d 36 eb 94 3d 00 37 bb bd 8d 09 f5 bd
       0.064807676 0.072714254 -0.0914135 -0.11964712

layers.8.weight f4 [1, 64]
000000 47 c6 9e bd 8a c5 da bd 36 4a 87 bd 1d f4 e1 bd
       -0.07752662 -0.10682209 -0.066059515 -0.11032889
000010 a8 99 c4 bd 97 12 02 bd 12 85 d0 3d 9f b6 17 3d
       -0.0959962 -0.03175601 0.10181631 0.037039395
000020 0e c1 2f 3d ae 61 af 3d 23 61 73 bd b5 98 11 bd
       0.04290872 0.08563553 -0.05941881 -0.035546023
000030 33 6a d6 3d fe 36 c0 bd 3c 2b ff 3d 41 28 cd 3d
       0.10469475 -0.09385489 0.12459418 0.100174434
000040 47 c1 b4 3d bc 7b 15 3d 22 7a f2 bd 21 59 ad 3c
       0.08825927 0.036494955 -0.11839701 0.021160664
000050 87 0a 16 be e0 aa 14 3d 4d 83 36 bd 68 b9 31 3d
       -0.14652453 0.03629577 -0.044558812 0.043389708
000060 d7 4e 86 3d f2 cb df 3c 4f 11 ef 3d 97 40 6a bd
       0.06558006 0.027318928 0.11673223 -0.057190504
000070 d3 9e 14 be 5b b6 aa bd b1 8e 06 3d 2c a8 30 bd
       -0.14513712 -0.08335563 0.032850925 -0.04312913
000080 58 87 02 be e5 79 0c be 64 f1 fb 3d e9 37 77 3c
       -0.12746942 -0.13718374 0.12301901 0.015089014
000090 ec bf f2 bd 9d 84 35 3e ce ca 00 3e 10 32 00 be
       -0.118530124 0.17726369 0.12577364 -0.12519097
0000a0 a2 95 be bd 3f e4 f2 3d 08 31 26 3e f8 5d 0b 3c
       -0.09305884 0.11859941 0.16229641 0.008506291
0000b0 6b d8 b6 3d 95 26 22 3e be 1b 60 bd cf 00 03 bd
       0.08927997 0.1583503 -0.054713957 -0.031983193
0000c0 3a e3 b0 3d bc 11 55 bd 25 14 ab 3d f7 ce 3e bd
       0.0863709 -0.052018866 0.08353452 -0.046584096
0000d0 5d 2c d0 3d e6 ad 02 bd 92 55 9e bd 99 e4 58 bd
       0.101647116 -0.031904124 -0.07731165 -0.052952383
0000e0 c7 1b 06 bd 13 77 f3 3d c3 8b 06 be 3c 0a a6 bd
       -0.032741334 0.11887946 -0.13139252 -0.08107421
0000f0 11 72 f3 bd 8d bc a6 bd e0 83 44 3d 07 92 40 bc
       -0.11886991 -0.08141432 0.04797733 -0.011753566
