flwr-mlp/models/checkpoints/round_029.pt (torch, 127593 bytes, 7 tensors)

layers.0.weight f4 [256, 19]
-0.049601607 -0.14487913 -0.027861495 -0.29593346 -0.037937753 -0.13856336 -0.11130455 -0.21369423
0.19179882 -0.09477811 0.05185378 0.13312651 -0.034760706 -0.14919166 0.19713704 -0.043676663
-0.1533666 0.043935828 -0.22003596 -0.16976264 -0.060086895 0.13097472 -0.013744983 -0.09828991
-0.017573263 0.19038883 -0.2077975 0.083979644 -0.044293113 0.1755853 0.117791556 -0.13581811
-0.06861651 0.059344392 -0.0658539 0.08560789 0.23598921 -0.0072158356 0.066815056 0.12001463
0.023716569 -0.10117524 0.08102953 -0.035770047 0.106657244 -0.23556599 -0.02944344 0.22584611
0.085711546 -0.0950259 0.092254184 0.13336518 0.106730856 -0.009726926 0.07562943 0.10322577
-0.07177764 0.29688147 -0.061126795 0.05598679 0.11732247 -0.071618386 -0.21231923 -0.19866134
0.22626016 -0.044086553 -0.03708903 0.21083096 -0.13736431 -0.08387501 0.027563727 -0.12632023
-0.07432143 -0.081698865 0.058879364 0.12780645 -0.08406873 -0.10643497 0.17371108 0.025464995
0.21112342 0.18471043 0.2090042 0.1114195 0.18128538 -0.020041453 -0.15255548 -0.113638096
-0.2002479 -0.05380978 -0.09633583 0.06310484 -0.03159144 -0.05314327 -0.15273142 0.047892008
0.13655765 -0.14157784 0.21544683 0.08454805 -0.20374572 0.17322662 0.22344746 -0.14550158
-0.24249916 0.079227634 -0.32880035 -0.040280364 0.16296877 0.1299564 -0.023562806 0.10147385
-0.019141488 -0.27828428 0.113092735 0.1624554 0.04156037 -0.019028703 -0.041156873 -0.09328044
-0.13797069 -0.18384747 -0.20145814 0.29224643 -0.24306616 -0.09057027 0.028763682 -0.094881825
0.14096516 -0.08775632 0.027069338 -0.024535974 0.05126289 0.14034262 -0.1775131 -0.02855399
-0.11533537 0.021838969 -0.0034178947 -0.15150401 -0.10384975 -0.037933603 -0.014168873 0.006935197
0.06278074 0.16403057 0.1150382 -0.04033036 -0.11606174 -0.23196241 0.019087926 -0.053463485
-0.014190137 0.09621123 0.08949004 -0.059875563 0.10032904 0.23960266 0.072640724 0.1252493
0.2443406 0.087252766 -0.079102024 0.27935746 -0.2657483 0.20716514 0.05276591 0.08758151
0.028998325 -0.16393554 -0.18632531 0.20362692 -0.058791533 -0.089149535 -0.07295383 0.25607285
-0.12087469 -0.020070583 0.1590611 0.22997536 -0.050818466 -0.039709758 -0.034906723 0.12483863
0.031174019 0.123532765 -0.035618376 0.1032872 0.108856246 0.00063134346 -0.12255019 0.008398707
0.11454108 0.03349982 -0.06491963 0.08075682 -0.11226725 0.15303779 0.1454029 -0.3865577
-0.2609199 -0.045483492 -0.11314617 -0.13966595 -0.11641951 0.12798236 0.13853519 0.10658715
0.025086302 0.2076219 -0.096526116 -0.047067534 0.20211054 -0.23338298 0.05883639 -0.2795352
0.10249649 0.23014274 0.15892772 0.18283619 -0.20567644 0.042122863 -0.22687995 -0.045622926
0.006939916 -0.05474623 0.17475012 0.017343849 -0.09654694 0.22811133 -0.040591393 -0.023342943
0.111447774 -0.038390275 -0.14610887 -0.08569215 -0.27316862 0.32345575 -0.22533983 -0.006984875
0.1293416 0.028590653 -0.0029261063 0.096749246 -0.16893333 0.010055122 0.03017115 -0.11460519
-0.07795703 -0.0021883682 -0.05809838 0.14084876 -0.19951053 0.016343815 0.057844404 -0.1456618
00000000: 0e2b 4bbd 325b 14be ca3d e4bc 9784 97be
00000010: 9e64 1bbd 8ee3 0dbe a4f3 e3bd a9d2 5abe
00000020: e966 443e 071b c2bd a164 543d 5152 083e
00000030: 3e61 0ebd b3c5 18be 4bde 493e 4de6 32bd
00000040: 220c 1dbe 0ef6 333d 1b51 61be 42d6 2dbe
00000050: ad1d 76bd 3d1e 063e a332 61bc 384c c9bd
00000060: cef5 8fbc 4af5 423e dec8 54be 85fd ab3d
00000070: b26c 35bd a2cc 333e b33c f13d e713 0bbe
00000080: d086 8cbd 1b13 733d 69de 86bd 3053 af3d
00000090: 28a7 713e d172 ecbb 55d6 883d 3bca f53d
000000a0: 4049 c23c f734 cfbd cff2 a53d 9d83 12bd
000000b0: 1d6f da3d 3638 71be 5e33 f1bc 3444 673e
000000c0: 8989 af3d f09c c2bd c3ef bc3d e290 083e
000000d0: b595 da3d af5d 1fbc 9ae3 9a3d 0868 d33d
000000e0: 2800 93bd d900 983e 1760 7abd 6852 653d
000000f0: c346 f03d a9ac 92bd 366a 59be e16d 4bbe
00000100: beb0 673e 1a94 34bd abea 17bd 12e4 573e
00000110: 3ba9 0cbe a9c6 abbd 53cd e13c 175a 01be
00000120: d535 98bd bc51 a7bd 7d2b 713d b2df 023e
00000130: 3a2c acbd 94fa d9bd 51e1 313e f79b d03c
00000140: bd30 583e bb24 3d3e 3205 563e e82f e43d
00000150: e0a2 393e f92d a4bc 8137 1cbe 17bb e8bd
00000160: c90d 4dbe a567 5cbd b84b c5bd 1c3d 813d
00000170: 0766 01bd c2ac 59bd a065 1cbe 692a 443d
00000180: c5d5 0b3e c8f9 10be 189e 5c3e 8727 ad3d
00000190: b8a2 50be 5262 313e 69cf 643e 5efe 14be
000001a0: b351 78be 1942 a23d 8558 a8be 06fd 24bd
000001b0: 49e1 263e 4a13 053e c906 c1bc 86d1 cf3d
000001c0: 9cce 9cbc 477b 8ebe 2a9d e73d b55a 263e
000001d0: 353b 2a3d 15e2 9bbc 1c94 28bd d109 bfbd
000001e0: 3048 0dbe 8342 3cbe 0b4b 4ebe 53a1 953e
000001f0: 56e6 78be e87c b9bd d0a1 eb3c 6751 c2bd
00000200: 2c59 103e 96b9 b3bd 84c0 dd3c abff c8bc
00000210: 09f9 513d fab5 0f3e fec5 35be 0fea e9bc
00000220: f334 ecbd a3e7 b23c c2fe 5fbb de23 1bbe
00000230: 2daf d4bd 4460 1bbd 9024 68bc a640 e33b
00000240: 3093 803d a1f7 273e 2699 eb3d 7331 25bd
00000250: c7b1 edbd 8e87 6dbe 485e 9c3c 87fc 5abd
00000260: c07d 68bc 650a c53d 8e46 b73d 1440 75bd
00000270: 5079 cd3d 665a 753e a9c4 943d 5a41 003e
00000280: 6c34 7a3e 94b1 b23d 3e00 a2bd f107 8f3e
00000290: 2910 88be 1923 543e 1121 583d ef5d b33d
000002a0: e58d ed3c b8de 27be 10cc 3ebe 9383 503e
000002b0: 64cf 70bd 0894 b6bd d168 95bd fb1b 833e
000002c0: 268d f7bd 106b a4bc eae0 223e a97e 6b3e
000002d0: 0627 50bd b3a6 22bd 5afa 0ebd 65ab ff3d
000002e0: a860 ff3c bffe fc3d 93e4 11bd 3d88 d33d
000002f0: 06f0 de3d be80 253a 98fb fabd bb9a 093c
00000300: 8494 ea3d 1b37 093d 95f4 84bd d563 a53d
00000310: 5fec e5bd f0b5 1c3e 7fe4 143e e4ea c5be
00000320: 4b97 85be e64c 3abd 2eb9 e7bd 9704 0fbe
00000330: 5a6d eebd cf0d 033e 2bdc 0d3e 5d4a da3d
00000340: ca81 cd3c d69a 543e 7caf c5bd e3c9 40bd
00000350: 11f6 4e3e f3fb 6ebe 6dfe 703d 3d1f 8fbe
00000360: aee9 d13d 8aaa 6b3e f3bd 223e 6939 3b3e
00000370: d89c 52be 0689 2c3d 3853 68be 1bdf 3abd
00000380: 3c68 e33b 953d 60bd b2f1 323e b014 8e3c
00000390: 67ba c5bd 0496 693e 2943 26bd b339 bfbc
000003a0: bb3e e43d 1f3f 1dbd 909d 15be 5e7f afbd
000003b0: c2dc 8bbe fe9b a53e 7cbf 66be 61e1 e4bb
000003c0: 2072 043e f236 ea3c ebc3 3fbb 7824 c63d
000003d0: dcfc 2cbe 3dbe 243c 7d29 f73c 20b6 eabd
000003e0: efa7 9fbd ba6a 0fbb 91f8 6dbd a83a 103e
000003f0: 7d4c 4cbe 77e3 853c 41ee 6c3d 5e28 15be

layers.0.bias f4 [256]
-0.034222398 -0.105358146 -0.34997398 -0.27120486 -0.2624598 -0.17115165 -0.1405527 -0.27766156
-0.29530078 -0.04738813 0.06508272 -0.11723728 -0.021508442 -0.4033149 -0.24888211 -0.23202278
-0.027202332 -0.04894725 -0.26347026 -0.31262103 -0.17328916 -0.25077137 -0.045362614 -0.21946606
-0.15975766 -0.174364 -0.073228754 -0.2860318 -0.04009825 -0.07444507 -0.14881827 -0.010753574
-0.29494873 -0.0037419132 -0.22967647 -0.18536058 -0.06942995 -0.10607371 -0.29862422 0.028827801
-0.2967472 -0.27168444 -0.24567497 -0.30435395 -0.28315312 -0.19012935 -0.20174918 0.056916967
-0.17069805 -0.39750877 -0.27790114 -0.21741924 -0.1362887 -0.08232778 -0.12294344 -0.077485286
-0.4131472 -0.082003 -0.1827719 -0.19335525 -0.4462352 -0.3060641 -0.18743868 -0.38422254
-0.113079175 -0.069828354 -0.3378753 -0.4679513 -0.38219684 -0.29022884 -0.35730633 0.06587443
-0.18841435 -0.28245476 -0.21293616 -0.17450717 -0.31711626 -0.33146778 -0.16795874 -0.030615594
-0.055719003 -0.24370529 -0.09562899 -0.22092418 -0.30637294 -0.31137282 -0.17482781 0.08222639
-0.19426283 -0.07088129 -0.3213366 -0.038818017 -0.24239612 -0.10123928 -0.36878625 -0.26414192
-0.365599 -0.27159652 -0.42190534 -0.33440775 -0.20272772 -0.2746348 -0.13039291 -0.3077375
-0.23273599 -0.38224316 -0.28792036 -0.32150322 -0.016276607 -0.36824495 -0.40554655 -0.024912793
-0.23075809 -0.20325936 -0.29567987 -0.07509873 0.019523222 -0.21669336 -0.16996165 -0.2011042
-0.24130142 -0.24011798 -0.32206705 -0.25438476 -0.1252204 -0.3910041 0.069275506 -0.20898306
-0.0206474 -0.18774727 -0.059612043 -0.358138 0.011744911 -0.16401128 -0.08300789 -0.23014648
0.0635615 -0.21000822 -0.030609949 -0.2851597 -0.13542713 -0.3163553 -0.21038379 -0.13946873
-0.18265983 -0.20403473 -0.02068752 0.09724487 -0.35800052 -0.20912883 -0.41111636 -0.15936011
-0.17911807 -0.11167907 -0.15740179 -0.2881574 -0.16756257 -0.21444282 -0.20140737 -0.2497879
-0.36727533 -0.14578651 -0.118009485 -0.021334048 -0.22214067 -0.056650072 -0.26955906 -0.24211445
-0.15087989 -0.34539962 -0.08673883 -0.017661497 -0.2640887 -0.18255138 -0.33594763 -0.2811076
-0.34105387 -0.08422841 -0.12456736 -0.16833563 -0.016610574 -0.035385378 -0.41014314 -0.23132029
-0.01837575 -0.0065111844 -0.03507597 -0.18613254 -0.13873313 -0.30193213 -0.16583875 -0.10670288
0.00794389 0.0460773 -0.2661784 -0.1847752 -0.20355019 -0.34548682 -0.13168429 -0.18133944
-0.054592237 -0.033797543 -0.30868778 -0.08876686 -0.23028518 -0.39446747 -0.4478479 -0.06485489
-0.081004396 -0.07515406 -0.17665988 -0.21774387 -0.36854273 -0.37639806 -0.13402815 -0.13304043
-0.3074249 -0.33688444 0.040257093 -0.26100087 -0.3517443 -0.11126488 -0.12782493 -0.2194683
-0.4363571 -0.1216686 -0.047122158 -0.13002104 -0.32364246 -0.36400008 -0.22985646 -0.33308464
-0.26023623 -0.32747173 -0.34394065 -0.13992018 -0.037773184 -0.07670654 -0.30873662 -0.42858928
-0.29953426 -0.3941955 -0.27764943 0.06367365 -0.32088205 -0.19832712 -0.29572096 -0.08578739
-0.3691216 -0.14216508 -0.031973302 -0.13488239 -0.029303713 -0.048468024 -0.2858283 0.0018331037
00000000: c92c 0cbd 03c6 d7bd ca2f b3be 5ddb 8abe
00000010: 2261 86be 6142 2fbe 0ced 0fbe a829 8ebe
00000020: aa31 97be 0e1a 42bd 174a 853d 191a f0bd
00000030: 7932 b0bc 4a7f cebe f4da 7ebe 6197 6dbe
00000040: 6dd7 debc e97c 48bd 93e5 86be dd0f a0be
00000050: b772 31be 1b65 80be 26ce 39bd b6bb 60be
00000060: 8397 23be 7a8c 32be f5f8 95bd c372 92be
00000070: 103e 24bd a876 98bd d163 18be c22f 30bc
00000080: 8503 97be e33a 75bb 4f30 6bbe 2acf 3dbe
00000090: 4a31 8ebd 2c3d d9bd 46e5 98be 4828 ec3c
000000a0: 40ef 97be 391a 8bbe 3892 7bbe 48d4 9bbe
000000b0: 72f9 90be 45b1 42be 5697 4ebe c421 693d
000000c0: 78cb 2ebe 4586 cbbe 0f49 8ebe 26a3 5ebe
000000d0: 448f 0bbe 789b a8bd c5c9 fbbd 9bb0 9ebd
000000e0: 0888 d3be 30f1 a7bd 8f28 3bbe ebfe 45be
000000f0: f178 e4be 6fb4 9cbe edef 3fbe d1b8 c4be
00000100: 0e96 e7bd 2b02 8fbd fefd acbe 5097 efbe
00000110: 4eaf c3be e098 94be dbf0 b6be 2ce9 863d
00000120: b1ef 40be e99d 90be f00b 5abe 02b2 32be
00000130: 105d a2be 25b6 a9be 60fd 2bbe 8ecd fabc
00000140: 9c39 64bd e18d 79be 22d9 c3bd f339 62be
00000150: eadc 9cbe 426c 9fbe 1006 33be 4f66 a83d
00000160: d6ec 46be 362a 91bd 3b86 a4be a4ff 1ebd
00000170: b036 78be 8a56 cfbd 8dd1 bcbe 9c3d 87be
00000180: cb2f bbbe b30e 8bbe fa03 d8be 7e37 abbe
00000190: db97 4fbe ef9c 8cbe b885 05be c58f 9dbe
000001a0: 5852 6ebe 60b5 c3be 4c6a 93be 129c a4be
000001b0: 8556 85bc 9a8a bcbe cca3 cfbe ea15 ccbc
000001c0: d94b 6cbe 3923 50be 5a63 97be 5dcd 99bd
000001d0: 2aef 9f3c dde4 5dbe 6d0a 2ebe 42ee 4dbe
000001e0: b817 77be 7de1 75be f9e5 a4be b83e 82be
000001f0: c739 00be b031 c8be 51e0 8d3d a8ff 55be
00000200: bc24 a9bc d240 40be c22b 74bd dd5d b7be
00000210: ba6d 403c 93f2 27be 0a00 aabd 85ab 6bbe
00000220: 882c 823d 650c 57be b7c1 fabc 7400 92be
00000230: 69ad 0abe 52f9 a1be d96e 57be e4d0 0ebe
00000240: 2e0b 3bbe 7bee 50be e078 a9bc 5228 c73d
00000250: d84b b7be de25 56be d87d d2be 4c2f 23be
00000260: ba6a 37be ffb7 e4bd ef2d 21be 5e89 93be
00000270: 8695 2bbe e696 5bbe bc3d 4ebe 66c8 7fbe
00000280: 830b bcbe 0f49 15be f5ae f1bd bec4 aebc
00000290: d878 63be e809 68bd a503 8abe daec 77be
000002a0: 4280 1abe 38d8 b0be 21a4 b1bd d8ae 90bc
000002b0: a236 87be c0ee 3abe 5401 acbe 56ed 8fbe
000002c0: 9d9e aebe f27f acbd 2c1d ffbd 2d60 2cbe
000002d0: e612 88bc 42f0 10bd 48fe d1be 3adf 6cbe
000002e0: be88 96bc c65b d5bb d2ab 0fbd 8799 3ebe
000002f0: 0f10 0ebe d996 9abe a2d1 29be 0a87 dabd
00000300: 1727 023c 8dbb 3c3d 8948 88be b635 3dbe
00000310: 766f 50be a6e3 b0be 3fd8 06be 0cb1 39be
00000320: 1c9c 5fbd 4b6f 0abd 530c 9ebe 66cb b5bd
00000330: e1cf 6bbe a4f7 c9be 524c e5be a4d2 84bd
00000340: a2e5 a5bd 5fea 99bd 54e6 34be 40f8 5ebe
00000350: a2b1 bcbe 3fb7 c0be ad3e 09be c03b 08be
00000360: cc66 9dbe 1e7c acbe 9fe4 243d e8a1 85be
00000370: d417 b4be d7de e3bd 8ae4 02be 4cbc 60be
00000380: 336a dfbe 632d f9bd 2a03 41bd 3c24 05be
00000390: 77b4 a5be 385e babe 7e5f 6bbe 128a aabe
000003a0: af3d 85be 60aa a7be fd18 b0be 3c47 0fbe
000003b0: 0eb8 1abd 5218 9dbd ba12 9ebe 0e70 dbbe
000003c0: 8e5c 99be fed3 c9be 1128 8ebe 5567 823d
000003d0: a74a a4be 4416 4bbe bd68 97be 4db1 afbd
000003e0: 82fd bcbe b993 11be 70f6 02bd 9c1e 0abe
000003f0: 570e f0bc 6886 46bd 1658 92be c144 f03a

layers.3.weight f4 [80, 256]
-0.042985376 0.046071053 0.0724851 -0.014449947 -0.064275436 -0.057687506 0.058872797 0.11162175
0.13898681 -0.1637 -0.035486884 -0.088128634 -0.023427842 0.22435352 0.028267175 0.07347034
-0.10131373 -0.096455075 0.12363814 0.11113817 0.08745863 0.05986422 0.034847397 0.036907192
0.082264915 0.015250831 -0.026872002 0.15814352 -0.13015349 -0.01521693 0.08879811 0.0059772953
0.20657253 -0.07704574 0.07063902 0.11513447 -0.13237612 0.020127438 0.12044083 -0.16104324
0.03044236 -0.10343501 -0.122111164 0.14907025 0.14627355 -0.015583992 0.0730614 -0.003973104
-0.047779802 0.12967119 0.1574851 -0.02373413 -0.033691563 -0.090073414 -0.08556129 -0.052966464
0.13174953 0.04837773 0.030709032 -0.117307656 0.29803216 -0.007418515 0.14800376 0.3344696
-0.027831016 -0.0421236 0.099144556 0.13473324 0.25710648 0.07165704 0.104870215 -0.2185627
0.09015797 -0.022290993 -0.03608799 0.13545252 -0.1482406 0.15982214 0.036402326 -0.12463367
-0.060616426 0.008386658 0.058662545 0.10807333 -0.0170065 0.19823101 0.21735403 -0.05159968
0.005735631 0.0035252543 0.03941315 0.01202435 -0.050887935 -0.07688923 0.07940389 0.03815734
0.062042248 0.019127915 0.1779954 0.101928145 -0.08774788 0.0342252 0.0678345 -0.01999385
-0.03042957 0.12482617 0.20150875 0.10383383 -0.12640622 0.1838365 0.13965479 0.02491204
0.0693648 0.06390975 -0.07449056 -0.058392935 -0.10525088 0.08935003 0.09276127 -0.061464533
0.00026544588 0.11151881 0.099669434 0.038985953 0.10955138 0.10285514 -0.053348593 0.13989778
-0.06411247 0.02787059 -0.0071857413 0.21068153 -0.17035127 -0.14664273 -0.046330795 0.0021028812
-0.13254794 0.102620825 -0.0005484296 0.12024173 -0.10424671 0.09231622 -0.01824836 0.08461967
0.045149 -0.017452966 -0.14658476 -0.06776225 0.23008269 0.16352424 0.15783511 0.014876546
0.058448967 0.021669976 0.035436872 0.09463489 -0.011690751 -0.007813941 0.060614623 0.043269817
0.26002547 0.11199664 0.046351798 0.0029554553 -0.003890401 -0.02930576 0.04360812 0.007748398
0.13886434 0.1615524 0.009915685 -0.04807138 0.12700066 0.013008014 0.14963062 -0.06338378
-0.06844781 -0.009770701 0.1734605 -0.062153187 -0.07386791 0.050279986 0.06605843 0.13003838
0.0010628407 -0.0014359769 -0.14207636 0.105742134 -0.03379425 0.042279094 0.03813311 -0.11341781
-0.023780081 -0.10782276 0.09967024 0.10946259 0.12623234 0.07912244 0.04440531 0.00044071442
-0.06658241 0.1363774 0.010734901 -0.06491868 0.052610535 0.06292601 0.1739265 0.0007158658
-0.033532564 0.011926887 -0.1395268 0.01600073 0.11180106 0.24380746 0.121553935 -0.016805224
0.08618306 0.23074302 -0.06791003 0.14252813 0.033690594 -0.08146897 -0.046531554 0.06480843
0.11410923 -0.01826914 -0.07730612 0.08073225 0.08974589 0.23949103 0.042824503 0.10861063
0.1076799 0.21822357 0.06626377 -0.00017219878 -0.030413192 0.018680809 -0.0028054318 0.09517068
0.102171674 -0.023446044 -0.036637172 -0.021968018 0.25173947 0.20385595 0.15037565 0.030107828
0.37510747 -0.04448351 -0.041296735 -0.021288794 -0.07815847 -0.05508144 0.1563658 -0.08187435
00000000: 6f11 30bd 00b5 3c3d 1173 943d 78bf 6cbc
00000010: d7a2 83bd bc49 6cbd 9a24 713d f299 e43d
00000020: 8f52 0e3e f9a0 27be b25a 11bd c97c b4bd
00000030: bfeb bfbc eebc 653e 9090 e73c 9e77 963d
00000040: 937d cfbd 3d8a c5bd fe35 fd3d 699c e33d
00000050: 831d b33d 2f34 753d 25bc 0e3d ff2b 173d
00000060: 827a a83d 9fde 793c ac22 dcbc 60f0 213e
00000070: f546 05be 6e50 79bc c9db b53d 30dd c33b
00000080: c087 533e 28ca 9dbd 31ab 903d 9fcb eb3d
00000090: 9b8d 07be 4ce2 a43c afa9 f63d 85e8 24be
000000a0: 4262 f93c bcd5 d3bd 6b15 fabd dfa5 183e
000000b0: bcc8 153e 0054 7fbc 37a1 953d d030 82bb
000000c0: c1b4 43bd 86c8 043e c643 213e 146e c2bc
000000d0: 2a00 0abd 6978 b8bd c23a afbd 5df3 58bd
000000e0: 59e9 063e ba27 463d 8291 fb3c ff3e f0bd
000000f0: ac97 983e 0417 f3bb 4c8e 173e 993f ab3e
00000100: dffd e3bc cc89 2cbd 4d0c cb3d 83f7 093e
00000110: 76a3 833e edc0 923d 32c6 d63d e7ce 5fbe
00000120: bea4 b83d 9a9b b6bc 00d1 13bd 11b4 0a3e
00000130: 62cc 17be 6aa8 233e 9b1a 153d f03f ffbd
00000140: ee48 78bd 3168 093c 2348 703d 8d55 dd3d
00000150: 3751 8bbc 12fd 4a3e 0e92 5e3e 305a 53bd
00000160: f6f1 bb3b f407 673b af6f 213d c801 453c
00000170: de6f 50bd 1a78 9dbd 829e a23d df4a 1c3d
00000180: 0320 7e3d 25b2 9c3c 6d44 363e b4bf d03d
00000190: 29b5 b3bd b92f 0c3d d0ec 8a3d 24ca a3bc
000001a0: 6f47 f9bc dda4 ff3d 4f58 4e3e d5a6 d43d
000001b0: a270 01be a33f 3c3e aa01 0f3e 5614 cc3c
000001c0: 220f 8e3d 1de3 823d 828e 98bd 6e2d 6fbd
000001d0: c68d d7bd 26fd b63d 9ff9 bd3d 3cc2 7bbd
000001e0: 8b2b 8b39 f963 e43d 7d1f cc3d bcaf 1f3d
000001f0: 795c e03d b7a5 d23d 0e84 5abd 5d41 0f3e
00000200: 664d 83bd dd50 e43c 5e76 ebbb e6bc 573e
00000210: 9070 2ebe 8329 16be 5cc5 3dbd 7ed0 093b
00000220: a6ba 07be de2a d23d 7dc4 0fba 4c41 f63d
00000230: 4d7f d5bd 4910 bd3d 967d 95bc 144d ad3d
00000240: 28ee 383d 86f9 8ebc 511a 16be efc6 8abd
00000250: cc9a 6b3e e672 273e 879f 213e c2bc 733c
00000260: 2f68 6f3d 3c85 b13c 4126 113d f0cf c13d
00000270: 908a 3fbc 0b06 00bc 0a47 783d b13b 313d
00000280: 0f22 853e 7f5e e53d 62db 3d3d 50b0 413b
00000290: 19f6 7ebb a212 f0bc 6e9e 323d 46e6 fd3b
000002a0: 7432 0e3e fe6d 253e 6675 223c 7fe6 44bd
000002b0: 760c 023e 911f 553c c538 193e 5bcf 81bd
000002c0: 5e2e 8cbd 4a15 20bc a19f 313e 5794 7ebd
000002d0: 0f48 97bd 63f2 4d3d a449 873d c828 053e
000002e0: 044f 8b3a 6437 bcba 777c 11be 558f d83d
000002f0: d76b 0abd d82c 2d3d 7731 1c3d 9947 e8bd
00000300: 72ce c2bc 2ed2 dcbd e91f cc3d ec2d e03d
00000310: 0d43 013e f20a a23d 58e2 353d b00f e739
00000320: 5c5c 88bd 84a6 0b3e 70e1 2f3c 16f4 84bd
00000330: 257e 573d 5adf 803d ca19 323e f1a8 3b3a
00000340: 7159 09bd fd68 433c 1de0 0ebe f713 833c
00000350: f4f7 e43d aaa8 793e 45f1 f83d 1cab 89bc
00000360: bf80 b03d e647 6c3e 6a14 8bbd e5f2 113e
00000370: 26ff 093d 34d9 a6bd df97 3ebd 48ba 843d
00000380: 1ab2 e93d 2aa9 95bc ac52 9ebd f356 a53d
00000390: b1cc b73d 233d 753e bf68 2f3d 406f de3d
000003a0: 4887 dc3d 0076 5f3e 4db5 873d 4290 34b9
000003b0: 1625 f9bc 7f08 993c 56db 37bb d8e8 c23d
000003c0: 623f d13d eb11 c0bc dc10 16bd 46f6 b3bc
000003d0: ffe3 803e 9dbf 503e 13fc 193e b1a4 f63c
000003e0: 160e c03e 5734 36bd c426 29bd d665 aebc
000003f0: 8c11 a0bd 139d 61bd 5b1e 203e bdad a7bd

layers.3.bias f4 [80]
-0.18328379 0.06784418 -0.18616644 -0.061350606 -0.16529222 -0.19517899 -0.14580113 -0.1153518
-0.00011119398 -0.11082268 -0.08948004 -0.037595086 -0.07195676 0.0077767516 -0.05246174 0.077831
0.022289177 0.028726991 -0.09704393 -0.0429662 -0.15877856 -0.11974278 0.033844072 -0.028822204
-2.5651825e-06 -0.14252733 -0.10348116 0.008053649 0.055501997 -0.025086455 -0.24678192 -0.0908669
-0.0021375285 0.047871605 -0.2003611 -0.26654592 0.00040837092 0.062353786 -0.0024365105 -0.079240955
-0.12213614 -0.04171303 -0.14528318 0.03114195 -0.02270525 -0.116595455 -0.060984887 -0.21091063
-0.13163869 0.058184996 -0.1764025 -0.000605421 -0.21188438 0.012370212 -0.049161986 -0.005193704
-0.08694296 -0.22385848 -0.029757388 0.067591645 0.047369502 -0.18775238 0.029686261 0.008889
-0.10382765 0.009188517 -0.012804266 -0.12887198 -0.009884828 -0.13906322 0.042412292 -0.18852328
0.016154481 -0.060697123 -0.25077775 -0.13684091 -0.23663333 -0.06241423 -0.105626 -0.27682418
00000000: bfae 3bbe e4f1 8a3d 6aa2 3ebe c64a 7bbd
00000010: 5d42 29be 00dd 47be e44c 15be 913d ecbd
00000020: d030 e9b8 00f7 e2bd 5041 b7bd 4efd 19bd
00000030: 115e 93bd 1fd4 fe3b 1fe2 56bd dc65 9f3d
00000040: cb97 b63c de54 eb3c f8be c6bd 53fd 2fbd
00000050: d996 22be b43b f5bd 15a0 0a3d 8b1c ecbc
00000060: 8025 2cb6 aff2 11be eeed d3bd 74f3 033c
00000070: 1056 633d 1c82 cdbc 66b4 7cbe 6d18 babd
00000080: c715 0cbb 0415 443d 762b 4dbe b578 88be
00000090: 9e1a d639 af66 7f3d ddad 1fbb 1549 a2bd
000000a0: 8322 fabd 48db 2abd 1dc5 14be 671d ff3c
000000b0: 5c00 babc 99c9 eebd 4acb 79bd f5f8 57be
000000c0: 4bcc 06be 6453 6e3d dba2 34be 1eb5 1eba
000000d0: 38f8 58be 6eac 4a3c 145e 49bd f22f aabb
000000e0: 270f b2bd 283b 65be c4c5 f3bc 7d6d 8a3d
000000f0: 8606 423d 2942 40be 9a30 f33c 2ba3 113c
00000100: 97a3 d4bd 6f8b 163c fcc8 51bc 04f7 03be
00000110: f9f3 21bc 9766 0ebe 83b8 2d3d 3f0c 41be
00000120: 6756 843c 8c9d 78bd f165 80be 0620 0cbe
00000130: 0250 72be 10a6 7fbd 7252 d8bd e6bb 8dbe

layers.6.weight f4 [64, 80]
0.116246186 -0.20366946 -0.05118409 -0.09342701 0.08903033 -0.12420227 -0.0030144388 0.050552797
-0.096156165 -0.028761303 0.15461409 -0.07215988 0.055619843 -0.12475298 0.17516808 -0.23826602
0.06426808 -0.18139191 0.07752537 0.19918734 -0.020942993 -0.08713645 -0.13965568 -0.1161632
0.0263181 -0.13034494 0.030299945 -0.079319194 0.04469819 -0.17221877 0.1629495 0.17410259
-0.23307258 -0.22867428 -0.0014491922 -0.06378253 0.08451199 -0.2192882 0.11283617 0.019308746
0.04744088 -0.11068162 0.22053406 -0.10903029 -0.20709088 -0.19318265 -0.1651868 0.10366545
0.10031443 -0.18556397 -0.011655399 -0.19103368 0.047483876 -0.11190646 -0.030833676 -0.22269794
0.08004746 0.12799528 -0.15157346 -0.15629487 -0.15323208 0.12265103 -0.07405706 0.1382765
0.06969389 -0.21494804 -0.027384335 0.13312404 -0.101056166 0.13655 0.050244045 0.09823281
-0.25790024 -0.08511917 0.15983297 0.08675141 0.11738291 0.10052448 0.047356945 -0.07290251
0.15768372 -0.29786623 -0.09367451 -0.16510989 0.16251862 -0.09597306 -0.042825576 0.20987144
-0.14047106 0.055987183 0.042882513 -0.039602682 -0.03877445 -0.1875671 0.024743138 -0.2682342
0.06950323 -0.1870448 0.15537788 0.026613139 -0.062146217 0.07041311 -0.16873303 -0.1495247
0.11429175 -0.1412475 0.16219918 -0.15095975 0.16140674 -0.2592813 0.043775957 0.03042929
-0.14474784 -0.1747182 2.2833497e-05 0.10315042 0.019931084 -0.21151555 0.07177539 0.05687332
-0.013816635 -0.09412912 0.28598708 -0.25132725 -0.24625427 -0.2599248 -0.231715 0.09618292
0.139578 -0.14666577 -0.07436954 -0.2410109 -0.081664465 -0.208891 -0.0073458757 -0.24254215
0.121441714 0.060426585 -0.1645665 -0.221021 -0.17849047 0.030859899 -0.07735344 0.19486573
-0.026320294 -0.23200049 0.03807012 0.06241118 -0.22344473 0.11938972 0.030527335 0.102888875
-0.21758488 -0.050159495 0.191435 -0.027013736 0.10329225 0.039510153 0.096124955 -0.05949488
-0.011259495 0.028960915 -0.09000178 -0.07192297 0.03434067 0.0568849 0.122631654 -0.0019252119
-0.033028096 -0.04059696 0.060651183 0.15245794 0.060643967 0.13666052 -0.068004355 0.0042400127
0.025555171 -0.057230584 0.07109991 -0.07884369 0.08851713 -0.08841429 -0.06494992 0.0021054589
0.085907355 0.14547466 0.046790954 0.15275821 0.16089705 -0.027708894 -0.0073350556 -0.059521295
-0.118160985 -0.031458043 0.042839605 0.0055042948 0.17412099 0.03565448 0.09142745 -0.09075407
-0.034303997 -0.047200944 0.040461056 -0.0547104 -0.044874184 0.023970677 -0.09541754 0.024389174
0.06510681 0.083698705 0.039790753 -0.08937865 -0.03256375 0.0043411753 -0.007931026 -0.06600738
0.057439934 0.19715758 0.059967887 0.08727082 -0.13266899 0.050054535 0.009840373 -0.081300646
-0.021818876 -0.011410423 0.10584804 0.018923232 0.045369104 0.008669072 0.06542667 0.043296624
-0.07280517 0.055413723 0.052541777 -0.024812369 0.012654169 -0.019540917 0.15731646 0.069115944
0.076500036 -0.22910523 0.03600392 -0.13225421 -0.023034591 -0.16095641 -0.01598464 0.15163733
-0.08076379 0.06407656 0.018226637 0.029181803 -0.02208523 -0.14758815 0.17936845 -0.21218653
00000000: 7b12 ee3d ba8e 50be 69a6 51bd a956 bfbd
00000010: 8955 b63d c25d febd e48d 45bb 7310 4f3d
00000020: 86ed c4bd d39c ebbc 2853 1e3e 8fc8 93bd
00000030: a2d1 633d 7e7e ffbd 435f 333e 02fc 73be
00000040: fc9e 833d cdbe 39be 9fc5 9e3d c4f7 4b3e
00000050: a490 abbc 9874 b2bd e601 0fbe f9e6 edbd
00000060: 0e99 d73c 2579 05be 9737 f83c 1a72 a2bd
00000070: 7315 373d 1e5a 30be 3cdc 263e f347 323e
00000080: 94aa 6ebe 9729 6abe d2f2 bdba 6aa0 82bd
00000090: 9f14 ad3d 168d 60be a616 e73d 602d 9e3c
000000a0: 5e51 423d 0cad e2bd aed3 613e 464b dfbd
000000b0: a20f 54be acd1 45be ba26 29be 8d4e d43d
000000c0: a771 cd3d 7b04 3ebe 49f6 3ebc 559e 43be
000000d0: 747e 423d 372f e5bd e896 fcbc ee0a 64be
000000e0: ecef a33d 3211 033e 1336 1bbe c30b 20be
000000f0: dfe8 1cbe 7730 fb3d 3aab 97bd 5b98 0d3e
00000100: acbb 8e3d 571b 5cbe 1d55 e0bc ab51 083e
00000110: 89f6 cebd c3d3 0b3e b3cc 4d3d 492e c93d
00000120: 800b 84be f652 aebd 41ab 233e b9aa b13d
00000130: 7366 f03d c7df cd3d 5bf9 413d e94d 95bd
00000140: d777 213e ec81 98be 6cd8 bfbd 9112 29be
00000150: 486b 263e 868d c4bd df69 2fbd 8ae8 563e
00000160: a5d7 0fbe d152 653d 93a5 2f3d 6c36 22bd
00000170: f5d1 1ebd 9711 40be 1fb2 ca3c fe55 89be
00000180: b657 8e3d ac88 3fbe 611b 1f3e cc03 da3c
00000190: 088d 7ebd c034 903d 5ac8 2cbe 011d 19be
000001a0: cb11 ea3d 2fa3 10be 8b17 263e 3195 1abe
000001b0: cf47 253e 85c0 84be 6b4e 333d d946 f93c
000001c0: c738 14be 54e9 32be 908a bf37 8740 d33d
000001d0: 8346 a33c 8897 58be fafe 923d 00f4 683d
000001e0: 2b5f 62bc c5c6 c0bd e66c 923e f7ad 80be
000001f0: 142a 7cbe dd14 85be b246 6dbe 8dfb c43d
00000200: 89ed 0e3e 8d2f 16be 0f4f 98bd 90cb 76be
00000210: b33f a7bd 86e7 55be acb5 f0bb f85c 78be
00000220: 6fb6 f83d de81 773d 1f84 28be 5453 62be
00000230: 35c6 36be e6cd fc3c 7b6b 9ebd e28a 473e
00000240: a89d d7bc 8991 6dbe 6aef 1b3d dea2 7f3d
00000250: b2ce 64be 9982 f43d 7614 fa3c 67b7 d23d
00000260: 92ce 5ebe 0b74 4dbd 8907 443e e94b ddbc
00000270: e38a d33d 66d5 213d 29dd c43d e7b0 73bd
00000280: bf79 38bc 713f ed3c da52 b8bd 5a4c 93bd
00000290: cda8 0c3d 2400 693d 4e26 fb3d 6457 fcba
000002a0: 7848 07bd ff48 26bd 606d 783d ef1d 1c3e
000002b0: cf65 783d bcf0 0b3e de45 8bbd ceef 8a3b
000002c0: 1459 d13c 9e6a 6abd d49c 913d cd78 a1bd
000002d0: 7848 b53d 8d12 b5bd 7704 85bd bdfb 093b
000002e0: 32f0 af3d 4ff7 143e dfa7 3f3d a66c 1c3e
000002f0: 32c2 243e c3fd e2bc e85a f0bb 9acc 73bd
00000300: 63fe f1bd 26da 00bd 9578 2f3d 5f5d b43b
00000310: c64c 323e 6f0a 123d 513e bb3d 45dd b9bd
00000320: 5982 0cbd c755 41bd 7eba 253d 0318 60bd
00000330: fecd 37bd 275e c43c 456a c3bd cecb c73c
00000340: b856 853d 3a6a ab3d a1fb 223d 270c b7bd
00000350: 9161 05bd 6b40 8e3b 22f1 01bc e12e 87bd
00000360: 2346 6b3d ade3 493e e3a0 753d 0bbb b23d
00000370: 61da 07be fc05 4d3d 8439 213c f480 a6bd
00000380: 80bd b2bc c8f2 3abc dbc6 d83d e504 9b3c
00000390: f4d4 393d b908 0e3c 6bfe 853d cd57 313d
000003a0: e11a 95bd 80f9 623d 0c36 573d 4f43 cbbc
000003b0: 6f53 4f3c 4614 a0bc 9117 213e a98c 8d3d
000003c0: 0dac 9c3d 909a 6abe d978 133d a66d 07be
000003d0: 0ab3 bcbc c2d1 24be 38f2 82bc d146 1b3e
000003e0: 7c67 a5bd 923a 833d 0750 953c ad0e ef3c
000003f0: 16ec b4bc 5921 17be 5dac 373e 6d47 59be

layers.6.bias f4 [64]
0.16717035 0.24540192 -0.28049928 0.16633143 -0.25682402 -0.31629753 0.124308415 0.080502234
0.10141778 0.13055694 0.15059395 -0.1715244 0.21819748 0.097552955 0.17240791 0.13216062
0.0527482 0.00566284 0.2400503 0.0053422763 0.17847958 0.115284175 -0.2799242 0.0762382
0.14458804 -0.01338006 0.06762183 -0.3240971 0.1768299 0.2227108 -0.15815075 -0.35973608
0.25371984 0.26480582 0.12611784 0.010319292 0.098729126 0.21745184 0.11957768 0.16482975
0.14224301 0.20057395 0.18469733 -0.14446136 0.15298827 0.23547313 0.12447827 -0.3102837
0.12436985 -0.27492663 0.16593574 -0.24822411 0.14297651 -0.20242 -0.15824035 0.18021606
-0.136426 0.13783412 0.22944571 -0.06816008 0.18986346 0.18506488 0.03724321 -0.35623562
00000000: b42e 2b3e a44a 7b3e 9a9d 8fbe c952 2a3e
00000010: 707e 83be c0f1 a1be 6995 fe3d 5bde a43d
00000020: 20b4 cf3d b8b0 053e 4d35 1a3e 18a4 2fbe
00000030: 296f 5f3e d8c9 c73d b38b 303e 1d55 073e
00000040: 7f0e 583d 588f b93b bfcf 753e 430e af3b
00000050: 5ac3 363e 1c1a ec3d 3a52 8fbe c622 9c3d
00000060: e30e 143e 0a38 5bbc 507d 8a3d 0ef0 a5be
00000070: e612 353e 4d0e 643e 45f2 21be 542f b8be
00000080: 91e7 813e a194 873e 0925 013e 3f12 293c
00000090: 7f32 ca3d b2ab 5e3e 25e5 f43d 21c9 283e
000000a0: 27a8 113e 4263 4d3e 4c21 3d3e aeed 13be
000000b0: f5a8 1c3e de1f 713e 77ee fe3d 81dd 9ebe
000000c0: 9fb5 fe3d 2fc3 8cbe 0feb 293e 762e 7ebe
000000d0: 6f68 123e 3047 4fbe c209 22be 8f8a 383e
000000e0: 42b3 0bbe 6324 0d3e d1f3 6a3e 8397 8bbd
000000f0: 916b 423e a681 3d3e 568c 183d 8464 b6be

layers.8.weight f4 [1, 64]
-0.09223973 -0.15734535 -0.015143251 -0.12867504 -0.015297163 -0.009897467 0.13723339 0.15093681
0.25011382 0.122563116 -0.05836346 -0.00022287581 0.17555857 -0.07144765 0.19857828 0.13598926
0.18688075 0.11230851 -0.12861277 0.09599892 -0.1406413 0.1271358 -0.023197575 0.043441214
0.12696092 0.0979702 0.1753979 -0.012164641 -0.1509387 -0.100520015 0.044774782 -0.025626471
-0.16611312 -0.1620789 0.1994377 0.1331193 -0.084053285 0.2517062 0.20396437 -0.12374521
-0.08707018 0.19106966 0.23903042 -0.0081544 0.18666036 0.24412873 -0.051042303 -0.023109857
0.17396095 -0.0064227083 0.10668659 -0.008167143 0.14716184 0.00093218597 -0.0047340896 -0.08463303
-0.0039547416 0.17146744 -0.15852873 -0.0633769 -0.13267714 -0.09029258 0.19998585 -0.024163177
00000000: 2fe8 bcbd 241f 21be 661b 78bc 64c3 03be
00000010: f4a0 7abc fc28 22bc e986 0c3e 2e8f 1a3e
00000020: eb0e 803e 5f02 fb3d 860e 6fbd c5b3 69b9
00000030: a0c5 333e 2553 92bd 1b58 4b3e c540 0b3e
00000040: ab5d 3f3e 0102 e63d 11b3 03be 159b c43d
00000050: 4604 10be e32f 023e d708 bebc 6aef 313d
00000060: 0b02 023e 9aa4 c83d 829b 333e 344e 47bc
00000070: ad8f 1abe 70dd cdbd c365 373d 9bee d1bc
00000080: 8f19 2abe 03f8 25be 6539 4c3e 6d50 083e
00000090: 2124 acbd a3df 803e 09dc 503e 216e fdbd
000000a0: da51 b2bd c4a7 433e 64c4 743e 089a 05bc
000000b0: e523 3f3e e2fc 793e bc11 51bd e250 bdbc
000000c0: d222 323e 9575 d2bb 807e da3d 7bcf 05bc
000000d0: 98b1 163e f15d 743a 6c20 9bbb 1554 adbd
000000e0: c796 81bb 2995 2f3e 5b55 22be c0cb 81bd
000000f0: 84dc 07be 51eb b8bd 17c9 4c3e dbf1 c5bc
