flwr-mlp/models/checkpoints/round_018.pt (torch, 127593 bytes, 7 tensors)

layers.0.weight f4 [256, 19]
0	0xbd7262ed	-0.059176374
1	0xbe1afd65	-0.15135725
2	0xbbd1c07d	-0.00640112
3	0xbe882fa5	-0.2659885
4	0xbc85d3c2	-0.016336326
5	0xbe1292cf	-0.14313816
6	0xbdb1187a	-0.08647247
7	0xbe48b827	-0.19601499
8	0x3e3a48d7	0.18191849
9	0xbdec7ec4	-0.11547616
10	0x3d30f6f4	0.043204263
11	0x3e18a3e8	0.14906275
12	0xbce29a4c	-0.027661465
13	0xbe123d98	-0.14281309
14	0x3e4834ec	0.19551438
15	0xbd5217d0	-0.05129224
16	0xbe0c35c8	-0.13692391
17	0x3d15965e	0.036520354
18	0xbe537253	-0.2064908
19	0xbe2ffbe8	-0.17185938
20	0xbd19af37	-0.037520614
21	0x3e073566	0.13203964
22	0x3af3ef74	0.0018610791
23	0xbdb98af4	-0.09059706
24	0xbca914e3	-0.020639842
25	0x3e49b931	0.19699551
26	0xbe522a8d	-0.20524044
27	0x3da45efc	0.08025929
28	0xbd1ac87e	-0.03778886
29	0x3e26764c	0.16256064
30	0x3e0f238c	0.13978404
31	0xbde55883	-0.11198523
32	0xbd890c36	-0.06691782
33	0x3d880a27	0.066425614
34	0xbd97aed3	-0.07406392
35	0x3de25fb6	0.11053412
36	0x3e48395a	0.19553128
37	0xbcc00f66	-0.023444843
38	0x3d915a95	0.07097355
39	0x3dd7db98	0.10539931
40	0x3c2224a2	0.009896429
41	0xbe08f160	-0.13373327
42	0x3d8ac427	0.06775694
43	0xbd824388	-0.06360537
44	0x3decce00	0.11562729
45	0xbe6a1a6d	-0.22861643
46	0x3b46067a	0.0030216263
47	0x3e7698ad	0.24081679
48	0x3de7f0a4	0.113251954
49	0xbdaf8dec	-0.08571991
50	0x3da6de23	0.08147838
51	0x3e19093c	0.14944929
52	0x3ddd1f04	0.107969314
53	0xbc21c7f8	-0.009874336
54	0x3d454cdb	0.048169
55	0x3e0490eb	0.12945907
56	0xbdafc88e	-0.08583175
57	0x3e8cef8b	0.27526507
58	0xbd4a72a0	-0.04942572
59	0x3d70610f	0.058686312
60	0x3dcbe6f3	0.099561594
61	0xbd8b25a0	-0.06794286
62	0xbe58405d	-0.21118303
63	0xbe554e59	-0.20830669
64	0x3e61a762	0.22036508
65	0xbd37092b	-0.044686478
66	0xbc8d534f	-0.017251639
67	0x3e4cce76	0.20000634
68	0xbdf20705	-0.11817745
69	0xbd9db77d	-0.07701013
70	0x3d5ed8bd	0.054405916
71	0xbe083551	-0.13301589
72	0xbd9fd6ca	-0.0780464
73	0xbd9201f7	-0.07129281
74	0x3d559db2	0.052152343
75	0x3e09fb6a	0.13474813
76	0xbdbbc4ae	-0.09168373
77	0xbdc1c864	-0.094620496
78	0x3e3019e9	0.17197384
79	0x3bfae12b	0.0076562366
80	0x3e507ace	0.20359346
81	0x3e305230	0.17218852
82	0x3e4a1693	0.19735174
83	0x3e02b99a	0.12766114
84	0x3e353048	0.17694199
85	0xbcbae0eb	-0.022812327
86	0xbe14cdce	-0.14531633
87	0xbdddf179	-0.10837073
88	0xbe4bbf2c	-0.19897145
89	0xbd3167c0	-0.043311834
90	0xbdcccf9c	-0.10000536
91	0x3db4b026	0.0882266
92	0xbd2997ed	-0.041404653
93	0xbd54d77a	-0.051963307
94	0xbe2701b1	-0.16309239
95	0x3d77c575	0.060491044
96	0x3e0b2c79	0.13591184
97	0xbdfce03e	-0.12347458
98	0x3e48fc86	0.1962758
99	0x3de00ebd	0.10940311
100	0xbe5c58a0	-0.21518183
101	0x3e21a7d1	0.15786673
102	0x3e65dae0	0.22446775
103	0xbdd571bf	-0.10422086
104	0xbe5a6c00	-0.21330261
105	0x3dabca7a	0.08388229
106	0xbe97c80b	-0.29644808
107	0x3c64a9e2	0.013956519
108	0x3e310d78	0.17290294
109	0x3e11be68	0.1423279
110	0xbab035b2	-0.0013443737
111	0x3dd4c530	0.10389173
112	0xbcbbc2fc	-0.022920124
113	0xbe84d29e	-0.25941938
114	0x3de9535d	0.113928534
115	0x3e31101c	0.17291301
116	0x3da924d5	0.08258978
117	0xbbc395f7	-0.005968805
118	0xbd9d4eae	-0.076810226
119	0xbdc42b74	-0.095786005
120	0xbe19260a	-0.14955917
121	0xbe33f62f	-0.1757438
122	0xbe44f1bf	-0.19232844
123	0x3e87e7d3	0.26544055
124	0xbe61f901	-0.22067644
125	0xbdbc1290	-0.09183228
126	0x3d1b5062	0.037918456
127	0xbdfc9417	-0.123329334
128	0x3e11567e	0.1419315
129	0xbdcfcced	-0.10146508
130	0x3d00ad54	0.0314153
131	0xbd258ff4	-0.040420488
132	0x3d0539ff	0.032526013
133	0x3e247208	0.16059124
134	0xbe3b6e98	-0.18303907
135	0xbd1cd33a	-0.03828738
136	0xbe004718	-0.1252712
137	0x3d0e8739	0.034796927
138	0xbbaf021d	-0.005340828
139	0xbe24186b	-0.1602494
140	0xbdd67b3c	-0.10472724
141	0xbd3e8161	-0.046510104
142	0xbd0d78a1	-0.03453887
143	0x3ca1b082	0.019737486
144	0x3d6ab0b4	0.057297423
145	0x3e421e7d	0.18956943
146	0x3e08c8bf	0.13357829
147	0xbd06a383	-0.03287078
148	0xbdb4559b	-0.088053904
149	0xbe754253	-0.23951082
150	0x3bbe02d3	0.0057986765
151	0xbd2bc2d1	-0.04193384
152	0xbd1453bd	-0.03621267
153	0x3dc7af2b	0.097502075
154	0x3db1f929	0.08690102
155	0xbd562681	-0.052282814
156	0x3ddd6bb4	0.10811558
157	0x3e72ba06	0.23703775
158	0x3de63a63	0.11241605
159	0x3e0a38e5	0.13498266
160	0x3e7273bf	0.23676966
161	0x3d97e005	0.07415775
162	0xbdacf418	-0.08444995
163	0x3e90ba1b	0.28266987
164	0xbe88e149	-0.2673438
165	0x3e2c060e	0.16799185
166	0x3d369ab6	0.044581138
167	0x3dae6e3d	0.0851712
168	0x3cd6f5c2	0.026240233
169	0xbe3b61b8	-0.18298995
170	0xbe3ab8dd	-0.18234582
171	0x3e630617	0.22170292
172	0xbcfe60d5	-0.031052032
173	0xbd68842a	-0.056766666
174	0xbd7eb596	-0.062184893
175	0x3e5deca2	0.216723
176	0xbde12ebd	-0.10995243
177	0xbc99cdee	-0.018774953
178	0x3e3c7b45	0.18406399
179	0x3e4419f8	0.19150531
180	0xbd8bc415	-0.06824509
181	0xbcdf00e6	-0.027222108
182	0xbcc805a9	-0.024416761
183	0x3e14858e	0.14504072
184	0x3d18ca65	0.037302393
185	0x3e0142b3	0.126231
186	0xbcddd4b8	-0.027078971
187	0x3de1b47b	0.11020752
188	0x3ddf11b1	0.10892046
189	0x3bb24788	0.005440656
190	0xbdaf7a12	-0.08568205
191	0x3ccdaacd	0.025105858
192	0x3de2322e	0.11044727
193	0x3d73be43	0.05950762
194	0xbd785151	-0.060624424
195	0x3dc13ced	0.09435449
196	0xbde248b9	-0.11049027
197	0x3e0f77cc	0.14010543
198	0x3e1a0ced	0.15043993
199	0xbeac6215	-0.3366858
200	0xbe6ccb0f	-0.23124336
201	0xbcf12fb9	-0.029441701
202	0xbdd35f15	-0.1032087
203	0xbe1576c2	-0.14596084
204	0xbdd0933a	-0.10184331
205	0x3e103e5e	0.14086291
206	0x3e222fa1	0.15838481
207	0x3de8284d	0.11335812
208	0x3c5aa590	0.013345137
209	0x3e5b6cf7	0.21428286
210	0xbddb7f62	-0.10717656
211	0xbcd24a86	-0.025670301
212	0x3e3dbaff	0.18528365
213	0xbe5c6c34	-0.21525651
214	0x3d98b2b3	0.07455959
215	0xbe870841	-0.26373485
216	0x3dc75b31	0.0973419
217	0x3e6008f5	0.21878417
218	0x3e1bcb68	0.15214312
219	0x3e2d2b2b	0.16910999
220	0xbe54130f	-0.20710395
221	0x3cd7955f	0.026316343
222	0xbe48d3a4	-0.19611984
223	0xbcaeb951	-0.0213286
224	0xbb2808c2	-0.0025639986
225	0xbd8cef27	-0.06881552
226	0x3e2db016	0.16961703
227	0x3cadb7a0	0.021205723
228	0xbdca0d8d	-0.09865866
229	0x3e627ce3	0.22117953
230	0xbd4bad16	-0.049725614
231	0xbca89f42	-0.020583753
232	0x3dca5c6d	0.0988091
233	0xbccbc2a9	-0.024873095
234	0xbe2a51dd	-0.16632791
235	0xbd93c7f6	-0.07215874
236	0xbe87ba3e	-0.2650928
237	0x3e9e1130	0.30872488
238	0xbe68440a	-0.22682205
239	0xbc3569ab	-0.0110725565
240	0x3e0a5489	0.1350881
241	0x3ce2f2b1	0.027703615
242	0x3c1f4cf5	0.009722938
243	0x3dcae10c	0.099062055
244	0xbe4cce8c	-0.20000666
245	0x3cc30b33	0.023809051
246	0x3d31e720	0.04343331
247	0xbdcc6698	-0.09980506
248	0xbdb02514	-0.08600822
249	0x3c19c11c	0.00938442
250	0xbd036940	-0.032082796
251	0x3dee228c	0.11627683
252	0xbe50d863	-0.20395045
253	0x3d57ae76	0.052656613
254	0x3dc4ef01	0.09615899
255	0xbe2038bb	-0.15646641

layers.0.bias f4 [256]
0	0x3c32a8c5	0.010904496
1	0xbd881acc	-0.06645736
2	0xbe88e496	-0.26736897
3	0xbe8088b1	-0.25104287
4	0xbe6056f7	-0.21908174
5	0xbe01c8d3	-0.12674265
6	0xbd742e9a	-0.059614755
7	0xbe3aad60	-0.182302
8	0xbe68b541	-0.22725393
9	0xbd5badd2	-0.053632565
10	0x3d94f4b8	0.07273239
11	0xbdacb563	-0.08433034
12	0x3d318b6b	0.04334585
13	0xbeae6d9d	-0.34068003
14	0xbe4d25cc	-0.2003395
15	0xbe2f1aaf	-0.17100023
16	0x3cedf4f0	0.02904746
17	0xbc9cbc1e	-0.01913267
18	0xbe2b329f	-0.16718529
19	0xbe5aec03	-0.21379094
20	0xbdce7f22	-0.100828424
21	0xbe2e8142	-0.17041495
22	0x3d438279	0.04773185
23	0xbe3593b3	-0.17732124
24	0xbde2f294	-0.11081424
25	0xbe0d6157	-0.13806663
26	0xbd2f8a28	-0.042856365
27	0xbe59440d	-0.21217366
28	0xbcbe9b6a	-0.023267467
29	0xbd88c15f	-0.066775076
30	0xbda97e8f	-0.08276092
31	0x3c870e96	0.016486447
32	0xbe4a6fae	-0.19769165
33	0x3bbd4a18	0.005776655
34	0xbe33114e	-0.1748707
35	0xbdc1b683	-0.094586395
36	0xbd185ffb	-0.03720091
37	0xbda5bdc0	-0.080928326
38	0xbe52ca28	-0.20584929
39	0x3d8d4280	0.068974495
40	0xbe8a2639	-0.26982287
41	0xbe717f6a	-0.23583761
42	0xbe60ce23	-0.21953635
43	0xbe744bbb	-0.23857014
44	0xbe679886	-0.22616777
45	0xbe37a3b2	-0.17933539
46	0xbdea4b2e	-0.11440121
47	0x3cde6eed	0.027152503
48	0xbe1cfde1	-0.15331222
49	0xbe90d54a	-0.28287727
50	0xbe5b5fe4	-0.21423298
51	0xbdfe4b92	-0.12416758
52	0xbe0a3644	-0.13497263
53	0xbd79198b	-0.060815375
54	0xbe068e3e	-0.13140199
55	0xbc745c6f	-0.014914616
56	0xbea35214	-0.31898558
57	0xbcc27b72	-0.023740504
58	0xbe33b0eb	-0.17547958
59	0xbe2df1a5	-0.16986711
60	0xbeb857f5	-0.36004606
61	0xbe6cf2f3	-0.23139553
62	0xbe0e1a68	-0.1387726
63	0xbea0c30d	-0.31398812
64	0xbd8b104a	-0.06790216
65	0xbd300c91	-0.042980734
66	0xbe7fb260	-0.24970388
67	0xbec9b698	-0.3939712
68	0xbea06a1b	-0.31330952
69	0xbe52e031	-0.20593335
70	0xbe9a0912	-0.30085045
71	0x3d9f6be4	0.077842504
72	0xbde1d6a6	-0.11027269
73	0xbe88b27e	-0.2669868
74	0xbe4fe00b	-0.2030031
75	0xbdef977b	-0.116988145
76	0xbe92d827	-0.28680536
77	0xbe83c8f6	-0.2573926
78	0xbdc2eff5	-0.095184244
79	0xbc87f2fa	-0.016595352
80	0xbc1ff85e	-0.009763805
81	0xbe300d2a	-0.17192522
82	0xbc3d7615	-0.0115637975
83	0xbe38560d	-0.18001576
84	0xbe9292c9	-0.28627613
85	0xbe799caf	-0.24376176
86	0xbdd069ac	-0.10176405
87	0x3dd713a1	0.10501791
88	0xbe276649	-0.16347612
89	0xbc2b9a8b	-0.010473858
90	0xbe8dea72	-0.2771793
91	0xbd0c71df	-0.034288283
92	0xbe6beb88	-0.23039067
93	0xbd7cf4bc	-0.061756834
94	0xbe934d73	-0.28770027
95	0xbe52f3cd	-0.20600815
96	0xbe9cb0b7	-0.30603573
97	0xbe4d7a87	-0.20066272
98	0xbebaed9a	-0.365094
99	0xbe95f12c	-0.29285562
100	0xbe18778d	-0.14889355
101	0xbe3c5421	-0.18391468
102	0xbd9abad1	-0.07555164
103	0xbe831e8e	-0.2560925
104	0xbe72ee58	-0.23723733
105	0xbe8ffb7d	-0.28121558
106	0xbe6d3be6	-0.2316738
107	0xbe6c1ebe	-0.23058602
108	0xbb9566a9	-0.004559357
109	0xbe91bdb4	-0.28465044
110	0xbeae9206	-0.34095782
111	0x3bfd33c8	0.00772712
112	0xbe1fc778	-0.15603435
113	0xbe0eb410	-0.13935876
114	0xbe82421f	-0.2544107
115	0xbd645b25	-0.055750985
116	0x3d16cdb6	0.036817275
117	0xbde97c21	-0.11400629
118	0xbd91a91f	-0.071123354
119	0xbe415799	-0.18881072
120	0xbe6eb368	-0.23310626
121	0xbe319cf5	-0.1734503
122	0xbe7db9a6	-0.2477785
123	0xbe3afae0	-0.18259764
124	0xbd28903c	-0.041153178
125	0xbea724c7	-0.32645246
126	0x3db153b5	0.08658544
127	0xbe13e7ae	-0.14443848
128	0xbb9890a5	-0.004655915
129	0xbdf0fa51	-0.11766494
130	0xbcf8da9e	-0.030377682
131	0xbe92e259	-0.28688315
132	0x3caceea5	0.021109888
133	0xbe1e3e4c	-0.15453452
134	0xbcd3c1cd	-0.025849247
135	0xbe51f88f	-0.20504974
136	0x3d6800eb	0.0566415
137	0xbe072bdf	-0.13200329
138	0x3c31cad5	0.010851582
139	0xbe534573	-0.20631962
140	0xbe149dc4	-0.14513308
141	0xbe6d4eec	-0.23174638
142	0xbe23cf14	-0.15996963
143	0xbd2bc992	-0.04194028
144	0xbde1a2e0	-0.11017394
145	0xbe1bd98e	-0.1521971
146	0xbcd1e8f0	-0.025623769
147	0x3dab2815	0.083572544
148	0xbe961b1b	-0.29317555
149	0xbe07e548	-0.13271058
150	0xbea1a26d	-0.31569234
151	0xbddbf0f5	-0.10739318
152	0xbda39531	-0.079874404
153	0xbc8f38bd	-0.01748311
154	0xbe034a41	-0.12821294
155	0xbe572eb8	-0.21013916
156	0xbe0cf0cf	-0.13763736
157	0xbe1968ee	-0.14981434
158	0xbe002720	-0.12514925
159	0xbe2b1bb4	-0.16709787
160	0xbe9acfef	-0.30236766
161	0xbdd534a3	-0.1041043
162	0xbd2ad0b0	-0.041702926
163	0xbc8ee991	-0.017445358
164	0xbe0fcec6	-0.14043722
165	0xbd1e9589	-0.038716827
166	0xbe824769	-0.25445107
167	0xbe7030de	-0.23456141
168	0xbdc8d760	-0.098067045
169	0xbe88578a	-0.26629287
170	0xbc3fb428	-0.011700667
171	0x3c856921	0.016285481
172	0xbe5997cb	-0.2124931
173	0xbdfbeb73	-0.12300768
174	0xbe836591	-0.25663427
175	0xbe7dc9bf	-0.24783991
176	0xbe9ce303	-0.30641946
177	0xbd9eb96f	-0.077502124
178	0xbd6ef9fb	-0.05834387
179	0xbdd49b44	-0.10381177
180	0x3d590b03	0.052989017
181	0x3d5b0ccc	0.053479
182	0xbeab1e8f	-0.33421752
183	0xbe3b1395	-0.18269189
184	0x3c9af8db	0.018917492
185	0x3a6e333b	0.00090866134
186	0xbcaddb64	-0.021222778
187	0xbe09114e	-0.13385507
188	0xbe0c1c25	-0.13682611
189	0xbe80e883	-0.25177392
190	0xbda32315	-0.07965676
191	0xbdd48ff6	-0.10379021
192	0xbb747972	-0.0037303832
193	0x3d821ec0	0.06353521
194	0xbe67abb6	-0.22624096
195	0xbdf663ba	-0.1203074
196	0xbdcdcd66	-0.10048942
197	0xbe8adc46	-0.2712118
198	0xbdf68441	-0.12036944
199	0xbdc33ecb	-0.09533461
200	0x3c8bee6f	0.017081467
201	0x3ccaa7f9	0.024738299
202	0xbe71f4c2	-0.23628524
203	0xbd6a7a32	-0.05724544
204	0xbe02503b	-0.12725918
205	0xbea6c0cb	-0.32568964
206	0xbeb0c320	-0.3452387
207	0xbd2254ab	-0.039631527
208	0xbcb16436	-0.02165423
209	0x3af37031	0.0018572864
210	0xbe22bec0	-0.15893078
211	0xbe3d5bed	-0.18492098
212	0xbe9e2ef7	-0.30895206
213	0xbe9013ed	-0.28140202
214	0xbd8722fd	-0.0659847
215	0xbd62a541	-0.05533338
216	0xbe60a13e	-0.21936509
217	0xbe8dfacb	-0.27730402
218	0x3d842d6f	0.06453978
219	0xbe6f282b	-0.23355167
220	0xbe9c6980	-0.3054924
221	0xbd632cac	-0.055462524
222	0xbde2395c	-0.11046097
223	0xbe024bb4	-0.12724191
224	0xbeb76cfa	-0.3582533
225	0xbd93d5d3	-0.07218518
226	0xbc08beef	-0.008346303
227	0xbd732ea2	-0.059370644
228	0xbe549901	-0.20761491
229	0xbe937f96	-0.28808278
230	0xbe52b919	-0.20578422
231	0xbe76abfc	-0.24089044
232	0xbe3add97	-0.18248592
233	0xbe774a3e	-0.24149415
234	0xbe80cd99	-0.2515686
235	0xbdd49c15	-0.10381333
236	0x3ae6a918	0.0017598001
237	0xbd92f938	-0.07176441
238	0xbe87969a	-0.26482087
239	0xbea931ee	-0.33045906
240	0xbe61f2a7	-0.22065221
241	0xbea9fefb	-0.33202347
242	0xbe7bb9d7	-0.24582611
243	0x3dbfbc4d	0.093620874
244	0xbe68ce75	-0.22735007
245	0xbdcee6a2	-0.101025835
246	0xbe5d0efc	-0.21587747
247	0xbcc5dd41	-0.024153354
248	0xbe95950c	-0.29215276
249	0xbd6a192c	-0.057152912
250	0xbc0a125e	-0.008427231
251	0xbd8d76e2	-0.06907441
252	0x3d0c2765	0.034217257
253	0xbcb6b476	-0.022302847
254	0xbe5c77b3	-0.21530037
255	0x3c56d06f	0.013111218

layers.3.weight f4 [80, 256]
0	0xbd2e9d61	-0.042630557
1	0x3d6582fd	0.056033123
2	0x3cc9e04b	0.024643084
3	0xbc978fd9	-0.01850121
4	0xbd8d3609	-0.06895072
5	0xbd7fbccc	-0.06243591
6	0x3d537fd1	0.051635567
7	0x3d904b9b	0.070456706
8	0x3db854fc	0.090005845
9	0xbe0c5f8e	-0.13708326
10	0xbccf8049	-0.025329726
11	0xbd56e144	-0.052460924
12	0xba5e0fb1	-0.0008470966
13	0x3dd603ba	0.104499295
14	0x3cf31681	0.029673817
15	0x3d5de4d4	0.054173306
16	0xbd950c9f	-0.07277798
17	0xbd9461ec	-0.072452396
18	0x3d2eef78	0.042708844
19	0x3d80d88f	0.06291305
20	0x3db00dca	0.0859638
21	0x3d12d2fd	0.035845745
22	0x3d1acca5	0.03779282
23	0x3d244ae8	0.0401105
24	0x3dbb86f5	0.091566004
25	0xbceaedbc	-0.028677814
26	0xbb14e113	-0.0022717163
27	0x3da77967	0.081774525
28	0xbdc3e4be	-0.095651135
29	0xbd06c2f1	-0.032900754
30	0x3d7dafbd	0.061935175
31	0x3c075b99	0.008261585
32	0x3df593ac	0.11991057
33	0xbdc4b37e	-0.09604548
34	0x3d91abbf	0.07112836
35	0x3d8fde5a	0.07024832
36	0xbe02fb42	-0.1279116
37	0x3b89449d	0.0041890875
38	0x3d8f7f56	0.07006709
39	0xbe048f67	-0.12945329
40	0x3b9b6c3f	0.0047431285
41	0xbdb36b8b	-0.087607466
42	0xbdd255ef	-0.10270297
43	0x3dae91d5	0.08523909
44	0x3dd83b8c	0.10558233
45	0xbd642a80	-0.055704594
46	0x3d000cde	0.03126227
47	0x3d07e726	0.033179425
48	0xbd67d266	-0.056597136
49	0x3d522855	0.051307995
50	0x3d6e09ba	0.058114745
51	0xbc503199	-0.0127071375
52	0xbccd57c2	-0.02506626
53	0xbd8782ee	-0.0661677
54	0xbd93e34b	-0.07221087
55	0xbcd560f1	-0.026047202
56	0x3daf0dd7	0.085475616
57	0x3d0b530a	0.03401474
58	0x3c415923	0.011801037
59	0xbe07111c	-0.1319012
60	0x3e30d910	0.17270303
61	0xbca82e46	-0.020529877
62	0x3d6705d3	0.05640204
63	0x3e205e37	0.1566094
64	0xbd661507	-0.056172397
65	0xbce66583	-0.028124576
66	0x3daa6c73	0.08321466
67	0x3d4b3b53	0.049617123
68	0x3de34e9c	0.11098978
69	0x3b16759b	0.0022958282
70	0x3d0b76f7	0.034049
71	0xbe3a1c21	-0.18174793
72	0x3d428276	0.0474877
73	0xbd091a8b	-0.03347258
74	0xbd3fd4e0	-0.046833873
75	0x3da2a7aa	0.07942136
76	0xbe00b836	-0.12570271
77	0x3d34528d	0.04402404
78	0x3d4e1706	0.050314926
79	0xbdc22f2c	-0.094816536
80	0xbd6b74df	-0.057484504
81	0x3c6e073e	0.014528094
82	0x3ba21349	0.0049461466
83	0x3dc4cd14	0.09609428
84	0xbd9cc141	-0.07654048
85	0x3d8cd08e	0.06875716
86	0x3e11538e	0.1419203
87	0xbcb87644	-0.022517331
88	0x3c5bcbd9	0.0134153
89	0xba979ffc	-0.0011568065
90	0x3d03faf9	0.032221768
91	0x3d4bb2a8	0.049730927
92	0xbd837120	-0.06418061
93	0xbd7f1c02	-0.06228257
94	0x3d0af934	0.033929065
95	0x3ad166bc	0.0015976052
96	0x3c523f37	0.012832454
97	0x3b5bbdc2	0.0033529853
98	0x3cc36e68	0.023856357
99	0x3d1636ac	0.036673233
100	0xbdcdac85	-0.10042671
101	0xbca5d1f4	-0.020241715
102	0x3d5e4578	0.05426547
103	0xbd5424e9	-0.051793013
104	0xbda659b2	-0.08122577
105	0x3d62c863	0.055366885
106	0x3e13580b	0.14389054
107	0x3d43633f	0.04770207
108	0xbdb4ee03	-0.0883446
109	0x3dcb89d2	0.099383965
110	0x3d43d39e	0.047809236
111	0xba00b2a9	-0.0004909435
112	0x3d311427	0.04323211
113	0x3d6d0dd4	0.057874516
114	0xbda95eba	-0.08270021
115	0xbd4a2f03	-0.04936124
116	0xbda241b1	-0.07922686
117	0x3cf0b237	0.029381854
118	0x3cfe1b6a	0.031018931
119	0xbd89fdd8	-0.0673787
120	0x3ce21c97	0.027601523
121	0x3d824ba8	0.063620865
122	0x3d99a2b4	0.07501736
123	0x3cd45486	0.02591921
124	0x3c834142	0.016022328
125	0x3d357b35	0.044306953
126	0xbd122673	-0.0356812
127	0x3dd06ce0	0.10177016
128	0xbd47723f	-0.048692938
129	0x3c1c56df	0.009542196
130	0xbc973a55	-0.018460432
131	0x3e290cfc	0.1650886
132	0xbdfbc296	-0.12292974
133	0xbe0741ec	-0.13208741
134	0xbd7613d4	-0.060077503
135	0xbba5e9f0	-0.005063288
136	0xbdcbe0ed	-0.099550106
137	0x3d9bd499	0.07608909
138	0xbc2370da	-0.009975636
139	0x3d4cdd68	0.050015837
140	0xbda6d28a	-0.08145626
141	0x3cce10d5	0.02515451
142	0xbcc7fa7f	-0.024411438
143	0x3d397d01	0.04528523
144	0x3cc9131e	0.024545249
145	0xbcc64f52	-0.024207745
146	0xbe02516e	-0.12726375
147	0xbd25cc7a	-0.040478207
148	0x3e353389	0.1769544
149	0x3dabcef6	0.08389084
150	0x3c96825f	0.018372713
151	0xbbc0182d	-0.005862257
152	0x3a5023ea	0.0007939922
153	0x3c20c90a	0.009813556
154	0x3c0e659d	0.008691219
155	0x3d91a2f9	0.07111163
156	0xbcf69d90	-0.030104429
157	0xbc2f4989	-0.0106986845
158	0x3c86871d	0.016421849
159	0xbc911641	-0.017710807
160	0x3e3499fa	0.17636862
161	0x3de60df1	0.11233128
162	0x3c8ed8f7	0.017437441
163	0x3c09cba1	0.008410365
164	0xbd1b729c	-0.037951097
165	0xbd2b432e	-0.041812114
166	0x3c8e658f	0.017382411
167	0x3bf170c6	0.00736818
168	0x3da82116	0.08209436
169	0x3dd66584	0.10468581
170	0xbc10a992	-0.008829491
171	0xbce1e0f2	-0.027573083
172	0x3ddfb037	0.10922282
173	0xbb66ed77	-0.0035236755
174	0x3dd97e47	0.106197886
175	0xbd5c3f4f	-0.053771313
176	0xbd80c622	-0.06287791
177	0x3bc93a93	0.006141016
178	0x3dd42fa6	0.10360651
179	0xbd804039	-0.062622495
180	0xbd982918	-0.07429713
181	0x3d363b45	0.044490118
182	0x3d2b67fb	0.04184721
183	0x3d80c875	0.06288234
184	0xbc7b0d34	-0.015322972
185	0x3ca755e4	0.020426698
186	0xbddf086d	-0.10890279
187	0x3daf0d3e	0.085474476
188	0xbc78f553	-0.015195209
189	0xbca31b01	-0.019910337
190	0x3ba73894	0.00510318
191	0xbddd4d0c	-0.10805711
192	0xba1f99be	-0.0006088278
193	0xbda38abe	-0.07985447
194	0x3d86bf57	0.06579464
195	0x3d52f518	0.05150327
196	0x3dacc765	0.08436469
197	0x3c993ba5	0.018705199
198	0x3d33be3f	0.043882605
199	0xbc81fa86	-0.01586653
200	0xbd9532e3	-0.072850965
201	0x3dd92df9	0.10604472
202	0xbc72c87e	-0.014818309
203	0xbd4dc507	-0.050236728
204	0x3cf64cc7	0.030065907
205	0x3d1294b4	0.035786346
206	0x3dd216bb	0.10258242
207	0xbc1c3e93	-0.009536403
208	0xbc95996d	-0.018261636
209	0xbc300ff1	-0.010745988
210	0xbdd03e49	-0.1016813
211	0x3a891df0	0.0010461193
212	0x3d4e6fee	0.050399713
213	0x3dcd8995	0.10036007
214	0x3dc16518	0.0944311
215	0xbb73d8f4	-0.0037208172
216	0x3d6ab079	0.057297204
217	0x3de950af	0.11392342
218	0xbd08f90f	-0.033440646
219	0x3d53f633	0.051748466
220	0xbce14c0b	-0.02750208
221	0xbd524f76	-0.05134531
222	0xbd84c4d8	-0.064828575
223	0x3d393b3c	0.045222506
224	0x3dc273d3	0.09494748
225	0xbd52e00b	-0.051483195
226	0xbd65aa31	-0.05607051
227	0x3d89fcf2	0.067376986
228	0x3d9706b5	0.07374326
229	0x3d856f7f	0.06515407
230	0x3d01223d	0.031526793
231	0x3d8bd40f	0.06827556
232	0x3d7effa6	0.062255524
233	0x3e2c11be	0.16803643
234	0x3d332fe8	0.04374686
235	0xbd2be915	-0.04197033
236	0xbc29a857	-0.010355077
237	0x3beed2bc	0.007288305
238	0xbc813b4c	-0.015775345
239	0x3dc34f35	0.09536592
240	0x3d12d7f5	0.035850484
241	0xbd9344c3	-0.0719085
242	0xbd1b8d7a	-0.03797672
243	0xbc8e314c	-0.017357491
244	0x3dcae4ef	0.09906947
245	0x3de4ef59	0.111784644
246	0x3d9e39df	0.07725882
247	0x3d395f3f	0.04525685
248	0x3e339eee	0.17541096
249	0xbcfa69e1	-0.030568065
250	0xbd0eece4	-0.034893885
251	0xbccf411e	-0.025299605
252	0xbd887ed9	-0.06664819
253	0xbc33d523	-0.010976109
254	0x3dcfe94f	0.10151922
255	0xbd84accd	-0.06478272

layers.3.bias f4 [80]
0	0xbdbe315c	-0.09286758
1	0x3d8f9def	0.07012545
2	0xbdb77216	-0.08957307
3	0xbd61943f	-0.05507302
4	0xbdb1ea65	-0.08687285
5	0xbe2ed67c	-0.17074007
6	0xbdf2d42d	-0.118568756
7	0xbda1a139	-0.07892079
8	0xbace6699	-0.0015747129
9	0xbdeb0c5c	-0.11476967
10	0xbd0f019f	-0.034913655
11	0xbced1f26	-0.028945517
12	0xbce201d3	-0.02758876
13	0x3b88ea59	0.004178327
14	0xbc1dd731	-0.009633825
15	0x3d9918e6	0.07475452
16	0xbc34710b	-0.01101328
17	0x3d20b064	0.03923072
18	0xbd3bdbcb	-0.045863908
19	0xbc7b26b1	-0.015329049
20	0xbe16b4e8	-0.14717448
21	0xbdaf0906	-0.08546643
22	0x3cb5c632	0.022189233
23	0xbb56637c	-0.0032713106
24	0xbcf8a5ee	-0.030352559
25	0xbe01d1f3	-0.12677746
26	0xbd743c5b	-0.059627872
27	0x3ca6711b	0.020317605
28	0x3d336507	0.04379752
29	0xbcf1e51e	-0.029528197
30	0xbe20be2c	-0.15697545
31	0xbd1e9b59	-0.03872237
32	0x3cc8114c	0.02442231
33	0x3d5644dd	0.052311767
34	0xbe023492	-0.12715366
35	0xbe28ffcb	-0.16503827
36	0xbc94b989	-0.018154876
37	0x3d5beaac	0.053690597
38	0x3c545976	0.012960782
39	0xbd9e21b4	-0.07721272
40	0xbd7eefbf	-0.06224036
41	0xbc752de3	-0.0149645535
42	0xbd8e10f3	-0.069368266
43	0x3cf4433a	0.029817212
44	0xbbe26bcb	-0.0069098226
45	0xbdc125d3	-0.094310425
46	0xbd6bbebe	-0.057554953
47	0xbe0128bb	-0.12613194
48	0xbd83d646	-0.06437354
49	0x3d762426	0.060093068
50	0xbdc5b274	-0.09653178
51	0x3b4b0ea3	0.0030984066
52	0xbe1406b4	-0.14455682
53	0x3cabcac4	0.02097071
54	0xbd13118d	-0.03590541
55	0xbb2f12c7	-0.0026714073
56	0xbd430a34	-0.047617152
57	0xbe0a48a1	-0.13504268
58	0xbcf0c20a	-0.0293894
59	0x3da83d95	0.08214871
60	0x3d9bc673	0.076062106
61	0xbdfd566a	-0.12369998
62	0x3d38304e	0.044967942
63	0x3cd30610	0.025759727
64	0xbd4eb5cd	-0.050466347
65	0x3c3f55c4	0.011678163
66	0xbd0ed232	-0.034868427
67	0xbd7c2ef6	-0.061568223
68	0xba6bdc5e	-0.0008997376
69	0xbdf3e204	-0.119083434
70	0x3cca6d33	0.024710273
71	0xbddf3a44	-0.10899785
72	0xbba25e44	-0.004955085
73	0xbd37e9b6	-0.04490062
74	0xbe2601eb	-0.16211669
75	0xbd91bc02	-0.07115938
76	0xbe1e1df4	-0.15441114
77	0xbcd2e63a	-0.025744546
78	0xbde0c28d	-0.109746076
79	0xbe20d738	-0.157071

layers.6.weight f4 [64, 80]
0	0x3dff326c	0.12460789
1	0xbe0490d7	-0.12945877
2	0xbca4eb75	-0.020131806
3	0xbd21a0b5	-0.039459903
4	0x3ddac240	0.106815815
5	0xbd4e90d0	-0.050431073
6	0x3cbe6448	0.023241177
7	0x3d11d2c0	0.035601377
8	0xbcdba067	-0.026809884
9	0x3bda3c01	0.006659985
10	0x3e266cf7	0.16252504
11	0xbd3eaa6e	-0.046549253
12	0x3d83efec	0.06442246
13	0xbd626bf4	-0.055278733
14	0x3e3001c0	0.17188168
15	0xbe486849	-0.19571032
16	0x3d6c830a	0.057742156
17	0xbe1abb30	-0.15110469
18	0x3d27d881	0.04097796
19	0x3e412819	0.18862952
20	0x3c894733	0.016757583
21	0xbd9434dd	-0.07236645
22	0xbda0bd70	-0.07848632
23	0xbd8282a9	-0.06372578
24	0x3c9fa58f	0.019488124
25	0xbd42c62c	-0.047552273
26	0x3c4cd739	0.012502485
27	0xbd6c5dbb	-0.057706576
28	0xba2ff97b	-0.00067128957
29	0xbe14106d	-0.14459391
30	0x3e3f1f2f	0.1866424
31	0x3e358a8c	0.17728633
32	0xbe33fd60	-0.17577124
33	0xbe2ba8e9	-0.16763653
34	0x3c708f0a	0.014682541
35	0xbcd1174f	-0.02552381
36	0x3d613125	0.05497851
37	0xbe24dcf0	-0.16099906
38	0x3dcc3b0a	0.09972198
39	0x3c8ff580	0.017573118
40	0x3d670cf7	0.05640885
41	0xbd88162f	-0.06644856
42	0x3e18d671	0.14925553
43	0xbcf6283e	-0.030048486
44	0xbe128833	-0.14309768
45	0xbdb4b488	-0.08823496
46	0xbdcad14a	-0.099032
47	0x3df2f208	0.1186257
48	0x3ddbb6fa	0.107282594
49	0xbe271d7a	-0.16319838
50	0x3d3043f1	0.043033544
51	0xbdd22e6e	-0.10262762
52	0x3d9b3d11	0.07580007
53	0xbd5c00b1	-0.053711597
54	0xbd568908	-0.052376777
55	0xbe2299a4	-0.15878922
56	0x3d9997e9	0.07499678
57	0x3dc55b36	0.09636538
58	0xbdb2ab25	-0.087240495
59	0xbd9f0b9c	-0.07765886
60	0xbe0e5a86	-0.1390172
61	0x3ded8acd	0.1159874
62	0xbd39d081	-0.04536486
63	0x3df47d67	0.11937981
64	0x3d94d962	0.07268025
65	0xbe21f168	-0.15814745
66	0xbcaae53d	-0.020861262
67	0x3e1c3833	0.15255813
68	0xbca7513b	-0.020424476
69	0x3e1a0869	0.1504227
70	0x3d0d23cb	0.034457963
71	0x3de22c8b	0.11043652
72	0xbe2972fa	-0.16547766
73	0xbcbec0a2	-0.023285214
74	0x3e18bf52	0.14916733
75	0x3ddabe29	0.106808014
76	0x3e202e56	0.15642676
77	0x3dcaec45	0.09908346
78	0x3d48764f	0.048940953
79	0xbd06d2e3	-0.03291596
80	0x3e245982	0.1604977
81	0xbe6af441	-0.22944738
82	0xbd8e1e73	-0.069394015
83	0xbdf32b31	-0.118734725
84	0x3e333549	0.17500795
85	0xbce0bdb5	-0.02743421
86	0xbcb83f59	-0.022491144
87	0x3e3e808e	0.18603727
88	0xbd830071	-0.063965686
89	0x3db31fca	0.08746298
90	0x3d2baee4	0.041914836
91	0x3caf8829	0.02142723
92	0xbd1da1c2	-0.038484342
93	0xbdc9e2f8	-0.09857744
94	0x3c4d73b0	0.012539789
95	0xbe475715	-0.19466813
96	0x3d5f2a3e	0.054483645
97	0xbe183878	-0.14865291
98	0x3deaa6ae	0.11457573
99	0x3b88ec59	0.0041785655
100	0xbcf8df53	-0.030379927
101	0x3da18a92	0.07887758
102	0xbdb49c8f	-0.08818924
103	0xbda76312	-0.08173193
104	0x3dceff8e	0.10107337
105	0xbd3f9219	-0.04677019
106	0x3e0cfbae	0.13767883
107	0xbdf1735b	-0.117895804
108	0x3de7713e	0.11300896
109	0xbe638019	-0.22216834
110	0x3d7881eb	0.060670774
111	0x3ccf5f12	0.025313888
112	0xbd93501d	-0.07193015
113	0xbdaf9052	-0.08572449
114	0x3c0d390e	0.00861956
115	0x3e0ba5d6	0.1363748
116	0xbc53d53b	-0.012929256
117	0xbe064321	-0.13111545
118	0x3d48fce8	0.049069315
119	0x3d642931	0.055703346
120	0xbc5a2bb1	-0.013316081
121	0xbd395278	-0.045244664
122	0x3e59519b	0.21222536
123	0xbe385f53	-0.18005113
124	0xbe3cf403	-0.18452458
125	0xbe1cbc88	-0.15306294
126	0xbe23ad72	-0.15984133
127	0x3dd83ad7	0.10558098
128	0x3e0f9b06	0.1402398
129	0xbdca5bbd	-0.09880779
130	0xbcde7d0d	-0.027159238
131	0xbe1d85da	-0.15383092
132	0xbd7dc948	-0.061959535
133	0xbe1d410b	-0.15356843
134	0xbd03dfbc	-0.03219579
135	0xbe348ec8	-0.17632592
136	0x3de0030d	0.10938082
137	0x3cbe5ffe	0.023239132
138	0xbdb553fc	-0.088539094
139	0xbe077344	-0.13227564
140	0xbe268e0b	-0.16265123
141	0x3c8a1a7a	0.016858328
142	0xbcb50561	-0.022097291
143	0x3e2c84c2	0.16847518
144	0xbd04206d	-0.032257486
145	0xbe2daf76	-0.16961464
146	0x3d29f75c	0.041495666
147	0x3d9af566	0.07566337
148	0xbe23a07b	-0.15979187
149	0x3dff584b	0.124680124
150	0x3c05f1ac	0.008175295
151	0x3dde941d	0.10868094
152	0xbde5a2a2	-0.1121266
153	0x3cf83352	0.030297909
154	0x3e344516	0.17604479
155	0xbc800e92	-0.015631948
156	0x3e0b1b11	0.13584544
157	0x3cf8e329	0.030381756
158	0x3dc6d2ea	0.097081974
159	0xbccaba72	-0.024747107
160	0xbca6af40	-0.020347238
161	0x3ca7aa3b	0.020466914
162	0xbdc23730	-0.094831824
163	0xbd9c3121	-0.07626558
164	0x3d33fd9a	0.043943025
165	0x3bd4c9aa	0.006493767
166	0xbb8b17f3	-0.0042447983
167	0xbc644b48	-0.013933964
168	0xbd4d1078	-0.050064534
169	0xbcb4e38e	-0.022081163
170	0x3daa7a89	0.08324153
171	0x3d5531ec	0.052049562
172	0x3db13b94	0.08653942
173	0x3d6c3999	0.057672117
174	0xbd946031	-0.072449096
175	0xbd032d6c	-0.03202574
176	0x3cee6d6c	0.02910491
177	0xbd57ef40	-0.0527184
178	0x3d4b5f0a	0.049651183
179	0xbd8d0887	-0.06886392
180	0x3de28be9	0.11061842
181	0xbdcb86d2	-0.09937824
182	0xbd915eeb	-0.07098182
183	0x3ca6b623	0.020350521
184	0x3d5f36b9	0.054495547
185	0x3d83e371	0.064398654
186	0x3d689cbb	0.056790095
187	0x3df0fbc6	0.11766772
188	0x3db14b23	0.08656909
189	0xbcef2bdd	-0.02919572
190	0xbd383f45	-0.044982214
191	0xbd80d3ca	-0.062903956
192	0xbdc45362	-0.095862165
193	0xbd91129e	-0.07083629
194	0x3d35a2c7	0.04434469
195	0x3ccda0a2	0.02510101
196	0x3c9817c7	0.018566025
197	0xbcc2cabc	-0.023778312
198	0x3dc9aedb	0.09847804
199	0xbdbabfc6	-0.09118609
200	0xbcb71cf8	-0.02235268
201	0xbd8f3880	-0.069931984
202	0x3c2ec367	0.010666705
203	0xbdb3656c	-0.08759579
204	0xbd73f7aa	-0.059562363
205	0x3d2bd697	0.041952696
206	0xbdc2b963	-0.09508016
207	0x3d08a54e	0.03336077
208	0x3d99cdbf	0.07509946
209	0x3d24d8e4	0.040245906
210	0x3d4328ce	0.047646336
211	0xbe0deb92	-0.13859394
212	0xbccfd4df	-0.02537006
213	0xbd1405ac	-0.03613822
214	0xbdabb9d6	-0.08385055
215	0xbe060d71	-0.13091065
216	0x3d75aa27	0.059976723
217	0x3e383bb2	0.17991522
218	0x3cad7951	0.021176012
219	0x3d730427	0.05933013
220	0xbe0cf0a8	-0.13763678
221	0x3d889458	0.06668919
222	0xbbc9f93b	-0.006163744
223	0xbd9e016b	-0.07715114
224	0xbc9c01e0	-0.019043863
225	0xbced030f	-0.028932123
226	0x3d4d4438	0.050113887
227	0x3d42e15a	0.047578193
228	0xbbe831af	-0.007086001
229	0x3c9fe6e7	0.019519283
230	0x3d87ceb4	0.06631222
231	0x3d402fd6	0.04692062
232	0xbdcd1cd6	-0.10015266
233	0x3cf9bacc	0.03048458
234	0x3d1d068a	0.038336314
235	0xbc34bdc3	-0.011031571
236	0x3ce3aca0	0.027792275
237	0xbc9f8752	-0.019473705
238	0x3de3acaa	0.111169174
239	0x3dbe3676	0.09287731
240	0x3da7a452	0.081856385
241	0xbe1b4ce5	-0.15166052
242	0x3d81fbde	0.06346868
243	0xbda6d072	-0.081452265
244	0xbc204d7d	-0.0097841
245	0xbdbf49df	-0.09340262
246	0x3b82bcb5	0.003989781
247	0x3e0709cf	0.13187335
248	0x3b1efd01	0.0024259689
249	0x3dc83712	0.09776129
250	0x3caf6b61	0.021413507
251	0x3d98e425	0.0746539
252	0xbca37583	-0.019953495
253	0xbdd04515	-0.10169426
254	0x3e2f5b2c	0.17124623
255	0xbe1d8411	-0.1538241

layers.6.bias f4 [64]
0	0x3dddf1fb	0.1083717
1	0x3e392c1b	0.18083231
2	0xbe234e81	-0.15947916
3	0x3dcff975	0.10155002
4	0xbe19f0bd	-0.1503324
5	0xbe778c5e	-0.2417464
6	0x3dc5e85d	0.096634604
7	0x3d8bf807	0.06834417
8	0x3dc23ba9	0.094840355
9	0x3df395fe	0.11893843
10	0x3dc3d906	0.09562878
11	0xbd86f266	-0.065892026
12	0x3e4d451b	0.20045893
13	0x3d1c8b56	0.03821882
14	0x3e1634da	0.14668599
15	0x3dcfc0e9	0.101442166
16	0x3d0def56	0.034652077
17	0xbd875b3e	-0.066092
18	0x3e3952d2	0.18098
19	0xbd3bf095	-0.045883734
20	0x3de8ec85	0.113732375
21	0x3de48874	0.11158839
22	0xbe2dec0c	-0.16984576
23	0x3da77f35	0.0817856
24	0x3dfb4d1b	0.12270566
25	0xbd8f812d	-0.0700706
26	0x3c9b7259	0.018975424
27	0xbe559923	-0.20859198
28	0x3de6d188	0.11270434
29	0x3e2a0bae	0.16606018
30	0xbe0635bd	-0.13106437
31	0xbe83a0a9	-0.2570851
32	0x3e460b43	0.19340234
33	0x3e52a216	0.20569643
34	0x3da0d8e3	0.07853868
35	0xbcf4925e	-0.02985495
36	0x3d08039a	0.03320656
37	0x3e4459d7	0.19174896
38	0x3da8e4de	0.08246778
39	0x3dd24fc7	0.102691226
40	0x3da589c7	0.080829196
41	0x3e35bf89	0.17748846
42	0x3e1de2aa	0.15418497
43	0xbd039638	-0.03212568
44	0x3ddd1960	0.107958555
45	0x3e5833f4	0.21113569
46	0x3d93af31	0.072111495
47	0xbe5d6187	-0.21619235
48	0x3d92e23c	0.07172057
49	0xbe27f4dc	-0.16402
50	0x3e2993b5	0.16560252
51	0xbe276fe9	-0.16351284
52	0x3dea3d17	0.11437433
53	0xbdcb7298	-0.099339664
54	0xbd22f2ea	-0.039782442
55	0x3df98ed7	0.12185448
56	0xbd3411f6	-0.04396244
57	0x3ded009c	0.11572382
58	0x3e2a3f7f	0.16625784
59	0xbc6ffea3	-0.0146481125
60	0x3df99aa3	0.12187698
61	0x3e019ed3	0.12658243
62	0xbbb85502	-0.005625368
63	0xbe7f143e	-0.24910066

layers.8.weight f4 [1, 64]
0	0xbdb30c32	-0.087425604
1	0xbe019b06	-0.12656793
2	0xbc85a023	-0.01631171
3	0xbdf53d65	-0.11974601
4	0xbd828f7c	-0.06375024
5	0xb9fd3c7d	-0.00048300988
6	0x3e05e904	0.1307717
7	0x3dc3b285	0.09555534
8	0x3e2cde87	0.16881762
9	0x3e008561	0.1255088
10	0xbd7758ee	-0.060387544
11	0xbbcfed5b	-0.0063454336
12	0x3e21c927	0.1579939
13	0xbda6714f	-0.08127081
14	0x3e3119ac	0.1729495
15	0x3dfc347d	0.12314699
16	0x3e0b6ca1	0.13615657
17	0x3da2add5	0.07943312
18	0xbe01c6bb	-0.12673466
19	0x3d55bf7c	0.052184567
20	0xbe18d268	-0.14924014
21	0x3db276ab	0.0871404
22	0xbc8fc609	-0.017550485
23	0x3d63e132	0.055634685
24	0x3dda9ae3	0.106740735
25	0x3d9ec85d	0.0775306
26	0x3e1a90d8	0.15094316
27	0xbcad715a	-0.021172214
28	0xbe1e504a	-0.15460315
29	0xbdbf11ce	-0.09329568
30	0x3d8ed720	0.069746256
31	0xbca123a3	-0.019670313
32	0xbe177334	-0.1479004
33	0xbe1db4f4	-0.1540106
34	0x3e2a4cea	0.16630903
35	0x3d7d920a	0.06190685
36	0xbdd432d8	-0.1036126
37	0x3e689efc	0.22716898
38	0x3e3b72b9	0.18305482
39	0xbe035bb3	-0.12827949
40	0xbdb4b15c	-0.08822891
41	0x3e2b8bd5	0.1675256
42	0x3e5838cf	0.21115421
43	0xbc16dfe8	-0.009208657
44	0x3e13bec6	0.14428243
45	0x3e5d531b	0.21613733
46	0xbd4e1e20	-0.0503217
47	0xbc3e3e1b	-0.011611487
48	0x3e0915b6	0.13387188
49	0xbbea205e	-0.0071449718
50	0x3de50487	0.11182504
51	0xb8b1d990	-8.480542e-05
52	0x3e056f46	0.13030729
53	0xbc35c2a0	-0.0110937655
54	0xbd3a68a1	-0.04550994
55	0xbd876cd5	-0.06612555
56	0xbb96b963	-0.0045997365
57	0x3e1a8055	0.15088017
58	0xbe16ec8c	-0.14738673
59	0xbd80ca20	-0.06288552
60	0xbe0431f5	-0.12909682
61	0xbdb10544	-0.086435825
62	0x3e07eb7e	0.13273427
63	0xbcb5f6ea	-0.022212464
