flwr-mlp/models/checkpoints/round_006.pt (torch, 127593 bytes, 7 tensors)

layers.0.weight f4 [256, 19]
000000 81 24 8d bd 14 c4 17 be 34 54 e0 3c 43 71 19 be
       -0.06891728 -0.14820892 0.027383901 -0.14984612
000010 9e bc da 3c eb 4c ed bd 6b 91 97 bd f5 8b 3c be
       0.026701268 -0.115869366 -0.07400783 -0.18412764
000020 61 22 21 3e 6a dc 02 be ab ad 23 3d dc 77 2a 3e
       0.15735771 -0.12779394 0.039960545 0.16647285
000030 42 b8 21 bd df a5 17 be 03 7d 3a 3e 47 23 6b bc
       -0.039482363 -0.14809369 0.1821175 -0.0143516725
000040 d1 36 02 be 56 4b 8e 3d 94 d1 3e be 9a d9 3a be
       -0.12716223 0.06947963 -0.18634635 -0.18247071
000050 03 fb 2f bd a0 c8 a6 3d 2d 48 1d bc cf e2 6a bd
       -0.042963993 0.08143735 -0.009599728 -0.057345208
000060 49 a9 f8 bc 39 ce 3e 3e 29 18 5f be cc e6 f6 3d
       -0.030354159 0.18633355 -0.2178656 0.1205574
000070 80 40 d4 3b a6 f4 ff 3d b3 b6 0d 3e ac e8 04 be
       0.0064774156 0.12497835 0.13839225 -0.12979382
000080 da 94 6e bd 84 c7 89 3d 0c 66 b1 bd 6a cd ec 3d
       -0.058247425 0.06727508 -0.08662042 0.11562617
000090 bb 79 14 3e c3 3f 24 bd 65 9f da 3d fc aa 01 3e
       0.14499561 -0.04009987 0.10674933 0.12662882
0000a0 f7 8e 32 bd 5e 72 0c be 79 e2 61 3d 77 39 6f bd
       -0.043593373 -0.13715503 0.05514762 -0.058404412
0000b0 89 76 cd 3d 69 35 70 be 0b 48 71 3d 52 6d 77 3e
       0.100323744 -0.23457874 0.058906596 0.24162796
0000c0 17 ea 2a 3e 6e d5 5d bd 6f 9f 3f 3d 59 d9 29 3e
       0.1669086 -0.05415862 0.046782907 0.16586818
0000d0 b2 05 06 3e c7 11 00 3c 24 a6 4f 3d 58 45 16 3e
       0.1308811 0.007816738 0.050695553 0.1467489
0000e0 4f 02 f2 bd 5d 40 84 3e 4c 4f 7d bd ed 30 34 3d
       -0.118168466 0.25830355 -0.0618432 0.04399197
0000f0 31 aa ca 3d cb b2 a9 bd aa 26 5d be b9 2d 4e be
       0.09895743 -0.08286055 -0.2159678 -0.2013463
000100 be 64 6e 3e d0 28 47 bd 18 47 03 3d 6d f4 35 3e
       0.23280618 -0.048622906 0.032050222 0.17769022
000110 f4 c4 e7 bd c7 ac e3 bd 7c 3f a5 3d 68 67 1a be
       -0.11316863 -0.11116939 0.08068749 -0.15078509
000120 eb 28 cb bd ae c4 fe bc 2f e2 6d 3d f5 2d 1f 3e
       -0.09919914 -0.031099644 0.058077034 0.15544875
000130 84 13 b3 bd 07 c2 91 bd 9a 9d 32 3e 32 56 bd bc
       -0.08743957 -0.07117086 0.17442933 -0.02311239
000140 dd bf 37 3e 43 46 26 3e 40 c0 26 3e f9 49 27 3e
       0.17944284 0.1623774 0.16284275 0.16336812
000150 15 7e 31 3e 8f 70 29 bb ba 6a 07 be d6 49 cf bd
       0.17333253 -0.0025854444 -0.13224307 -0.10121505
000160 06 43 57 be b5 9c 39 bd 24 db 02 be ab 86 d8 3d
       -0.21021661 -0.045315463 -0.12778908 0.10572561
000170 31 3a 51 bd f5 0f 52 bd 41 4b 2d be 06 09 68 3d
       -0.051080886 -0.05128475 -0.16923238 0.05664923
000180 f7 cc 20 3e 66 ec 89 bd 1a e2 43 3e 01 63 10 3e
       0.15703188 -0.067345425 0.1912922 0.14100267
000190 ae 16 6a be 17 7e e4 3d e4 4d 69 3e 5a 31 d0 bd
       -0.22860214 0.11156862 0.22783619 -0.10165663
0001a0 14 32 28 be df 5c b6 3d de 66 84 be 2c 30 2f 3d
       -0.16425353 0.089044325 -0.2585973 0.04277055
0001b0 a1 b0 2d 3e 14 f9 32 3e 5f 86 8f 3b ef e5 18 3e
       0.1696191 0.17477828 0.004380032 0.14931463
0001c0 87 e4 01 bd 5e bb 62 be 58 ba be 3d be 91 3f 3e
       -0.03171208 -0.22141787 0.09312886 0.1870794
0001d0 f5 2e 0f 3e 22 16 cd 3c 4f a4 1b be 8c b6 a6 bd
       0.13982756 0.025034968 -0.15199398 -0.08140287
0001e0 35 c6 21 be 6a 9d 37 be 3b 5d 16 be 97 60 65 3e
       -0.15798266 -0.17931142 -0.14684002 0.22400127
0001f0 cc 85 57 be 68 dc d8 bd 52 e9 84 3d 62 7f 18 be
       -0.21047133 -0.10588914 0.06489815 -0.14892343
000200 48 11 f8 3d ff 7c 05 be ca 57 25 ba 9c 49 72 bd
       0.12112671 -0.13035963 -0.0006307332 -0.05915223
000210 10 5b 9a bc 20 6f 25 3e 07 2a 37 be 09 7a 2c bd
       -0.01884225 0.16155672 -0.17887126 -0.04210857
000220 85 d7 06 be cf 77 8e 3c 4e 59 08 bd 8c 88 34 be
       -0.13168152 0.017391114 -0.033288293 -0.17630213
000230 58 6e bd bd 5a 11 6d bd 04 f0 d8 bd ca b4 10 3d
       -0.09249562 -0.057877876 -0.10592654 0.035328664
000240 24 76 51 3d 25 f6 50 3e 9c 16 17 3e c5 98 82 bc
       0.05113806 0.20406397 0.14754719 -0.015941987
000250 3f 6b 85 bd 47 5a 6a be f5 2b 02 bd 5d 37 19 bd
       -0.06514596 -0.22886 -0.031780202 -0.037406314
000260 57 8c 1e bd 91 39 8b 3d 3a 9f 88 3d 4a d8 7c bd
       -0.038708057 0.06798089 0.06670995 -0.061729707
000270 bf 7c 00 3e 8e ae 51 3e f8 95 26 3e 94 d0 23 3e
       0.12547587 0.20476744 0.16268146 0.15997535
000280 81 12 6a 3e 4e de 31 3d 3a e1 d8 bd 03 67 7f 3e
       0.22858621 0.043424897 -0.105898336 0.2494164
000290 f4 19 67 be d9 69 03 3e 38 f2 25 3d c8 eb ee 3d
       -0.22568494 0.12833346 0.0405142 0.116660655
0002a0 52 36 26 ba fd 27 1d be 6a e4 38 be e6 38 6f 3e
       -0.0006340492 -0.15347286 -0.18055883 0.23361549
0002b0 b0 ef b3 bb 91 7d 14 bd 6d b7 76 bd 79 28 2c 3e
       -0.0054912195 -0.036252562 -0.060233522 0.16812314
0002c0 2e 2a e8 bd d2 03 6c bc 6e 53 62 3e 66 35 12 3e
       -0.1133617 -0.014405208 0.22102138 0.14278182
0002d0 5d e9 37 bd 08 5a fe bc c8 cf 82 bc af 8a 20 3e
       -0.044900287 -0.03104879 -0.015968218 0.15677904
0002e0 c7 8b 35 3d 71 b5 00 3e 3d 59 de 3b 1f 79 ec 3d
       0.044322755 0.12569214 0.0067855404 0.115465395
0002f0 71 e6 cf 3d f4 01 ce b8 16 f5 84 bd e9 d2 e3 3c
       0.10151375 -9.823209e-05 -0.06492059 0.02781053
000300 3d f5 02 3e 4d ce cb 3d f1 23 58 bd be d7 e3 3d
       0.12788863 0.09951458 -0.05276865 0.11125134
000310 50 4e e1 bd cb 5c 2a 3e 73 0e 06 3e 4a 22 81 be
       -0.11001265 0.1663696 0.1309145 -0.25221473
000320 d3 af 69 be 88 c8 a9 bc 2d 68 c3 bd 84 57 28 be
       -0.22820978 -0.020725504 -0.09541354 -0.16439635
000330 0f bd e0 bd ec 46 29 3e 21 51 2f 3e 3a 52 ff 3d
       -0.1097356 0.16530961 0.17120792 0.12466855
000340 7c 19 a5 3c 37 57 7c 3e 83 bc c5 bd 26 e3 84 3c
       0.020153753 0.24642645 -0.096550964 0.016221594
000350 c3 77 36 3e 1f 23 50 be 33 4e d1 3d f2 43 62 be
       0.17819123 -0.20325898 0.102199934 -0.22096232
000360 7d de f9 3d 77 60 40 3e 1c b1 1f 3e 7a 73 26 3e
       0.122006394 0.18786798 0.15594906 0.16254988
000370 8c eb 3b be 71 c3 0f 3d ee c6 14 be 86 84 a0 3c
       -0.18351573 0.035098497 -0.1452901 0.019594442
000380 70 07 99 3c 4a 08 39 bd f6 32 3b 3e 19 5a 91 3d
       0.018680304 -0.04517392 0.18281159 0.07097263
000390 4f 1f ea bd 6b 74 57 3e cc d7 1f bd 07 d6 e6 bb
       -0.11431753 0.21040504 -0.03902416 -0.007044557
0003a0 8e 40 be 3d 0d 8c 01 3d 32 98 51 be 9c e1 b4 bd
       0.092896566 0.031627703 -0.20468214 -0.08832094
0003b0 89 0c 53 be 9a 23 8f 3e 79 46 55 be be f6 ae bc
       -0.2061025 0.2795685 -0.20827664 -0.02135789
0003c0 61 5d 3a 3e 10 c9 65 3c 93 42 51 3c d5 a2 b1 3d
       0.18199684 0.014024988 0.01277222 0.08673636
0003d0 45 ce 6b be 98 f7 06 3d 64 e6 0f 3d c2 b3 ba bd
       -0.23027904 0.032950968 0.035131827 -0.09116317
0003e0 41 6a cb bd ae 78 36 3d 97 4e 96 3c 90 35 a8 3d
       -0.09932376 0.044548683 0.018348021 0.08213341
0003f0 92 5a 0c be 6a 6c c6 3d 80 2e 03 3e 7a 2a 32 be
       -0.13706425 0.09688647 0.12810707 -0.17399016

layers.0.bias f4 [256]
000000 75 a2 d1 3d e1 b2 4a 3c 47 17 21 be 86 aa 4d be
       0.10236064 0.01237175 -0.15731536 -0.20084581
000010 cd 6f 1b be b7 84 bd bd 91 af 38 3d 36 82 87 bd
       -0.15179367 -0.09253829 0.04508931 -0.06616633
000020 94 3d 3d be a4 ab c5 bc 8c c7 9e 3d b9 01 f3 bc
       -0.18480521 -0.024129696 0.07752904 -0.029663907
000030 1a 10 31 3e 6a b1 8a be 6c dd d2 bd 2a d9 aa bd
       0.17291299 -0.2708848 -0.10296139 -0.08342202
000040 d1 e1 0a 3e 5b c4 5b 3d c7 5c 20 bd ee 4f 9e bd
       0.13562705 0.053654056 -0.03915098 -0.07730089
000050 41 63 8a bb 9b d5 6f bd 71 1d 33 3e 9e 8a b1 bd
       -0.004223258 -0.05855332 0.174917 -0.08669017
000060 3c 81 28 bd 2d fb 57 bd c8 17 0f 3d 31 38 d0 bd
       -0.041138873 -0.052729774 0.03493479 -0.10166968
000070 b6 57 0a 3d 8d 40 5a 3d 84 cc ee 3c 60 52 90 3d
       0.033775054 0.053284217 0.029150255 0.07046962
000080 da 55 f2 bd 9f 42 be 3d 0d 58 83 bd 17 c1 14 3c
       -0.11832781 0.09290051 -0.06413279 0.009079239
000090 c0 9f cb bb 9f b7 f7 bc 28 4b eb bd 77 03 12 3e
       -0.006214112 -0.030238925 -0.11488944 0.14259134
0000a0 5e 6f 54 be ed b7 2e be 00 4c 40 be a8 c8 28 be
       -0.20745608 -0.1706235 -0.18778992 -0.16482794
0000b0 09 23 50 be 73 88 2b be 7a 39 0b 3c a7 60 81 3d
       -0.20325865 -0.1675127 0.00849759 0.06317263
0000c0 df d8 c5 bd 97 e3 16 be b2 51 a9 bd 92 05 92 bb
       -0.096605055 -0.14735256 -0.08267535 -0.0044562304
0000d0 c9 4b dd bd 0f ab 21 3c b3 09 c2 bd 21 7d b8 3d
       -0.108054705 0.009867444 -0.09474506 0.090082414
0000e0 0d 30 5b be 88 97 59 3d 99 12 34 be dc b1 0d be
       -0.21405049 0.053123027 -0.1758522 -0.13837379
0000f0 7c 08 74 be b1 7e 17 be 8a 80 82 bd 29 ca 70 be
       -0.23831362 -0.14794423 -0.06372173 -0.23514618
000100 ed c2 85 bd 86 7c 40 3d 70 ce 26 be 2e da 99 be
       -0.0653132 0.046993755 -0.16289687 -0.3004927
000110 48 fc 50 be 1f be c4 bd d0 8f 64 be 98 43 ec 3d
       -0.20408738 -0.09606575 -0.22320485 0.1153633
000120 29 dd e2 bc 28 33 59 be e5 d8 48 be c4 4f 1f bd
       -0.027693348 -0.21210921 -0.19613989 -0.03889443
000130 8b b5 81 be d1 3f 01 be 27 7c 10 bc e2 7a 32 3d
       -0.2533382 -0.12622 -0.008818663 0.04357422
000140 ac 5b c1 3d 74 e2 1e bd 6c 06 0a 3e 74 e3 fa bd
       0.09441313 -0.03879018 0.13479012 -0.122504145
000150 1b d3 56 be 05 40 30 be bc 06 2f bb 8a 0e 27 3e
       -0.20978968 -0.17211922 -0.0026706895 0.1631414
000160 b5 80 54 bd 3b 69 d6 3d 09 0d 69 be bc 1a d9 3d
       -0.051880557 0.1046929 -0.22758879 0.10600802
000170 7e 5e 31 be d7 65 13 3d 16 02 4d be 4a ce f1 bd
       -0.17321202 0.035985794 -0.20020327 -0.11806925
000180 8a c5 67 be 4b d7 e0 bd 37 fd 83 be 85 7a 69 be
       -0.22633949 -0.10978564 -0.25779125 -0.22800644
000190 29 73 ce bc 7d 15 0e bd fd 9b 9c bc 1b cf 5a be
       -0.025201397 -0.03468846 -0.01911735 -0.21368067
0001a0 a2 f8 7a be e8 96 30 be 43 f8 3c be fb e6 01 be
       -0.24508908 -0.17245066 -0.1845408 -0.12685768
0001b0 dd 98 9b 3d 02 75 21 be e3 e0 69 be 6c 5a 5e 3d
       0.07597516 -0.15767291 -0.22839694 0.05428545
0001c0 ba 35 87 bd 2a b7 0f bd f2 da 4f be 99 1e 54 bc
       -0.066020444 -0.03508679 -0.20298365 -0.012946748
0001d0 30 95 b4 3d b0 b8 d1 3b e5 ff 6e 3d 93 cc 11 be
       0.08817518 0.0064001903 0.05834951 -0.14238195
0001e0 c5 a2 3d be b5 73 af bd b3 90 17 be c8 c4 83 bd
       -0.18519123 -0.08566991 -0.14801292 -0.064340174
0001f0 e6 bb 84 3d 69 c8 51 be 5d e1 20 3e 14 5e a5 bd
       0.06481151 -0.20486607 0.1571097 -0.080745846
000200 76 00 2a 3d 14 50 9c bc 1a 25 35 3d b5 1a 17 be
       0.041504346 -0.019081153 0.044224836 -0.14756282
000210 e9 4b ce 3d 3e 18 01 be d7 49 5b 3d bd a3 35 be
       0.100730725 -0.12606904 0.053537216 -0.17738242
000220 9f 21 b1 3d e2 35 4d bd 22 8b 0a 3e 09 9b 0b be
       0.08648991 -0.050100215 0.13529637 -0.1363336
000230 4a c8 b1 bd 77 9c e6 bd 86 95 50 bd 7d 91 d9 3d
       -0.0868078 -0.11260312 -0.050923847 0.10623453
000240 0a 6c d0 3c 22 a7 3d bd be 3e d5 ba db a6 a1 3d
       0.025442142 -0.04630197 -0.0016269309 0.07893153
000250 5c ec 5d be c1 df fe bc 86 90 63 be 35 b7 db bc
       -0.21672195 -0.031112554 -0.222231 -0.026820758
000260 bd 30 94 3d 96 91 1e 3e 36 30 08 bc 88 c9 1c be
       0.072358586 0.15485224 -0.008312276 -0.15311253
000270 2c e7 e0 bd 95 7a 8f bd c8 55 42 bc 2d ff 1c bd
       -0.109815925 -0.070058025 -0.011861272 -0.038329292
000280 7b 0e 55 be 74 c4 0e bd 0d dd 44 3d 1d 20 25 3d
       -0.20806305 -0.03485532 0.048062373 0.04031383
000290 70 26 48 bd 0e a3 b8 3d 7d 51 51 be c6 e5 5a be
       -0.04886478 0.09015475 -0.20441242 -0.21376714
0002a0 12 6b b9 bc 9d a5 45 be 5f 53 dd 3d 82 ba ed 3d
       -0.022634063 -0.19301458 0.108069174 0.11607839
0002b0 f2 2c 34 be 7f a8 bd bc f2 71 24 be 37 cc 50 be
       -0.1759527 -0.023151634 -0.16059092 -0.20390402
0002c0 2d 04 82 be 3a 8f 7b bd 13 b2 54 3d 1b 15 b9 bc
       -0.2539381 -0.06141589 0.051927637 -0.022593072
0002d0 c8 e3 fb 3d ce c5 33 3e 47 a3 69 be bf b4 09 be
       0.12299305 0.17555925 -0.22816192 -0.13447855
0002e0 68 5f aa 3d fb fa cf 3d d2 9c 43 3d 8a 8f 34 bd
       0.083189785 0.101552926 0.047756977 -0.044082202
0002f0 a4 79 d5 bd 62 62 44 be de 4a 0d 3d 7f 49 95 bd
       -0.10423592 -0.19178155 0.034495227 -0.07289409
000300 cf 84 c5 3d 7a 09 1b 3e ef 52 19 be b2 83 06 bc
       0.09644472 0.15140334 -0.14973043 -0.00821011
000310 02 55 15 3c 13 a7 62 be 58 50 44 bd 79 a2 7b 3c
       0.009114506 -0.22134046 -0.047928184 0.015358561
000320 07 0f 11 3e 21 bb 16 3e 41 90 08 be 8a 32 eb 3c
       0.14165889 0.14719822 -0.13336278 0.028710622
000330 e5 90 a1 bc 2a 94 6a be c5 cf 53 be c9 4e 07 3c
       -0.019722411 -0.22908083 -0.20684727 0.00825853
000340 4b aa d9 3d b3 7d d1 3d 68 68 bb bd 86 b3 e9 bd
       0.10628184 0.10229053 -0.09150773 -0.114111945
000350 e6 c8 8b be 64 19 48 be f2 56 ce 3c 2b 83 59 3d
       -0.2730171 -0.19540936 0.025187943 0.053103607
000360 bb ed 0e be 7b 90 63 be cc f8 d3 3d 76 31 2b be
       -0.13957874 -0.22223084 0.103501886 -0.16718087
000370 80 2f 86 be 99 4f 76 3d 61 b8 9d bd 17 df 16 bc
       -0.26208115 0.060134504 -0.07701183 -0.009208462
000380 f9 19 8b be a2 b1 d3 bc cf 0b aa 3d 66 f5 14 3c
       -0.27168253 -0.025841538 0.083030336 0.009091711
000390 fa 1f b0 bd 52 48 2d be 49 c5 2c be f7 dd f5 bd
       -0.08599849 -0.1692212 -0.16872133 -0.12005227
0003a0 f6 83 e3 bd 72 42 24 be 75 a4 01 be 21 31 96 bd
       -0.11109154 -0.16040972 -0.12660392 -0.07333589
0003b0 38 1e bf 3d 40 f7 03 bb 8a 63 4c be 49 22 4b be
       0.09331936 -0.0020136386 -0.19959846 -0.19837297
0003c0 bb 95 24 be 6c 18 83 be 90 f3 57 be d0 07 3e 3e
       -0.16072743 -0.2560457 -0.21089005 0.18557668
0003d0 15 65 f3 bd 2e 2b 8f bc fd 09 14 be 89 72 b0 3d
       -0.11884514 -0.017476644 -0.14456935 0.08615596
0003e0 33 d4 5e be ac 1d 99 3d cc 1c 84 3d e0 40 6b 3d
       -0.21760635 0.074763626 0.06450805 0.057434916
0003f0 74 d5 ff 3d 51 c6 82 3d 4d fc ec bd 98 75 77 3d
       0.12491885 0.06385482 -0.1157156 0.06041488

layers.3.weight f4 [80, 256]
000000 08 58 4d bd af 56 51 3d 23 3f 1b bc b4 e0 c1 bc
       -0.05013278 0.05110806 -0.009475502 -0.023666717
000010 68 ac 35 bd c2 85 9d bd 66 d8 a9 3d f2 27 72 3d
       -0.044353873 -0.07691528 0.08293228 0.059120126
000020 39 3a 12 3d d2 46 af bd 7c f1 86 bc 49 52 54 3c
       0.035700057 -0.0855843 -0.01647257 0.012959071
000030 2f 06 89 3c 2d 90 8a 3c c9 32 12 3d 58 09 31 3d
       0.016726581 0.016914451 0.035692964 0.0432218
000040 5d 8a 12 bd f1 c2 2f bd cd e9 4c 3c a4 66 2f 3d
       -0.035776485 -0.04291052 0.012506914 0.042822495
000050 16 bb b1 3d 32 17 e8 3c 7a 0e 1f 3d a7 52 5d 3d
       0.08678262 0.028331373 0.038832165 0.0540339
000060 df c7 b9 3d e3 90 78 bd 66 22 e5 3c 20 b4 64 3d
       0.090713255 -0.06068505 0.027970504 0.055835843
000070 5b d0 27 bd f7 28 6e bc d6 4d 8f 3c 08 3f 48 3c
       -0.040970188 -0.014536134 0.01749317 0.012222059
000080 7f 74 14 3d 82 ef 8f bd 36 3b 80 3d 79 97 85 3d
       0.03624391 -0.07028104 0.062612936 0.06523032
000090 4c 55 ae bd 94 47 a3 bb fa 4b 11 3d d0 32 b0 bd
       -0.08512363 -0.004982898 0.035472848 -0.08603442
0000a0 6e c8 ac 3c c4 c8 a0 bd 8a ea 94 bd ac e5 09 3d
       0.021091666 -0.07850793 -0.07271297 0.033666298
0000b0 8d 8c 28 3d cb 27 80 bd 74 57 74 bc 26 b4 89 3d
       0.041149665 -0.0625759 -0.014913429 0.06723814
0000c0 a1 9c 1c bd 0d f9 cc 3c 42 7e 3b 3c 31 36 b0 3b
       -0.03823531 0.0250211 0.011443676 0.005377554
0000d0 9e ab 9d bc 71 72 91 bc 81 07 87 bc 2e 77 13 bb
       -0.019246873 -0.017754765 -0.01648307 -0.0022501457
0000e0 97 a1 93 3d 9f dd d3 3c 51 21 62 bc c1 1f c7 bd
       0.07208555 0.025862513 -0.013801889 -0.097228535
0000f0 5b 48 ce 3d e9 6f 60 bc f6 52 3f ba 82 aa bb 3b
       0.100723945 -0.013698556 -0.0007298434 0.005727113
000100 0a 4b 7b bd e7 1d b9 3c 4e 22 af 3d 4c cd bb bb
       -0.06135086 0.022597266 0.08551465 -0.0057312604
000110 96 1d 4f 3c 76 15 64 bd 99 fe 8b bc df 49 e9 bd
       0.012641331 -0.05568453 -0.017089175 -0.11391043
000120 be 86 25 3c 02 ef 02 bd 11 b6 ec bc f6 e4 d9 3c
       0.010102926 -0.031966217 -0.02889541 0.026598435
000130 d2 64 c1 bd 7c b2 01 bd c9 8a 43 3d 20 59 96 bd
       -0.09443058 -0.031664357 0.047739778 -0.07341218
000140 62 85 3d bd 71 d8 04 3d eb 8f aa bc e6 73 92 3d
       -0.046269782 0.032432977 -0.020820579 0.07151012
000150 37 47 9d bd b0 1d 56 3b 99 0e 96 3d 99 6f a8 3b
       -0.07679599 0.0032671504 0.07327003 0.0051402566
000160 70 24 03 3d 1a eb 79 3c 14 d9 59 3c d9 c8 9f 3d
       0.03201717 0.0152538065 0.013296384 0.078019805
000170 8f 39 84 bd 58 9d ef bc be e9 36 bd 80 3f d7 bc
       -0.06456291 -0.029249832 -0.044656508 -0.026275396
000180 dd e2 9d 3b 04 b3 36 bc 68 87 63 bd 30 2d d7 38
       0.004818304 -0.011151079 -0.055549055 0.00010260416
000190 35 46 95 bd f4 95 20 bd 2a 37 59 3c b4 97 98 bd
       -0.072887816 -0.039205506 0.013257781 -0.0745081
0001a0 85 33 aa bd b1 71 18 bc af 2b 96 3d 9b a1 24 bc
       -0.08310608 -0.00930445 0.07332551 -0.010048295
0001b0 77 46 95 bc 46 8d 4f 3d be d6 63 3b 94 38 70 bc
       -0.018222077 0.05067184 0.0034765447 -0.014661927
0001c0 07 c9 82 3c 64 53 89 3d 35 34 b4 bd 0b 98 e1 bc
       0.015964998 0.067053586 -0.0879902 -0.02753832
0001d0 3c 6e 88 bd fb 6b b5 bb 0c b8 31 bc f7 0b 25 bd
       -0.066616505 -0.005536554 -0.010847103 -0.040294614
0001e0 a8 c2 54 3d 24 00 0e 3d b3 17 70 3d f1 01 ad 3b
       0.05194345 0.034668103 0.05861635 0.0052797724
0001f0 3e 92 46 3c 28 3e cd bc 65 96 88 bc 64 28 81 3d
       0.012119828 -0.025054052 -0.016673276 0.06306532
000200 bb bd 01 bd d4 ba c8 3c 0c 93 0d bc 31 56 fb 3d
       -0.03167508 0.02450315 -0.008641016 0.12272299
000210 87 d2 92 bd 34 bb ab bd ad 9a 43 bd 63 52 a0 bc
       -0.07169061 -0.083853155 -0.047754932 -0.019570535
000220 f1 57 5b bd f4 64 6d 3d ee 97 84 bc ab 86 63 3c
       -0.053550664 0.057957605 -0.016185727 0.013887088
000230 eb 66 30 bd 88 e5 18 3c fc 68 4e bc 70 04 46 3d
       -0.0430669 0.009332068 -0.012598272 0.048344076
000240 dd 53 8b 3b bc b7 2f bd 8e 53 c2 bd 76 a3 98 bc
       0.0042519406 -0.042899832 -0.09488593 -0.018632632
000250 4b 83 e6 3d 62 a0 d2 3c ae 53 89 bd e3 b6 1e bd
       0.11255511 0.025711242 -0.06705414 -0.038748633
000260 3b 6b e4 bc 28 ae 83 3c d7 ac 97 bc 8d ef 45 3d
       -0.027883163 0.016074255 -0.018515034 0.048324157
000270 45 2c 19 bd e9 3d 67 bc 1b 5c 42 bb b7 5f 5c bd
       -0.037395734 -0.014113882 -0.002965695 -0.05380222
000280 ce f0 ba 3d d7 8f 86 3d f8 92 2b 3c 4f 33 02 3d
       0.09127961 0.06570404 0.010472052 0.031787213
000290 d9 bf 28 bd c7 ae 2d bd d5 1e 67 bc e3 2c e2 39
       -0.041198585 -0.04240301 -0.014106472 0.00043139522
0002a0 8a c8 ec 3c 30 80 d4 3c 84 52 ff bb e5 74 f5 3b
       0.028904218 0.02594003 -0.007791819 0.0074907416
0002b0 f6 ac 35 3d 08 36 13 bc 28 da 93 3d 9f 49 ac bc
       0.0443544 -0.00898505 0.072193444 -0.021031199
0002c0 d9 96 67 bd 19 8a 58 3d 47 65 bd 3d 6b 98 06 bd
       -0.056540344 0.052866075 0.09247833 -0.0328602
0002d0 6b 42 5e bd de 1c 0a 3d a7 c0 5f 3d dd 26 c4 ba
       -0.05426256 0.033718936 0.054627087 -0.0014965195
0002e0 ce c9 4e bc 28 ce 11 3d 0b 29 8f bd 35 05 82 3d
       -0.012621356 0.035596997 -0.0699025 0.063486494
0002f0 e8 10 10 3d 29 eb 44 bd e5 82 25 bc fe 8f 3c bd
       0.035172373 -0.04807583 -0.0101020085 -0.04603576
000300 26 8f 08 3d 5e de 51 bd 39 cc bf 3c 49 a4 86 bc
       0.033339642 -0.051237457 0.02341281 -0.01643576
000310 dc 7c 91 3d da 8f e5 bc 70 8e 31 3d 97 8a a0 bc
       0.07103893 -0.028022695 0.04334873 -0.019597335
000320 5d 66 62 bd 15 7c af 3d 22 43 87 bc c9 ab 01 bd
       -0.055273402 0.08568589 -0.016511504 -0.031657968
000330 7b ed b4 3c 03 c5 22 3c 33 83 af 3d 2e 56 20 3c
       0.022085896 0.009934667 0.08569946 0.009786172
000340 06 61 5c bc 78 7e 76 bc 2c f4 43 bd c4 22 36 3c
       -0.013450867 -0.015044801 -0.047840282 0.011116687
000350 74 4f 3e 3c 87 8f 89 3c 61 9b 7c 3d ac 79 66 3c
       0.011615623 0.016792072 0.06167162 0.014067095
000360 bf 90 7f 3c 48 07 83 3c 25 15 be 3c e5 57 f2 bc
       0.015598475 0.015994683 0.023203442 -0.029582927
000370 81 49 8d bd 53 bd 54 bd 63 89 12 bd c3 70 0d 3d
       -0.068987854 -0.051938366 -0.035775553 0.034531366
000380 56 71 bd 3d 3e 32 3f bd 87 ed ee bc 4b ad 6d 3d
       0.09250133 -0.046678774 -0.029165996 0.058026593
000390 5c 58 8b 3d 19 e4 45 bc 19 85 6e 3c 62 6b 1d 3d
       0.068039626 -0.0120783085 0.0145581 0.038432486
0003a0 3d b1 c3 3a 14 e4 e1 3d c0 01 03 3d 5e a8 7f bd
       0.001493014 0.110298306 0.03198409 -0.062416427
0003b0 42 b2 d3 3c ef a6 98 3c ed 9e 1c bc e1 5e a2 3d
       0.025841836 0.018634288 -0.009559375 0.07928253
0003c0 53 76 24 bd b1 46 a3 bd c7 7c 7b bd 61 a3 ca 3c
       -0.040151905 -0.07972468 -0.061398294 0.024736108
0003d0 c8 68 14 3c 38 16 3b 3d e4 c1 be 3c 14 5d 6f 3c
       0.009058185 0.045675486 0.023285814 0.014609594
0003e0 3c 9c 5a 3d f3 34 c9 3b 36 08 e9 bb 89 34 d9 bb
       0.053371653 0.0061403452 -0.0071115745 -0.006628577
0003f0 4c 54 5b bd f7 8b 09 3d 3d 10 b0 3d 15 95 23 bc
       -0.05354719 0.033580747 0.08596847 -0.009984274

layers.3.bias f4 [80]
000000 9c 4e 39 bc 8d 5d 83 3d 43 65 ac bc 9e 8a 33 bd
       -0.011310246 0.06414328 -0.02104438 -0.043833368
000010 7c c1 76 bc 05 45 b4 bd ec 06 90 bd b0 61 e6 bc
       -0.015060779 -0.08802227 -0.0703257 -0.028122753
000020 32 bf a0 ba fa ab 75 bd 20 54 87 3c 2d 0b 6c bd
       -0.0012264012 -0.059978463 0.016519606 -0.057627846
000030 40 01 fd 3c 5e 45 e7 bb 1e 59 30 3d fc 00 12 3d
       0.030884385 -0.0070578298 0.04305374 0.03564547
000040 d6 39 a3 bb 1e 3e 47 3d fa 77 02 ba 70 2a ac 3c
       -0.00498126 0.048643224 -0.00049769843 0.02101633
000050 a4 ee 9c bd cb 38 3e bd 2a f6 1d bb 53 37 08 bc
       -0.076627046 -0.04644088 -0.0024103024 -0.008313972
000060 80 9d 0c bd 26 7d c5 bd 48 26 d8 bb 90 02 12 3d
       -0.03432989 -0.09643011 -0.0065963604 0.035646975
000070 0f ad 88 ba a8 8c 61 bd fe 4c 9e bd d7 49 77 3c
       -0.0010427552 -0.05506578 -0.07729529 0.015093288
000080 ba 2b 89 3c 8f 1e 2f 3d be c2 7a bd aa b7 9c bd
       0.016744483 0.042753752 -0.061220877 -0.07652219
000090 ee 02 23 bd 79 3f 23 3d fe bb 3b 3d 90 33 92 bd
       -0.039797716 0.039855454 0.04583358 -0.07138741
0000a0 f0 78 ec bb ab f6 2d bb 17 fa fb bb 91 a1 a8 3c
       -0.0072165653 -0.002654473 -0.007689725 0.020584853
0000b0 d6 e5 26 39 96 a4 89 bd fe 6f 8b bd fe 4c 64 bd
       0.00015916614 -0.067208454 -0.0680847 -0.055737488
0000c0 3d 20 0a bb ac 48 6f 3d 89 b5 05 bd 09 9f a1 3b
       -0.0021076344 0.058418915 -0.03264383 0.0049322885
0000d0 06 a8 a8 bd eb d3 92 3b 4f fe e7 bc 1c 5f ac bc
       -0.08235173 0.004480829 -0.028319506 -0.021041445
0000e0 f0 ec b1 ba 1b 07 77 bd 13 c8 b3 bc dd e3 84 3d
       -0.0013574641 -0.06030951 -0.021945989 0.06488774
0000f0 f6 d2 8c 3d b1 43 86 bd c8 61 12 3d 4d ba 78 3d
       0.06876175 -0.0655588 0.035737783 0.060724545
000100 0c 70 1e 3c 64 4a d0 bb c7 07 e6 bc 41 a0 97 3b
       0.009670269 -0.0063565243 -0.02807988 0.004627258
000110 f5 0a a6 bb 90 ad 93 bd 6f e3 2e 3d 7c 01 57 bd
       -0.005067224 -0.07210839 0.042697366 -0.05249165
000120 55 a0 40 bd 7c 36 22 bd 48 92 a0 bd 60 b1 0d 3b
       -0.047027905 -0.03960274 -0.07840401 0.0021620616
000130 37 ca 98 bd 7b cf 26 3c df ed 97 bd a8 a4 a4 bd
       -0.074604444 0.010181303 -0.07418417 -0.08039218

layers.6.weight f4 [64, 80]
000000 2b 9c cb 3d 55 22 b8 bd 3e 5b 78 bc 05 1c 65 3a
       0.09941896 -0.08990923 -0.015158473 0.0008739832
000010 11 64 b1 3d d5 84 d8 bc 46 ea 7c 3b b6 c6 71 bb
       0.08661664 -0.026430527 0.0038591786 -0.0036892123
000020 4b c3 42 3a 0f 7d 45 3b c6 b3 0d 3e 11 5c 66 bd
       0.00074296136 0.0030134355 0.1383811 -0.056240145
000030 20 63 39 3d da 3b 34 bb 19 6f 12 3e bd 4a dc bd
       0.04526055 -0.0027501495 0.14300193 -0.10756443
000040 d5 a9 88 3d a3 1b fb bd c6 9f 7a bc 8f 02 20 3e
       0.06673018 -0.12261131 -0.015296882 0.15625976
000050 16 85 8e b9 cc 11 81 bd 0f 30 bb bc 7b 7d c6 bc
       -0.00027183507 -0.063022226 -0.022850065 -0.024229756
000060 7d be 43 3c 3d aa e1 bb c8 52 1d bd 36 83 74 bd
       0.011947271 -0.006886749 -0.038409024 -0.059695445
000070 ed 8b c5 bb df 87 4c bd 04 8c 1f 3e 35 13 1d 3e
       -0.0060286433 -0.049934264 0.15580755 0.15339358
000080 59 0d a6 bd 37 f7 b8 bd 09 37 16 bc 56 3e f6 bc
       -0.081080146 -0.090315275 -0.009168395 -0.030059021
000090 7a f3 7a 3d 9c eb be bd 2c 4a 8e 3d 37 35 33 3c
       0.061267354 -0.09322283 0.06947741 0.01093798
0000a0 6b 3a 30 3d 3d 85 0c 3c c4 87 92 3d 21 4c 28 3d
       0.04302446 0.008576688 0.071548015 0.041088227
0000b0 2d 89 60 bd 52 8a 34 bc 5a 3a 3c bd 3f 01 c3 3d
       -0.05481832 -0.011019306 -0.045954086 0.09521722
0000c0 e0 d0 c1 3d 1a ac d1 bd 9b 70 3f 3d d5 ed 13 bc
       0.09463668 -0.10237904 0.04673825 -0.009028872
0000d0 e0 2e 93 3d 93 70 6e bc f1 ff 7b bd 65 22 9d bd
       0.07186675 -0.014553207 -0.06152338 -0.07672576
0000e0 69 b1 c1 3c 29 98 e5 3c 36 7f 72 bd 1f f2 3e bc
       0.023644166 0.028026657 -0.05920335 -0.011654406
0000f0 26 a9 ec bd f9 22 ae 3d a6 ee 1a bc 60 bd d1 3d
       -0.115557 0.08502764 -0.009456312 0.102411985
000100 17 a6 5b 3d 0f bf 90 bd e9 4d 14 bd 60 9f 0b 3e
       0.053625192 -0.070676915 -0.036207113 0.13635015
000110 ac 1a 1f 3d 34 53 04 3e a7 dc 33 3d ae fe ba 3d
       0.038843796 0.12922364 0.043911602 0.091306075
000120 d3 6f 4a bd 05 6a 6f bb 57 75 b7 3d c2 87 c8 3d
       -0.04942305 -0.0036531698 0.08957928 0.09791519
000130 d8 88 2a 3e 1a 6f 9f 3d 3f 17 31 3d 95 de 3c bd
       0.16653764 0.07784863 0.04323506 -0.04611071
000140 19 03 06 3e f2 ad 2b be 24 a5 93 bd be 14 c5 bd
       0.13087119 -0.16765574 -0.072092324 -0.09623097
000150 66 56 18 3e 06 d1 24 bc fd 96 32 bd 3e 81 0e 3e
       0.14876708 -0.010059601 -0.043601025 0.1391649
000160 f5 22 74 bc 46 cb 9f 3d 72 1c 10 3c 05 a3 92 3d
       -0.0149009125 0.07802443 0.008795844 0.0716
000170 00 70 86 bd 67 8b ed bc ce 94 d0 bc db e1 7f bd
       -0.06564331 -0.028997136 -0.02546158 -0.062471252
000180 f8 fa 59 3d 41 dc 01 be 17 5b 54 3d 85 ee 1a bd
       0.053217858 -0.12681676 0.051844683 -0.037825126
000190 b1 e5 6b bd 6a ee a5 3d 89 55 58 3c c9 24 e4 bc
       -0.057592098 0.081021145 0.013203987 -0.027849572
0001a0 f8 5f bf 3d fc 4a 16 3c 09 dc a6 3d 64 e5 e6 bd
       0.093444765 0.009173151 0.08147437 -0.112742215
0001b0 b7 86 eb 3d 6c e1 e8 bd db c1 bb 3c 3e 85 00 bc
       0.11500304 -0.11371121 0.022919586 -0.007844267
0001c0 29 e8 be 3c 02 63 62 3b ee 29 c0 bc 8f e9 02 3e
       0.023304062 0.0034543877 -0.023457494 0.12784408
0001d0 54 8d 61 bc 38 f8 64 bd 65 d4 44 3c 57 54 48 3d
       -0.013766605 -0.055900782 0.012013529 0.048908558
0001e0 08 0f 12 bd 47 a9 3c 3d 09 01 01 3e f6 03 17 be
       -0.035658866 0.046059873 0.12598051 -0.14747605
0001f0 96 b9 fe bd a4 8c ac bd b8 cf b7 bd d7 82 99 3d
       -0.124377415 -0.084252626 -0.08975166 0.07495659
000200 c3 c1 f6 3d de 85 14 bd fc 9e fd bc e0 07 75 bd
       0.12048676 -0.03626048 -0.030959599 -0.059821963
000210 a3 51 98 bd d3 e3 05 be 4a 49 28 bd 13 03 92 bd
       -0.07437446 -0.1307519 -0.04108552 -0.071294926
000220 bb 1e 50 3d 44 87 56 bd 9b db 15 bd 47 08 aa bd
       0.050810557 -0.052375093 -0.036586385 -0.0830236
000230 06 ef 0b be 3b 1d b5 bc 2b 6b 4c 3d cb 81 12 3e
       -0.13665399 -0.022108665 0.04990689 0.14307325
000240 0a 7f 76 bd 59 dc 85 bd 2d 3a 0a 3d 37 56 50 3d
       -0.060179748 -0.065361686 0.033746887 0.05086347
000250 3d 80 e3 bd 51 ba c3 3d 56 6b 06 3c 4c c4 a8 3d
       -0.11108444 0.095570214 0.008204302 0.08240566
000260 86 e2 ac 3b 7c f8 b3 3d 2e 70 e5 3d 1b ed 04 bd
       0.005276027 0.08787629 0.11203037 -0.032452684
000270 56 0e 0f 3e 1e 2e 0f 3a d7 17 c1 3d f5 eb 38 bd
       0.13970312 0.0005461889 0.09428375 -0.0451469
000280 2e 14 34 bc 38 b4 a4 3c 2c 08 85 bd a1 7e cf bd
       -0.010991139 0.020105466 -0.06495699 -0.101315744
000290 46 53 50 3d e1 8f 4d 3d 22 bf 99 bc 56 d1 1b bc
       0.050860666 0.05018604 -0.018767897 -0.009510359
0002a0 8a d6 6c bd a0 c0 c1 3a 5f 6d cc 3d 8a ee 1d 3c
       -0.057821788 0.0014782138 0.099817984 0.009639392
0002b0 b8 22 d2 3d d5 51 92 3b 98 fc 85 bd 4e 9c 65 3c
       0.10260528 0.0044653215 -0.06542319 0.014014317
0002c0 66 51 8e 3d f3 fe 5e bd 2f 53 1c 3d 0b 47 4e bd
       0.06949119 -0.054442357 0.038165268 -0.05036072
0002d0 3f 2e fa 3d da 01 3c bd bd c9 8f bd 8b 57 44 3d
       0.12215852 -0.045900203 -0.070209004 0.04793505
0002e0 94 7c 70 3d 27 5a 88 3d 3f a9 41 3d c2 fc c2 3d
       0.058712557 0.0665782 0.047280546 0.09520866
0002f0 d7 19 75 3d a3 93 03 3d 9c 99 28 bd b9 f3 47 bd
       0.059839096 0.03212322 -0.04116212 -0.048816416
000300 4f b9 84 bd d7 8a c6 bd a2 2f 5c 3d 44 fd 30 3d
       -0.06480657 -0.0969445 0.053756364 0.043210283
000310 6c 1b 6b bc 61 a8 6e bc 99 bc f9 3d 64 13 c8 bd
       -0.0143498 -0.014566512 0.12194175 -0.097693235
000320 f9 10 c3 ba 46 01 d5 bd d1 f4 63 bc 3e a8 b7 bd
       -0.0014882378 -0.104006335 -0.013913349 -0.089676365
000330 ac f3 2f bc a9 bb a7 3d 21 70 8f bd 69 2e 23 3d
       -0.010739248 0.0819009 -0.07003809 0.039839182
000340 82 90 c4 3d 4b 65 ea 3c 31 f8 b6 3d d6 fb dc bd
       0.09597875 0.028612753 0.089340575 -0.107902214
000350 13 b0 c9 3a 5b 24 d6 bd 8a d9 b8 bd 38 fb 0f be
       0.0015387557 -0.10456153 -0.09025867 -0.14060676
000360 b2 d8 58 3d 4a ac 17 3e 7d 6e fd 3c a4 ef 58 3d
       0.05294103 0.14811817 0.030936474 0.052962914
000370 5c ec 01 be 0d 1a 9f 3d ed 5d a6 bd 3f 26 20 bd
       -0.1268782 0.07768641 -0.08123384 -0.039098974
000380 6e a4 a5 bb 6c 8e 08 bd 13 37 3d 3d 5c b2 87 3d
       -0.005055002 -0.03333895 0.0461951 0.06625816
000390 24 fb 60 3c f6 24 31 3d 75 85 e1 3d 42 69 7b 3d
       0.013731752 0.04324814 0.11011783 0.06137968
0003a0 aa 87 b9 bd 3b eb 90 bc 62 4f 90 3c 19 dd 8c 3c
       -0.09059079 -0.017690292 0.017615978 0.017195271
0003b0 fc 77 84 3d 82 7c 84 3a d5 ab f1 3d cc 0a e2 3d
       0.06468198 0.0010107907 0.118003525 0.110372156
0003c0 ec 7e 55 3d ae 8d bf bd be 50 80 3d a4 b2 56 bd
       0.052122995 -0.09353195 0.062654 -0.05241646
0003d0 08 50 19 bd 7c 97 96 bd bf 1c 93 bc 4b 57 b2 3d
       -0.03742984 -0.07353112 -0.017958043 0.08708056
0003e0 a9 d9 58 3d b9 e6 b6 3d 24 15 30 bc 5b be db 3d
       0.052941952 0.089307256 -0.010747228 0.10729667
0003f0 79 8a 3a bd 4a af ac bd 40 5b 0b 3e 4a 92 e9 bc
       -0.045542214 -0.08431871 0.13609028 -0.028512139

layers.6.bias f4 [64]
000000 49 50 72 3d 61 40 00 3e 24 c9 a6 bd da 92 41 3d
       0.059158597 0.12524559 -0.08143833 0.04725919
000010 9a 57 e5 bd de d8 f0 bd 7f 2b 55 bc 13 53 5c 3c
       -0.11198349 -0.11760114 -0.013010859 0.013447541
000020 e0 3a 08 3d 81 1d c1 3c 1e b2 42 3d c1 11 fd 3c
       0.033259273 0.023573639 0.047533147 0.030892255
000030 c6 4f 04 3e 27 bb 4b bc 26 89 79 3d 59 cf 0d bc
       0.12921056 -0.012434757 0.06092181 -0.008655393
000040 b9 2f 2e bd 3a 11 ec bd 2d 79 05 3e 35 d6 0f bd
       -0.04252598 -0.11526723 0.13034506 -0.035116393
000050 e6 75 5c 3d 80 02 8d 3d 6b 5f bc bd 0e 8f c5 3c
       0.053823374 0.068852425 -0.09197887 0.024116065
000060 f0 6d 1a 3d fd 91 e1 bd b0 f0 ab bd f4 fd 9a bd
       0.0377025 -0.11014173 -0.08395517 -0.07567969
000070 0b 2d 38 3d d3 a2 f2 3d 98 51 0c be 4c e4 f7 bd
       0.04496483 0.118474625 -0.13703 -0.12104091
000080 a9 ed 09 3e 0d f7 17 3e b8 3a 39 bd ee 6b d4 bc
       0.13469566 0.14840336 -0.045222014 -0.025930371
000090 6f 63 ef ba fb b4 dd 3d 4e 2b 09 bd db da 2e 3d
       -0.0018263886 0.10825535 -0.033488564 0.042689186
0000a0 18 85 14 3d 43 43 d2 3d 81 c6 7b 3d 80 ff ae 3c
       0.03625974 0.102667354 0.061468605 0.021362066
0000b0 09 db b8 3b 9c 4d 0d 3e da 77 15 3d 16 59 bd bd
       0.0056413454 0.13799137 0.036491252 -0.092455074
0000c0 1e f2 50 bd d5 0e 9c bd 3f 29 b4 3d 6d fe 69 bd
       -0.05101215 -0.076200165 0.087969296 -0.057127405
0000d0 84 dc 8d bb 38 79 f9 3b 1e 61 1c bd 08 6d 9c 3d
       -0.004329266 0.0076133274 -0.038178556 0.076379836
0000e0 85 18 70 3d 1b 0a 4d 3c 88 72 dd 3d 7a 7e d9 3a
       0.058617134 0.012514616 0.10812861 0.0016593479
0000f0 d3 ba 7c 3d eb b2 8f 3d 6e d5 d5 bd dd 7e e0 bd
       0.061701607 0.07016548 -0.10441099 -0.10961697

layers.8.weight f4 [1, 64]
000000 8b 5a 9c bd 03 36 db bd 3a c0 8e bd 1d af df bd
       -0.07634457 -0.10703661 -0.06970258 -0.10922072
000010 63 c1 c9 bd 75 e3 1c bd b6 f7 cd 3d 96 d7 f1 3c
       -0.09851339 -0.038302857 0.10057013 0.029521745
000020 35 d8 06 3d f3 e1 a3 3d fe be 6e bd d4 e5 20 bd
       0.032921035 0.08002081 -0.058287613 -0.03928168
000030 95 cc c7 3d 3b 3f c3 bd 1d bb f6 3d b7 a2 cd 3d
       0.09755818 -0.09533545 0.12047408 0.10040801
000040 38 87 ad 3d fd 21 02 3d e5 7f f0 bd 6a 7b 9e 3c
       0.084730566 0.031770695 -0.11743144 0.019345958
000050 af 02 15 be 11 69 fb 3c 81 7b 42 bd ed f0 2b 3d
       -0.14551805 0.030689748 -0.047481064 0.04197781
000060 04 63 7b 3d c9 da d1 3c e4 ae f6 3d aa c4 89 bd
       0.061373726 0.02561702 0.120450765 -0.06726964
000070 a8 29 13 be 83 e0 a8 bd fb 66 0c 3d 85 18 43 bd
       -0.1437136 -0.08245947 0.034277897 -0.047630806
000080 ab 29 01 be e7 4a 0a be 88 8d f8 3d 14 32 78 3c
       -0.12613551 -0.13505135 0.1213637 0.015148658
000090 d2 6c f4 bd 08 b0 2f 3e bb ac f6 3d 63 0a fe bd
       -0.11934818 0.17156994 0.120446645 -0.12404325
0000a0 f1 02 bf bd 53 71 e6 3d 92 d1 20 3e e3 09 1d 3c
       -0.09326733 0.11252084 0.15704945 0.009584877
0000b0 ac b4 ab 3d 82 4b 1a 3e 0c 34 5f bd 4a a8 0b bd
       0.0838407 0.15067866 -0.054492995 -0.03409604
0000c0 d2 69 aa 3d 3e 1e 5b bd 9f 37 a5 3d 9e ca 45 bd
       0.08320965 -0.053495638 0.080672495 -0.048288934
0000d0 d9 a9 d0 3d bf d4 06 bd d3 4f a2 bd 3d 9b 53 bd
       0.10188646 -0.032917734 -0.079253815 -0.05166172
0000e0 2b 9a 0e bd c7 0b f0 3d f3 af 05 be 39 13 ad bd
       -0.034814995 0.11720996 -0.130554 -0.08450932
0000f0 60 46 f0 bd 77 0d a4 bd 8e 20 fd 3c 35 17 9f bc
       -0.11732173 -0.08010381 0.030899312 -0.019420246
