flwr-mlp/models/checkpoints/round_027.pt (torch, 127593 bytes, 7 tensors)

layers.0.weight f4 [256, 19]
000000 33 f1 55 bd 45 5c 15 be 50 7d d6 bc 01 1c 95 be
       -0.05223198 -0.1458598 -0.0261828 -0.29122928
000010 d8 cd 0c bd 9a cd 11 be 59 c7 da bd c4 17 55 be
       -0.034375995 -0.14238587 -0.10682554 -0.20809847
000020 27 e2 40 3e 21 59 cd bd 33 ce 50 3d cd f4 09 3e
       0.1883627 -0.100267656 0.050977897 0.1347229
000030 89 57 f4 bc c2 b9 1b be 18 cc 4f 3e d6 45 4a bd
       -0.029826896 -0.1520758 0.202927 -0.049383007
000040 a9 28 1c be fb 6b 21 3d 57 44 5c be 5f 5c 2d be
       -0.15249886 0.03940962 -0.21510445 -0.16929768
000050 7e 81 76 bd 76 c9 0d 3e e8 a6 4c bc 38 07 c3 bd
       -0.060182087 0.13846382 -0.012490965 -0.09522861
000060 13 b6 35 bc 86 34 49 3e 93 e3 4f be 76 91 ab 3d
       -0.011090773 0.19648942 -0.20301656 0.08377354
000070 77 6a 37 bd 96 9c 2e 3e 84 91 f1 3d 2c ff fa bd
       -0.044779267 0.1705192 0.11795333 -0.122557014
000080 ff 7e 91 bd ab 28 70 3d 66 fa 8e bd 8f 0e be 3d
       -0.07104301 0.058632534 -0.069813535 0.092801206
000090 01 30 67 3e 9e 71 3e bc 89 60 8a 3d 83 92 f2 3d
       0.22576906 -0.011623768 0.06756694 0.11844351
0000a0 8b fe 92 3c 1d 9c d6 bd af 63 9a 3d 87 74 2a bd
       0.017943641 -0.10478995 0.075385444 -0.041615035
0000b0 7d 64 e5 3d ea 0f 71 be e4 8e ba bc 18 ab 6a 3e
       0.11200807 -0.23541227 -0.022773214 0.2291683
0000c0 19 ab b7 3d 02 99 be bd 09 8a b6 3d 66 8b 0d 3e
       0.08968181 -0.09306528 0.08913047 0.13822708
0000d0 c3 1c db 3d cd 64 fc bb 62 9c 97 3d 2f 4a df 3d
       0.10698845 -0.007702446 0.074028745 0.10902821
0000e0 1e 6d 98 bd ff 38 96 3e b3 e3 70 bd 69 38 63 3d
       -0.074426875 0.2934036 -0.0588109 0.05547372
0000f0 ba 19 ef 3d fe 40 9c bd 5c 63 58 be 68 39 4d be
       0.11674829 -0.07629584 -0.21131653 -0.2004143
000100 ea 23 68 3e 86 58 2f bd fc 74 07 bd 04 f3 57 3e
       0.2266995 -0.042809032 -0.03307055 0.21088797
000110 81 ed 08 be f7 20 ab bd 84 8e 01 3d a8 91 01 be
       -0.1337185 -0.08355897 0.031630054 -0.1265322
000120 c5 1d 8e bd b6 3d a2 bd 0e 0c 70 3d ee 56 06 3e
       -0.06939272 -0.07921927 0.058605246 0.13119099
000130 5f 2c 9c bd a4 19 d1 bd b0 f3 32 3e 50 43 b0 3c
       -0.076256506 -0.10209969 0.17475772 0.021516472
000140 9f 45 57 3e 71 87 34 3e 56 79 57 3e 35 a6 ee 3d
       0.21022652 0.17629792 0.2104238 0.11652795
000150 6f 8c 39 3e bc a3 99 bc a0 cf 15 be 20 6e e1 bd
       0.18119977 -0.018754832 -0.14629984 -0.11007333
000160 72 ce 4c be 81 54 4c bd f5 58 c5 bd 78 70 96 3d
       -0.20000628 -0.049885277 -0.09636108 0.073456705
000170 1a 30 15 bd 24 6a 47 bd 70 a2 1d be e4 d7 3e 3d
       -0.036422826 -0.048685208 -0.15393996 0.046592608
000180 bc dc 06 3e b5 b0 0c be ec 2a 5d 3e 7f b9 b6 3d
       0.13170141 -0.13739283 0.21598405 0.08922099
000190 8f c9 50 be e3 b5 2e 3e 20 95 61 3e 45 18 0c be
       -0.20389389 0.17061572 0.22029543 -0.13681133
0001a0 ab f6 73 be 19 86 9d 3d c2 99 a6 be 69 26 fc bc
       -0.23824565 0.07691593 -0.32539183 -0.030780034
0001b0 27 86 26 3e 85 a4 00 3e 46 42 9e bc f1 6d c2 3d
       0.16262113 0.12562759 -0.019318711 0.09493626
0001c0 c8 a0 93 bc 7f 41 8d be 7f 67 e3 3d 7a 5c 24 3e
       -0.018021002 -0.27589032 0.11103725 0.16050902
0001d0 2e b2 4d 3d 32 6c 8f bc 71 cb 48 bd b4 9e be bd
       0.050218754 -0.017507646 -0.04902214 -0.09307614
0001e0 47 34 0e be 9e 1e 3d be 0d 35 49 be 0e 7a 95 3e
       -0.1388713 -0.18468711 -0.19649144 0.29194683
0001f0 4e 52 78 be 5f 15 be bd 97 80 11 3d 8c b7 ca bd
       -0.24250147 -0.0928142 0.035523023 -0.0989829
000200 26 3c 12 3e 22 11 b2 bd 3e 58 e5 3c ef aa c3 bc
       0.14280757 -0.08694674 0.027996179 -0.023885218
000210 0a b3 43 3d 4f 2d 16 3e 41 d2 37 be 64 9c d4 bc
       0.047778167 0.14665721 -0.17951299 -0.02595348
000220 66 ab f2 bd 72 4f d3 3c 91 e3 8a ba b3 c7 1d be
       -0.11849098 0.025794718 -0.0010596385 -0.1540821
000230 25 1b d7 bd f8 4a 26 bd a6 25 98 bc 81 b6 18 3c
       -0.10503224 -0.04059884 -0.01857264 0.009320856
000240 e2 bc 77 3d 60 18 2c 3e 94 12 eb 3d a6 51 29 bd
       0.060482867 0.16806173 0.11478153 -0.04133763
000250 b9 15 de bd 62 1b 72 be 73 8d a1 3c b7 0a 63 bd
       -0.10843987 -0.23643258 0.019720769 -0.05543014
000260 62 2d 98 bc bb 79 c2 3d 16 05 b7 3d 4d 71 73 bd
       -0.018576328 0.094958745 0.08936517 -0.059434224
000270 c8 50 d2 3d 7d 0a 77 3e 86 59 a2 3d 21 1f 02 3e
       0.10269314 0.24125095 0.079272315 0.12707187
000280 a6 9d 7b 3e 76 f0 b4 3d 15 07 a2 bd a8 8e 8e 3e
       0.24571857 0.08834927 -0.07911507 0.27843213
000290 c2 45 87 be 86 9f 4b 3e 00 98 4c 3d 88 39 b0 3d
       -0.26420408 0.19885072 0.049949646 0.08604723
0002a0 82 41 d9 3c 49 89 2b be ec 7f 42 be d1 3f 54 3e
       0.026520494 -0.16751589 -0.18994111 0.20727469
0002b0 0a ab 5a bd dd 4d ac bd 7f 50 8c bd cb 1c 7e 3e
       -0.05338577 -0.08413289 -0.06851291 0.24815671
0002c0 84 4d f3 bd f6 48 a1 bc 83 c7 27 3e a4 b9 64 3e
       -0.11880019 -0.01968811 0.16384701 0.22336441
0002d0 c5 f9 60 bd 8b d1 18 bd 9e 54 04 bd 95 6c 04 3e
       -0.0549257 -0.03730921 -0.03230726 0.12932046
0002e0 76 39 05 3d 8e 6b f7 3d 3b 6f 00 bd f2 7a d6 3d
       0.032525502 0.12081061 -0.031356078 0.10472669
0002f0 dc dd e6 3d 45 6b 9d 3b 52 d9 e9 bd 59 3a 3a 3c
       0.11272785 0.0048040473 -0.11418404 0.01136645
000300 89 24 e6 3d bd da 0c 3d 1d d7 7c bd ae d5 a4 3d
       0.11237437 0.034388293 -0.061728586 0.08048569
000310 ef c8 e1 bd da 79 1b 3e e0 ee 18 3e f8 33 c0 be
       -0.11024653 0.15183201 0.14934874 -0.3753965
000320 f4 5b 82 be 73 44 2f bd 23 9e e1 bd 9f 44 0f be
       -0.2546078 -0.042789888 -0.1101649 -0.1399102
000330 df b2 e7 bd 58 87 01 3e 56 6d 0f 3e bc 35 dc 3d
       -0.11313414 0.12649286 0.14006552 0.107524365
000340 a6 77 ad 3c 9b 45 59 3e 5d cb c2 bd a4 3b 22 bd
       0.021175217 0.21217959 -0.09511445 -0.03960766
000350 83 06 4a 3e 13 a0 6c be 89 4d 7b 3d f7 2e 8e be
       0.19729047 -0.23107938 0.06135324 -0.27770206
000360 96 3c cc 3d cf 60 65 3e 68 86 1d 3e b7 ca 3e 3e
       0.09972493 0.22400211 0.15383303 0.18632017
000370 05 44 50 be c9 1a 16 3d b8 2b 65 be d8 9f 2f bd
       -0.20338447 0.036646638 -0.22379959 -0.04287705
000380 9e 26 aa 3b ec 93 64 bd f4 5c 31 3e 98 87 4c 3c
       0.005192592 -0.05580513 0.17320615 0.0124835
000390 2a 32 c1 bd ac 86 6a 3e e7 fb 31 bd 4d 67 99 bc
       -0.09433396 0.22902936 -0.043453123 -0.018726015
0003a0 56 f4 df 3d 8a d5 16 bd 0a 7b 1c be 35 43 b0 bd
       0.10935275 -0.03682474 -0.1528131 -0.08606569
0003b0 70 1c 8e be ad fe a2 3e 5f 21 67 be 87 42 d9 bb
       -0.2775607 0.31834927 -0.22571324 -0.006630245
0003c0 57 c0 02 3e 2c b0 da 3c da 24 d3 bb 2d 52 bf 3d
       0.12768684 0.026695333 -0.006443602 0.09341846
0003d0 c7 9f 34 be 51 b6 22 3c 18 e7 d4 3c ed 7e e2 bd
       -0.17639075 0.009931163 0.0259891 -0.110593654
0003e0 17 bd 9e bd c6 96 00 3b 96 43 65 bd 58 bc 0c 3e
       -0.0775091 0.0019621118 -0.055972658 0.13743722
0003f0 9e 74 4e be 14 10 cf 3c de e0 86 3d 9a ad 17 be
       -0.20161673 0.025276221 0.06585859 -0.14812317

layers.0.bias f4 [256]
000000 51 b2 ee bc b6 66 d2 bd 44 64 ab be 05 bf 87 be
       -0.029137762 -0.10273497 -0.33474934 -0.26512924
000010 ea 59 82 be f1 be 28 be 3b 47 00 be 10 ef 84 be
       -0.25459224 -0.16479088 -0.12527172 -0.2596364
000020 7d bb 92 be c5 83 4f bd 8d 40 7e 3d 38 ae e9 bd
       -0.28658667 -0.050662775 0.06207328 -0.11410183
000030 89 75 1d bc 1a 32 c9 be 0f b9 7d be cd 7c 61 be
       -0.009610542 -0.39296037 -0.24777626 -0.22020264
000040 ae 1f 9b bc 74 70 3b bd 54 04 7e be 46 3b 97 be
       -0.018936004 -0.04576154 -0.24806339 -0.2953741
000050 44 8d 28 be f9 99 72 be b8 51 ff bc b8 c8 58 be
       -0.16460139 -0.23691548 -0.031166896 -0.21170318
000060 c3 b1 1c be 67 bf 30 be 00 0c 8a bd 4a e8 8c be
       -0.15302186 -0.17260514 -0.0674057 -0.27520972
000070 07 38 1b bd 1c de af bd 66 d4 0d be 9a 08 24 bb
       -0.03789523 -0.08587286 -0.13850555 -0.002502954
000080 f8 e5 8c be a4 97 61 bb 7b ea 63 be ae 35 30 be
       -0.27519202 -0.003442266 -0.22257416 -0.17207977
000090 a8 0c 89 bd 5d d6 c4 bd de f4 90 be 94 17 00 3d
       -0.06691867 -0.09611199 -0.2831182 0.031272486
0000a0 68 71 96 be 5d d2 89 be 05 db 76 be ae 8d 95 be
       -0.29383397 -0.26918307 -0.24106987 -0.29209656
0000b0 34 07 8b be 2e 4c 3b be a0 59 3f be 57 75 54 3d
       -0.27153933 -0.18290779 -0.18686533 0.051869716
0000c0 75 3c 2e be 87 f0 c2 be e2 d6 87 be 78 97 51 be
       -0.1701525 -0.38074133 -0.2653113 -0.20467937
0000d0 4d 14 0b be f7 34 9b bd 72 5d fd bd 7e 42 88 bd
       -0.13581963 -0.075784616 -0.12371339 -0.066533074
0000e0 aa 7c c9 be d6 d7 8c bd 95 27 38 be c3 47 3c be
       -0.39352924 -0.06877105 -0.1798385 -0.1838675
0000f0 68 c6 dd be 9b 1b 99 be 0d 0b 34 be 83 c6 be be
       -0.43315434 -0.29903874 -0.1758234 -0.37260827
000100 bf db d5 bd 35 7d 87 bd ce d0 a7 be 68 3d e9 be
       -0.10442304 -0.06615678 -0.32776493 -0.45554662
000110 0b f2 bc be f6 6b 8c be a3 1c b2 be 87 e7 86 3d
       -0.36903414 -0.27426118 -0.34787473 0.06587129
000120 5f cc 34 be 77 9a 8f be 48 c4 57 be 14 08 2b be
       -0.17656086 -0.28047535 -0.21070969 -0.167023
000130 bb 92 9c be b0 56 a2 be 43 31 1e be 11 3b d9 bc
       -0.30580696 -0.31706762 -0.1544848 -0.026517423
000140 dd 97 49 bd 63 e8 6f be 6f 25 ad bd 7f 0a 5e be
       -0.049217094 -0.23428492 -0.084544055 -0.21683691
000150 59 18 99 be b4 28 9b be d0 68 24 be be 04 ad 3d
       -0.29901388 -0.30304492 -0.16055608 0.0844817
000160 d8 47 40 be 62 04 84 bd 58 00 a4 be 48 b6 37 bd
       -0.18777406 -0.064461485 -0.32031512 -0.04485157
000170 c3 57 7a be 94 a1 c0 bd 9f d8 b5 be d6 a1 82 be
       -0.24447541 -0.094058186 -0.3551683 -0.25514096
000180 9e 27 b7 be 56 e1 84 be 28 47 d2 be 68 b1 a6 be
       -0.35772413 -0.25953168 -0.41069913 -0.32557225
000190 d6 ea 40 be 6e 55 84 be 39 66 e9 bd d9 aa 99 be
       -0.18839583 -0.25846428 -0.113964505 -0.3001316
0001a0 bb df 6f be 9d 77 bb be da bf 8e be b2 6c 9c be
       -0.2342519 -0.36614695 -0.27880746 -0.30551678
0001b0 71 92 72 bc e7 f7 b7 be a2 15 ca be 83 d9 8c bc
       -0.014805422 -0.35931322 -0.3946963 -0.017193561
0001c0 ed 17 66 be 94 97 43 be 3b 5b 94 be 5f 18 8c bd
       -0.22470064 -0.19100791 -0.28975853 -0.06840586
0001d0 56 a4 8b 3c f8 84 48 be dd 37 20 be 89 48 48 be
       0.017046135 -0.19581974 -0.1564631 -0.1955892
0001e0 f9 77 77 be 83 06 6b be 30 43 9d be f8 7c 7b be
       -0.2416686 -0.22951703 -0.30715322 -0.2455939
0001f0 7c ff dc bd 39 81 c2 be 3e 89 8b 3d 8f 12 4a be
       -0.10790917 -0.37989214 0.06813286 -0.19733642
000200 99 cc 86 bc be 9d 34 be 2b d6 71 bd 7e bb b1 be
       -0.016454982 -0.17638299 -0.059042137 -0.34713358
000210 0f 7a 39 3c 8a 88 2a be 80 35 95 bd ed b6 68 be
       0.011320605 -0.16653648 -0.07285595 -0.2272603
000220 dc ca 78 3d 39 a9 4c be df b4 f5 bc dd 61 89 be
       0.060740337 -0.19986428 -0.029993473 -0.26832476
000230 93 3d 0d be 55 3f 9b be a9 62 52 be b1 42 f9 bd
       -0.1379302 -0.30321756 -0.20545448 -0.121709235
000240 51 21 2a be b2 b7 46 be 2c 22 d1 bc 79 f9 c0 3d
       -0.16614272 -0.19406012 -0.02552899 0.09422583
000250 13 78 b1 be 73 c0 49 be 6b 72 ca be 13 74 1b be
       -0.34661922 -0.1970232 -0.3954042 -0.15180998
000260 53 d1 25 be 7a 55 c7 bd c3 34 19 be 47 cb 8c be
       -0.16193132 -0.097331 -0.14961533 -0.27498838
000270 30 17 28 be 78 0e 53 be 01 67 3c be 52 57 72 be
       -0.16415095 -0.20610988 -0.18398668 -0.23666123
000280 22 c6 b4 be 8c db 0d be ad 71 db bd a6 41 b3 bc
       -0.35307413 -0.13853282 -0.10715041 -0.02188189
000290 96 17 55 be e6 82 65 bd 2e 4a 89 be a1 74 7a be
       -0.20809779 -0.056033038 -0.26814407 -0.24458553
0002a0 b0 64 13 be 22 8a a9 be 28 0c 9a bd 3e cf 86 bc
       -0.14393878 -0.331132 -0.0752185 -0.016456243
0002b0 dd d1 80 be 6a 9b 33 be 56 d6 a2 be 45 cb 8a be
       -0.25160113 -0.17539755 -0.3180415 -0.27108207
0002c0 d4 27 af be b2 d8 b1 bd c8 6f e7 bd 06 7c 23 be
       -0.34210074 -0.086839095 -0.113006175 -0.1596528
0002d0 38 1f c8 b8 06 94 c0 bc b1 0e ca be 12 77 63 be
       -9.542558e-05 -0.023508083 -0.39464334 -0.2221339
0002e0 16 f1 5f bc 9c 18 01 bc 35 06 10 bd 4d 9f 34 be
       -0.013668319 -0.0078794025 -0.03516217 -0.17638893
0002f0 16 ce 0f be 18 37 96 be 0d a8 1a be 53 30 de bd
       -0.1404346 -0.29338908 -0.15103169 -0.10849061
000300 9a e4 8b ba 95 d7 49 3d 71 62 87 be b7 ac 33 be
       -0.0010672987 0.04927786 -0.26442292 -0.17546354
000310 ba 69 41 be fc 9a a8 be ef 11 03 be 08 9b 27 be
       -0.18887988 -0.32930744 -0.1279981 -0.16367733
000320 97 e8 35 bd ea 57 da bc f4 26 96 be 49 c1 af bd
       -0.044411268 -0.026653249 -0.29326594 -0.08581788
000330 00 d0 59 be 71 5a c4 be 86 c4 dd be 65 ed 79 bd
       -0.21270752 -0.3835025 -0.43313998 -0.061017413
000340 ce e6 90 bd 09 9d 78 bd 63 86 32 be c7 ea 59 be
       -0.070752725 -0.060696635 -0.17434077 -0.21280967
000350 22 f7 b6 be 02 1b b7 be 9b 2f f7 bd 37 84 f8 bd
       -0.35735422 -0.35762793 -0.12069627 -0.12134593
000360 bf a3 96 be 45 1e a6 be fa 23 2c 3d a7 48 82 be
       -0.29421803 -0.3244497 0.042026497 -0.25446054
000370 4f 84 ae be b1 87 de bd ff be 01 be 99 ab 53 be
       -0.34085318 -0.10865725 -0.12670515 -0.20670928
000380 c7 4c d7 be 1b 08 e4 bd 27 dd 34 bd 34 ea ed bd
       -0.42050764 -0.111343585 -0.04415622 -0.11616936
000390 77 7a 9b be 6a a0 b3 be ad 2f 69 be b5 fa a1 be
       -0.3036687 -0.35083324 -0.22772093 -0.31636587
0003a0 37 28 7c be de 16 a0 be 0c 65 a8 be c3 7e 0b be
       -0.24624716 -0.31267446 -0.32889593 -0.13622575
0003b0 13 b6 15 bd c2 40 9b bd cd cc 9a be 03 28 d3 be
       -0.036550593 -0.07580711 -0.30234376 -0.41241464
0003c0 73 7b 91 be 0c 9b c2 be 6c 09 8c be 65 aa 8c 3d
       -0.28414497 -0.38008916 -0.27350938 0.06868438
0003d0 87 03 9b be 75 83 35 be b4 51 90 be 3f 45 98 bd
       -0.3027613 -0.17725928 -0.28187335 -0.07435083
0003e0 59 96 b5 be 41 6a 03 be dd d3 df bc bf 96 f9 bd
       -0.3546627 -0.12833501 -0.027322704 -0.12186956
0003f0 37 99 aa bc 4e e3 3a bd 74 30 8d be 71 70 36 3b
       -0.020825012 -0.04562693 -0.2757603 0.0027838016

layers.3.weight f4 [80, 256]
000000 7d b5 38 bd 20 ab 3c 3d d5 0a 74 3d 7e 71 88 bc
       -0.045094956 0.046061635 0.059580643 -0.01665568
000010 14 49 7d bd ce d9 65 bd 79 a7 48 3d df d6 cf 3d
       -0.06183727 -0.056115918 0.04898784 0.10148405
000020 53 6f 09 3e 14 19 23 be 6e 92 f0 bc ff 9e a3 bd
       0.13421373 -0.15927535 -0.029366698 -0.079893105
000030 8f 0f 67 bc d2 bd 3f 3e b7 80 f6 3c 52 56 93 3d
       -0.014102831 0.18724754 0.030090673 0.07194199
000040 20 c4 ce bd 5b 0a b4 bd 9a f7 df 3d 57 69 d2 3d
       -0.100960016 -0.08791038 0.10935898 0.10273998
000050 46 5b b6 3d fc 32 50 3d c6 23 f1 3c 41 cc 34 3d
       0.08904128 0.050829872 0.029436003 0.044140104
000060 a1 d1 b0 3d 72 a6 a0 3c 70 69 a8 bc b6 91 14 3e
       0.086337335 0.019610617 -0.020558089 0.1450871
000070 23 39 f2 bd fe 55 3f bc 7d 9e ab 3d 79 13 aa 3b
       -0.11827304 -0.011678217 0.083798386 0.0051903096
000080 49 d4 2f 3e 62 dc a6 bd 00 74 8f 3d c9 7e c8 3d
       0.17170824 -0.081475034 0.07004547 0.09789807
000090 ce dc 06 be d9 e8 61 3c 1c 37 e2 3d 10 4b 21 be
       -0.13170168 0.013788425 0.110456675 -0.1575129
0000a0 46 b1 fa 3c 17 94 d5 bd 8b 44 00 be c7 06 0d 3e
       0.030602109 -0.104286365 -0.12526147 0.13772117
0000b0 4e ad 0d 3e 44 d5 d0 bc ee a0 8a 3d ba 83 0a 3c
       0.13835642 -0.025492318 0.06768976 0.008454258
0000c0 96 82 4b bd 66 e4 e5 3d e3 43 10 3e 6b 30 b0 bc
       -0.049685083 0.11225204 0.14088397 -0.021507462
0000d0 86 ae 16 bd d2 85 b8 bd c5 33 ae bd ec fe 33 bd
       -0.036787532 -0.09009899 -0.08505968 -0.043944284
0000e0 af b7 ea 3d ff 60 2f 3d 18 e7 04 3d e1 38 01 be
       0.11460816 0.042817112 0.03244695 -0.12619354
0000f0 3b 2e 88 3e b0 68 89 bc 42 ac 02 3e cd c9 98 3e
       0.2659777 -0.016773552 0.12761024 0.29841462
000100 3f 9c ff bc 1d 0a 19 bd 34 93 bf 3d 12 15 f4 3d
       -0.031202434 -0.03736316 0.09354249 0.11918081
000110 55 22 70 3e b1 c7 6e 3d b8 bf ae 3d 27 a0 5c be
       0.23450597 0.05829591 0.08532661 -0.21545468
000120 5e e4 9d 3d f5 54 c1 bc 87 ef 17 bd 44 62 f6 3d
       0.07709573 -0.023600081 -0.037093665 0.120304614
000130 da 0c 15 be 0b 70 09 3e 9e be 18 3d 2d 35 ee bd
       -0.14555684 0.13421647 0.03729116 -0.11631236
000140 57 2e 6d bd 96 5c e2 3b ae 6e 37 3d cc c1 db 3d
       -0.05790552 0.0069080098 0.044783287 0.10730323
000150 5b aa 13 bd 64 39 2f 3e bc 1b 50 3e 8e 77 33 bd
       -0.036051136 0.17111737 0.2032308 -0.043815188
000160 6a 7f 53 3b 18 3f 94 3b 80 0f 16 3d 63 66 b0 3c
       0.003227199 0.004524123 0.036635876 0.021533197
000170 ef 82 49 bd 64 01 a0 bd a9 31 9a 3d 06 ed 17 3d
       -0.049197134 -0.07812765 0.07529003 0.037091278
000180 77 52 51 3d 11 d0 2e 3c 93 bd 10 3e 2a e6 a7 3d
       0.051104035 0.010669724 0.14134817 0.08198197
000190 6a 6f c6 bd 36 17 d3 3c d2 1c 8c 3d 38 03 03 bd
       -0.09689219 0.025767904 0.068414345 -0.03198549
0001a0 4a b5 49 bd c7 c9 de 3d 7c 27 48 3e 35 7e ba 3d
       -0.049245156 0.1087833 0.19546312 0.09106103
0001b0 cc 8c fe bd e3 54 28 3e 59 a3 f8 3d 63 16 95 3c
       -0.124291986 0.16438632 0.12140531 0.018199151
0001c0 30 5a 79 3d 4f eb 7c 3d 93 a0 a0 bd da df 5b bd
       0.060877025 0.061747845 -0.07843127 -0.05368028
0001d0 bf 17 c5 bd 24 f5 8d 3d 57 7e 96 3d 68 85 80 bd
       -0.0962367 0.069315225 0.07348316 -0.06275445
0001e0 6b 01 65 3b b9 cc cb 3d d2 f6 b9 3d 28 4c 2a 3d
       0.0034943472 0.09951157 0.0908028 0.041576535
0001f0 d9 c6 a2 3d cf 0d c2 3d 8b 3a 4f bd a8 c9 07 3e
       0.079480834 0.0947529 -0.05059294 0.1326052
000200 d4 4b 77 bd 78 08 ed 3c be 9d 39 bc ba 63 4f 3e
       -0.06037505 0.028934702 -0.011329113 0.20252886
000210 8f c7 21 be a2 4f 0d be 3e d0 54 bd eb 3a 81 ba
       -0.15798782 -0.13799909 -0.051956408 -0.0009859478
000220 0c 8d 04 be 3c ed c5 3d f0 63 f8 b7 61 17 d8 3d
       -0.1294443 0.096643895 -2.961044e-05 0.10551334
000230 1c c1 ce bd ef 69 ab 3d 83 ca 4a bc 73 09 98 3d
       -0.100954264 0.083698146 -0.012377384 0.07423677
000240 47 ab 27 3d 4f 70 a6 bc df e4 11 be 45 5c 8c bd
       0.040934827 -0.020317225 -0.14247464 -0.068535365
000250 10 68 62 3e 10 f5 14 3e 5e ec 04 3e f2 ed 5d 3c
       0.22110009 0.14546609 0.12980792 0.0135455
000260 8b f0 3d 3d 7e e0 bd 3c 99 46 0d 3d e8 64 b1 3d
       0.046371978 0.023178335 0.034491155 0.086618245
000270 95 c4 72 bc 93 a0 1d bc 47 34 5f 3d 0d 67 e8 3c
       -0.014817377 -0.009620803 0.054493215 0.028369451
000280 f2 a6 74 3e 5a 56 e4 3d d0 ff 32 3d a4 0a 00 3c
       0.2389181 0.11149283 0.043700993 0.007815037
000290 44 8d 91 bc 72 be fd bc fd 0e 31 3d 32 85 bf 3b
       -0.017767556 -0.0309746 0.043227185 0.0058447355
0002a0 3c b7 07 3e c5 21 17 3e 86 39 f3 3b 95 c0 33 bd
       0.13253492 0.14758976 0.007422629 -0.043884832
0002b0 87 93 f9 3d 36 8c 2f 3c 20 a8 13 3e d4 31 7d bd
       0.12186342 0.010714581 0.14419603 -0.061815098
0002c0 dd e1 84 bd 1a a0 07 bc 0d 30 21 3e 05 fc 86 bd
       -0.064883925 -0.008277917 0.15740986 -0.06591038
0002d0 28 1f 9b bd c6 8d 43 3d 51 75 6f 3d 91 3d f6 3d
       -0.07574302 0.047742628 0.05846149 0.120234616
0002e0 78 d8 49 bc 91 3e cd 3b af ff 0d be 83 e8 c7 3d
       -0.012319677 0.006263562 -0.13867067 0.09761145
0002f0 93 60 f3 bc 58 8b 10 3d 15 a6 d5 3c 85 62 e2 bd
       -0.029709136 0.03528914 0.02608017 -0.11053947
000300 ef f5 9e bc 06 38 d2 bd f2 27 c0 3d da 4e cb 3d
       -0.01940438 -0.10264592 0.09382619 0.09927149
000310 dc 57 dd 3d e3 01 74 3d 93 3b 25 3d ff 70 8f bb
       0.108077735 0.05957211 0.040340018 -0.004377484
000320 89 12 8a bd b1 66 02 3e c0 5b e3 3b 2d 2e 7f bd
       -0.067418166 0.12734486 0.0069384277 -0.062299896
000330 80 29 41 3d e8 95 74 3d a5 9d 1d 3e ad 1f 2d bb
       0.047158718 0.059713274 0.15392168 -0.0026416585
000340 c6 e6 14 bd 6c 0c 51 3b 84 e8 04 be 51 ff 6c 3c
       -0.036352895 0.0031898273 -0.12979323 0.014465169
000350 10 6c d6 3d 76 7f 53 3e 91 6e f2 3d 4e 7e 6f bc
       0.1046983 0.20654091 0.11837495 -0.014617516
000360 3d b6 aa 3d 88 df 50 3e ba 6f 64 bd 48 3f f8 3d
       0.083355404 0.2039777 -0.055770613 0.12121445
000370 47 bc c9 3c 3f f3 98 bd 0f ff 5c bd 57 b0 88 3d
       0.02462591 -0.074682705 -0.05395418 0.06674259
000380 17 e5 dc 3d 11 87 bd bc 17 f2 8f bd 0d 4c 91 3d
       0.10785883 -0.023135694 -0.07028597 0.07094584
000390 98 45 ac 3d 16 54 4e 3e 79 da 3b 3d 97 b5 cd 3d
       0.084117115 0.20149264 0.04586265 0.10044401
0003a0 ab f7 c6 3d 36 b4 51 3e 34 9b 85 3d c2 51 b4 bb
       0.09715208 0.20478901 0.06523743 -0.0055029104
0003b0 c0 62 00 bd 52 aa 90 3c b2 f6 a0 bb da a2 b2 3d
       -0.031344175 0.01765934 -0.004912221 0.08722468
0003c0 b8 f0 b1 3d 4f 03 e4 bc eb 2a 27 bd bd 0d a4 bc
       0.086884916 -0.027833609 -0.040812414 -0.020026082
0003d0 41 a9 5d 3e 9e 59 34 3e 61 ac 06 3e 54 86 1f 3d
       0.21646596 0.17612311 0.13151695 0.038946465
0003e0 c9 aa ad 3e 6a 3b 2f bd 14 4f 27 bd 50 01 b0 bc
       0.3391936 -0.04278127 -0.0408469 -0.021485
0003f0 19 fe 99 bd 12 2a 4a bd a0 b8 10 3e 32 b7 9d bd
       -0.075191684 -0.049356528 0.14132929 -0.07700957

layers.3.bias f4 [80]
000000 2e 23 29 be 81 fb 8b 3d ed 1a 28 be 36 9c 82 bd
       -0.16517326 0.0683508 -0.16416521 -0.06377451
000010 cb 82 16 be f0 9a 4e be a4 85 14 be 3a 59 e0 bd
       -0.14698331 -0.20176291 -0.14504105 -0.109545186
000020 6e cc 74 ba 93 7b e8 bd 40 6e a2 bd 2b ef 0e bd
       -0.0009338324 -0.11351695 -0.07931185 -0.034896057
000030 3d 1b 78 bd 0c c3 23 3c 5d c2 30 bd ea 14 a2 3d
       -0.06057285 0.009995233 -0.04315411 0.07914145
000040 7f 78 40 3c 3b f8 f5 3c f2 f0 b1 bd b0 d4 11 bd
       0.0117474785 0.030025592 -0.08688535 -0.035603225
000050 ed f7 27 be dc 98 e4 bd 4d e8 0d 3d 4d 38 b1 bc
       -0.1640317 -0.11161968 0.034645367 -0.021633292
000060 d4 dd e8 bb 89 9d 0d be 21 63 c0 bd 15 50 5b 3c
       -0.007106522 -0.13829626 -0.09393907 0.013385792
000070 f7 77 59 3d 46 23 d4 bc b5 20 69 be e1 4a a8 bd
       0.053092923 -0.025895726 -0.22766383 -0.08217407
000080 ba 97 98 39 da f4 4a 3d 50 a4 3d be 77 9c 77 be
       0.00029104744 0.049549915 -0.18519711 -0.2418078
000090 2c 42 21 3b 49 4b 6c 3d c0 77 6f 39 14 49 a2 bd
       0.0024606092 0.057688985 0.00022837427 -0.07924095
0000a0 4d 0c de bd 07 df 1c bd 26 20 06 be 59 fa 12 3d
       -0.1084219 -0.038298633 -0.13098201 0.03588328
0000b0 3f ce 9d bc c2 fc e9 bd ab 64 77 bd a9 27 48 be
       -0.019263385 -0.11425163 -0.06039874 -0.19546379
0000c0 5f 64 f1 bd ab 95 71 3d 55 2c 24 be 05 f9 75 3a
       -0.117867224 0.058980625 -0.16032536 0.0009383115
0000d0 7d a8 4a be be dd 3a 3c ee 92 05 bd 9e 0b 00 bb
       -0.19790836 0.0114054065 -0.032610826 -0.0019538174
0000e0 d1 1d 9f bd 50 49 51 be 06 da ef bc d2 29 91 3d
       -0.07769359 -0.20438123 -0.029278766 0.07088055
0000f0 9b 02 54 3d f8 68 33 be c4 fd 0f 3d 49 f8 64 3c
       0.051760297 -0.17520511 0.03515412 0.013975211
000100 1d bc be bd dd 9a 10 3c dd 1a a7 bc 2c 80 f0 bd
       -0.093132235 0.008825985 -0.020398552 -0.11743197
000110 2a aa 02 bc fc 75 0c be 57 89 12 3d e4 94 31 be
       -0.007975141 -0.13716882 0.03577551 -0.17341954
000120 d0 86 51 3c 3f 49 64 bd 49 77 6d be ef bc f9 bd
       0.012788489 -0.055733915 -0.23190035 -0.12194239
000130 3d 0a 61 be 41 6c 6b bd da b0 e7 bd 59 b7 7e be
       -0.21976562 -0.057476286 -0.11313029 -0.24874629

layers.6.weight f4 [64, 80]
000000 7b bb fa 3d 2d 68 46 be c5 01 2f bd 4f c3 a2 bd
       0.1224279 -0.19375677 -0.042726297 -0.079474084
000010 52 3c ca 3d b1 57 f6 bd d0 06 3b bc 8a 8f 4c 3d
       0.098747864 -0.120284446 -0.011415198 0.049941577
000020 c0 97 a0 bd 38 f6 12 bd 12 d7 25 3e e3 f4 81 bd
       -0.07841444 -0.035879344 0.16195324 -0.063455366
000030 5d ed 7d 3d 73 3d ea bd 5a 31 2f 3e 4b bd 70 be
       0.061993945 -0.11437502 0.1710867 -0.2350971
000040 cc 87 70 3d ec 82 3b be 13 e0 98 3d b6 54 4a 3e
       0.058723256 -0.18311661 0.07464614 0.19758877
000050 34 61 77 bc c6 b3 ab bd d6 82 0d be 14 12 e0 bd
       -0.015098859 -0.083838984 -0.13819441 -0.10940948
000060 0f 00 c0 3c 29 50 f5 bd 73 91 cb 3c b5 b7 9f bd
       0.023437528 -0.1197818 0.024849629 -0.07798711
000070 fd c4 47 3d 86 5d 28 be 6a 28 2f 3e a9 16 34 3e
       0.048771847 -0.16441926 0.1710526 0.17586769
000080 bd 8c 60 be fd 66 60 be 00 16 55 3b c7 1f 62 bd
       -0.21928687 -0.21914287 0.0032514334 -0.055206086
000090 93 fb 96 3d 88 d9 51 be 21 c3 df 3d 5e 2d 9e 3c
       0.07372203 -0.20493138 0.1092589 0.019308742
0000a0 83 d6 5b 3d 03 4c de bd 09 0f 59 3e a9 4f c9 bd
       0.05367137 -0.10854342 0.21197142 -0.09829647
0000b0 37 1d 49 be 1d 26 28 be f8 b1 16 be d7 49 dd 3d
       -0.19640051 -0.16420789 -0.14716327 0.108050995
0000c0 6b ad de 3d 89 2a 3b be ca 96 f3 3a 15 72 30 be
       0.108729206 -0.18277945 0.0018584367 -0.17231019
0000d0 e8 52 5a 3d b1 e5 d4 bd 9f 24 14 bd 91 b6 61 be
       0.05330172 -0.10395373 -0.036167737 -0.220423
0000e0 8c 4a a7 3d 85 58 03 3e d1 47 09 be 66 f1 0f be
       0.081685156 0.12826736 -0.13406302 -0.1405693
0000f0 b8 8c 1c be b2 c5 fc 3d 6d d9 83 bd f4 c3 0d 3e
       -0.15288055 0.12342395 -0.06437955 0.13844281
000100 48 f5 91 3d 2d 76 51 be 42 78 d7 bc 0b 09 0e 3e
       0.07126862 -0.20455237 -0.02630246 0.13870637
000110 2d 24 b5 bd c5 9a 10 3e af 48 41 3d 46 9d d3 3d
       -0.088447906 0.1412154 0.047188457 0.10332732
000120 19 70 7b be f6 29 97 bd 95 8d 27 3e da 16 c3 3d
       -0.2455448 -0.0738105 0.16362603 0.09525843
000130 97 1c 05 3e bc dc d5 3d a9 1d 47 3d ce f2 75 bd
       0.12999187 0.10442492 0.04861227 -0.06004601
000140 18 76 26 3e 84 89 94 be 1c 45 b1 bd e2 90 1d be
       0.16255987 -0.29011166 -0.0865576 -0.153873
000150 52 07 2f 3e 8a c7 bc bd de 05 56 bd d3 30 54 3e
       0.17092636 -0.092177466 -0.05225169 0.2072175
000160 4d 3c fd bd 87 96 44 3d 89 3a 45 3d 27 fb e2 bc
       -0.12365017 0.047995117 0.048151527 -0.02770765
000170 92 86 0d bd 42 13 34 be 6c c7 95 3c 77 96 83 be
       -0.034552164 -0.17585471 0.018283568 -0.25700733
000180 79 7c 7c 3d 28 b5 37 be 5e 4c 1b 3e 1c 1c ba 3c
       0.061642144 -0.179402 0.1516585 0.022718482
000190 0b 80 6d bd 4f ee 94 3d 3d 08 29 be 29 2d 0e be
       -0.05798344 0.07272016 -0.16507049 -0.13884415
0001a0 b9 10 e1 3d a8 24 07 be 19 3f 1f 3e 04 97 18 be
       0.10989518 -0.13197577 0.15551414 -0.14901358
0001b0 ca 48 28 3e 90 c5 7f be 9e 8f 4d 3d 31 47 f7 3c
       0.16434017 -0.24977708 0.050185792 0.030185314
0001c0 e8 98 04 be 5b 04 25 be e9 89 6c 3b 76 39 e3 3d
       -0.12948954 -0.16114943 0.0036092943 0.11094944
0001d0 0b f8 fc 3b 63 b0 46 be 39 ce 88 3d ff f3 68 3d
       0.0077199987 -0.19403224 0.06679959 0.056873318
0001e0 34 a9 1f bc df 85 b8 bd 53 e6 8d 3e 10 33 7a be
       -0.009744931 -0.09009909 0.27714786 -0.24433541
0001f0 f2 31 74 be 57 75 71 be 74 e6 57 be 3b 57 cb 3d
       -0.23847178 -0.23579918 -0.21084005 0.09928747
000200 5c 6b 16 3e dc 93 10 be f3 1d 81 bd 2e 93 62 be
       0.14689392 -0.14118904 -0.063045405 -0.22126457
000210 51 25 a0 bd f9 6c 51 be f1 a0 70 bc 22 aa 77 be
       -0.078196175 -0.20451726 -0.014686809 -0.24185994
000220 f3 57 f9 3d 44 19 73 3d c7 e9 17 be 3a 16 50 be
       0.12174978 0.059350267 -0.14835273 -0.20320979
000230 25 c8 35 be 13 69 f5 3c 99 24 87 bd da 42 46 3e
       -0.1775213 0.02995733 -0.06598777 0.1936144
000240 e4 b2 da bc 34 a1 63 be 84 d4 1c 3d f4 14 88 3d
       -0.02669663 -0.22229463 0.03828861 0.066446215
000250 94 78 5a be e0 7e fa 3d 27 6b d2 3c 92 ef d9 3d
       -0.2133506 0.12231231 0.02568586 0.106413975
000260 73 51 4f be 24 fe 04 bd 15 13 47 3e c2 5d a7 bc
       -0.20245914 -0.03246893 0.19440873 -0.02043045
000270 5a 13 eb 3d e6 fc 2a 3d d0 1f c7 3d e3 9f 44 bd
       0.114783004 0.04174509 0.09722865 -0.048004042
000280 fa 79 88 bc 4d c5 16 3c b3 9f c1 bd a0 78 91 bd
       -0.016659725 0.009202314 -0.09454288 -0.071030855
000290 1e 7e 2b 3d f0 95 d7 3c 7f 77 b2 3d 63 ec 86 bb
       0.04186832 0.026316613 0.08714198 -0.004117535
0002a0 c4 40 f6 bc 00 64 32 bd 3d 1b 87 3d bb 1f 05 3e
       -0.03006018 -0.0435524 0.06596992 0.13000385
0002b0 bd 11 84 3d 54 19 03 3e f1 74 94 bd 24 af 86 3b
       0.06448696 0.1280263 -0.07248867 0.004110234
0002c0 4a e1 b9 3c 2f 89 68 bd be 68 86 3d 37 ae 9b bd
       0.022690434 -0.056771453 0.06562947 -0.07601588
0002d0 5d 00 b5 3d ca 96 b2 bd a4 d5 8d bd 6d 3e 1d 3c
       0.0883796 -0.08720167 -0.06925514 0.009597403
0002e0 ea 8e 9c 3d d4 fa 08 3e c3 b9 44 3d 1e 28 17 3e
       0.07644446 0.13376933 0.04802872 0.14761397
0002f0 8f 78 20 3e 91 cf 8f bc b4 42 23 bc a9 80 7a bd
       0.1567099 -0.01755503 -0.009964634 -0.061157856
000300 6a fb d0 bd e0 e7 08 bd 38 63 2a 3d c1 20 bd 3b
       -0.102042034 -0.03342426 0.04159853 0.005771727
000310 b6 62 12 3e e1 10 d7 3c 0b 1b bc 3d 47 dd b9 bd
       0.14295468 0.026253166 0.091848455 -0.090754084
000320 6c f0 fd bc 30 17 2f bd 52 f7 20 3d 5d 4d 65 bd
       -0.030998431 -0.042746723 0.039298363 -0.055981982
000330 4d ca 1f bd 5e e3 09 3d b8 e0 bb bd bd 8d fd 3c
       -0.03901129 0.0336641 -0.09173721 0.030951375
000340 79 cc 8e 3d b8 dc 8f 3d ea 49 0f 3d 30 9c bd bd
       0.06972594 0.07024521 0.0349826 -0.09258306
000350 55 b6 f0 bc f5 79 12 ba 30 48 c7 bc ae ad 9e bd
       -0.029383818 -0.0005587631 -0.024326414 -0.077479705
000360 e1 d0 65 3d 93 4f 4e 3e 0f 12 6a 3d f7 b2 a0 3d
       0.056107406 0.20147543 0.05714613 0.07846635
000370 53 e5 0b be 40 45 4c 3d 25 5f 1f 3c 7b f2 a4 bd
       -0.13661699 0.04987073 0.009727274 -0.08054062
000380 2c 6d 95 bc 0c a1 97 bc 29 38 b1 3d 23 a4 b1 3c
       -0.018240534 -0.01850941 0.0865329 0.021684712
000390 4d 08 c8 3c 57 89 16 3c 2e c4 88 3d c6 16 2e 3d
       0.02441802 0.009188018 0.06678043 0.042502187
0003a0 87 13 9a bd 1c 1a 69 3d 21 de 62 3d 3a 21 b3 bc
       -0.07523256 0.056909665 0.05538762 -0.02186643
0003b0 50 81 56 3c 25 4e 9a bc 73 22 1a 3e be 20 96 3d
       0.013092354 -0.01883609 0.15052204 0.07330464
0003c0 fb 74 a7 3d 24 b6 61 be b9 03 33 3d 3b 5c f2 bd
       0.08176609 -0.22042137 0.043704722 -0.11833998
0003d0 77 60 61 bc 89 3e 22 be c5 e4 ca bc 69 02 1a 3e
       -0.013755909 -0.15844168 -0.024767289 0.15039982
0003e0 06 25 7c bd a3 0f 6a 3d c9 7f cb 3c 32 67 20 3d
       -0.061558746 0.05714382 0.024841206 0.039160915
0003f0 31 58 8a bc fc 42 0e be 29 b7 32 3e 14 ed 52 be
       -0.016887756 -0.1389274 0.17452683 -0.2059825

layers.6.bias f4 [64]
000000 23 0d 21 3e 3e b3 6f 3e c8 db 83 be 1f e8 1e 3e
       0.15727668 0.23408219 -0.25753617 0.15518235
000010 8f ea 67 be 5f 1a 9e be 5c bd f8 3d 57 51 a1 3d
       -0.22648071 -0.30879495 0.121454924 0.078768425
000020 fc 7e d4 3d 2a 8f 05 3e c2 f7 10 3e 0f 03 15 be
       0.10375783 0.13042894 0.14157012 -0.14551948
000030 d2 2b 5b 3e b2 60 b4 3d 76 15 2d 3e 9c 99 05 3e
       0.21403435 0.08807506 0.16902718 0.13046879
000040 51 ef 58 3d d4 b5 97 bb b6 76 6c 3e f4 67 bb b8
       0.052962605 -0.00462983 0.2309216 -8.936218e-05
000050 61 a7 2c 3e f2 95 ee 3d a4 4a 82 be b7 29 a4 3d
       0.16860725 0.116496935 -0.2544757 0.08015769
000060 fa b3 0e 3e 6f fe 8c bc b8 b4 83 3d 18 57 99 be
       0.13935843 -0.017211167 0.06430954 -0.2994926
000070 3a ab 2a 3e cd 25 5a 3e 20 2a 18 be 16 74 af be
       0.1666688 0.21303482 -0.1485982 -0.34268254
000080 3d 23 7a 3e a3 76 82 3e a7 ce ee 3d ed 87 b9 3b
       0.24427505 0.25481138 0.116605096 0.0056619556
000090 5c 81 b3 3d 61 74 59 3e 06 df ec 3d 36 31 1f 3e
       0.08764908 0.21235801 0.11565976 0.15546116
0000a0 27 93 08 3e 17 e3 47 3e 27 43 37 3e 62 3b ff bd
       0.13337384 0.19520222 0.1789671 -0.12462498
0000b0 73 21 13 3e b6 1c 6a 3e f0 33 ef 3d 65 69 93 be
       0.14368229 0.22862515 0.11679828 -0.28791347
0000c0 4d 07 ec 3d 8d 12 82 be 75 e6 2c 3e 86 91 6b be
       0.1152483 -0.25404778 0.16884787 -0.23004732
0000d0 3d 83 0d 3e 8c 15 41 be 52 49 09 be 2f bb 2e 3e
       0.13819595 -0.18855876 -0.13406876 0.17063592
0000e0 f8 0c fc bd 60 a6 0a 3e 7a 5b 60 3e e8 8a 68 bd
       -0.12307161 0.1354003 0.21909896 -0.056773096
0000f0 b9 6e 37 3e 59 b7 33 3e 77 10 09 3d 52 87 ab be
       0.17913331 0.1755041 0.033462968 -0.3350168

layers.8.weight f4 [1, 64]
000000 56 f5 bf bd 9d 92 1d be 51 26 95 bc ae ca 02 be
       -0.09372966 -0.1538796 -0.018206747 -0.12772629
000010 88 48 bb bc 24 74 65 b9 b6 a8 0f 3e a3 a6 0f 3e
       -0.022861734 -0.00021882408 0.14029202 0.1402841
000020 54 65 74 3e 49 8a 00 3e 76 95 70 bd d6 0d 28 bc
       0.23866779 0.12552752 -0.058736287 -0.010257205
000030 37 b0 34 3e 37 ec 96 bd da 64 4b 3e 2d 6c 0e 3e
       0.17645346 -0.07369273 0.1986269 0.13908453
000040 18 d1 36 3e 6b 9a d3 3d d2 75 05 be 61 4c ba 3d
       0.178532 0.10332187 -0.13033226 0.09096599
000050 7f 52 13 be 4d ee f8 3d 51 fb d8 bc c4 2d 3d 3d
       -0.14386939 0.12154827 -0.026487025 0.046186224
000060 92 ed 00 3e db b4 c4 3d d2 e3 33 3e 0e 55 6a bc
       0.12590626 0.09604808 0.17567375 -0.014302505
000070 31 f7 1c be 69 94 ce bd 2b 0f 6a 3d c5 3a cc bc
       -0.15328671 -0.10086901 0.05714337 -0.024930367
000080 5c 08 28 be 01 bf 26 be e9 a0 47 3e 2f cf ee 3d
       -0.16409439 -0.162838 0.19494976 0.11660611
000090 ed e8 b4 bd 18 10 80 3e 70 a8 51 3e 59 35 01 be
       -0.088334896 0.2501228 0.2047441 -0.12618007
0000a0 cf 86 b6 bd c1 08 43 3e e9 0a 73 3e 5f 90 01 bc
       -0.089124314 0.19046308 0.2373463 -0.007907956
0000b0 e8 38 3b 3e 76 a0 78 3e b3 be 52 bd 5f 3f d3 bc
       0.18283427 0.24279961 -0.051451396 -0.025787054
0000c0 e3 bd 2d 3e 06 7e 5e bc dd 18 e3 3d 56 69 0b bc
       0.16966967 -0.013579851 0.11088727 -0.008509001
0000d0 fa 61 18 3e 20 67 f7 38 06 3d 06 bc 98 24 a6 bd
       0.14881125 0.00011797086 -0.00819326 -0.081124485
0000e0 c3 fc 8e bb 29 9c 2f 3e 1c 6e 21 be 48 48 7c bd
       -0.0043636276 0.17149414 -0.1576466 -0.06159237
0000f0 f1 75 08 be 11 75 ba bd 9b f8 42 3e 37 d9 e3 bc
       -0.13326241 -0.0910436 0.19040148 -0.027813537
