flwr-mlp/models/checkpoints/round_022.pt (torch, 127593 bytes, 7 tensors)

layers.0.weight f4 [256, 19]
0	0xbd53ca1b	-0.051706415
1	0xbe13cdda	-0.14433995
2	0xbc9daad2	-0.019246493
3	0xbe8de304	-0.27712262
4	0xbcd1ae69	-0.02559586
5	0xbe0fa9a1	-0.14029552
6	0xbdc9c6ae	-0.09852348
7	0xbe4fc972	-0.20291689
8	0x3e38096c	0.17972344
9	0xbde568fe	-0.11201666
10	0x3d4b7abc	0.049677595
11	0x3e14fd55	0.14549764
12	0xbd06533d	-0.032794226
13	0xbe157aea	-0.14597669
14	0x3e4e420e	0.20142385
15	0xbd50d6c0	-0.05098605
16	0xbe118965	-0.14212568
17	0x3d19bd25	0.037533898
18	0xbe57449c	-0.21022266
19	0xbe2e4964	-0.17020184
20	0xbd58d59b	-0.052938085
21	0x3e09dee1	0.13463928
22	0xbba315ff	-0.0049769874
23	0xbdbfa06c	-0.0935677
24	0xbcacbf4c	-0.021087311
25	0x3e49bc9b	0.19700854
26	0xbe4dde9a	-0.20104447
27	0x3db1cfde	0.08682226
28	0xbd0f7d8c	-0.03503184
29	0x3e291daf	0.1651523
30	0x3e001ba9	0.12510552
31	0xbdf2093b	-0.11818167
32	0xbd842250	-0.06451857
33	0x3d8251eb	0.06363281
34	0xbd9930f6	-0.07480042
35	0x3dcc72e5	0.09982852
36	0x3e5cd002	0.21563724
37	0xbc801c3a	-0.01563846
38	0x3d96be44	0.07360509
39	0x3de21e65	0.110409535
40	0x3c90ffa3	0.017700022
41	0xbdf31176	-0.11868565
42	0x3d8e6cac	0.06954321
43	0xbd52f46e	-0.051502638
44	0x3df3458c	0.118784994
45	0xbe6cbec3	-0.23119645
46	0xbc67484f	-0.014116361
47	0x3e6c3754	0.23067981
48	0x3dd2f349	0.10300309
49	0xbdb612d0	-0.08890307
50	0x3da69dc0	0.08135557
51	0x3e15b3ac	0.1461932
52	0x3dd7295a	0.10505934
53	0xbbf84a65	-0.007577228
54	0x3d6355fa	0.055501916
55	0x3e00e930	0.12588954
56	0xbd9c2e8f	-0.07626068
57	0x3e9032f5	0.28163877
58	0xbd4f899d	-0.050668348
59	0x3d5b2112	0.053498335
60	0x3ddbb628	0.10728103
61	0xbd9772a7	-0.07394915
62	0xbe5bc44e	-0.21461603
63	0xbe568604	-0.2094956
64	0x3e61342e	0.21992561
65	0xbd413047	-0.04716518
66	0xbcec3c6e	-0.028837409
67	0x3e53cf6f	0.20684598
68	0xbdf9194b	-0.121630274
69	0xbd9f6455	-0.07782809
70	0x3d3088fd	0.043099392
71	0xbe049b1b	-0.12949793
72	0xbd972a3d	-0.07381103
73	0xbd8c83eb	-0.06861099
74	0x3d52ceb7	0.05146667
75	0x3e095ba3	0.13413863
76	0xbda592bc	-0.08084628
77	0xbdc7e5d9	-0.09760637
78	0x3e2d70f8	0.16937625
79	0x3c42762c	0.011868995
80	0x3e57203e	0.21008393
81	0x3e31f3a7	0.17378102
82	0x3e4f5df3	0.20250683
83	0x3df828b4	0.121171385
84	0x3e31751e	0.17329833
85	0xbce97d04	-0.028501995
86	0xbe12936c	-0.1431405
87	0xbddb0c08	-0.10695654
88	0xbe526149	-0.20544924
89	0xbd3d09dd	-0.046151984
90	0xbdc458a2	-0.09587218
91	0x3dafda6a	0.08586581
92	0xbd11f5a3	-0.035634648
93	0xbd4e9403	-0.050434124
94	0xbe1dad83	-0.1539822
95	0x3d581419	0.05275354
96	0x3e09da9d	0.134623
97	0xbe024225	-0.12720545
98	0x3e4ddade	0.20103022
99	0x3dc22e37	0.09481471
100	0xbe5809cd	-0.21097489
101	0x3e287328	0.16450179
102	0x3e630a18	0.22171819
103	0xbded3ca8	-0.11583835
104	0xbe674925	-0.22586496
105	0x3da7db39	0.0819611
106	0xbe9c3f05	-0.3051683
107	0xbb685563	-0.0035451285
108	0x3e2fbf75	0.17162879
109	0x3e07a88f	0.13247894
110	0xbb7d62af	-0.0038663556
111	0x3dc84231	0.0977825
112	0xbc8ebf5d	-0.017425233
113	0xbe8ab68b	-0.27092394
114	0x3de07659	0.10960073
115	0x3e26f8da	0.16305867
116	0x3d8c64f0	0.0685519
117	0xbc9400de	-0.01806682
118	0xbd80c26c	-0.06287083
119	0xbdc9608f	-0.0983287
120	0xbe130608	-0.1435777
121	0xbe393e11	-0.18090083
122	0xbe45faff	-0.19334029
123	0x3e8fe147	0.2810156
124	0xbe6edd54	-0.23326617
125	0xbdc32cf3	-0.09530058
126	0x3d14d107	0.036332157
127	0xbde4f9d5	-0.11180464
128	0x3e12d9e9	0.14340939
129	0xbdbe1a72	-0.09282388
130	0x3d0874d4	0.03331454
131	0xbd05186e	-0.032494
132	0x3d249c55	0.040188152
133	0x3e1d0674	0.15334493
134	0xbe3998e4	-0.1812473
135	0xbcf36a17	-0.029713674
136	0xbdf69624	-0.12040356
137	0x3cf59209	0.029976862
138	0xbb53ef00	-0.00323385
139	0xbe20d648	-0.15706742
140	0xbdde35c2	-0.10850097
141	0xbd25594f	-0.040368374
142	0xbcbd0c43	-0.023077136
143	0x3c520d08	0.01282049
144	0x3d781154	0.0605634
145	0x3e382bd5	0.1798547
146	0x3e04aac5	0.12955768
147	0xbd087348	-0.033313066
148	0xbdc3f642	-0.09568454
149	0xbe72482e	-0.23660347
150	0x3c9311f5	0.017952899
151	0xbd3de0cc	-0.04635696
152	0xbcf3311d	-0.029686505
153	0x3dc10da4	0.0942643
154	0x3dbfefef	0.093719356
155	0xbd64b37f	-0.055835243
156	0x3dd9bd9f	0.106318705
157	0x3e708477	0.23488031
158	0x3dcff4b9	0.10154099
159	0x3e0ae957	0.13565575
160	0x3e7b85b0	0.24562716
161	0x3db34aa9	0.08754475
162	0xbdab93b0	-0.083777785
163	0x3e8e73f1	0.2782283
164	0xbe87b58c	-0.26505697
165	0x3e378a83	0.17923932
166	0x3d3cb218	0.04606828
167	0x3da2758f	0.07932579
168	0x3cc7ff8f	0.024413852
169	0xbe383d35	-0.17992099
170	0xbe3f17a1	-0.18661357
171	0x3e5c268b	0.21499078
172	0xbd2b6a31	-0.04184932
173	0xbd8e5e66	-0.06951599
174	0xbd838a02	-0.06422807
175	0x3e68acaa	0.22722116
176	0xbde7a4bb	-0.11310717
177	0xbc854ded	-0.01627251
178	0x3e327b2a	0.17429796
179	0x3e5303c3	0.20606904
180	0xbd823c2f	-0.06359135
181	0xbcfd67ef	-0.030933348
182	0xbce27f9f	-0.027648745
183	0x3e103a02	0.14084628
184	0x3d07c96b	0.03315107
185	0x3e02098a	0.12698951
186	0xbceeeb84	-0.029165037
187	0x3debfbfb	0.11522671
188	0x3de2262e	0.110424384
189	0x3bbc8f2e	0.005754373
190	0xbdc6b584	-0.0970259
191	0x3ca0ddc7	0.019637002
192	0x3ddeee13	0.10885253
193	0x3d56b7a6	0.052421235
194	0xbd684802	-0.056709297
195	0x3db42940	0.0879693
196	0xbde32214	-0.11090484
197	0x3e1457d5	0.1448663
198	0x3e195cc0	0.14976788
199	0xbeb6397d	-0.35590735
200	0xbe76d4a4	-0.24104553
201	0xbd11dffd	-0.035614002
202	0xbdd8f309	-0.1059323
203	0xbe10f004	-0.14154059
204	0xbdcd472b	-0.1002334
205	0x3e02fb36	0.12791142
206	0x3e1fbe76	0.15599999
207	0x3de395f9	0.111125894
208	0x3c951778	0.018199667
209	0x3e56ed0b	0.20988862
210	0xbdd4e1cd	-0.103946306
211	0xbd0b4156	-0.033997856
212	0x3e44ecac	0.19230908
213	0xbe6231fa	-0.22089377
214	0x3d911368	0.070837796
215	0xbe8ab003	-0.2708741
216	0x3dc0cde4	0.094142705
217	0x3e5f647c	0.21815675
218	0x3e17a107	0.14807521
219	0x3e324968	0.17410815
220	0xbe539f77	-0.206663
221	0x3d00be8b	0.031431716
222	0xbe597c6c	-0.2123887
223	0xbd119add	-0.03554808
224	0x3b306085	0.0026913
225	0xbd84f61a	-0.06492253
226	0x3e2d1092	0.16900852
227	0x3c8f8456	0.017519157
228	0xbdbf5041	-0.09341479
229	0x3e688e33	0.22710495
230	0xbd446955	-0.047952015
231	0xbc921133	-0.017830467
232	0x3ddb3833	0.107040785
233	0xbcdb926a	-0.026803214
234	0xbe1fd6b3	-0.15609245
235	0xbda55d04	-0.08074382
236	0xbe8d537e	-0.27602762
237	0x3e9f54d8	0.31119418
238	0xbe6a4416	-0.22877535
239	0xbbc2f89b	-0.0059500462
240	0x3e03ac44	0.12858683
241	0x3ccd9af5	0.025098303
242	0x3bad79e3	0.005294071
243	0x3dc45b4f	0.09587728
244	0xbe429b3d	-0.19004531
245	0x3c689767	0.014196253
246	0x3d1ac6d3	0.03778727
247	0xbdd14e62	-0.102200285
248	0xbd9c334a	-0.0762697
249	0x3b28c0fa	0.0025749789
250	0xbd39dbbb	-0.045375567
251	0x3e00a5a9	0.12563194
252	0xbe4f9694	-0.20272285
253	0x3d1c92cb	0.03822593
254	0x3dacd4a7	0.08438998
255	0xbe1f7101	-0.15570451

layers.0.bias f4 [256]
0	0xbc46c372	-0.012131559
1	0xbdad63fc	-0.08466336
2	0xbe98d3ad	-0.29848996
3	0xbe84a08c	-0.25903738
4	0xbe71b499	-0.23604049
5	0xbe15e448	-0.14637864
6	0xbdb70f59	-0.08938474
7	0xbe60df51	-0.21960188
8	0xbe82252e	-0.2541899
9	0xbd5ff678	-0.05467841
10	0x3d857903	0.06517222
11	0xbdcdbd33	-0.100458525
12	0x3c486a3c	0.0122323595
13	0xbebc6366	-0.36794585
14	0xbe5d7a16	-0.21628603
15	0xbe4439f2	-0.1916273
16	0x3bbac486	0.005699697
17	0xbd0edd35	-0.03487893
18	0xbe506824	-0.20352226
19	0xbe80ba45	-0.25142112
20	0xbe06468b	-0.13112848
21	0xbe536222	-0.20642903
22	0x3be860bd	0.00709161
23	0xbe42aa9a	-0.19010392
24	0xbe09b141	-0.13446523
25	0xbe1e60f8	-0.15466678
26	0xbd577e05	-0.052610416
27	0xbe729a0f	-0.23691581
28	0xbd0e11bc	-0.03468488
29	0xbdac2145	-0.08404783
30	0xbde37ca7	-0.1110776
31	0x3b36020b	0.0027772214
32	0xbe66e2f0	-0.22547507
33	0xbb1f997a	-0.0024352954
34	0xbe47bcbd	-0.19505592
35	0xbe039842	-0.1285105
36	0xbd622c1e	-0.055217855
37	0xbdb95905	-0.09050182
38	0xbe739755	-0.23788197
39	0x3d56159d	0.052266706
40	0xbe911cc3	-0.28342256
41	0xbe7fefe4	-0.24993855
42	0xbe685581	-0.22688867
43	0xbe862c19	-0.2620552
44	0xbe7c993c	-0.2466783
45	0xbe3cfa13	-0.1845477
46	0xbe172144	-0.14758784
47	0x3d0a2e7a	0.03373573
48	0xbe24d6e8	-0.16097605
49	0xbea84f28	-0.3287289
50	0xbe737914	-0.23776656
51	0xbe28c439	-0.16481103
52	0xbe0d34cc	-0.13789672
53	0xbd89a74e	-0.06721364
54	0xbe056cf1	-0.13029839
55	0xbd327b78	-0.04357478
56	0xbeb469c3	-0.3523694
57	0xbd4546ad	-0.048163105
58	0xbe33b295	-0.17548592
59	0xbe3595a8	-0.1773287
60	0xbecc2f10	-0.39879656
61	0xbe8693e4	-0.26284707
62	0xbe23f3dd	-0.16010995
63	0xbeb01d6a	-0.3439744
64	0xbda5c1cc	-0.080936044
65	0xbd6c37e2	-0.05767048
66	0xbe931f52	-0.28734833
67	0xbeda885f	-0.42682168
68	0xbeadf6bf	-0.33977315
69	0xbe72e6c7	-0.23720847
70	0xbea613b0	-0.32436895
71	0x3d976ca5	0.07393769
72	0xbe0f922a	-0.14020601
73	0xbe8c28ce	-0.27374882
74	0xbe502c1c	-0.20329326
75	0xbe0d4f06	-0.13799676
76	0xbe9573a7	-0.29189798
77	0xbe921224	-0.28529465
78	0xbe01ff3c	-0.1269502
79	0xbce11e0a	-0.027480144
80	0xbcefc8ad	-0.029270494
81	0xbe4b9539	-0.19881143
82	0xbd3d0f5d	-0.04615723
83	0xbe4b6f29	-0.19866623
84	0xbe983e1c	-0.29734886
85	0xbe89beb9	-0.26903322
86	0xbe068cc1	-0.13139631
87	0x3dbb276b	0.09138378
88	0xbe34c7db	-0.17654364
89	0xbd13c04b	-0.036072057
90	0xbe991b2a	-0.29903537
91	0xbd248d83	-0.04017402
92	0xbe723688	-0.23653615
93	0xbd8fa437	-0.07013743
94	0xbea2f5e6	-0.3182823
95	0xbe6c4f54	-0.23077136
96	0xbea7f772	-0.32805973
97	0xbe6a5038	-0.22882164
98	0xbec5246d	-0.38504353
99	0xbe9cca6a	-0.3062318
100	0xbe2af5b8	-0.16695297
101	0xbe624baf	-0.22099183
102	0xbdc01870	-0.09379661
103	0xbe8afce1	-0.27146056
104	0xbe737935	-0.23776706
105	0xbea41326	-0.3204586
106	0xbe813551	-0.2523599
107	0xbe84d8ff	-0.25946805
108	0xbc3dee5b	-0.011592473
109	0xbea42436	-0.32058877
110	0xbebb80c7	-0.36621687
111	0xbbb40f0e	-0.0054949587
112	0xbe422ca2	-0.18962339
113	0xbe28b90e	-0.16476843
114	0xbe8a7e93	-0.27049693
115	0xbd84565e	-0.06461786
116	0x3cd93b3c	0.026517503
117	0xbe1b252a	-0.15150896
118	0xbddaa03f	-0.10675096
119	0xbe4244d5	-0.1897157
120	0xbe706f72	-0.23480013
121	0xbe493d68	-0.19652331
122	0xbe8bb1bc	-0.27284038
123	0xbe5e7c74	-0.21727163
124	0xbd930643	-0.07178929
125	0xbeb35419	-0.350251
126	0x3d9940b2	0.07483043
127	0xbe27fba8	-0.16404593
128	0xbc772e79	-0.015086764
129	0xbe158ba8	-0.14604056
130	0xbd35b5a4	-0.04436268
131	0xbea2e4e7	-0.31815264
132	0x3c14e864	0.009088609
133	0xbe272c40	-0.16325474
134	0xbd3bbd56	-0.04583486
135	0xbe5dc3e3	-0.21656756
136	0x3d70bd40	0.058774233
137	0xbe2adf76	-0.16686806
138	0xbc3f519b	-0.011677171
139	0xbe741ec6	-0.23839864
140	0xbe0fd88d	-0.14047451
141	0xbe87e2a9	-0.26540115
142	0xbe3c0e55	-0.18364842
143	0xbd9e3976	-0.077258036
144	0xbe0f5767	-0.13998185
145	0xbe32f824	-0.1747747
146	0xbcc83efb	-0.024444094
147	0x3dafc209	0.08581931
148	0xbea15a04	-0.3151399
149	0xbe289815	-0.16464265
150	0xbeb3d1b5	-0.3512093
151	0xbe018fca	-0.12652507
152	0xbdec0cdb	-0.115258895
153	0xbd690b4d	-0.056895543
154	0xbe0d50db	-0.13800375
155	0xbe72eeee	-0.23723957
156	0xbe1548ea	-0.14578596
157	0xbe36372b	-0.17794482
158	0xbe1e395f	-0.15451573
159	0xbe4d71a1	-0.20062877
160	0xbea68dc9	-0.32530048
161	0xbdf3fa4d	-0.119129755
162	0xbd981aa1	-0.07426954
163	0xbc85ae47	-0.016318453
164	0xbe286f21	-0.16448642
165	0xbd4cd9fe	-0.05001258
166	0xbe858480	-0.26077652
167	0xbe7748fa	-0.24148932
168	0xbdf6e54d	-0.120554544
169	0xbe9721e5	-0.29518047
170	0xbd35566e	-0.04427188
171	0xbab5971b	-0.0013854237
172	0xbe674d6d	-0.2258813
173	0xbe143fd6	-0.14477476
174	0xbe921083	-0.28528222
175	0xbe837cf0	-0.25681257
176	0xbea4dd78	-0.32200217
177	0xbda82f1c	-0.082121104
178	0xbdaee2b9	-0.08539338
179	0xbe084b89	-0.13310064
180	0x3cfa354a	0.030542988
181	0x3c38dfc9	0.011283823
182	0xbeb8fb95	-0.36129442
183	0xbe4eaf74	-0.20184118
184	0x3b15f4e8	0.0022881571
185	0xbbc64757	-0.006050985
186	0xbd02f1f6	-0.031969033
187	0xbe1b3278	-0.15155971
188	0xbe0ec520	-0.13942385
189	0xbe8a7f34	-0.27050173
190	0xbdeaaea2	-0.1145909
191	0xbdd8d5ee	-0.10587679
192	0xbb3811b9	-0.0028086735
193	0x3d508a45	0.050913114
194	0xbe7c923e	-0.24665162
195	0xbe14bfa5	-0.14526232
196	0xbe1486e7	-0.14504586
197	0xbe978b32	-0.29598385
198	0xbdfc7ee0	-0.12328887
199	0xbdf42b5a	-0.11922331
200	0xbc37201b	-0.011177088
201	0xb91c149c	-0.00014884997
202	0xbe8743fb	-0.26419052
203	0xbd855d9f	-0.065119974
204	0xbe2c1d5e	-0.16808078
205	0xbeb7e3fd	-0.3591613
206	0xbec82a89	-0.39094952
207	0xbd453a14	-0.04815109
208	0xbd3bf66f	-0.045889314
209	0xbceec8d4	-0.029148497
210	0xbe30850c	-0.17238253
211	0xbe46e3ae	-0.1942279
212	0xbea7dc84	-0.32785428
213	0xbe9f4764	-0.31109154
214	0xbdbe70f7	-0.0929889
215	0xbdb558de	-0.08854841
216	0xbe80e292	-0.2517286
217	0xbe989520	-0.29801273
218	0x3d478f3d	0.048720587
219	0xbe7ab852	-0.24484375
220	0xbea2c35e	-0.31789678
221	0xbdb7b748	-0.08970505
222	0xbdf25fe9	-0.118347
223	0xbe288118	-0.16455495
224	0xbec4fdfc	-0.38475025
225	0xbdbafe79	-0.09130568
226	0xbcc0a054	-0.02351395
227	0xbda35b10	-0.07976353
228	0xbe7dd2c9	-0.2478744
229	0xbea33539	-0.31876543
230	0xbe59d362	-0.21272042
231	0xbe8e78a3	-0.27826414
232	0xbe5f4595	-0.21803887
233	0xbe8be1ca	-0.273207
234	0xbe93c6e0	-0.28862667
235	0xbdeef3f1	-0.11667622
236	0xbc980db2	-0.018561218
237	0xbd9de8d0	-0.07710421
238	0xbe917b13	-0.2841421
239	0xbebc2e58	-0.36754107
240	0xbe7bd02d	-0.24591132
241	0xbeb44fcc	-0.3521713
242	0xbe85d541	-0.26139262
243	0x3da6b134	0.081392676
244	0xbe85b8e2	-0.26117617
245	0xbe1229fe	-0.14273831
246	0xbe79e7aa	-0.24404779
247	0xbd548cbb	-0.051892024
248	0xbea35e5a	-0.31907922
249	0xbdc2d8c9	-0.09514005
250	0xbc84911b	-0.016182473
251	0xbdc6ad23	-0.09700992
252	0x3bb69f70	0.0055732056
253	0xbd06d62c	-0.032919094
254	0xbe741a45	-0.23838146
255	0x3c012eaa	0.007884661

layers.3.weight f4 [80, 256]
0	0xbd31dab0	-0.043421447
1	0x3d5aea8f	0.05344635
2	0x3d171920	0.036889195
3	0xbc870374	-0.016481139
4	0xbd87b265	-0.06625823
5	0xbd66141c	-0.05617152
6	0x3d5a9ecd	0.0533741
7	0x3d8eaccc	0.06966552
8	0x3dd95faa	0.106139496
9	0xbe16794b	-0.14694707
10	0xbcdb2b7b	-0.026754132
11	0xbd760500	-0.060063362
12	0xbc563042	-0.013073029
13	0x3e07ac44	0.13249308
14	0x3cd80c87	0.026373161
15	0x3d819132	0.06326522
16	0xbdb49e7e	-0.088192925
17	0xbda1b60d	-0.078960516
18	0x3d92c8da	0.07167216
19	0x3d9db862	0.07701184
20	0x3daa03a1	0.083014734
21	0x3d15c295	0.03656252
22	0x3cd8d126	0.026466917
23	0x3d2a22dd	0.041537154
24	0x3db773be	0.08957623
25	0xbc87baf6	-0.016568642
26	0xbc3a5e9b	-0.011375095
27	0x3de83c7e	0.11339663
28	0xbdd9f970	-0.106432796
29	0xbce1f67d	-0.027583355
30	0x3d902ab7	0.07039397
31	0x3c00483c	0.007829722
32	0x3e1408b4	0.14456445
33	0xbdbd4d63	-0.09243276
34	0x3d93434b	0.071905695
35	0x3da63e5b	0.08117362
36	0xbe033489	-0.1281301
37	0x3bdc7f27	0.006729025
38	0x3db6a957	0.08919018
39	0xbe0e61fa	-0.13904563
40	0x3c3742bd	0.011185345
41	0xbdc2ccc8	-0.09511715
42	0xbde8710c	-0.11349687
43	0x3de90213	0.11377349
44	0x3df76f35	0.12081758
45	0xbd2227cf	-0.039588746
46	0x3d483254	0.04887612
47	0x3c980b01	0.018559935
48	0xbd673ff5	-0.05645748
49	0x3d917fae	0.07104431
50	0x3db43bc6	0.088004634
51	0xbcd8b337	-0.026452644
52	0xbcf37e73	-0.029723382
53	0xbd9c9e48	-0.07647377
54	0xbd9e78f1	-0.077379115
55	0xbd135778	-0.03597209
56	0x3dc32f8f	0.095305555
57	0x3d28ea72	0.04123921
58	0x3cd6c498	0.02621679
59	0xbe08dcf6	-0.1336554
60	0x3e58fe79	0.21190824
61	0xbcc6b12e	-0.024254408
62	0x3da71a0e	0.081592664
63	0x3e530c27	0.20610105
64	0xbd4630de	-0.048386447
65	0xbd07437e	-0.03302335
66	0x3da3cee9	0.07998449
67	0x3d9e9d78	0.077448785
68	0x3e241697	0.16024242
69	0x3cd9f8b6	0.026607852
70	0x3d5b3fd9	0.053527687
71	0xbe4c65be	-0.19960687
72	0x3d68404a	0.056701936
73	0xbd01a44c	-0.031650826
74	0xbd34ba86	-0.044123195
75	0x3dc66ef8	0.09689134
76	0xbe0b1ebd	-0.13585944
77	0x3d992c19	0.07479114
78	0x3d364676	0.04450079
79	0xbdd39b70	-0.10332382
80	0xbd5b2742	-0.053504236
81	0x3c3268fe	0.01088929
82	0x3c794008	0.01521302
83	0x3dd9a2bf	0.106267445
84	0xbd8df92a	-0.0693229
85	0x3ddc06e8	0.10743505
86	0x3e270137	0.16309057
87	0xbcfe98c4	-0.031078704
88	0x3b56c017	0.0032768303
89	0xbb65b58c	-0.0035050837
90	0x3cfd799a	0.030941773
91	0x3d0fd39b	0.035113912
92	0xbd8afeac	-0.06786856
93	0xbd999dcb	-0.075008
94	0x3d522e1f	0.051313516
95	0x3c9be88c	0.019031785
96	0x3ccd7a50	0.025082737
97	0x3b77ba9a	0.0037800432
98	0x3d9c850a	0.07642563
99	0x3d54c0fd	0.05194186
100	0xbdd1eff2	-0.10250844
101	0xbc19bfd4	-0.009384114
102	0x3d80b851	0.062851556
103	0xbd364315	-0.04449757
104	0xbd8bafd4	-0.06820646
105	0x3d99bc18	0.07506579
106	0x3e2c390d	0.16818638
107	0x3d92b2d5	0.07163016
108	0xbde95590	-0.11393273
109	0x3e0022d0	0.1251328
110	0x3d9af03c	0.07565352
111	0x3bd2f726	0.006438154
112	0x3d39ab81	0.045329574
113	0x3d7a7306	0.06114485
114	0xbda7b0d0	-0.08188021
115	0xbd52f91e	-0.051507108
116	0xbdb5480c	-0.088516325
117	0x3d24bafb	0.04021738
118	0x3d2b14e6	0.041767977
119	0xbd816da4	-0.063197404
120	0x3c857c6f	0.016294686
121	0x3da094d4	0.07840887
122	0x3da6f86a	0.0815285
123	0x3cd9b924	0.02657754
124	0x3cedbbdd	0.029020244
125	0x3d86343c	0.06552932
126	0xbd24cc1c	-0.040233716
127	0x3decd657	0.115643196
128	0xbd5e4a1c	-0.054269895
129	0x3c22c028	0.009933509
130	0xbc5d9b27	-0.013525761
131	0x3e399523	0.18123297
132	0xbe15932d	-0.14606924
133	0xbe137e1a	-0.14403573
134	0xbd66a533	-0.05630989
135	0xbae06a0c	-0.0017121448
136	0xbdf328ac	-0.11872992
137	0x3da5d03a	0.08096357
138	0xbc090db0	-0.00836508
139	0x3d96aa30	0.073566794
140	0xbdb54ec1	-0.08852912
141	0x3d323918	0.04351148
142	0xbcaac8ca	-0.020847697
143	0x3d63ac49	0.055584226
144	0x3d09a01f	0.03359997
145	0xbca83e96	-0.020537656
146	0xbe0ad0f5	-0.13556273
147	0xbd4071cc	-0.046983525
148	0x3e470d6b	0.19438712
149	0x3dcdfcf9	0.10058016
150	0x3d676602	0.056493767
151	0x3bd6baf1	0.006553047
152	0x3c97250e	0.018450286
153	0x3c39339d	0.0113038095
154	0x3cbaa10e	0.022781875
155	0x3d92c44b	0.07166346
156	0xbca996ed	-0.02070185
157	0xbc498300	-0.012299299
158	0x3cf26986	0.029591333
159	0x3b0c06aa	0.0021366277
160	0x3e4a5787	0.19759952
161	0x3de6af43	0.11263897
162	0x3cdd0762	0.02698106
163	0x3b802c66	0.0039115427
164	0xbcf67f77	-0.030090077
165	0xbd1b30a9	-0.037888203
166	0x3d00b539	0.031422827
167	0x3bb56b4b	0.005536472
168	0x3dd2476d	0.1026753
169	0x3ded280e	0.115799055
170	0xbb93b7dd	-0.004508002
171	0xbd1330a5	-0.035935063
172	0x3de7ac01	0.11312104
173	0xba094c35	-0.0005237491
174	0x3dfbaaea	0.12288459
175	0xbd68759b	-0.056752782
176	0xbd87eefe	-0.06637381
177	0xbb47078d	-0.003036949
178	0x3df6e3ad	0.120551445
179	0xbd877135	-0.066133894
180	0xbd9a14c7	-0.07523494
181	0x3d351a19	0.04421434
182	0x3d4329d1	0.0476473
183	0x3dbb8e71	0.09158028
184	0xbc533eb1	-0.012893365
185	0x3c3442d5	0.011002262
186	0xbe0153c5	-0.12629612
187	0x3db68821	0.08912683
188	0xbcb56604	-0.022143371
189	0x3b534de4	0.0032242471
190	0x3bd91b8f	0.0066255997
191	0xbde1aa4f	-0.11018812
192	0xbc9a10fd	-0.018806929
193	0xbdb64637	-0.08900111
194	0x3db06470	0.08612907
195	0x3d9e2d83	0.077235244
196	0x3db817f6	0.08988945
197	0x3d03b2c7	0.032152917
198	0x3d2fdf0e	0.04293733
199	0xbc2ba41c	-0.010476138
200	0xbd9be0cc	-0.07611236
201	0x3dee3854	0.116318375
202	0xbc7369e0	-0.014856786
203	0xbd587f1b	-0.052855592
204	0x3d0fb961	0.0350889
205	0x3d4620ce	0.04837113
206	0x3df54218	0.11975497
207	0xbc5d025f	-0.013489335
208	0xbcd58c83	-0.026067978
209	0xbbb5e347	-0.005550775
210	0xbddfe2af	-0.10931908
211	0x3bccd271	0.0062506725
212	0x3d952f5b	0.07284423
213	0x3e1594bf	0.14607523
214	0x3dc72c67	0.09725266
215	0xbc0aed22	-0.008479388
216	0x3d94f2d4	0.07272878
217	0x3e114419	0.14186133
218	0xbd37055d	-0.04468285
219	0x3d9fd28d	0.07803831
220	0xbb822fa1	-0.003972963
221	0xbd69e8a5	-0.057106633
222	0xbd81884e	-0.06324826
223	0x3d622f62	0.05522097
224	0x3dc566c3	0.09638741
225	0xbd3f9f5d	-0.04678284
226	0xbd8899f5	-0.0666999
227	0x3d9fc9bf	0.07802152
228	0x3d90f812	0.07078566
229	0x3dfc3519	0.12314815
230	0x3d0e1233	0.034685325
231	0x3d8c2bbe	0.06844281
232	0x3d9f4dc1	0.07778502
233	0x3e3cff03	0.18456654
234	0x3d514754	0.051093414
235	0xbcb7660a	-0.022387523
236	0xbcb61e94	-0.022231378
237	0x3c52eed5	0.012874325
238	0xbc2f8fc6	-0.010715431
239	0x3db68718	0.08912486
240	0x3d52c2b6	0.051455222
241	0xbd7f3d14	-0.062314108
242	0xbd109706	-0.035300277
243	0xbcd30f0f	-0.025764016
244	0x3e11b8ee	0.14230701
245	0x3e019dce	0.12657854
246	0x3dbb5f93	0.09149089
247	0x3d1abcdb	0.037777763
248	0x3e724a21	0.2366109
249	0xbd21bd40	-0.039487123
250	0xbd2332c9	-0.039843354
251	0xbcf143de	-0.029451307
252	0xbd871b01	-0.065969475
253	0xbcfebbb2	-0.03109536
254	0x3df782d2	0.12085499
255	0xbd8de9e0	-0.06929374

layers.3.bias f4 [80]
0	0xbe0004d2	-0.12501839
1	0x3d8a80b7	0.06762832
2	0xbdfab0c3	-0.12240746
3	0xbd703bd6	-0.058650814
4	0xbde9be1a	-0.11413212
5	0xbe4a32ee	-0.1974599
6	0xbe0c7568	-0.13716662
7	0xbdc0357a	-0.093852
8	0xbaf67c55	-0.0018805364
9	0xbdf0d889	-0.11760051
10	0xbd61b8ea	-0.05510799
11	0xbce2eedf	-0.027701793
12	0xbd32e9c2	-0.04367996
13	0x3c03fc1b	0.008055712
14	0xbcb3a8e2	-0.021931116
15	0x3d9e9a28	0.07744247
16	0x3ba7cd50	0.0051209107
17	0x3d26635c	0.0406221
18	0xbd84af99	-0.06478805
19	0xbcd05f7a	-0.025436152
20	0xbe20b322	-0.15693334
21	0xbdc3d3df	-0.095618956
22	0x3cc69fa8	0.024246052
23	0xbc46c38a	-0.012131581
24	0xbcc7c94b	-0.024387976
25	0xbe0591c1	-0.13043882
26	0xbd98dfc8	-0.07464558
27	0x3cab221a	0.020890284
28	0x3d551324	0.052020207
29	0xbce9060b	-0.028445264
30	0xbe3cf815	-0.18454011
31	0xbd6ebc19	-0.058284853
32	0x3c6cd7a7	0.014455712
33	0x3d4902fd	0.049075115
34	0xbe1dbdb7	-0.15404402
35	0xbe46e772	-0.19424227
36	0xbc040a2e	-0.008059068
37	0x3d6bdd34	0.057584003
38	0x3b9f00f5	0.004852409
39	0xbda0dfa8	-0.07855159
40	0xbda9f680	-0.08298969
41	0xbcc349bc	-0.02383887
42	0xbdc11d14	-0.09429374
43	0x3d09bbdd	0.033626426
44	0xbc51f870	-0.01281558
45	0xbdd438cb	-0.10362395
46	0xbd6f4950	-0.058419526
47	0xbe1afb60	-0.15134954
48	0xbdb8249d	-0.089913584
49	0x3d77cb10	0.06049639
50	0xbdf7840f	-0.12085735
51	0x3bdc476f	0.0067223827
52	0xbe2ce26a	-0.16883245
53	0x3ca7a654	0.020465054
54	0xbd14c6e1	-0.03632248
55	0x3b338173	0.002739039
56	0xbd7b1230	-0.06129664
57	0xbe292127	-0.16516553
58	0xbd04883e	-0.032356493
59	0x3d98c917	0.0746023
60	0x3d8b7add	0.06810544
61	0xbe18aa4f	-0.14908718
62	0x3d2a2ae3	0.041544806
63	0x3cad8b22	0.021184508
64	0xbd8b2536	-0.06794207
65	0x3c2e4ade	0.010637967
66	0xbcf5ae81	-0.029990437
67	0xbdb2cef5	-0.0873088
68	0xbb4ab4a3	-0.0030930422
69	0xbe05ba14	-0.13059264
70	0x3cdbd353	0.026834166
71	0xbe0da3a8	-0.13831961
72	0x3a0a7600	0.00052818656
73	0xbd439d8c	-0.04775767
74	0xbe43ec21	-0.19133045
75	0xbdbfe90e	-0.093706235
76	0xbe3a7e76	-0.18212304
77	0xbd35f624	-0.04442419
78	0xbde8bdd5	-0.113643326
79	0xbe45c0aa	-0.19311777

layers.6.weight f4 [64, 80]
0	0x3dff916d	0.1247891
1	0xbe1d82ee	-0.15381977
2	0xbce8f96d	-0.028439248
3	0xbd6c018e	-0.05761867
4	0x3dd86ff5	0.10568229
5	0xbdb1fc6e	-0.08690725
6	0x3a26056f	0.0006333207
7	0x3d39d72e	0.045371227
8	0xbd4efa2a	-0.050531544
9	0xbc48b3fb	-0.012249942
10	0x3e25fcb4	0.1620968
11	0xbd59e7c8	-0.05319956
12	0x3d867f6f	0.06567275
13	0xbdaf3535	-0.0855507
14	0x3e32d88d	0.1746542
15	0xbe5c470a	-0.21511474
16	0x3d669ea7	0.056303646
17	0xbe28cde6	-0.16484794
18	0x3d6eaa66	0.058267973
19	0x3e470335	0.19434817
20	0x3b002d1f	0.0019558144
21	0xbd9b1346	-0.075720355
22	0xbdd5110b	-0.10403641
23	0xbda8d071	-0.08242882
24	0x3ca97a4c	0.020688199
25	0xbda3fd5f	-0.08007311
26	0x3c9512ff	0.018197535
27	0xbd83d8ee	-0.064378604
28	0x3cb15c02	0.021650318
29	0xbe184ff6	-0.14874253
30	0x3e3a3416	0.18183932
31	0x3e362f08	0.17791378
32	0xbe41ed6c	-0.18938226
33	0xbe3d8382	-0.18507197
34	0x3c08c703	0.008348229
35	0xbd028ab6	-0.031870566
36	0x3d90998c	0.07060537
37	0xbe368e80	-0.17827797
38	0x3dd90b61	0.105978735
39	0x3c91d9e7	0.0178041
40	0x3d5cb48b	0.053883117
41	0xbda1bb18	-0.078970134
42	0x3e32b24c	0.17450827
43	0xbd622529	-0.05521122
44	0xbe295f60	-0.16540289
45	0xbdf6b2ff	-0.120458595
46	0xbdfee042	-0.124451175
47	0x3def8b2f	0.11696469
48	0x3dea5eea	0.11443885
49	0xbe31526f	-0.17316602
50	0x3d0fcfe6	0.035110377
51	0xbe088f05	-0.13335808
52	0x3d9095ba	0.07059808
53	0xbd938734	-0.07203522
54	0xbd52ee07	-0.05149653
55	0xbe41a8a6	-0.1891199
56	0x3da8dedc	0.08245632
57	0x3df2acc8	0.11849362
58	0xbdc85862	-0.09782483
59	0xbdcde52e	-0.10053478
60	0xbe11e983	-0.14249234
61	0x3e02a5ce	0.12758562
62	0xbd5a5e0a	-0.05331234
63	0x3e046691	0.12929751
64	0x3d9aa397	0.075507335
65	0xbe37db09	-0.17954649
66	0xbcaba130	-0.020950884
67	0x3e16b0b3	0.14715843
68	0xbd382836	-0.044960223
69	0x3e185e1d	0.14879651
70	0x3d23fee5	0.04003801
71	0x3de17d6b	0.1101025
72	0xbe450f16	-0.19244036
73	0xbd4116b0	-0.047140777
74	0x3e226d56	0.15862021
75	0x3dcec112	0.10095419
76	0x3e187d36	0.14891514
77	0x3dd45784	0.10368255
78	0x3d5b654c	0.0535634
79	0xbd23400d	-0.039856005
80	0x3e26af6d	0.16277857
81	0xbe830713	-0.25591335
82	0xbd9b04bf	-0.075692646
83	0xbe08af50	-0.13348126
84	0x3e33daea	0.17563978
85	0xbd7b150e	-0.061299376
86	0xbd307b72	-0.043086477
87	0x3e4b749c	0.19868702
88	0xbdbca14c	-0.092104524
89	0x3d8fcfb3	0.07022037
90	0x3d360548	0.04443863
91	0x3b843860	0.0040350407
92	0xbd0e649a	-0.03476391
93	0xbe0ebc06	-0.13938913
94	0x3c93851b	0.018007806
95	0xbe670127	-0.22559033
96	0x3d62c651	0.05536491
97	0xbe2186f1	-0.15774132
98	0x3e089987	0.13339816
99	0x3c616682	0.01375735
100	0xbd32adae	-0.043622665
101	0x3da048ac	0.07826361
102	0xbdfcffb7	-0.12353461
103	0xbdd52219	-0.10406894
104	0x3dd58b81	0.10426999
105	0xbdb51a03	-0.08842852
106	0x3e1521df	0.14563702
107	0xbe03612a	-0.12830034
108	0x3e09f3b1	0.13471867
109	0xbe6ae002	-0.22937015
110	0x3d6d1fee	0.05789178
111	0x3cea62dd	0.028611595
112	0xbdc5666d	-0.09638677
113	0xbde42e65	-0.111416616
114	0x3ba53bbe	0.005042522
115	0x3e07932e	0.13239738
116	0x3b43ce5f	0.0029877645
117	0xbe20884b	-0.15676992
118	0x3d71f782	0.059073932
119	0x3d654b85	0.055980224
120	0xbc5917a2	-0.013250263
121	0xbd873734	-0.06602326
122	0x3e741681	0.2383671
123	0xbe51c104	-0.20483786
124	0xbe56c208	-0.20972455
125	0xbe3ce4b5	-0.1844662
126	0xbe3f10e7	-0.18658791
127	0x3dd8b90e	0.105821714
128	0x3e18f718	0.14938009
129	0xbdf8ae69	-0.12142641
130	0xbd070938	-0.032967776
131	0xbe3c4708	-0.18386471
132	0xbd84831d	-0.064703204
133	0xbe306b65	-0.17228468
134	0xbcff7689	-0.031184452
135	0xbe59e1da	-0.21277562
136	0x3df48594	0.119395405
137	0x3d3f2f7b	0.04667614
138	0xbddbcdf3	-0.10732641
139	0xbe235458	-0.15950143
140	0xbe2efc52	-0.1708844
141	0x3d000582	0.031255253
142	0xbd20f5b1	-0.03929681
143	0x3e39121f	0.18073319
144	0xbcd86f62	-0.026420299
145	0xbe4bb2b4	-0.19892389
146	0x3d2c0932	0.042000957
147	0x3d941c55	0.072319664
148	0xbe37b4d6	-0.17940077
149	0x3e015364	0.12629467
150	0x3c82bd52	0.015959416
151	0x3de2119b	0.11038514
152	0xbe143e79	-0.14476956
153	0xbb048439	-0.0020220412
154	0x3e3ffa0d	0.1874773
155	0xbc97e914	-0.018543757
156	0x3e05a5f0	0.13051581
157	0x3d195f89	0.037444625
158	0x3dcfd00a	0.10147102
159	0xbcf0ea9a	-0.029408742
160	0xbceb8ec3	-0.028754598
161	0x3c6bdc20	0.014395744
162	0xbdc283b0	-0.09497774
163	0xbd87b476	-0.06626217
164	0x3d1bc9d2	0.038034268
165	0x39538024	0.00020170264
166	0x3c39f0d5	0.011348923
167	0xbc935d3a	-0.01798879
168	0xbd2ba5ef	-0.041906293
169	0xbd304a60	-0.04303968
170	0x3d903f3b	0.0704331
171	0x3d8bf70f	0.06834232
172	0x3d8ec25b	0.06970664
173	0x3dab6261	0.08368374
174	0xbd9bd717	-0.076093845
175	0xbc87223f	-0.016495822
176	0x3c9628b3	0.018329954
177	0xbd59ed6c	-0.05320494
178	0x3d344f29	0.044020806
179	0xbd9acd57	-0.07558697
180	0x3db71f29	0.0894149
181	0xbdc2c093	-0.09509387
182	0xbd8a3561	-0.067484625
183	0x3be6a49a	0.007038665
184	0x3d5e2484	0.054234043
185	0x3dbc8cd7	0.092065506
186	0x3d4d6f92	0.05015523
187	0x3e023bba	0.12718096
188	0x3de9e757	0.11421078
189	0xbcebdb20	-0.02879101
190	0xbd36278b	-0.044471305
191	0xbd8e2a68	-0.06941682
192	0xbdc8a3b7	-0.09796851
193	0xbd6af05c	-0.05735813
194	0x3d31a6b3	0.043371867
195	0x3c040b63	0.008059355
196	0x3da05280	0.078282356
197	0x3b86b4a8	0.0041108914
198	0x3dc17b39	0.09447331
199	0xbdbbc152	-0.09167732
200	0xbd11826d	-0.035524774
201	0xbd7301ab	-0.059327763
202	0x3c059b3c	0.008154687
203	0xbd8e203a	-0.069397405
204	0xbd7d120e	-0.061784796
205	0x3d0de6ab	0.03464381
206	0xbdb800cc	-0.08984527
207	0x3cddaf9c	0.027061276
208	0x3d9408b1	0.0722822
209	0x3d4964e2	0.049168475
210	0x3d0d532e	0.034503154
211	0xbdeb1884	-0.11479285
212	0xbd017b23	-0.031611573
213	0xbc8e51bd	-0.01737296
214	0xbdacd7e0	-0.084396124
215	0xbde11958	-0.10991162
216	0x3d70c7b0	0.058784187
217	0x3e3c4c98	0.18388593
218	0x3d01ad98	0.031659693
219	0x3d87cf7b	0.06631371
220	0xbe07fc68	-0.13279879
221	0x3d682a19	0.056680772
222	0x3c2466a3	0.010034236
223	0xbda65f81	-0.08123685
224	0xbcda03bb	-0.026613107
225	0xbcacef37	-0.02111016
226	0x3d5a14ef	0.05324262
227	0x3ce3030d	0.027711416
228	0x3c0fada7	0.008769429
229	0x3c5ef71d	0.013608721
230	0x3d53400e	0.05157476
231	0x3d22e4a6	0.039768837
232	0xbdc025a6	-0.09382181
233	0x3d0fc127	0.035096314
234	0x3d1aa995	0.037759382
235	0xbcc8fd34	-0.0245348
236	0x3c902ea7	0.01760037
237	0xbcca8af1	-0.024724456
238	0x3dfeabc5	0.12435106
239	0x3d9ee142	0.07757808
240	0x3daadef7	0.083433084
241	0xbe3945e9	-0.18093075
242	0x3d671635	0.056417663
243	0xbdcee494	-0.101021916
244	0xbc0cbe57	-0.008590302
245	0xbe03250d	-0.12807103
246	0xbc8a3517	-0.016871018
247	0x3e12b2b2	0.1432598
248	0xbced11b8	-0.028939113
249	0x3da290a9	0.07937748
250	0x3cba602b	0.022750935
251	0x3d725385	0.05916168
252	0xbc8b2f59	-0.01699035
253	0xbdf5b661	-0.11997677
254	0x3e34635e	0.1761603
255	0xbe37435c	-0.1789679

layers.6.bias f4 [64]
0	0x3e07a92b	0.13248126
1	0x3e53de7d	0.20690341
2	0xbe5583f3	-0.20851116
3	0x3e028013	0.12744169
4	0xbe34d3ae	-0.17658874
5	0xbe8c3f86	-0.27392215
6	0x3de277a9	0.110579796
7	0x3d941b7f	0.07231807
8	0x3dd2a921	0.10286165
9	0x3e00f8b8	0.12594879
10	0x3df1b957	0.11802929
11	0xbdd9a059	-0.10626287
12	0x3e51beb9	0.20482911
13	0x3d7f296d	0.062295366
14	0x3e2002f4	0.15626127
15	0x3deaaf92	0.11459269
16	0x3d33551e	0.043782346
17	0xbd2f0e36	-0.042738162
18	0x3e52a60e	0.20571157
19	0xbce45e17	-0.027876897
20	0x3e0fa4c8	0.14027703
21	0x3deb8fb7	0.11502021
22	0xbe584af5	-0.21122344
23	0x3da41122	0.0801108
24	0x3e05d0c2	0.13067916
25	0xbd4db840	-0.050224543
26	0x3d24c23f	0.04022431
27	0xbe7f9d17	-0.24962269
28	0x3e0e5bf0	0.13902259
29	0x3e41be2d	0.18920203
30	0xbe12add4	-0.14324123
31	0xbe98b188	-0.29822946
32	0x3e5fab2d	0.21842642
33	0x3e6b868a	0.23000541
34	0x3dc55182	0.09634687
35	0xbc6ccaa4	-0.01445261
36	0x3d6d2eeb	0.057906073
37	0x3e4cbfb1	0.19995
38	0x3dcc050a	0.099618986
39	0x3e02a4c0	0.1275816
40	0x3dd9e9a0	0.106402636
41	0x3e3c8bbc	0.1841268
42	0x3e285dcb	0.16442029
43	0xbda0767f	-0.07835101
44	0x3dfc310f	0.12314045
45	0x3e5e89cf	0.21732257
46	0x3dbfd395	0.09366528
47	0xbe8130bb	-0.2523249
48	0x3dbc42c7	0.09192424
49	0xbe52e561	-0.20595314
50	0x3e2b2c54	0.16716129
51	0xbe4aeab3	-0.19816093
52	0x3dfde191	0.12396539
53	0xbe096008	-0.1341554
54	0xbd69f27f	-0.057116028
55	0x3e14b3ec	0.1452176
56	0xbda30c26	-0.079613015
57	0x3dffdfbf	0.12493848
58	0x3e44ef65	0.19231947
59	0xbcd514fb	-0.02601098
60	0x3e17edd9	0.14836825
61	0x3e197de7	0.14989434
62	0x3c88f8eb	0.016720256
63	0xbe93d1bf	-0.2887096

layers.8.weight f4 [1, 64]
0	0xbdb9faac	-0.09081015
1	0xbe0e6bba	-0.13908282
2	0xbc60fe76	-0.013732543
3	0xbdfca6ba	-0.12336488
4	0xbd36cecb	-0.044630807
5	0xbbeab584	-0.0071627516
6	0x3e0b9fa0	0.13635111
7	0x3defddbb	0.117122136
8	0x3e506584	0.20351225
9	0x3e02c2ad	0.12769575
10	0xbd70cade	-0.05878722
11	0xbbeb0796	-0.007172535
12	0x3e2c57f4	0.16830426
13	0xbd9dca5a	-0.07704611
14	0x3e3f4f5a	0.18682614
15	0x3e07f85a	0.13278332
16	0x3e1dc928	0.15408766
17	0x3db4bb15	0.088247456
18	0xbe047361	-0.12934639
19	0x3d8c5945	0.06852964
20	0xbe167eba	-0.1469678
21	0x3dd99e26	0.106258675
22	0xbca00d45	-0.019537577
23	0x3d517fe1	0.051147345
24	0x3df30d24	0.11867741
25	0x3db19400	0.08670807
26	0x3e289a09	0.1646501
27	0xbca3e4dd	-0.020006591
28	0xbe1e0e7a	-0.1543521
29	0xbdc72b7a	-0.09725089
30	0x3d85e478	0.065377176
31	0xbcaf70ce	-0.021416094
32	0xbe1fa25b	-0.15589277
33	0xbe225f96	-0.15856776
34	0x3e37f342	0.17963889
35	0x3da381b7	0.079837255
36	0xbdc6692e	-0.0968803
37	0x3e75de54	0.24010593
38	0x3e4a0c1d	0.19731183
39	0xbe02d126	-0.12775096
40	0xbdb4fd3c	-0.08837363
41	0x3e3813c6	0.17976293
42	0x3e66a8a5	0.2252527
43	0xbb8d0b22	-0.0043043057
44	0x3e28b4c9	0.16475214
45	0x3e6be016	0.23034701
46	0xbd4bef73	-0.049788903
47	0xbcb12e26	-0.02162845
48	0x3e1bc733	0.15212707
49	0xbc1b7721	-0.009488852
50	0x3de98c52	0.11403717
51	0xbbb64552	-0.005562463
52	0x3e1140ce	0.14184877
53	0xbc1de782	-0.009637715
54	0xbcbbc159	-0.022919344
55	0xbd91fbb0	-0.07128084
56	0xb83123e8	-4.223353e-05
57	0x3e26fd6b	0.16307609
58	0xbe1c8c8a	-0.15287986
59	0xbd643562	-0.055714972
60	0xbe055e50	-0.13024259
61	0xbdb6f6c2	-0.08933784
62	0x3e261a86	0.16221055
63	0xbcd418e3	-0.025890773
