flwr-mlp/models/checkpoints/round_020.pt (torch, 127593 bytes, 7 tensors)

layers.0.weight f4 [256, 19]
000000 8e f7 62 bd 1f 9a 16 be ae 79 40 bc 05 37 8b be
       -0.055411868 -0.1470723 -0.011747761 -0.27190414
000010 d9 11 bf bc b7 22 0f be 44 3b bf bd c6 09 4d be
       -0.02332394 -0.13978086 -0.09337476 -0.2002326
000020 ff f1 39 3e 6c e8 e8 bd ac a5 3b 3d 03 1a 17 3e
       0.1815872 -0.11372456 0.045812294 0.14756016
000030 49 31 09 bd 79 e5 13 be 9c c6 4b 3e 6a 7c 57 bd
       -0.033494268 -0.14443006 0.19899982 -0.052608885
000040 e9 0c 12 be e4 38 0e 3d 39 0e 55 be 73 b4 30 be
       -0.14262737 0.034722224 -0.20806207 -0.17256336
000050 5a 1f 36 bd 77 ab 07 3e b8 fd c2 b8 a5 87 b9 bd
       -0.044463493 0.13249002 -9.2979e-05 -0.09059075
000060 7a 11 ca bc 3c 6d 4e 3e 7c 76 4f be ff 49 a7 3d
       -0.024666537 0.20158857 -0.20260042 0.081684105
000070 9d 04 1b bd 1a 91 27 3e 6c 98 07 3e 47 37 e6 bd
       -0.037846196 0.16363946 0.13241738 -0.11241012
000080 f3 f8 87 bd 44 75 82 3d 97 70 98 bd 23 ea dc 3d
       -0.0663928 0.06370023 -0.0744335 0.107868455
000090 8b 04 55 3e 2c 29 a9 bc 03 18 96 3d 87 77 dd 3d
       0.20802514 -0.020649515 0.073287986 0.10813814
0000a0 e0 e0 16 3c b3 17 03 be 7d f3 8c 3d 06 4a 66 bd
       0.009208888 -0.1280201 0.06882379 -0.056222938
0000b0 5f 63 ee 3d 53 59 6e be 1f 2d ca bb 44 18 71 3e
       0.11640047 -0.23276262 -0.0061699296 0.23544413
0000c0 3f 9d df 3d b8 9b b1 bd c3 ab a3 3d c3 0f 17 3e
       0.10918664 -0.08672279 0.07991745 0.14752106
0000d0 79 52 da 3d 06 60 04 bc 73 52 51 3d 3e 29 06 3e
       0.10660262 -0.008079534 0.05110402 0.1310167
0000e0 1b dc a5 bd ee 9f 8e 3e a8 ae 48 bd b1 84 63 3d
       -0.080986224 0.27856392 -0.04899469 0.055546466
0000f0 61 02 d3 3d 12 da 90 bd 59 51 5c be d5 64 55 be
       0.10303188 -0.070728436 -0.21515407 -0.20839246
000100 42 d8 5f 3e 7d e4 3e bd aa 89 c6 bc be 9f 50 3e
       0.2185984 -0.046604622 -0.024235565 0.20373437
000110 8b fc f1 bd 47 df a2 bd 69 ea 3f 3d 15 e1 09 be
       -0.11815747 -0.07952743 0.04685441 -0.13464768
000120 61 c2 94 bd b8 d1 8e bd 22 09 59 3d a7 0b 09 3e
       -0.07263637 -0.069735944 0.052987225 0.13383351
000130 54 96 b1 bd 78 78 c5 bd cb b6 2e 3e 97 8b 0b 3c
       -0.08671251 -0.09642118 0.17061917 0.0085171675
000140 ac a2 52 3e af db 32 3e a7 7a 4f 3e c6 d5 fe 3d
       0.20569867 0.17466615 0.20261632 0.12443118
000150 1f 2a 33 3e b9 43 d6 bc 83 7f 14 be ea a4 db bd
       0.17496537 -0.02615534 -0.14501767 -0.10724814
000160 ab f5 4f be a7 48 36 bd 3b 97 c5 bd 95 2e af 3d
       -0.20308559 -0.04450288 -0.096479855 0.08553807
000170 2b 0f 1d bd 0b e5 50 bd 69 26 21 be cb 8d 6a 3d
       -0.038344543 -0.050999682 -0.15737309 0.05726413
000180 c5 74 0a 3e 72 fc fa bd 52 2f 4a 3e 91 dc cb 3d
       0.13521107 -0.12255181 0.19744614 0.09954179
000190 a5 73 5b be 36 e2 22 3e 80 90 65 3e 42 0e de bd
       -0.21430834 0.15906605 0.22418404 -0.10842563
0001a0 e9 fd 5d be 8d 88 ad 3d 82 96 9a be f4 f1 03 3c
       -0.2167889 0.084733106 -0.30192953 0.008053292
0001b0 09 b7 30 3e b6 36 0d 3e 02 0a 61 bb c1 45 cd 3d
       0.17257322 0.13790402 -0.003433824 0.1002307
0001c0 1b dd 8e bc 25 b8 87 be b1 55 e0 3d 8b d4 2d 3e
       -0.017439416 -0.2650768 0.10953844 0.1697561
0001d0 a5 77 97 3d a4 9f 52 bc ae 9d 8d bd 02 4e c4 bd
       0.07395867 -0.012855444 -0.06914841 -0.09585191
0001e0 2a 3b 19 be 11 bd 37 be 40 3b 41 be 1f db 8d 3e
       -0.14963976 -0.17943217 -0.18870258 0.2770624
0001f0 d4 8c 68 be 61 e8 bd bd 8d 02 11 3d f2 7d eb bd
       -0.22709972 -0.092728384 0.035402823 -0.114986315
000200 06 f5 10 3e 16 a2 c3 bd 0a d6 fe 3c 1d 00 14 bd
       0.14155969 -0.095524 0.031107921 -0.03613292
000210 a1 f0 0e 3d f8 be 20 3e 49 03 3b be 8d a3 02 bd
       0.03489745 0.15697849 -0.18262972 -0.031894255
000220 eb b5 fe bd 99 d8 fc 3c 6a 19 de bb 6a 01 20 be
       -0.12437042 0.030865 -0.006777932 -0.1562554
000230 b6 c3 db bd ef 2f 37 bd f6 cd f9 bc a9 e2 6a 3c
       -0.10730688 -0.044723447 -0.030493718 0.014336267
000240 d1 ec 6f 3d 68 de 3b 3e 63 cb 07 3e 46 bc 02 bd
       0.058575455 0.1834656 0.1326118 -0.031917833
000250 4f 43 bc bd 02 0d 75 be ad df 38 3c 5d 53 27 bd
       -0.091925256 -0.23930743 0.011283797 -0.040850986
000260 04 ba 04 bd 1b b3 c4 3d 9f 24 bc 3d 8c 50 59 bd
       -0.03240396 0.09604474 0.091866724 -0.05305533
000270 90 71 dc 3d 9c 4a 71 3e a5 ee de 3d 1f 15 09 3e
       0.10763848 0.23563617 0.108853616 0.13386963
000280 aa b9 77 3e dd 5f a7 3d ec 64 ae bd ac 88 8f 3e
       0.24191919 0.08172581 -0.08515343 0.2803396
000290 8c 7c 88 be 14 a7 2e 3e 58 7a 36 3d 43 6d a9 3d
       -0.26657522 0.17055923 0.04455027 0.08272793
0002a0 b1 63 ca 3c 47 57 3b be aa 9e 3e be d9 44 5e 3e
       0.02470574 -0.18295012 -0.18615213 0.21705951
0002b0 92 b6 15 bd a5 7b 77 bd a2 04 82 bd a2 ca 62 3e
       -0.036551066 -0.06042065 -0.0634854 0.22147611
0002c0 b7 1d e4 bd ed b4 90 bc 52 24 38 3e 45 4f 4b 3e
       -0.1113848 -0.017664397 0.17982605 0.19854458
0002d0 54 5d 89 bd bb 91 ed bc 27 16 d3 bc 9c 47 12 3e
       -0.06707254 -0.029000154 -0.025767399 0.1428513
0002e0 9f c1 10 3d 28 aa 01 3e 15 ea da bc ad 57 e7 3d
       0.0353409 0.12662566 -0.026722947 0.1129602
0002f0 7d 3d e1 3d 3e d2 cc 3b 20 4f be bd a6 3f bd 3c
       0.10998056 0.0062506488 -0.09292436 0.023101639
000300 9d 32 e7 3d 85 19 68 3d eb 54 76 bd 9b 30 bc 3d
       0.112889506 0.056664962 -0.060139578 0.09188958
000310 49 1c e0 bd 42 0a 0d 3e 9d 39 18 3e 65 2c b2 be
       -0.10942895 0.13773444 0.14865728 -0.34799495
000320 98 ab 72 be 32 c0 06 bd 0f fb d3 bd 34 37 11 be
       -0.2369827 -0.032898135 -0.1035062 -0.14181215
000330 74 a0 d2 bd 5b 5e 08 3e 88 d0 1c 3e f8 8c e8 3d
       -0.1028451 0.13317244 0.15313923 0.11355013
000340 8f 4d 80 3c 2b c0 5b 3e 0b 7e d5 bd 7a 24 f0 bc
       0.015661983 0.21460025 -0.104244314 -0.029314268
000350 0d a0 40 3e 57 a9 5d be 6d 36 96 3d 2a 4d 89 be
       0.18811055 -0.2164663 0.073346 -0.26816684
000360 37 49 be 3d e4 c9 60 3e c1 67 19 3e 84 5f 31 3e
       0.092913084 0.21952015 0.14980985 0.17321593
000370 40 c6 51 be e0 30 01 3d 77 fb 52 be ac 0e fa bc
       -0.20485783 0.03154075 -0.20603739 -0.030524574
000380 c6 12 14 bb 6b fd 86 bd e5 53 2c 3e fa dd a6 3c
       -0.0022594198 -0.065913044 0.16828878 0.020369519
000390 c6 4b c8 bd 06 ab 61 3e 72 25 4d bd 8a 6a 82 bc
       -0.09780078 0.22037897 -0.05008454 -0.015919942
0003a0 16 4b dc 3d 53 e6 df bc 09 54 24 be 4e 10 98 bd
       0.10756509 -0.027331507 -0.16047682 -0.07424985
0003b0 21 d5 8c be 94 c3 9d 3e 8b 71 6c be f5 3d 45 bc
       -0.27506354 0.30813277 -0.23090188 -0.0120386975
0003c0 99 d9 05 3e 71 f3 e8 3c 0b 35 83 3b 5f b5 c8 3d
       0.13071288 0.028436394 0.004004126 0.09800219
0003d0 40 ae 47 be f6 83 9b 3c 9a 6e 29 3d 8c 39 d1 bd
       -0.19500065 0.018983822 0.041365243 -0.10216054
0003e0 0b 90 aa bd ec 80 c4 3b 34 03 28 bd dc 59 fb 3d
       -0.08328255 0.005996814 -0.04101868 0.12272999
0003f0 cb ec 50 be 85 36 4d 3d 64 a2 ba 3d 77 6e 1f be
       -0.2040283 0.050100822 0.09113005 -0.15569483

layers.0.bias f4 [256]
000000 92 e9 27 bb d1 24 9e bd a1 f2 8f be d9 4a 82 be
       -0.0025621396 -0.07721866 -0.281148 -0.2544773
000010 db 71 67 be 5f 11 0e be b3 80 9f bd 58 ea 4e be
       -0.22602026 -0.13873814 -0.07788219 -0.20206583
000020 51 dd 75 be 90 1b 5e bd 3e 53 90 3d 72 3a bc bd
       -0.24010207 -0.054225504 0.07047127 -0.09190835
000030 02 92 f7 3c 39 ca b4 be de e9 53 be c8 96 39 be
       0.03022099 -0.35310534 -0.20694682 -0.18123925
000040 25 dd 73 3c 84 69 d4 bc 9f 86 3d be 81 50 6f be
       0.014884268 -0.02592922 -0.18508385 -0.23370554
000050 ea 86 f1 bd f8 c0 41 be e3 78 dd 3c 03 95 3c be
       -0.11793311 -0.18921268 0.027035182 -0.18416218
000060 30 67 fe bd d4 45 14 be a9 ce 3b bd c7 86 6a be
       -0.12422025 -0.14479762 -0.045851383 -0.22902976
000070 76 80 e6 bc cf 77 99 bd d9 90 ca bd fe ce 33 3c
       -0.028137427 -0.07493555 -0.09890909 0.010974644
000080 42 2b 5a be c2 dd 9d 3b 9f c8 3f be ee f1 df bd
       -0.21305564 0.0048176954 -0.18728875 -0.10934816
000090 af 04 39 bd 66 ab b2 bd b4 c9 60 be 25 8a 78 3d
       -0.045170482 -0.08724098 -0.21951944 0.06067862
0000a0 33 c0 8d be 7a a7 78 be f1 25 63 be 6b 17 81 be
       -0.276857 -0.24282637 -0.22182442 -0.2521318
0000b0 e8 0a 74 be b3 66 3b be fa ee 08 be ae 07 ff 3c
       -0.23832285 -0.18300895 -0.13372412 0.031131592
0000c0 7e a2 25 be 7b c5 9c be f2 32 64 be f9 61 12 be
       -0.16175267 -0.30619416 -0.22285059 -0.14295186
0000d0 94 4e 0b be 70 81 7a bd c8 29 07 be 23 9a df bc
       -0.13604194 -0.061158597 -0.13199532 -0.027295178
0000e0 e4 2a ac be 48 9e 16 bd 50 c9 34 be 41 74 31 be
       -0.33626473 -0.036772043 -0.1765492 -0.17329504
0000f0 3b 1e c4 be c0 83 7d be 59 04 18 be 9b 39 aa be
       -0.38304314 -0.2475729 -0.14845408 -0.33247074
000100 5f 6e 8f bd f1 82 51 bd e2 4d 89 be 8a b6 d2 be
       -0.070034735 -0.051150266 -0.26817232 -0.4115489
000110 82 a6 a7 be c4 45 61 be 51 80 a0 be 00 d6 99 3d
       -0.32744223 -0.2199927 -0.31347898 0.075115204
000120 1f 19 01 be 31 88 8b be 68 ed 53 be c3 ae 02 be
       -0.12607239 -0.27252343 -0.20696032 -0.12761979
000130 2d fc 92 be 35 d5 8b be fb b4 e4 bd 2f eb a7 bc
       -0.2870802 -0.27311102 -0.11167332 -0.020497886
000140 d5 d6 8e bc ec 53 3c be 40 76 fa bc 04 c6 41 be
       -0.017436424 -0.18391389 -0.030573964 -0.18923193
000150 3a 13 95 be 42 cc 83 be 8e 94 f2 bd 3f ab c2 3d
       -0.2911623 -0.25741774 -0.11844741 0.09505319
000160 27 ad 2f be 1a 9e d5 bc c3 45 91 be dd 23 1e bd
       -0.17155896 -0.026076365 -0.28373536 -0.03860842
000170 df 4f 6f be 50 43 85 bd d1 5b 99 be 36 ca 61 be
       -0.23370312 -0.065069795 -0.29952863 -0.22049794
000180 44 4b a2 be 79 5b 5c be b0 0a c1 be 44 54 9a be
       -0.31698048 -0.21519269 -0.37703466 -0.30142415
000190 d4 37 23 be af c8 52 be f5 d4 a6 bd c3 f1 88 be
       -0.15939265 -0.20584367 -0.08146087 -0.2674695
0001a0 c1 ed 73 be f4 7d 9a be 32 54 77 be a1 29 7a be
       -0.23821165 -0.3017422 -0.24153212 -0.24429943
0001b0 3f 81 01 bc 25 73 99 be 90 ce b4 be 1e e5 e8 3a
       -0.00790435 -0.2997066 -0.35313845 0.0017768478
0001c0 be d9 31 be 55 02 18 be 69 90 85 be ae d4 6d bd
       -0.17368218 -0.1484464 -0.2608674 -0.058064155
0001d0 b2 f6 fc 3c fd 28 08 be e9 7e bc bd 80 be 41 be
       0.030879352 -0.13296886 -0.09203894 -0.18920326
0001e0 5d b3 6f be e2 81 3e be 07 cc 84 be 5a 5d 4f be
       -0.23408265 -0.18604234 -0.2593691 -0.20250455
0001f0 2b 56 5c bd 68 05 ac be c5 29 a0 3d 7a 18 20 be
       -0.053793114 -0.33597875 0.07820467 -0.15634337
000200 ba af 1f bc b2 b3 08 be 17 4e 10 bd 4c b2 9b be
       -0.009746486 -0.13349798 -0.035230722 -0.30409467
000210 e2 f1 4a 3c 25 f1 21 be 63 b6 18 bd 10 53 59 be
       0.012386771 -0.15814646 -0.037283313 -0.21223092
000220 41 b3 5c 3d ae 16 19 be ee a2 83 b8 d2 60 67 be
       0.053881887 -0.14950058 -6.276915e-05 -0.22595528
000230 ea 03 12 be 4d 29 7f be 8c 9e 2f be 6f df 82 bd
       -0.14259306 -0.24918099 -0.17150325 -0.06390273
000240 6d ab 00 be 07 ab 29 be 1c 50 d4 bc 61 89 ac 3d
       -0.12565394 -0.16569148 -0.025917105 0.084246404
000250 80 fb 9c be 74 d0 1a be 72 ad aa be 3a a2 f3 bd
       -0.3066063 -0.15118581 -0.33335453 -0.11896177
000260 05 40 c9 bd a3 52 23 bd 98 49 0d be 1f 91 68 be
       -0.09826664 -0.03987373 -0.13797605 -0.2271161
000270 4e c0 0e be 1e 61 27 be 21 9f 0d be c4 06 3d be
       -0.13940546 -0.16345641 -0.13830234 -0.18459612
000280 80 6e a1 be df f3 ed bd 59 ce 6c bd 03 16 a6 bc
       -0.31529617 -0.1161878 -0.057813976 -0.020274168
000290 22 df 19 be 9e 5b 34 bd 5c 62 84 be 58 73 75 be
       -0.15026525 -0.044032685 -0.25856292 -0.23969781
0002a0 c5 d2 da bd 5d 00 90 be 01 3f ec bc 2a 49 d8 3b
       -0.10684732 -0.28125277 -0.028838636 0.0066005187
0002b0 7f cd 5f be 04 f9 05 be 9f ed 8a be f6 f8 81 be
       -0.21855734 -0.13083273 -0.27134416 -0.25385255
0002c0 52 69 a1 be 1f b5 a2 bd 6d f4 9b bd 24 72 f1 bd
       -0.31525666 -0.07944702 -0.0761498 -0.11789349
0002d0 3f 3e 37 3d f7 9a fa 3c f1 06 b3 be fc 69 43 be
       0.044737097 0.030591471 -0.34966233 -0.19083399
0002e0 c2 c3 0c 3c a1 52 57 ba a7 1c f6 bc 3c 7b 11 be
       0.008591594 -0.0008213912 -0.03004296 -0.14207166
0002f0 9e 60 0e be 35 05 87 be 32 28 cc bd 04 30 d4 bd
       -0.13904044 -0.2637116 -0.09968604 -0.10360721
000300 10 00 69 bb 43 c8 6a 3d 27 e6 71 be 01 c9 09 be
       -0.0035553016 0.05731989 -0.23622952 -0.13455583
000310 16 59 f7 bd 34 86 8f be 4c 1b f7 bd bd 03 d8 bd
       -0.12077539 -0.28032076 -0.12065753 -0.10547588
000320 1c e5 2c 3b b5 ca 59 3c b5 c3 7a be dd d3 83 bd
       0.0026381677 0.013292958 -0.24488719 -0.06436894
000330 06 6a 1b be 2f 11 b0 be 69 2f bc be 68 01 25 bd
       -0.15177163 -0.3438811 -0.3675492 -0.040284544
000340 cc b9 10 bd 99 bb 75 bc d9 b6 2a be 13 35 3f be
       -0.03533344 -0.01499834 -0.16671313 -0.1867259
000350 1b c1 a3 be 9c 52 98 be 54 b1 a1 bd 88 9e 99 bd
       -0.31983265 -0.29750526 -0.07895151 -0.075009406
000360 f8 10 71 be 72 cf 93 be de 80 65 3d 58 2f 76 be
       -0.2354163 -0.28869206 0.0560311 -0.24041498
000370 82 95 9e be dc 51 a2 bd 3e fc e8 bd c1 a0 13 be
       -0.3097344 -0.0792577 -0.113762364 -0.14416791
000380 7a f1 bd be a3 93 a4 bd 90 7a 7b bc 23 b9 91 bd
       -0.37098294 -0.08035972 -0.015349045 -0.0711539
000390 df 3d 68 be 5b 64 9b be a3 39 57 be e4 b0 85 be
       -0.22679852 -0.30350003 -0.2101808 -0.2611152
0003a0 1c 81 4f be 2b 8f 81 be 5e c2 8a be 64 e2 de bd
       -0.20264095 -0.2530454 -0.27101415 -0.10883024
0003b0 9f 06 15 bc 92 64 99 bd 53 7e 8d be 9b 26 b2 be
       -0.009095817 -0.074898854 -0.2763544 -0.3479508
0003c0 ed 60 72 be 73 10 af be 30 38 83 be 78 62 b5 3d
       -0.23669787 -0.34192237 -0.25628805 0.08856672
0003d0 7b 13 7d be 33 76 ff bd f1 e6 6a be a9 36 2e bd
       -0.24714462 -0.124737166 -0.2293966 -0.042532597
0003e0 a2 28 9b be f4 35 a2 bd 39 be 4f bc 7b d2 aa bd
       -0.30304438 -0.07920447 -0.01267963 -0.08340927
0003f0 48 ee 97 3c 62 eb e5 bc 82 ee 66 be 00 4c 1f 3c
       0.018546239 -0.02806634 -0.22551921 0.00972271

layers.3.weight f4 [80, 256]
000000 46 29 28 bd 94 a9 68 3d 0a 7a 02 3d 05 01 77 bc
       -0.041054986 0.056802347 0.031854667 -0.015075927
000010 03 99 8b bd 2e 2a 61 bd 9d 0d 5d 3d a2 84 93 3d
       -0.06816294 -0.054971866 0.05396806 0.07203032
000020 15 27 cf 3d e2 13 0d be 0e bc cc bc 27 88 65 bd
       0.10114876 -0.13777116 -0.024992015 -0.056038048
000030 a5 cf a7 bb e5 0a 02 3e e9 ed f6 3c 13 87 72 3d
       -0.0051211887 0.12699468 0.030142741 0.059210848
000040 2e 23 a2 bd 5c 6f 98 bd 0d c2 74 3d c6 2a 91 3d
       -0.07916866 -0.07443115 0.059755374 0.070882365
000050 bc 29 ad 3d 95 d8 1c 3d 48 4c 07 3d fb 2f 2b 3d
       0.08455226 0.038292486 0.03303173 0.041793805
000060 b4 3d b2 3d c3 f6 a4 bc 12 77 bf bb 18 14 c7 3d
       0.08703175 -0.020137196 -0.0058430517 0.097206295
000070 24 fc c8 bd dc 74 f5 bc 10 d7 89 3d 78 b8 df 3b
       -0.09813717 -0.02996295 0.06730473 0.0068274103
000080 66 fe 04 3e 4b 53 c7 bd de 18 96 3d 6e 48 9a 3d
       0.1298767 -0.09732684 0.07328962 0.07533346
000090 5c e3 00 be 90 f9 3d 3c f8 44 a2 3d e3 0f 0a be
       -0.1258673 0.011595145 0.07923311 -0.13482623
0000a0 b3 f6 04 3c 2d 7d b7 bd b1 db d6 bd 81 89 ce 3d
       0.008115458 -0.08959422 -0.104911216 0.100848205
0000b0 1a 07 ee 3d 06 58 3d bd ea de 2c 3d df ee d6 3c
       0.11622448 -0.046226524 0.042204775 0.02623695
0000c0 42 97 64 bd 88 45 81 3d 1b f7 a5 3d 70 3d 8a bc
       -0.055808313 0.0631209 0.08103772 -0.016874999
0000d0 1b 49 c3 bc 9e f6 8c bd 69 40 9a bd 96 09 f2 bc
       -0.02383857 -0.06882976 -0.075318165 -0.029545587
0000e0 f5 7b b8 3d 15 81 2e 3d e8 2e c1 3c 20 ec 05 be
       0.09008018 0.04260357 0.023581937 -0.13078356
0000f0 1e 5b 41 3e e1 2e b0 bc 35 ba 91 3d de 1d 3f 3e
       0.18882415 -0.021506729 0.07115594 0.18663737
000100 e0 b7 55 bd 18 09 ec bc 0b 07 ad 3d 17 bb 84 3d
       -0.05217731 -0.02881293 0.08448609 0.06480997
000110 d6 4c 0a 3e 0f 9a 72 3c 13 0a 33 3d b9 59 42 be
       0.13505873 0.014807238 0.04371078 -0.18979539
000120 1a cf 4a 3d 16 59 eb bc 0e 68 2d bd 01 45 bf 3d
       0.049513914 -0.028729003 -0.042335562 0.09339333
000130 d4 24 04 be ec 2d 7f 3d 87 bc 49 3d 9d 5d c5 bd
       -0.12904674 0.062299654 0.04925206 -0.09636996
000140 c8 e0 63 bd b7 09 82 3c 4c af 3f 3c 08 76 cf 3d
       -0.05563429 0.015873773 0.011699509 0.101299345
000150 13 43 99 bd 9d 64 a8 3d 0e 7b 1c 3e 13 d6 da bc
       -0.074834965 0.082223155 0.15281317 -0.026713407
000160 75 6b 19 3c 9f 22 62 ba f3 9c f6 3c cd fb 2a 3d
       0.009363999 -0.0008626375 0.030104136 0.041744042
000170 14 40 85 bd d3 81 89 bd d1 e1 2e 3d 4a e0 06 3c
       -0.065063626 -0.06714215 0.042695824 0.008232186
000180 23 ea 97 3c 54 97 4e 3b fd 12 5a 3d b8 e4 3d 3d
       0.018544262 0.0031523304 0.053240765 0.0463607
000190 2d 89 d1 bd f3 61 70 bc 3c 8c 80 3d cb a3 32 bd
       -0.10231242 -0.01467179 0.062767476 -0.043613236
0001a0 25 c0 90 bd 2d c4 8d 3d f3 7a 23 3e 5a 27 78 3d
       -0.07067899 0.06922183 0.1596487 0.060584404
0001b0 a7 ee c0 bd 53 23 e9 3d 36 20 77 3d a8 00 78 3b
       -0.09420519 0.11383691 0.060333453 0.0037842188
0001c0 3c 66 34 3d 2f 32 6b 3d 33 6b a9 bd 5e 1d 48 bd
       0.04404281 0.057420906 -0.082724 -0.04885613
0001d0 cf 38 ab bd cd 87 12 3d 4f 72 13 3d 20 9e 7e bd
       -0.08360445 0.03577404 0.035997685 -0.06216252
0001e0 ea bb a3 3c 55 97 9a 3d c4 d4 a5 3d 04 83 df 3c
       0.019987065 0.075483955 0.080972224 0.027284153
0001f0 4d c8 ae 3c 75 5e 61 3d e9 29 16 bd 96 af f0 3d
       0.021335745 0.055021722 -0.036661062 0.1175224
000200 af e2 42 bd 8b 1c 33 3c 40 59 67 bc 35 0d 32 3e
       -0.047579464 0.010932098 -0.0141204 0.1738785
000210 98 8a 07 be 29 5c 0a be a6 61 66 bd 74 e4 6e 3b
       -0.13236463 -0.13511719 -0.05624547 0.0036452087
000220 ae be df bd 36 dd a3 3d e9 ae dd bb 7e e1 6d 3d
       -0.10925041 0.08001177 -0.0067652357 0.058076374
000230 66 4f b0 bd 02 95 0d 3d 82 6c a7 bc d8 65 4b 3d
       -0.08608894 0.034565933 -0.020437483 0.049657673
000240 4a d9 db 3c a6 11 a3 bc fe 13 01 be 8f 93 32 bd
       0.02683701 -0.019905876 -0.12605283 -0.043597754
000250 d1 66 3c 3e 98 e9 be 3d c3 2d 1e 3d 5e 95 4c ba
       0.18398596 0.09321898 0.03861786 -0.000780424
000260 b8 0c 4f 3c 40 0e 61 3c 2d b9 a9 3c ee 35 96 3d
       0.01263731 0.013736308 0.020718182 0.07334505
000270 7b 07 b5 bc f8 d0 44 bc e6 d3 d5 3c 9f 10 05 bc
       -0.022098294 -0.012012713 0.026102018 -0.008121639
000280 40 96 42 3e bd b2 e7 3d 61 02 b4 3c cb 76 14 3c
       0.19002628 0.113133885 0.02197379 0.009061526
000290 c2 50 06 bd 63 62 1a bd 74 1a f4 3c d4 ed 0d 3c
       -0.03279186 -0.037691485 0.02979777 0.00866266
0002a0 a6 05 c8 3d ac c9 ea 3d d0 93 07 bc 31 16 fd bc
       0.09766702 0.11464247 -0.008274987 -0.03089437
0002b0 32 8e eb 3d dc bf 0e 3a 28 9e f1 3d 85 ad 55 bd
       0.11501731 0.00054454594 0.11797744 -0.052167434
0002c0 ce f5 73 bd 74 2a f3 38 bd 3f e8 3d 16 8b 80 bd
       -0.05956059 0.000115950505 0.11340282 -0.062765285
0002d0 9a 41 94 bd b0 a9 43 3d 61 59 36 3d 44 aa 9f 3d
       -0.07239075 0.04776925 0.044518832 0.077961475
0002e0 e7 58 48 bc 4a 56 81 3c 0e 03 f0 bd fd d0 b7 3d
       -0.012228227 0.015788216 -0.11719333 0.08975408
0002f0 33 e7 a3 bc 02 a6 ce bb c3 7f f6 3b 3b 5c d8 bd
       -0.020007705 -0.0063064108 0.0075225546 -0.105644666
000300 41 fb 01 bc 19 9d ac bd 51 f0 a4 3d a6 94 88 3d
       -0.007933439 -0.084284015 0.08053649 0.066689774
000310 e1 d2 c0 3d 5c 18 f0 3c 74 8e 38 3d cc ff 36 bc
       0.09415222 0.02930849 0.04505773 -0.011169385
000320 f1 05 98 bd c3 06 e5 3d 32 fd 4a bc 5d 6b 45 bd
       -0.07423008 0.1118293 -0.012389468 -0.048198093
000330 55 55 03 3d 5c 43 1e 3d 6a 98 e3 3d f9 5b 2c bc
       0.0320638 0.038638458 0.11113055 -0.010519975
000340 c2 fe 91 bc a1 86 cc bb c2 9c c8 bd 4f 54 92 3a
       -0.017821673 -0.006241635 -0.09795524 0.0011164042
000350 92 15 82 3d 14 3d 03 3e 8d bd c1 3d b0 65 ae bb
       0.063517705 0.12816268 0.09459982 -0.0053221807
000360 2e b0 83 3d f2 55 02 3e 26 53 20 bd b6 dc 89 3d
       0.06430088 0.12728098 -0.039141797 0.067315504
000370 84 b1 33 bc b5 dc 4d bd 86 c6 77 bd 37 27 5f 3d
       -0.010967616 -0.05025931 -0.06049206 0.054480758
000380 bb 50 cb 3d 67 a6 52 bd 23 6a 72 bd 70 b3 97 3d
       0.099275075 -0.051428225 -0.05918325 0.07407272
000390 16 14 97 3d 6d b1 bf 3d 02 fa 0c 3d ea 74 8a 3d
       0.07376878 0.09360013 0.034418114 0.06760581
0003a0 3c 6a 8e 3d 6b 53 36 3e 8c d0 56 3d 56 50 e0 bc
       0.06953856 0.17805259 0.05244498 -0.027382057
0003b0 6b d3 78 bc 6a 80 10 3c 7d dd 46 bc 5c 15 c3 3d
       -0.015187125 0.008819679 -0.012137768 0.09525558
0003c0 0b a1 3c 3d 23 24 8c bd ac 67 11 bd b3 bf a3 bc
       0.04605202 -0.0684283 -0.03549926 -0.01998887
0003d0 8e 59 f4 3d 32 25 f0 3d c1 04 b1 3d c5 48 2e 3d
       0.11931144 0.117258444 0.08643485 0.042549867
0003e0 c2 2b 50 3e 88 8b 0a bd 1c 69 04 bd 8b 63 d4 bc
       0.20329192 -0.033824474 -0.032326803 -0.025926372
0003f0 7d dc 75 bd 17 02 91 bc 64 79 e5 3d 63 bd 80 bd
       -0.060024727 -0.017701192 0.11204794 -0.06286123

layers.3.bias f4 [80]
000000 2e 77 dc bd 40 dc 8b 3d 4c 08 d3 bd 6a 22 63 bd
       -0.10764919 0.06829119 -0.10304317 -0.05545274
000010 7b 80 cf bd 99 14 40 be b8 8b 07 be eb e6 af bd
       -0.101319276 -0.18757857 -0.13236892 -0.08588966
000020 9e a6 84 b9 27 45 ef bd 58 0b 3a bd 26 40 ef bc
       -0.0002530114 -0.11683112 -0.045420974 -0.029205393
000030 61 dd 10 bd 11 cc a5 3b c5 72 8b bc c1 7d 9c 3d
       -0.035367373 0.005059727 -0.0170225 0.07641173
000040 9a e8 29 bb 57 e6 24 3d 20 e2 65 bd eb b0 a2 bc
       -0.0025925995 0.04025873 -0.056123853 -0.019859752
000050 05 12 1d be f3 b3 bc bd e4 ec c5 3c cf 40 e3 bb
       -0.15338905 -0.0921401 0.02416081 -0.006935216
000060 07 61 dd bc bf 55 03 be 36 7c 86 bd 28 ec 94 3c
       -0.027023805 -0.12825678 -0.0656666 0.018179014
000070 c4 fd 47 3d 48 c6 fe bc 04 08 2f be 26 2c 44 bd
       0.048825994 -0.031100407 -0.17092901 -0.047893666
000080 d1 f7 82 3c 8a 81 4a 3d e3 30 0f be 11 ef 36 be
       0.015987309 0.049439944 -0.13983493 -0.17864634
000090 ef ac 12 bc 5b 01 63 3d 13 a8 11 3c 76 0a a0 bd
       -0.008952363 0.055421215 0.00889017 -0.07814495
0000a0 c2 fd 94 bd cb 25 a7 bc d9 d4 a3 bd cf 78 f1 3c
       -0.07274963 -0.020403763 -0.07999582 0.029476551
0000b0 ee 7b 1c bc 8c 98 cd bd 7a ed 69 bd b9 f1 0e be
       -0.0095510315 -0.10038862 -0.05711124 -0.13959397
0000c0 a9 ff 9f bd 09 c4 72 3d 3e 27 df bd 4b ed 29 3b
       -0.07812435 0.059268985 -0.10896157 0.002592879
0000d0 43 5b 1f be 71 12 9f 3c 68 2f 14 bd 70 10 47 b8
       -0.15562157 0.019417973 -0.036178023 -4.7460606e-05
0000e0 c2 77 65 bd 7f 87 19 be 93 3b 04 bd 12 0c 9e 3d
       -0.056022413 -0.14993094 -0.032283377 0.07717146
0000f0 5e f6 8e 3d b6 cd 09 be c6 eb 35 3d 5f 8a a9 3c
       0.069805846 -0.13457379 0.044414304 0.020695863
000100 37 43 6c bd fb bb 4a 3c 89 1c 01 bd 5a ef 96 bd
       -0.05768129 0.01237392 -0.031521354 -0.073698714
000110 20 60 43 3a a3 7d 01 be 65 3b d1 3c 3a 56 fc bd
       0.00074529834 -0.12645583 0.025541017 -0.12321134
000120 f2 8e 7d bb 04 a9 44 bd d2 c0 33 be f6 2a a9 bd
       -0.0038689938 -0.04801275 -0.17554024 -0.08260147
000130 04 73 2d be 3e f2 13 bd 9c 62 e4 bd 71 90 31 be
       -0.16938406 -0.036119692 -0.11151621 -0.17340256

layers.6.weight f4 [64, 80]
000000 20 61 00 3e 33 15 0f be 0b 22 c5 bc 0a d0 41 bd
       0.1253705 -0.1397293 -0.024064085 -0.047317542
000010 4f 7c d7 3d 27 f1 87 bd 30 ee 2f 3c 87 54 20 3d
       0.10521757 -0.06637793 0.010737941 0.03914311
000020 4a ac 1f bd 2b 60 49 3b 37 e6 26 3e dc 0e 4a bd
       -0.038982667 0.0030727487 0.16298757 -0.049330577
000030 2a 9e 86 3d e0 25 96 bd 42 bf 2f 3e ba 50 54 be
       0.06573136 -0.07331443 0.17162803 -0.2073392
000040 21 cd 73 3d 16 39 1b be 7d fa 4e 3d fa 3e 43 3e
       0.059521798 -0.15158495 0.050531853 0.19066992
000050 99 c4 01 3c 77 d0 96 bd 96 79 ba bd b7 59 94 bd
       0.007920408 -0.0736398 -0.09105222 -0.07243674
000060 71 fb 96 3c dc 6d 90 bd 08 eb 8e 3c 73 00 6e bd
       0.018430443 -0.07052204 0.017446056 -0.058105897
000070 b2 3e 3a 3c fd 9d 16 be eb b9 3f 3e 26 db 35 3e
       0.011367487 -0.14708705 0.18723266 0.1775938
000080 71 6e 36 be fc 47 3a be 8b 1e 3b 3c e4 e4 e6 bc
       -0.17815568 -0.18191522 0.011420856 -0.028185315
000090 51 36 82 3d 10 89 2d be 61 4e d3 3d 2c 3d 8f 3c
       0.06358016 -0.16946816 0.10317684 0.017485224
0000a0 88 84 5a 3d 2a 7b 90 bd bf aa 25 3e 54 ae 32 bd
       0.053349048 -0.07054742 0.16178416 -0.043623284
0000b0 cd ca 1e be 0c db d2 bd 9a 53 ef bd 8f db f0 3d
       -0.1550705 -0.10295686 -0.116858676 0.117606275
0000c0 27 21 e2 3d 1a 2f 2a be 81 cc 26 3d 4d 8e fa bd
       0.110414796 -0.1661953 0.040722374 -0.12234173
0000d0 c1 35 93 3d c4 6f 66 bd 6e 40 55 bd 61 19 34 be
       0.07187987 -0.05625893 -0.052063398 -0.17587806
0000e0 44 f2 9e 3d 2b 0f e1 3d 6f aa c2 bd a9 f5 ba bd
       0.07761052 0.10989221 -0.09505164 -0.09128887
0000f0 49 0b 0e be 8a a9 01 3e d8 a0 4b bd 48 34 ff 3d
       -0.13871492 0.1266233 -0.04971394 0.12461144
000100 69 13 9c 3d de e2 2c be c4 87 cd bc 9a fd 19 3e
       0.0762089 -0.16883418 -0.025089152 0.15038148
000110 73 79 27 bd 7a e0 19 3e 6d d4 09 3d 13 ad de 3d
       -0.040887307 0.15027037 0.03364985 0.10872855
000120 aa 84 37 be 73 13 fe bc db 69 1e 3e 30 87 d5 3d
       -0.17921701 -0.031015133 0.15470068 0.104261756
000130 6c f5 1c 3e 9d c2 d3 3d f9 5b 64 3d 99 2c 0e bd
       0.15327996 0.10339854 0.055751774 -0.0347105
000140 ac f5 25 3e f3 2b 7b be 2d bc 93 bd 52 6c 00 be
       0.16206998 -0.24528484 -0.07213626 -0.12541321
000150 96 95 32 3e 77 2e 2e bd 02 79 0a bd a9 af 43 3e
       0.17439875 -0.04252478 -0.03380681 0.19109978
000160 d4 15 a0 bd 96 16 ae 3d 58 8f 33 3d 79 2d 43 3c
       -0.078166634 0.08500402 0.043837875 0.011912697
000170 4f d4 13 bd ac 20 f9 bd de bd 5f 3c 8d 85 57 be
       -0.036091145 -0.12164435 0.013656108 -0.2104704
000180 a0 85 6c 3d 54 3e 13 be b4 0d ff 3d f5 bd 0b 3c
       0.057744622 -0.14379245 0.124537855 0.008529176
000190 78 8c 1d bd 63 c9 a1 3d cc 94 d8 bd c2 af b7 bd
       -0.03846404 0.078997396 -0.10575256 -0.0896907
0001a0 72 11 cf 3d dc 41 98 bd 54 64 13 3e 04 9b f1 bd
       0.10110749 -0.07434437 0.14393741 -0.11797145
0001b0 33 5a fd 3d c8 f1 65 be b4 90 7f 3d cc df da 3c
       0.1237072 -0.22455513 0.06239386 0.026718043
0001c0 64 61 a2 bd b0 6a d0 bd ea 05 dd 3b 15 38 0a 3e
       -0.07928732 -0.10176599 0.00674509 0.13497956
0001d0 0f d8 a2 bb cd 2b 11 be f7 2f 5f 3d 09 de 63 3d
       -0.004969604 -0.14176865 0.054489102 0.05563167
0001e0 6d 1f 73 bc d3 5c 4d bd 3e 8f 66 3e df b9 47 be
       -0.014839035 -0.050137352 0.2251558 -0.19504498
0001f0 5e 76 48 be be bd 2d be cd 2b 35 be e2 20 d8 3d
       -0.19576403 -0.16966912 -0.1769249 0.10553147
000200 7e d4 13 3e 04 89 db bd 0a c5 e8 bc 30 a6 2c be
       0.14436528 -0.10719493 -0.028414268 -0.1686027
000210 4b 7b 84 bd 48 0c 20 be 42 5f 02 bd cb 64 48 be
       -0.06468829 -0.15629685 -0.031829126 -0.195697
000220 20 03 e8 3d e5 1f 1b 3d 50 e3 cd bd 40 c9 16 be
       0.11328721 0.037872214 -0.10053122 -0.14725208
000230 91 db 28 be da aa ee 3c 83 23 02 bd 2d 60 33 3e
       -0.16490008 0.029134203 -0.031772148 0.17517157
000240 1c 0f dd bc ea 2e 3a be 7d b8 19 3d c2 c5 98 3d
       -0.026984744 -0.18181959 0.037529457 0.07459594
000250 a7 85 36 be e5 36 01 3e 46 28 0c 3c fc 1d dd 3d
       -0.17824422 0.12618597 0.008554524 0.10796735
000260 97 b9 04 be 1c e5 9a 3c ef 43 3b 3e 20 c5 86 bc
       -0.12961422 0.018908076 0.18287633 -0.016451418
000270 03 11 09 3e 7d 8b 13 3d 70 23 d5 3d f4 5c d2 bc
       0.13385396 0.0360217 0.1040715 -0.02567909
000280 26 4c fc bc 64 30 6d 3c 26 d0 d3 bd 0f 8d 8f bd
       -0.03079803 0.014476869 -0.103424355 -0.07009327
000290 23 1c 0b 3d e0 d0 26 3a e1 fe d6 bb 61 2c a8 bc
       0.03396238 0.0006363522 -0.0065611457 -0.020528974
0002a0 54 ac 36 bd 9b 69 09 bd 10 af 97 3d 7d a0 81 3d
       -0.04459794 -0.03354798 0.074064374 0.06329439
0002b0 ff 18 9d 3d 0d 22 97 3d 6b 0a a5 bd 35 02 ae bc
       0.07670783 0.073795415 -0.08058628 -0.021241287
0002c0 45 58 85 3c 60 76 51 bd 4f d5 3a 3d 2c 4a a1 bd
       0.016277442 -0.05113828 0.045613583 -0.07875475
0002d0 a6 cb c1 3d bb 7d da bd 37 1f 93 bd 46 1e 9b 3c
       0.09462671 -0.106685124 -0.07183688 0.018935334
0002e0 d2 b7 3d 3d 49 29 a8 3d 9c f3 40 3d 5b f9 fc 3d
       0.046317883 0.082109995 0.047107324 0.12352248
0002f0 cc e0 cb 3d 2f 6f e8 bc c3 e7 5d bd 96 e8 9b bd
       0.09954986 -0.028373329 -0.054176103 -0.076127216
000300 c6 b1 c6 bd 5c 70 7d bd 36 a3 0f 3d 60 13 33 3c
       -0.09701876 -0.061874732 0.03506776 0.010929912
000310 6b b3 0d 3d 55 f2 03 bc 0a 24 b9 3d 81 1c bc bd
       0.034594934 -0.008053382 0.09040077 -0.09185124
000320 db 4d 0b bd 90 ac 83 bd 0c 04 e1 3a 6e 83 a5 bd
       -0.034009796 -0.06429398 0.0017167344 -0.08081709
000330 51 55 71 bd e1 1c 21 3d 17 01 bb bd 4d 98 be 3c
       -0.058919255 0.03933418 -0.09131067 0.023265982
000340 3d fe 8e 3d d1 29 45 3d f9 63 13 3d 42 1f 03 be
       0.06982086 0.048135582 0.035984013 -0.12804893
000350 6f c6 0d bd 15 cc 9c bc e0 89 ab bd 05 df fa bd
       -0.03461307 -0.019140283 -0.08375907 -0.12249569
000360 b6 09 49 3d 6b 32 35 3e 61 6f ec 3c 67 52 6c 3d
       0.049081527 0.17695014 0.028861703 0.057695772
000370 f2 49 0f be 6a d4 71 3d 42 4d c2 3b dd 62 a9 bd
       -0.13993052 0.059040464 0.00592962 -0.0827081
000380 a4 24 da bc cf 6d aa bc 2f fc 32 3d 66 21 0d 3d
       -0.0266288 -0.020804314 0.043697532 0.03445568
000390 28 42 e3 bb e0 f3 26 3c db d6 57 3d 81 d2 0f 3d
       -0.0069353767 0.01018998 0.052695137 0.03511286
0003a0 ff a7 d1 bd da 35 f2 3c 23 2e 05 3d 20 6e c1 bc
       -0.10237121 0.029566694 0.032514703 -0.023612082
0003b0 3a dc 6d 3c 41 b0 e1 bc 69 cb e7 3d 18 ca 9f 3d
       0.014517838 -0.027549865 0.11318094 0.07802218
0003c0 92 b3 aa 3d 62 fa 28 be 9e 2e 77 3d 32 f8 ba bd
       0.083350316 -0.16501763 0.060347192 -0.09129371
0003d0 74 3d 24 bc 63 44 df bd f4 02 f2 bb b0 d5 0b 3e
       -0.010024417 -0.109017156 -0.007385606 0.13655734
0003e0 da 7a 61 bc df d0 c1 3d 1f 1e bb 3c 3f de 88 3d
       -0.0137622 0.09463667 0.022841511 0.06683015
0003f0 64 da 90 bc ba 85 ec bd c3 13 30 3e b1 fc 29 be
       -0.017682262 -0.11548944 0.17195038 -0.166003

layers.6.bias f4 [64]
000000 40 3f f9 3d 35 91 48 3e 21 39 41 be f8 58 ee 3d
       0.12170267 0.19586642 -0.18869449 0.11638063
000010 d9 c3 26 be 7f 51 83 be 1d 7b d1 3d c8 0a 88 3d
       -0.16285647 -0.25648114 0.1022856 0.06642681
000020 30 b3 c2 3d 9a e8 f8 3d 37 42 dd 3d ff 2e b3 bd
       0.095068336 0.1215374 0.10803645 -0.08749198
000030 7c bc 4e 3e c7 0e 57 3d f4 28 1b 3e b8 be dd 3d
       0.20189089 0.052504327 0.15152341 0.10827392
000040 68 5c 14 3d ad 7f 5f bd 85 5a 48 3e 2f fc 29 bd
       0.036220938 -0.05456512 0.1956578 -0.041500267
000050 e6 84 03 3e 89 b3 df 3d c8 f0 4a be 15 ab a3 3d
       0.12843665 0.109229155 -0.19818413 0.07991616
000060 39 5a 01 3e f9 6c 71 bd b9 92 ee 3c 4d 90 69 be
       0.12632073 -0.058941815 0.029122697 -0.22808953
000070 29 f2 01 3e 2a f3 37 3e 20 41 0f be 45 3f 8e be
       0.12690033 0.17963853 -0.13989687 -0.27782646
000080 db 1f 55 3e 74 ca 60 3e a4 90 b2 3d fe 84 af bc
       0.20812933 0.2195223 0.08718994 -0.02142572
000090 3a 47 44 3d 39 2f 48 3e f6 2f ba 3d bb f0 ee 3d
       0.04791949 0.19549264 0.09091179 0.116670094
0000a0 5d 90 c3 3d 2c 89 38 3e 59 f4 22 3e 85 08 66 bd
       0.095490195 0.18021077 0.15913524 -0.05616047
0000b0 c1 af ec 3d 57 a8 5a 3e 7c 37 ae 3d a7 1b 6b be
       0.1155696 0.21353279 0.085066766 -0.22959767
0000c0 ef 50 a7 3d 1c 0d 42 be 01 08 2a 3e 38 bd 38 be
       0.08169734 -0.18950313 0.16604616 -0.18040931
0000d0 3f dd f2 3d a9 df ea bd 65 d7 2e bd bb 83 0a 3e
       0.118586056 -0.11468441 -0.042685885 0.13526814
0000e0 5b 3f 7a bd 06 dd f7 3d 05 36 3a 3e 51 22 8e bc
       -0.061095577 0.12102704 0.1818467 -0.017350348
0000f0 d6 6c 0c 3e 69 c2 0f 3e 1f 1e a2 3b aa 44 8a be
       0.13713393 0.14039005 0.0049474384 -0.27005512

layers.8.weight f4 [1, 64]
000000 48 1e b7 bd b0 9f 08 be 8e f1 e1 bb 5c 96 f9 bd
       -0.089413226 -0.13342166 -0.0068952506 -0.12186882
000010 c6 6e 61 bd fc 34 8f bb 1f 91 09 3e 39 eb d4 3d
       -0.055037282 -0.00437033 0.13434266 0.10396428
000020 61 9b 38 3e 0b 98 01 3e 47 ad 73 bd be ae 9a bb
       0.18028022 0.12655656 -0.059491422 -0.004720538
000030 d7 60 28 3e 4b e3 a1 bd 49 cf 38 3e 48 02 04 3e
       0.16443191 -0.07904681 0.18047823 0.12891495
000040 53 b0 14 3e fa 79 ac 3d cc 07 03 be d6 cd 5f 3d
       0.14520387 0.08421703 -0.12795943 0.05463966
000050 08 ff 17 be 02 8e c3 3d b2 de 20 bc c2 98 55 3d
       -0.1484338 0.0954857 -0.00981872 0.052147634
000060 7e 78 e7 3d a4 2d 9d 3d 2d 26 20 3e 3f c8 a4 bc
       0.11302279 0.07674721 0.15639563 -0.020115016
000070 83 7c 1e be af 4f c4 bd c0 1d 88 3d 0f bb 9f bc
       -0.15477185 -0.09585511 0.06646299 -0.019498376
000080 1f 62 1c be bb 87 20 be 2d 15 32 3e 7c bb 8b 3d
       -0.15271805 -0.15676777 0.1739089 0.06822869
000090 e2 95 cd bd 7d 1b 70 3e b8 9f 44 3e e5 1e 03 be
       -0.100383535 0.23447986 0.19201553 -0.12804754
0000a0 86 05 b4 bd 7d 01 32 3e 2c 0c 60 3e 94 27 80 ba
       -0.08790116 0.1738338 0.21879643 -0.000977742
0000b0 6c 4c 1e 3e 26 25 65 3e f2 83 4a bd 70 2a b7 bc
       0.1545884 0.22377452 -0.04944224 -0.022359103
0000c0 54 f5 12 3e d9 a4 d5 bb 1a 3d e5 3d 0f db 02 bc
       0.14351398 -0.0065198955 0.11193295 -0.007986798
0000d0 2c 75 0b 3e 9c bc 52 bc 1c 68 0f bd 70 7f 8d bd
       0.13618916 -0.012862351 -0.035011396 -0.069090724
0000e0 71 f7 18 bb 17 02 21 3e ce 1e 1a be d6 f7 74 bd
       -0.0023340846 0.15723453 -0.15050814 -0.059806667
0000f0 cf fd 04 be e4 3c b6 bd d9 24 15 3e fb 91 be bc
       -0.12987445 -0.08898333 0.14564838 -0.023262968
