flwr-mlp/models/checkpoints/round_015.pt (torch, 127593 bytes, 7 tensors)

layers.0.weight f4 [256, 19]
00000000: 69f5 72bd 35ab 1cbe 0bee a63a 7a85 7dbe
00000010: a0fe ceb9 bc99 0dbe 2de0 a5bd 86a4 48be
00000020: 0200 343e 6eba fbbd 7d95 253d 7ed7 1c3e
00000030: f0f9 e2bc 286c 0cbe ee2e 483e 2ad2 4cbd
00000040: a1bb 0ebe d6f7 303d f415 53be f572 37be
00000050: 4f62 0abd 1b4b f83d c2e1 923b 572a abbd
00000060: 68e3 9ebc 19fc 463e 6c8f 56be 52d9 a33d
00000070: 5ea0 19bd 37ab 1f3e 6bea 143e a1dc eabd
00000080: 21de 72bd 2277 8f3d d607 a2bd 14fb ef3d
00000090: b1bd 3d3e fef7 c0bc 1363 a23d 9a5c de3d
000000a0: 1d27 c83b 209f 0abe d6f6 953d c264 82bd
000000b0: 072a e53d 3ad9 67be 3f22 3a3c a2fb 753e
000000c0: 7560 033e 9032 a4bd f77f 9f3d af67 1b3e
000000d0: 64f6 e03d 6608 e7bb ea27 413d 83fa 0b3e
000000e0: 7553 bcbd c81b 8c3e 9e3f 51bd 50f4 5f3d
000000f0: c90a b93d 5d91 9dbd a2f7 5cbe 49dc 53be
00000100: f7fa 643e 20dc 11bd 32e4 8cba d783 463e
00000110: 9b6a eabd e5b6 9cbd ced7 803d 49fb 06be
00000120: b58a afbd 621f 85bd 7f9b 493d 5577 0e3e
00000130: 3cc5 c3bd f256 bdbd eb05 2d3e 5449 caba
00000140: dd36 493e 21e2 2d3e 1b5d 413e 8aea 073e
00000150: c04c 3f3e 5e02 5cbc c397 15be ff50 dcbd
00000160: 02da 51be 69ed 26bd 52c0 d2bd 87da ca3d
00000170: 5467 41bd 505e 3abd 340c 28be a237 893d
00000180: 4d44 143e 32d1 e6bd f8a5 463e 1ccf ea3d
00000190: d3ed 5ebe eeb4 193e b236 6a3e 2c66 c5bd
000001a0: d423 53be cbaf b73d 550b 90be 7ae9 d53c
000001b0: 84b8 313e f312 203e a75c db39 8272 ec3d
000001c0: 2d44 d0bc ea95 7ebe 3428 e43d 1a8f 313e
000001d0: 1dcd c93d 4303 76bb 3b74 bebd 2ca4 b5bd
000001e0: 3e32 17be 5806 2fbe d3c0 41be 45bb 823e
000001f0: 8c4b 60be 6816 c8bd da72 323d d460 02be
00000200: 76a0 0f3e 6deb dabd 9ddd d73c 5fe4 49bd
00000210: 9ecc 953c d062 253e dc9f 3bbe 9cfb 15bd
00000220: 2ab5 08be a3ca 053d c5ae 69bc 589d 2abe
00000230: 0503 d5bd 716f 4bbd 2795 40bd 6b89 bd3c
00000240: 4555 5f3d 409e 483e 30fe 133e e059 e7bc
00000250: d9ea 96bd 26dd 77be 2e87 053b 8085 13bd
00000260: 4c9b 32bd a17b ba3d e847 ba3d 614d 4fbd
00000270: a0f0 ec3d 67aa 763e 36f3 f43d 5b7f 0e3e
00000280: bb46 703e 4b9c 8c3d 0dd7 b7bd 4ab7 8d3e
00000290: d284 83be 2242 1c3e 3780 2e3d ce42 af3d
000002a0: 3422 d63c d769 3fbe 69f2 36be 2f8d 673e
000002b0: 3304 c3bc 8fba 2bbd 65cf 71bd d577 553e
000002c0: 1932 e1bd 0b98 afbc da72 413e 4395 3c3e
000002d0: 7761 80bd 9810 c5bc eba9 abbc e747 183e
000002e0: c8e6 113d 4247 003e 9279 c5bc 2cca df3d
000002f0: f68d d13d d315 843b f82a a4bd a7aa 9e3c
00000300: b8fb e93d fbe1 873d 0c22 69bd bc35 ca3d
00000310: f12d dabd 636a 123e 43b0 193e f841 a3be
00000320: 238a 6ebe d8d7 06bd 8e94 cabd 6daf 18be
00000330: 32a3 c8bd a708 123e bf81 273e cfd0 e93d
00000340: cabc 363c ec44 623e 7cd6 d8bd 4513 17bc
00000350: bc6f 3f3e df39 58be 9fa0 a43d 1e61 83be
00000360: 69fb c63d 121f 593e ae04 193e 22f0 293e
00000370: 4ec7 4fbe 6e30 d53c 5a39 3ebe 640c 6bbc
00000380: 423b fbba 212a 89bd d9ef 2f3e ad35 cf3c
00000390: 9d20 c6bd 5b4b 633e 4b36 4abd 9da8 9dbc
000003a0: 3a6f c13d db11 4ebc 2cff 2dbe 4d8f 8fbd
000003b0: 3bda 85be 5cd2 983e 8a35 60be 9455 fdbb
000003c0: 796a 0f3e 846f de3c 7d06 ec3b 3240 d43d
000003d0: 6176 5cbe 3749 f53c 1265 373d ecd3 ccbd
000003e0: 8c0e c0bd a48c 863c 45af a7bc 58d9 e63d
000003f0: 3fa2 48be c814 813d 02b1 e33d d069 21be
-0.059316073 -0.15299685 0.0012735737 -0.24757949 -0.00039481092 -0.13828176 -0.08099399 -0.1959401
0.17578128 -0.12291418 0.040425766 0.15316579 -0.02770707 -0.13713133 0.19549152 -0.050005116
-0.13938762 0.043205105 -0.20613843 -0.17914946 -0.03378516 0.121237 0.004482479 -0.08357685
-0.019395545 0.19432105 -0.20953149 0.08000435 -0.037506454 0.15592657 0.14542548 -0.11467863
-0.05929387 0.07005145 -0.07911651 0.11717811 0.18529393 -0.023555752 0.07929053 0.10857506
0.0061081783 -0.13537264 0.07322471 -0.06366874 0.11189657 -0.22641459 0.011360704 0.24021772
0.12829764 -0.080174565 0.07788079 0.15176271 0.10984495 -0.0070505617 0.047157206 0.13669781
-0.09195606 0.27364945 -0.05108606 0.054676354 0.0903526 -0.076937415 -0.2157884 -0.20689501
0.2236136 -0.03561032 -0.001074916 0.1938623 -0.11446115 -0.07652072 0.062911615 -0.13181795
-0.08571378 -0.065001264 0.04922056 0.13912709 -0.09559104 -0.09245099 0.16896789 -0.001543323
0.19649835 0.16980793 0.18883173 0.13273063 0.18681622 -0.013428299 -0.14608674 -0.10757636
-0.2049332 -0.040753756 -0.102905884 0.09904962 -0.047217682 -0.0455001 -0.16410905 0.06700064
0.1447918 -0.112703696 0.1939925 0.11465284 -0.2177041 0.15010425 0.22872427 -0.09638628
-0.20619136 0.08969077 -0.28133646 0.026112307 0.17355543 0.15632229 0.00041839966 0.11545278
-0.025423134 -0.24861875 0.11140481 0.17339745 0.098535754 -0.0037538565 -0.09299513 -0.08869204
-0.1476526 -0.17092264 -0.18921213 0.255335 -0.21903819 -0.09769899 0.043566562 -0.1273225
0.14026055 -0.10689435 0.02635079 -0.049290057 0.018286046 0.16150975 -0.183227 -0.036616907
-0.13350359 0.032663953 -0.01426286 -0.16661584 -0.104009666 -0.049666826 -0.047017243 0.023136815
0.05452468 0.19591618 0.14452434 -0.028241098 -0.073690124 -0.24205455 0.0020374763 -0.036015987
-0.043605134 0.091056116 0.09095746 -0.050610904 0.11569333 0.24088441 0.11960451 0.1391577
0.23464482 0.06865748 -0.089765646 0.276789 -0.2568727 0.15259603 0.042602744 0.08557664
0.026139356 -0.18692718 -0.1786591 0.22612451 -0.023805713 -0.041925963 -0.059035677 0.20846494
-0.109958835 -0.021434804 0.18891469 0.18416314 -0.0626859 -0.024055764 -0.020955047 0.14871179
0.03562048 0.12527183 -0.02410582 0.10927233 0.10232155 0.004030922 -0.08016008 0.019368483
0.11424965 0.06634899 -0.056917235 0.0987353 -0.10653294 0.14298396 0.15008645 -0.31886268
-0.23294882 -0.03292069 -0.09891616 -0.1491067 -0.09796752 0.14261113 0.16358088 0.1141678
0.011153409 0.22096604 -0.10587785 -0.009220903 0.18694967 -0.21115826 0.080384485 -0.25660032
0.097159214 0.21203259 0.14943191 0.1659551 -0.20290872 0.02602407 -0.18576565 -0.014346216
-0.001916744 -0.066974886 0.17181338 0.02529415 -0.09674189 0.22196715 -0.049368184 -0.01924544
0.09445043 -0.012577499 -0.16991872 -0.07009754 -0.2614306 0.2984799 -0.21895424 -0.007731149
0.1400546 0.027152784 0.007202922 0.10363807 -0.21529533 0.029942138 0.044774123 -0.100013584
-0.093777746 0.016424485 -0.020469317 0.11271924 -0.19593142 0.06302792 0.11117746 -0.1576302

layers.0.bias f4 [256]
00000000: a8be 013d ecc0 4ebd 6ea9 7abe 8b3a 76be
00000010: 499c 4ebe dd41 f5bd a686 0bbd ab74 19be
00000020: a2c6 5dbe 46d8 56bd 793d 903d 584d 9cbd
00000030: 86a3 873d 17a5 a4be 80fe 3dbe a23d 1ebe
00000040: db64 463d 9edd c83a 9e96 11be 07bd 39be
00000050: be2b adbd d786 0fbe c8a0 963d 8ab7 20be
00000060: 906a bdbd d335 ffbd 1818 e0bc 4d73 3bbe
00000070: 6de1 8abc 5154 57bd ec7d 61bd 9140 043d
00000080: fd91 38be 8b12 2c3c 8fbc 18be 83fc 91bd
00000090: edf5 eebc 0902 99bd 8c4e 3cbe aea6 a43d
000000a0: 3fce 83be d027 65be f13b 5ebe 15c9 5fbe
000000b0: 8d26 60be 1eb4 30be aca3 babd 1cd8 d83c
000000c0: 781c 10be 6031 7bbe 90e2 3ebe 2c6a bbbd
000000d0: 50e4 07be 9678 4fbd 33a4 08be a63c a43b
000000e0: 146d 94be 9fd1 9bbb d2c7 33be f333 2dbe
000000f0: 0b5b a9be 38e8 56be e258 fcbd ba59 96be
00000100: 5cec 7cbd bcef febc 862d 60be 305e babe
00000110: 5c0e 93be a3f1 38be 8972 91be a0f2 af3d
00000120: 97f5 b8bd e61f 85be 38c5 4ebe 24ce c5bd
00000130: 3f31 8fbe 7456 67be 0a1a 94bd 2ae0 4abc
00000140: 3b97 f33b 0dba 13be 1740 963c 34a0 2cbe
00000150: c573 89be 1fd8 67be 4d9a a4bd a5dd f53d
00000160: 62b8 10be 1db0 e43b a07b 89be cd93 b8bc
00000170: ad8c 62be eba5 36bd 5971 87be c670 40be
00000180: 059c 90be 09fa 39be 1ed2 afbe 042b 8ebe
00000190: 643e 0bbe fc0c 20be 86e9 79bd ae24 78be
000001a0: 3b9f 78be 0805 83be 1863 5bbe 2923 4fbe
000001b0: ca29 b83b d8c1 83be 1514 a1be 134a 373c
000001c0: 788b 0bbe 89f3 f5bd 7fe3 76be b41a 51bd
000001d0: 2665 363d 5a58 b1bd 4617 1abd 3228 39be
000001e0: f726 6abe d7f5 20be 23cd 6dbe 7703 22be
000001f0: de6c 8cbc 9f62 99be b1d2 cc3d 9d21 04be
00000200: fe78 a93b 21e7 c4bd fe44 9abc 6800 84be
00000210: 8233 213d 4cb3 16be d0a3 8bbb 3499 49be
00000220: 568c 6b3d 5453 d9bd cd11 173d 08fa 3bbe
00000230: 2c73 0ebe bfc4 52be 9c22 11be 9b80 15bc
00000240: 4df6 a8bd ef2c 04be d709 cdbc 46d9 b53d
00000250: 2de2 8ebe aa3e debd eb87 94be bf21 bfbd
00000260: 2624 31bd b660 953c 7f44 dcbd 4bd9 3fbe
00000270: bcd5 03be 1bf1 03be 1706 d0bd 4983 0dbe
00000280: 5aca 8ebe 2f51 b6bd b402 bfbc 3cb7 80bc
00000290: 08e9 f2bd 95ed babc 4deb 78be f108 6cbe
000002a0: a575 a7bd dc0c 78be e06f a13c 808c fa3c
000002b0: d36e 4dbe 0a68 c4bd db9c 6fbe 8a67 73be
000002c0: 094f 98be ca4d 9cbd d7fd 05bd 7341 b5bd
000002d0: a61e 863d a3d2 a83d 1db9 9cbe a00b 33be
000002e0: 4633 e73c c10b 953c 9c6c 32bc 79ec e3bd
000002f0: 6203 0bbe 0468 73be c377 5abd 1499 d4bd
00000300: f80d 1c3c f54f 903d 80d2 56be 127c d1bd
00000310: a1d3 92bd 4f24 84be c8de e2bd aab8 91bd
00000320: 909c 223d d2dd 513d 1b9b 59be f771 4dbd
00000330: b2b6 c4bd 0c61 9cbe 4ece 9abe 9a71 fcbc
00000340: 1797 bd3b 0ce5 e03c 91b8 18be fcb9 2dbe
00000350: a9a2 96be be86 83be f32b 3cbd c3f1 13bd
00000360: 19db 4bbe f9db 85be ba71 993d ce08 67be
00000370: 79d9 98be 7fac d5bc c273 d7bd 2599 cfbd
00000380: f562 abbe 7304 66bd c344 b53b 0686 26bd
00000390: 34ac 33be db82 84be 6e09 4fbe 8b99 5cbe
000003a0: 520c 27be 4c17 62be b388 61be 2092 cebd
000003b0: c6b4 703c 6851 8cbd 0560 80be 4077 99be
000003c0: 9613 4bbe a584 a1be 87d4 6cbe e63b cd3d
000003d0: dd07 51be 7146 97bd e5a0 47be 95a8 bcbb
000003e0: 0398 8cbe cdec ccbc fdd8 113c 7b4e 3abd
000003f0: cbd0 693d 39c0 18bc 8188 45be db11 a23c
0.031675965 -0.050476953 -0.24478695 -0.2404577 -0.20176806 -0.11975453 -0.034063958 -0.14985912
-0.21657804 -0.05245235 0.07042975 -0.0763194 0.066229865 -0.32157204 -0.18554115 -0.15453199
0.048436027 0.0015324836 -0.14217612 -0.18138514 -0.08455609 -0.14016281 0.07354885 -0.15695015
-0.09248841 -0.12461438 -0.027355239 -0.18305703 -0.016953195 -0.052570645 -0.05505173 0.032288138
-0.1802444 0.010502468 -0.1491568 -0.07128241 -0.02917 -0.07471091 -0.18389338 0.08039604
-0.2574329 -0.22378469 -0.21702553 -0.2185405 -0.21889706 -0.17256209 -0.09113249 0.026470236
-0.1407336 -0.24530554 -0.18641114 -0.0915111 -0.13270688 -0.05065211 -0.13343887 0.0050121127
-0.2898947 -0.0047552134 -0.17556694 -0.16914348 -0.33077273 -0.20987022 -0.123216406 -0.2936533
-0.061748847 -0.031120174 -0.21892366 -0.36399984 -0.28721893 -0.18060927 -0.28407696 0.08591199
-0.090312175 -0.260009 -0.2019242 -0.09658459 -0.2796726 -0.22591573 -0.07231529 -0.012382546
0.0074337996 -0.14426441 0.018341107 -0.16857988 -0.26846138 -0.22641037 -0.08037243 0.12005166
-0.14132836 0.006979002 -0.2685213 -0.022531414 -0.22123976 -0.044591825 -0.26453665 -0.1879302
-0.28244033 -0.18161787 -0.34339994 -0.27767193 -0.13598019 -0.15629953 -0.06101372 -0.24232742
-0.24279492 -0.25589776 -0.2142452 -0.20228256 0.005620216 -0.2573383 -0.31460634 0.011187094
-0.13627422 -0.12009341 -0.2411022 -0.051050857 0.044530056 -0.0865943 -0.03761985 -0.1808174
-0.22866426 -0.1571878 -0.23222785 -0.15821634 -0.017141756 -0.29958054 0.10001124 -0.12903447
0.005171894 -0.09614397 -0.018831726 -0.2578156 0.039355762 -0.14716834 -0.0042614713 -0.19687349
0.05750688 -0.10611597 0.03688221 -0.18357098 -0.13911122 -0.20582865 -0.14173359 -0.0091249
-0.08250103 -0.12907766 -0.025029106 0.08879332 -0.27906933 -0.10851796 -0.29009947 -0.093326084
-0.043247364 0.018234592 -0.10755252 -0.18735234 -0.12874502 -0.12884943 -0.101574115 -0.13819613
-0.27888757 -0.08902203 -0.023316719 -0.015712373 -0.118608534 -0.022818366 -0.2430851 -0.23050286
-0.08176736 -0.24223655 0.019706666 0.030584574 -0.20061807 -0.095901564 -0.2339968 -0.23769966
-0.297478 -0.076320246 -0.032712784 -0.08850374 0.065488145 0.08243301 -0.3060998 -0.17484903
0.028222691 0.018194081 -0.010890152 -0.11129088 -0.13575509 -0.23770148 -0.05333687 -0.1038076
0.009524815 0.070465006 -0.20978737 -0.10228743 -0.07169271 -0.2580895 -0.110776484 -0.071153
0.03970009 0.051236935 -0.21250574 -0.050157513 -0.09605159 -0.3054279 -0.30235523 -0.030815888
0.0057858336 0.027452968 -0.14914156 -0.16965479 -0.29420975 -0.25688738 -0.04594035 -0.036119234
-0.19907798 -0.26144388 0.07492395 -0.22561952 -0.29853418 -0.02608323 -0.10520126 -0.10136632
-0.33473936 -0.056156587 0.0055318787 -0.04065516 -0.17546159 -0.25881085 -0.20218441 -0.21542947
-0.16313294 -0.220792 -0.22024803 -0.10086465 0.014691537 -0.068514645 -0.25073257 -0.29973793
-0.1983169 -0.31546512 -0.23127948 0.1002119 -0.20413156 -0.073864825 -0.1949497 -0.005757401
-0.27459726 -0.02501526 0.008901832 -0.045485 0.057083886 -0.009323173 -0.19290353 0.019783905

layers.3.weight f4 [80, 256]
00000000: ce43 30bd 4114 643d c2a6 693c b305 c1bc
00000010: 38aa 8cbd 758c 8dbd 03c8 823d f5c5 863d
00000020: 92a0 a13d e9fc ffbd 03af b7bc 5c7c 22bd
00000030: a0ed f23b 37d3 a73d a918 de3c 68e5 6d3d
00000040: d5fc 7ebd c527 87bd e221 013d 44ec 7f3d
00000050: 3f02 b43d 70a4 eb3c 05db 2e3d 4552 323d
00000060: 93e2 c73d 1e4e 0bbd c46a 6c3b c305 913d
00000070: ab2c aebd e6cd efbc a92a 313d ec0e 333b
00000080: 2461 c53d eeb9 ccbd 0bb6 8b3d 1424 863d
00000090: abc3 01be f6ae d439 aec6 863d ee6c fbbd
000000a0: 188b 1439 76fa adbd d446 c8bd 9823 843d
000000b0: 42e4 ac3d a1fc 8bbd bb49 9a3c 18ba 3b3d
000000c0: 0ebb 79bd bc3f 2c3d 0d93 303d 1543 77bb
000000d0: 824a bfbc db2d 6bbd 6c49 6abd b54f a1bc
000000e0: c1d6 ad3d 9e87 203d 19c5 cb3b 3039 0cbe
000000f0: 2b6e 213e 4e7e 5ebc ef90 2a3d 42a5 e73d
00000100: 999e 6fbd e079 60bc 6d3b ac3d 24db 153d
00000110: b1ee b13d 8bf0 80bc c654 cd3c e62e 30be
00000120: d85c 283d 4d65 11bd c14f 4cbd 4777 8d3d
00000130: 8d1d efbd f780 9c3c bede 4c3d 0408 b4bd
00000140: af2b 69bd 4d62 963c 5fff bfba ac44 c13d
00000150: b31a acbd 3146 4b3d 869a 053e a1f0 66bc
00000160: d07d 9d3c 845b b13b 5a30 003d f53d 6e3d
00000170: 4154 80bd 7cf4 5bbd ec38 9a3c eeb8 70bb
00000180: 0120 1b3c 578a 663b 4abc 243b 9af3 a63c
00000190: 9e67 c1bd 422e d0bc d821 313d 9bbd 67bd
000001a0: 766c b0bd 2564 1f3d 360f 043e 876d 2a3d
000001b0: 7053 96bd bebc ac3d 37df 063d 0f8f 83bb
000001c0: ef06 083d 8cd6 773d 730b b0bd aa62 50bd
000001d0: 3ce9 a3bd 52aa cf3c f0d6 af3c 4b1d 7dbd
000001e0: 17ba e73c f2e2 6c3d e208 993d b8e0 bd3c
000001f0: 40e5 8d3c 75e9 063d 7cac f9bc e357 bd3d
00000200: 7ec9 3fbd 3bb7 803c 1fe4 9bbc 5364 1e3e
00000210: ae75 e1bd a318 01be 28ad 62bd dc97 7dbc
00000220: 656d babd ef43 923d 0939 16bc 72ed 363d
00000230: 6db7 a6bd da0f 9c3c 735e b9bc df5a 1d3d
00000240: dfdb 473c 426e ccbc 5158 fdbd a28f 13bd
00000250: 1614 223e 0b49 8d3d 14ff 0cbc c090 85bc
00000260: caf2 bebb 873a 223c 604b 9739 f737 853d
00000270: 7934 25bd 7e46 36bc b062 f13b 6cae cfbc
00000280: d6df 293e c741 d73d a340 863c 676e 5a3c
00000290: 595f 10bd cfb6 2ebd 8170 113c 9963 743b
000002a0: d9dd 873d 08bc b53d 4075 4fbc 7c19 a0bc
000002b0: 1774 dd3d dfac f7bb 8ef1 d43d 1a11 45bd
000002c0: cc18 76bd 7917 863c e2b5 d43d 380f 6abd
000002d0: c831 8ebd ecba 2e3d 6415 3b3d fad7 423d
000002e0: 632e 81bc 4fa8 d63c 37a8 bdbd 2f11 a03d
000002f0: 180a d9bb 960e cabc dabc 3eb9 f938 b0bd
00000300: 776f 033c b340 a3bd 7240 643d a6d8 0d3d
00000310: 6dba a73d ed31 2c3c 00f2 443d a118 c9bc
00000320: 3907 96bd 001b c33d 9e2f 56bc 6beb 30bd
00000330: 3eec e23c 6f62 023d afd7 be3d 29fe f5bb
00000340: 5fc7 58bc 7424 72bc aabc b6bd 9016 963a
00000350: eabb 1d3d d644 973d 7f55 c23d ee91 e239
00000360: acbb 3a3d 4e63 bb3d 46d6 91bc f0f5 003d
00000370: e023 3abd 6f9a 5bbd 4154 8cbd 4e0c 1a3d
00000380: d63d c93d c525 48bd bc10 53bd 6528 8b3d
00000390: 4589 963d 199b db3c f5d9 023d 6802 6b3d
000003a0: aad7 443d e65f 203e 85be 283d 2e94 3abd
000003b0: 9e72 8dbb 9e6d 073c 5fff 20bc 4d48 c23d
000003c0: 26bf a63c 55fd a4bd 46cb 30bd 1002 fbbb
000003d0: 2dc4 853d 0aca bb3d 1594 823d 996a 163d
000003e0: 7bea 0c3e 56ff ccbc b325 e5bc 9812 e2bc
000003f0: fa6b 81bd abfe 7e3b c699 c83d 9ea4 50bd
-0.043033414 0.055683378 0.01426095 -0.023562288 -0.06868404 -0.06911556 0.063858055 0.06580726
0.078919545 -0.12499411 -0.02242232 -0.03966938 0.007413581 0.08194583 0.027111368 0.058080107
-0.06225284 -0.06599382 0.031526454 0.06248118 0.08789491 0.028764933 0.042689342 0.04353549
0.097600125 -0.034010045 0.003607438 0.07081177 -0.085046135 -0.029272985 0.043253575 0.0027322127
0.09637669 -0.09996401 0.06821831 0.0654985 -0.12672298 0.00040566147 0.06580864 -0.12276636
0.00014166196 -0.08495037 -0.097791344 0.064521015 0.08441974 -0.068352945 0.018833986 0.04583177
-0.060969405 0.04205297 0.04310899 -0.0037729193 -0.023350958 -0.057416778 -0.057198927 -0.019691328
0.08488227 0.039191835 0.006218564 -0.1369369 0.15764682 -0.013579918 0.041642126 0.11310817
-0.05850086 -0.013700932 0.08409772 0.036585942 0.08688105 -0.0157397 0.025064837 -0.1720539
0.041104168 -0.035497 -0.049880747 0.06907516 -0.11675558 0.019104464 0.05001711 -0.08790591
-0.056926426 0.01835742 -0.001464825 0.09436926 -0.0840353 0.049627487 0.13047227 -0.014095456
0.019225031 0.005412521 0.03129611 0.058164556 -0.0626607 -0.053699955 0.01882597 -0.003673132
0.00946808 0.0035177672 0.0025136643 0.02037983 -0.094435915 -0.025412682 0.043245167 -0.056577306
-0.08614437 0.038913865 0.12896428 0.04160836 -0.07340133 0.08434437 0.032927718 -0.0040148566
0.033209737 0.060507342 -0.08595934 -0.050875343 -0.0800347 0.02534977 0.021464795 -0.061795514
0.028286977 0.05783362 0.074723974 0.023178443 0.017321229 0.032937486 -0.030477755 0.09245279
-0.046823017 0.015712371 -0.019029675 0.15467958 -0.11008774 -0.12607054 -0.055340916 -0.015478101
-0.091028966 0.071418636 -0.009168872 0.04466004 -0.081404544 0.019050527 -0.022628045 0.03841674
0.012198417 -0.024954919 -0.12370361 -0.03602565 0.15827975 0.068986975 -0.008605737 -0.016304374
-0.0058272826 0.009901649 0.00028857123 0.06504815 -0.040333245 -0.011125205 0.007366501 -0.025351726
0.16589293 0.10510593 0.016388243 0.013331986 -0.03524718 -0.04265481 0.008876921 0.003729081
0.06634111 0.08873755 -0.012662232 -0.019543402 0.10813158 -0.0075584496 0.103976354 -0.048112012
-0.060082242 0.016368615 0.10386254 -0.05714342 -0.06943089 0.04265873 0.045674697 0.047569253
-0.01576919 0.026203303 -0.092606 0.078157775 -0.0066235177 -0.024665158 -0.00018190165 -0.08604617
0.008022181 -0.07971325 0.055725522 0.03463044 0.08189855 0.01050995 0.04808235 -0.024547877
-0.07325596 0.09526634 -0.013072876 -0.043193262 0.02770054 0.031832155 0.09318482 -0.007507105
-0.0132311275 -0.014779199 -0.089227036 0.0011450816 0.038509287 0.07386176 0.09488963 0.00043214805
0.045589134 0.091498 -0.017802369 0.031484544 -0.04544437 -0.053614076 -0.06852008 0.03760939
0.098262474 -0.048864145 -0.05152963 0.06794814 0.07350401 0.026807355 0.03194614 0.05737534
0.048057236 0.15661582 0.04119732 -0.04555147 -0.004316642 0.008265881 -0.00982651 0.094864465
0.020354819 -0.08056132 -0.043162607 -0.007660158 0.06531558 0.09169395 0.06375901 0.036722753
0.13761322 -0.025024097 -0.027972078 -0.027596757 -0.06319423 0.0038909118 0.09794955 -0.05093824

layers.3.bias f4 [80]
00000000: af98 90bd 7f2c 8f3d 7944 91bd 6a66 4dbd
00000010: 480f 8bbd bf63 1abe da19 c2bd c796 88bd
00000020: 7aa9 bb3a 29a9 d4bd b14c 9bbc 2961 11bd
00000030: c8ea 43bc 4468 8f3b e3a8 043b 8cce 8e3d
00000040: d0fc 67bc 53d4 2b3d 08a8 06bd 30c7 0dbc
00000050: 92fd 03be 9263 97bd f8d3 863c d311 a8b9
00000060: 3532 26bd b18d fcbd 718a 35bd b827 dd3c
00000070: 18ae e93c be4c edbc 4912 0abe df6f cabc
00000080: eea9 ad3c c8ac 5b3d 2733 ddbd b83b 10be
00000090: 3814 b1bc 749a 4d3d 5d47 a53c 7ea4 99bd
000000a0: 7275 39bd 24d7 2dbc f3ad 57bd 12f9 0b3d
000000b0: 309a 89bb cd7b b1bd a4b6 70bd 85e1 dbbd
000000c0: baa9 3abd f18f 7b3d 4091 9abd 284d 933b
000000d0: 9d4b 07be 9843 b93c cf55 06bd ed42 9bbb
000000e0: 0da0 12bd 6df2 eabd dcbf edbc 6441 ae3d
000000f0: 076a a53d 481a d4bd 2f91 2f3d d822 f13c
00000100: d951 0ebd 8629 173c af47 1ebd 8e9b 30bd
00000110: 241a 7f3a c7cc e2bd 41d2 c13c fd48 c0bd
00000120: d938 64bc c171 37bd 5b90 0cbe 4d2a 3fbd
00000130: 3372 06be 05f9 7abc f316 debd 718c 0cbe
-0.07060372 0.06990909 -0.07093138 -0.050146498 -0.06790024 -0.15077113 -0.09477587 -0.066693835
0.0014317476 -0.10383827 -0.018957468 -0.03549305 -0.011957832 0.004376443 0.0020242266 0.069729894
-0.014159396 0.041950535 -0.03287509 -0.008653447 -0.12889698 -0.073920384 0.016458496 -0.00032056737
-0.040575225 -0.12331713 -0.04432148 0.026996478 0.028525397 -0.028967258 -0.13483538 -0.024711547
0.021199193 0.053631574 -0.10800772 -0.14085281 -0.021616086 0.050196126 0.02017563 -0.075020775
-0.04527802 -0.010610376 -0.052656125 0.03417308 -0.004199289 -0.08666191 -0.05876793 -0.10736374
-0.04557202 0.06141657 -0.075472355 0.0044952817 -0.13212438 0.022615239 -0.032796677 -0.004738203
-0.035797168 -0.1147202 -0.02902215 0.08508566 0.08076864 -0.10356575 0.042863067 0.02943556
-0.034746025 0.009226209 -0.03864258 -0.0431171 0.0009731373 -0.110742144 0.023659827 -0.093889214
-0.013929569 -0.04478622 -0.13726942 -0.0466712 -0.13129501 -0.01531816 -0.10844221 -0.13725449

layers.6.weight f4 [64, 80]
00000000: 1f25 003e 73a6 fdbd 94e2 80bc 4e18 d3bc
00000010: 2ee9 d83d eb51 0bbd db93 e23c a1e9 f83c
00000020: 9907 87bc 8400 023c 2dad 213e 8dbb 1fbd
00000030: ae08 813d a041 13bd 495c 2e3e 5da8 33be
00000040: 976e 693d 9513 1cbe cfa5 d43c 5ea8 3b3e
00000050: 6313 c63c e10d 83bd eadd 85bd d262 42bd
00000060: 9a3f 573c 71b5 c0bc ec5d 1eb9 6cc0 61bd
00000070: 76d8 8abc 67d1 f7bd 6191 3a3e d12f 363e
00000080: c235 13be 3400 15be 89d5 443c ac27 c2bc
00000090: cb52 5c3d 47d6 19be e775 bc3d 48fa 883c
000000a0: f0db 563d d4f5 47bd 4fb4 073e afea f7bb
000000b0: 8bad 00be aed9 80bd be07 aabd b174 ed3d
000000c0: a33c da3d 448f 1fbe 9f87 543d a384 a7bd
000000d0: 1c7c 9d3d fc1e 24bd db9e 60bd 436f 05be
000000e0: c895 863d 5bb4 a83d cb24 7abd fa04 8bbd
000000f0: 5056 0ebe 8bca de3d f813 14bd 6899 ee3d
00000100: 62eb 873d 6947 00be 439b e9bc e5e6 1d3e
00000110: 4840 febb 9fd5 133e 1b88 1f3d 9a30 df3d
00000120: 16f0 0dbe afc0 abbc 0e58 0a3e 08b7 dc3d
00000130: a53d 213e d9e3 bd3d ade7 363d 5712 1abd
00000140: e4b4 233e 7abf 60be 3c10 89bd de99 e1bd
00000150: 20d4 303e 8e88 4ebc 6f25 a0bc f8ee 363e
00000160: 5cbe 4abd 0936 b23d 0997 0f3d 7232 2e3d
00000170: d5ef 2abd f282 97bd 2bfe 0c3c 64a2 2ebe
00000180: adf3 513d 4557 15be 2e6d c93d 9ff1 76bb
00000190: 834c cabc 4324 b03d 4e0a 81bd 4795 77bd
000001a0: e73a c13d 3ab0 b1bc 5503 fd3d fa64 efbd
000001b0: c867 c83d 75a9 4abe 443d 5c3d f2fe c33c
000001c0: 830f 2bbd 0938 75bd cf28 883b 7a4b 0c3e
000001d0: bc73 76bc a898 f3bd af6a 1f3d d03d 613d
000001e0: ff15 a1bc ecc4 d0bc 7dac 463e f19e 29be
000001f0: 718a 34be aac4 00be 5710 0dbe 9a08 cf3d
00000200: 6663 0d3e acc4 b1bd 54a0 9ebc 81bc 0bbe
00000210: f2b8 80bd 9cdf 10be 2376 0ebd f6eb 13be
00000220: c589 c93d e5ea f53b 9e41 72bd 8c07 01be
00000230: 6573 20be aec1 043c be81 c2bb 9014 273e
00000240: 7161 25bd 6f3a 0abe da02 083d fa94 993d
00000250: fd97 19be e63f ee3d 4ce7 2a3c be0c d83d
00000260: 0e9d a8bd ccc5 383d 84b8 243e 2ea9 8abc
00000270: ab52 0a3e 4bd0 b23c 4206 bf3d 6fdc febc
00000280: c91d 62bb 4cfc 323c 3cdc a3bd 054f cbbd
00000290: 8571 663d 131d de3c 4ea0 913b deb2 c4b9
000002a0: f109 69bd 9ed0 a8bb fd92 ca3d 30fd 1f3d
000002b0: c038 d13d 98f4 e53c 8dd0 6dbd 0218 0abd
000002c0: b093 3e3d a08e 8fbd df0e 593d 65e0 52bd
000002d0: 7b4d 063e 8e7a a0bd f742 9abd 6bd9 953c
000002e0: b80d 5b3d 4ec1 723d 5c3e 803d d848 db3d
000002f0: 7cbe 863d a978 f4bc a38d 0ebd e5e9 34bd
00000300: 9199 d3bd 35ad c3bd a0c2 603d 68d7 203d
00000310: b50b 5a3b 6c05 46bd 02f3 e93d afcb bcbd
00000320: 6bcb 17bc b589 9cbd df07 8d3c 370d ebbd
00000330: 9df8 89bd 50a9 333d c0f1 d4bd 5485 383d
00000340: 7da9 bb3d 3564 743c d4cd 903d 78b3 14be
00000350: 516e 5cbc 17cb 5cbd 36f6 aebd 09c1 1abe
00000360: 3441 943d d3ae 3c3e 0fbe ba3c d53d 2d3d
00000370: e143 0ebe f171 a33d 1f8a 22bd 590c 6bbd
00000380: 68a8 06bc aacf 1bbd d3ab 3d3d 2ece 883d
00000390: 7554 afbc 29fc 0e3d 1a10 b23d 2de1 7b3d
000003a0: caeb e6bd cc22 3d3c a850 243d 1247 963b
000003b0: 7ebb 293d d388 dfbb 7818 e43d 30e8 cf3d
000003c0: add7 a63d 2202 13be 9c50 883d c277 8dbd
000003d0: f83e 48bc 8128 9fbd f48b b93b 2d4f 003e
000003e0: ed6d ab3c 3c7a c83d 11ab 793c 2b6b ba3d
000003f0: 96da b9bc 9c49 c0bd 981b 2c3e 2ed9 05be
0.1251416 -0.12385263 -0.01573304 -0.025768425 0.105913505 -0.03401367 0.027658394 0.03038484
-0.016483115 0.007934693 0.15788718 -0.03899722 0.06300484 -0.035951257 0.17027391 -0.17544694
0.056990232 -0.15241845 0.02595797 0.18325946 0.024179166 -0.063991316 -0.065364674 -0.047457524
0.013137722 -0.023524018 -0.00015103043 -0.05511515 -0.01694892 -0.12100487 0.1821952 0.17791678
-0.14375976 -0.14550859 0.012013801 -0.023700558 0.053789895 -0.15023147 0.092021756 0.016720906
0.052455842 -0.048818424 0.13252376 -0.0075658183 -0.12566201 -0.06291519 -0.08302258 0.11594523
0.10656097 -0.15581995 0.05188715 -0.08179595 0.076896876 -0.04006861 -0.054838996 -0.13030724
0.06571537 0.08237525 -0.061070245 -0.067880586 -0.13900113 0.10878476 -0.036151856 0.11650354
0.066366926 -0.12527241 -0.028516417 0.1542011 -0.0077591278 0.14436959 0.03894816 0.10897942
-0.13861117 -0.020965902 0.13510153 0.10777098 0.15746172 0.09271974 0.044654537 -0.037615146
0.15986973 -0.21948043 -0.066925496 -0.11015676 0.1726842 -0.012605799 -0.0195491 0.17864597
-0.049497947 0.08701713 0.035056148 0.042528577 -0.041732628 -0.07398023 0.00860552 -0.17054135
0.051257778 -0.14584072 0.098352775 -0.0037680638 -0.024694687 0.086006664 -0.063007936 -0.060445096
0.09435063 -0.021690477 0.12354151 -0.116891816 0.0978542 -0.19791205 0.053769365 0.023925278
-0.04176284 -0.059867892 0.0041552554 0.13700667 -0.015042242 -0.11894351 0.0389201 0.05499059
-0.019663809 -0.025484525 0.19401737 -0.16564538 -0.17630936 -0.12575021 -0.13775764 0.101090625
0.13807449 -0.0868009 -0.01936356 -0.13646127 -0.062852755 -0.141478 -0.034780633 -0.1444548
0.098407306 0.0075048083 -0.05914461 -0.12600535 -0.1566902 0.008102817 -0.0059358766 0.16316438
-0.04037613 -0.13498853 0.033205844 0.07499118 -0.14999385 0.116332814 0.010431122 0.105493054
-0.08233081 0.04511051 0.16086012 -0.016926374 0.13508098 0.021827837 0.093273655 -0.03111097
-0.0034502617 0.01092441 -0.08000991 -0.09927181 0.056260604 0.027113473 0.0044441586 -0.000375173
-0.056894246 -0.005151822 0.09891317 0.039059818 0.10215902 0.028070733 -0.058060218 -0.033714302
0.046527565 -0.070096254 0.052992698 -0.05148353 0.13115494 -0.078358755 -0.07532304 0.01829215
0.05347988 0.05926638 0.06261894 0.10707253 0.06579301 -0.029842691 -0.034803044 -0.04416837
-0.10332025 -0.09554521 0.05487311 0.039267927 0.0033271138 -0.048345014 0.11423303 -0.09218537
-0.009264807 -0.07643453 0.017215667 -0.1147713 -0.06736872 0.04386264 -0.10397673 0.045049027
0.09163187 0.014916469 0.070705086 -0.14521587 -0.013454036 -0.05390462 -0.08543055 -0.151127
0.07238999 0.18426065 0.022795705 0.042295296 -0.13893081 0.07980717 -0.039682504 -0.057384823
-0.008218862 -0.03803984 0.046306442 0.06679951 -0.021402577 0.034908447 0.086944774 0.06149404
-0.11275442 0.011543941 0.040115982 0.004586109 0.041438572 -0.0068217306 0.111374795 0.10151708
0.08146606 -0.14356282 0.06656 -0.069076076 -0.012222044 -0.077713974 0.0056624357 0.12530203
0.02092644 0.09788939 0.015238539 0.09102472 -0.022687238 -0.0938904 0.16807401 -0.13071129

layers.6.bias f4 [64]
00000000: 0b3f bc3d 8ac1 263e d616 f4bd e940 ac3d
00000010: f626 09be 1b35 5cbe b7c0 9e3d 144e 7d3d
00000020: e3c2 ae3d 84bb d93d 9c00 a13d f5ad 16bd
00000030: 94c6 433e 0aa9 b13c 6e80 083e 8f65 a93d
00000040: 3d27 be3c d335 b7bd ac24 293e 7256 55bd
00000050: 41ac c03d 5b83 de3d 2400 0cbe 8037 9c3d
00000060: 4c2b df3d efb4 adbd fdaf 08bc 6689 36be
00000070: d7f5 bf3d 95f6 183e 4d8f 0bbe f1bf 65be
00000080: 9ae7 333e 6266 403e 12fc 6f3d 4696 11bd
00000090: c9cf 923c 0b10 383e 16e6 823d d461 ab3d
000000a0: 7200 853d 6117 293e ee48 0e3e d612 8bbb
000000b0: ab99 b83d 6433 4e3e 76ef 6c3d ec0a 41be
000000c0: 56a6 513d bdf0 eebd fae3 1d3e 5354 d5bd
000000d0: fe41 be3d ac33 9bbd bc93 0ebd be02 db3d
000000e0: f497 92bc 9862 cc3d f598 183e f82b f2bb
000000f0: d260 d33d d78d e03d 7d8e 13bd bcf9 5bbe
0.09191712 0.16284767 -0.11918418 0.08410818 -0.13393769 -0.21504633 0.07751601 0.06184204
0.085332654 0.10631469 0.07861444 -0.036786992 0.1911872 0.02168705 0.13330242 0.08271324
0.02321207 -0.08945813 0.16517895 -0.052084394 0.09407855 0.10864898 -0.13671929 0.07627773
0.1089693 -0.08481776 -0.00834274 -0.17825851 0.09373062 0.14937814 -0.13628884 -0.22436501
0.17568818 0.18789056 0.058590002 -0.035543703 0.017921345 0.1797487 0.06391542 0.083682686
0.064942256 0.16512825 0.13895008 -0.004244189 0.09013685 0.20136791 0.057845555 -0.18851823
0.05118402 -0.11667011 0.15418997 -0.10416474 0.09289931 -0.07578215 -0.03480886 0.106938824
-0.017894723 0.09979743 0.14902098 -0.0073904954 0.103212014 0.10964554 -0.03602456 -0.21481985

layers.8.weight f4 [1, 64]
00000000: d5ad abbd 2c33 f1bd 3224 e2bc f035 eebd
00000010: 2dc9 90bd 05a2 15bc 067a fe3d 2a5e a33d
00000020: 96e3 0d3e e769 ef3d 2529 77bd f7d0 c13a
00000030: a07f 153e 2a56 abbd 4881 233e 8dcc e73d
00000040: 976d f23d 4d49 813d d44c fcbd 7f23 1a3d
00000050: df8e 18be ad12 983d 3431 d6bc b26a 5b3d
00000060: d576 c23d 84a3 723d 1999 0d3e bae1 aabc
00000070: d097 1bbe bff1 b5bd 755e 523d 8701 83bc
00000080: be4f 0fbe 7d93 17be dbd4 1c3e 73d7 203d
00000090: b3db d9bd 8a9d 5b3e a379 2b3e c9f9 01be
000000a0: f72d b4bd ea45 1e3e 7494 493e fb0a dabb
000000b0: 2ede 023e 82df 4f3e bbcd 4ebd c409 2cbc
000000c0: a8b2 f23d f06f bcbc c444 d93d 4e75 6fbc
000000d0: cafa f13d 64bc dbba 513c 64bd a6ce 77bd
000000e0: b316 0abc 8892 103e 1c36 11be a5b8 84bd
000000f0: edb2 00be fa17 adbd 5a23 de3d c33e a4bc
-0.08382765 -0.117773384 -0.02760515 -0.116313815 -0.07069621 -0.009132867 0.12425618 0.07976945
0.13856348 0.11690121 -0.060341973 0.0014787008 0.14599466 -0.08366044 0.15967286 0.11318312
0.11837309 0.06312809 -0.12319341 0.037631508 -0.14898251 0.07425437 -0.026146509 0.05356855
0.09495322 0.059237972 0.13827933 -0.020859588 -0.1519463 -0.08884 0.051359612 -0.01599194
-0.13995263 -0.14802356 0.15315573 0.03926797 -0.106376074 0.21446815 0.1674562 -0.12692942
-0.087978296 0.15456358 0.19685537 -0.006654141 0.12780067 0.20300105 -0.05048917 -0.010500375
0.11850482 -0.023002595 0.10608819 -0.01461537 0.11815412 -0.0016764519 -0.055721585 -0.06049981
-0.0084282635 0.14118397 -0.14180797 -0.06480531 -0.12568255 -0.08451839 0.108465865 -0.020049458
