flwr-mlp/models/checkpoints/round_021.pt (torch, 127593 bytes, 7 tensors)

layers.0.weight f4 [256, 19]
000000 e9 6c 5e bd 53 e5 19 be 47 81 9d bc 19 12 8d be
       -0.054303084 -0.15028886 -0.019226683 -0.2755287
000010 5d a1 cc bc 13 fa 10 be 74 fe c1 bd 86 0f 4d be
       -0.024979288 -0.14157896 -0.09472361 -0.20025453
000020 a3 7a 3a 3e 10 14 e2 bd 18 6e 37 3d 58 4a 11 3e
       0.18210845 -0.11038983 0.044782728 0.14188516
000030 f7 bb 11 bd 48 2c 17 be 90 b2 4b 3e c7 3a 5c bd
       -0.035579648 -0.14762986 0.19892335 -0.053766992
000040 18 f9 10 be 09 3c 0b 3d a2 1d 58 be 06 c5 30 be
       -0.14157522 0.0339928 -0.21105054 -0.17262658
000050 8f eb 48 bd ba 9a 04 3e 2e 4a 0a ba 48 68 be bd
       -0.04905277 0.12949648 -0.0005275336 -0.09297234
000060 87 8c 9e bc f1 45 4c 3e b3 9a 4f be 49 2b a9 3d
       -0.019354118 0.19948556 -0.20273857 0.08260209
000070 a8 5e 1a bd 1a d2 27 3e 05 aa 03 3e 37 fd f1 bd
       -0.037687927 0.16388741 0.12857826 -0.11815875
000080 a0 ee 89 bd 9d ca 84 3d d6 2c 99 bd 65 8a d7 3d
       -0.06734967 0.06483958 -0.07479255 0.105244435
000090 7a 37 55 3e ed 74 96 bc 73 c5 94 3d 54 26 df 3d
       0.20821944 -0.018366301 0.07264223 0.108959824
0000a0 b5 16 43 3c d7 99 fc bd 87 20 90 3d 90 c9 57 bd
       0.011907269 -0.1233403 0.07037454 -0.05268246
0000b0 ad 2f f4 3d 53 a0 6c be cf 8b 1a bc 27 2b 70 3e
       0.11923156 -0.23108034 -0.009432747 0.23453961
0000c0 90 f1 d7 3d 1b 91 b3 bd f0 de a5 3d 14 40 17 3e
       0.10544121 -0.08767911 0.080991626 0.14770538
0000d0 f0 41 d1 3d 4c 62 df bb 6b 40 51 3d 09 f4 05 3e
       0.10217655 -0.006817138 0.051086824 0.13081373
0000e0 66 e3 a0 bd 70 95 8f 3e d8 51 4b bd 7f 2b 67 3d
       -0.07855873 0.280437 -0.0496386 0.056437965
0000f0 ff 55 d7 3d a3 7e 90 bd d0 b7 5d be c8 36 54 be
       0.10514449 -0.07055404 -0.2165215 -0.20724022
000100 47 d7 61 3e 03 94 40 bd cc 33 d2 bc ec 5d 52 3e
       0.22054778 -0.047016155 -0.025659464 0.20543641
000110 e7 24 f5 bd 72 cd 9c bd b4 07 3a 3d 56 2f 07 be
       -0.11969929 -0.07656373 0.045417503 -0.13201651
000120 34 2a 96 bd 77 ab 8b bd fa af 5a 3d f4 e1 07 3e
       -0.07332268 -0.06819814 0.05339048 0.13269788
000130 ab 2b aa bd d7 18 c3 bd 02 c6 2d 3e 22 d2 13 3c
       -0.0830911 -0.09526222 0.16970065 0.009022268
000140 d5 45 54 3e 3b 6a 31 3e f9 53 4e 3e b5 98 ff 3d
       0.20729764 0.1732568 0.2014922 0.124802984
000150 94 52 35 3e bb 13 d2 bc dc 12 12 be 5f 5a d8 bd
       0.17707282 -0.025644174 -0.14265007 -0.10564112
000160 08 ea 51 be 91 1e 39 bd 00 53 c1 bd bb e0 b1 3d
       -0.20499432 -0.045195166 -0.09439659 0.08685442
000170 01 00 21 bd 46 28 49 bd 56 0e 1f be 14 0b 5e 3d
       -0.039306644 -0.049110673 -0.15532812 0.054209784
000180 45 ee 09 3e 7a 43 fd bd a4 6e 4a 3e ac 54 c3 3d
       0.13469799 -0.12366386 0.19768769 0.09537634
000190 8c e7 5b be da af 24 3e e9 4e 64 3e 23 f0 e5 bd
       -0.21475047 0.16082707 0.22295727 -0.11227443
0001a0 9b 2a 63 be 75 13 ab 3d 55 78 9b be 70 58 1a 3b
       -0.22184221 0.083533205 -0.30365244 0.0023551248
0001b0 5c 87 30 3e 77 ba 0a 3e 4c 17 ec ba c3 bc c8 3d
       0.17239136 0.13547693 -0.0018012314 0.098016284
0001c0 d5 4e 92 bc 02 33 89 be a8 1e e6 3d 6e 5b 2c 3e
       -0.017859856 -0.26796728 0.11236316 0.16831753
0001d0 f2 51 91 3d 9b 1d 80 bc 21 1d 8c bd f6 41 c5 bd
       0.07095708 -0.015639117 -0.068414934 -0.09631722
0001e0 a1 a7 14 be fb 8d 38 be c2 3e 45 be 18 7d 8d 3e
       -0.1451707 -0.18022911 -0.19262221 0.276345
0001f0 bc ce 69 be 3a 79 bb bd 8e 09 12 3d 90 b9 e8 bd
       -0.22832769 -0.091539815 0.035653643 -0.11363518
000200 11 1f 15 3e 57 73 c4 bd 1e 48 0c 3d 6b ea 0c bd
       0.14562632 -0.09592312 0.034248464 -0.034403246
000210 bf 21 22 3d d6 27 1d 3e ef 08 3c be 00 e0 f4 bc
       0.039582964 0.15347227 -0.18362783 -0.029891968
000220 b0 db f8 bd 34 6e 01 3d 63 33 8b bb ae ba 1f be
       -0.12151277 0.03159924 -0.004248069 -0.15598556
000230 50 f2 db bd 90 23 2c bd 80 90 d3 bc 8e 9e 42 3c
       -0.10739577 -0.042026103 -0.025825739 0.011878623
000240 06 fd 6c 3d bf 69 3a 3e 6e 08 03 3e 76 dd 0e bd
       0.05785849 0.18204401 0.12796184 -0.03487917
000250 80 59 c8 bd 73 2b 73 be 12 77 38 3c 90 d9 38 bd
       -0.09782696 -0.23747043 0.011258857 -0.04512936
000260 f0 7c 01 bd 5a 9d c2 3d 0a 9f bb 3d 1e d8 54 bd
       -0.03161329 0.09502669 0.09161194 -0.051963918
000270 55 8b de 3d d9 a9 71 3e 9f d3 d2 3d 2a 9c 06 3e
       0.10866419 0.23599948 0.1029427 0.1314551
000280 47 9a 78 3e c7 06 aa 3d cf e9 ad bd 16 2d 8f 3e
       0.24277602 0.08302074 -0.08491861 0.27964085
000290 2b 40 88 be 04 6b 33 3e e0 4d 3f 3d 71 2c a7 3d
       -0.26611456 0.17521292 0.046705127 0.081627734
0002a0 9c 46 d1 3c 81 bf 39 be 54 cb 3d be ab a1 5c 3e
       0.025546364 -0.18139459 -0.18534595 0.21546046
0002b0 2b 6d 1f bd 30 89 85 bd 75 da 84 bd b9 a4 63 3e
       -0.03892247 -0.06520307 -0.0648698 0.22230805
0002c0 f8 11 ea bd 95 e0 82 bc 16 d9 34 3e 5d c5 4d 3e
       -0.114292085 -0.01597623 0.17660937 0.2009482
0002d0 cf 43 88 bd 2c 5b f2 bc 70 b6 d8 bc 41 c3 11 3e
       -0.066535585 -0.02958449 -0.02645418 0.1423464
0002e0 31 8d 0e 3d 27 08 01 3e a4 e4 eb bc d2 0e e8 3d
       0.03480262 0.12600766 -0.028795548 0.11330952
0002f0 72 37 e3 3d bf c7 5e 3b a0 45 be bd e3 45 bb 3c
       0.1109456 0.003399357 -0.09290624 0.022860473
000300 7a c9 e2 3d 66 ed 6c 3d 30 d9 6f bd df 36 bd 3d
       0.11073585 0.05784359 -0.058556736 0.092389815
000310 96 c2 e2 bd f5 f6 0f 3e ba 89 1a 3e 37 15 b3 be
       -0.110722706 0.1405905 0.15091601 -0.34977123
000320 c5 61 72 be 56 21 07 bd 2f fe d9 bd 0f f1 12 be
       -0.23670109 -0.032990776 -0.10644185 -0.14349769
000330 08 75 d2 bd 36 11 02 3e 4c 1f 1d 3e aa c5 e1 3d
       -0.10276228 0.12701878 0.1534397 0.110240296
000340 57 c9 69 3c e1 13 59 3e fa a6 d5 bd 06 38 06 bd
       0.014269195 0.2119899 -0.10432239 -0.032768272
000350 41 6d 42 3e 4c 74 5f be f5 c2 90 3d 43 50 8a be
       0.1898699 -0.21821707 0.07068435 -0.2701436
000360 0b 29 c0 3d 82 bc 5f 3e 18 ea 17 3e 2a 1f 32 3e
       0.09382828 0.21849254 0.14835393 0.173947
000370 be 6a 52 be b1 42 ec 3c 65 97 56 be 83 76 07 bd
       -0.20548531 0.028840395 -0.2095619 -0.033072006
000380 c0 d6 59 38 dc 97 85 bd ba 34 2b 3e 0b 99 98 3c
       5.1936833e-05 -0.065231055 0.16719332 0.018627664
000390 d4 69 c0 bd e6 bf 65 3e 09 21 43 bd 2f 69 77 bc
       -0.09395185 0.22436485 -0.047638927 -0.015100761
0003a0 bc 7f e3 3d 0f d4 d5 bc b7 c0 20 be 1e 8b a3 bd
       0.11108348 -0.026102094 -0.15698515 -0.07985519
0003b0 10 28 8d be e4 f5 9d 3e d0 91 6a be 75 60 02 bc
       -0.27569628 0.30851662 -0.22907186 -0.007957567
0003c0 3e d2 04 3e c2 1f d7 3c a9 ce c8 3b 0d 12 cd 3d
       0.12970826 0.02626026 0.0061281514 0.100132085
0003d0 f9 59 44 be 60 a6 9c 3c bd 3d 26 3d 35 bb d4 bd
       -0.19174947 0.019122303 0.040586222 -0.103872694
0003e0 78 4e a8 bd 8b 57 f7 3a 47 b1 31 bd 28 f5 00 3e
       -0.08218092 0.0018870694 -0.043381955 0.1259352
0003f0 76 bd 4f be d8 ce 35 3d b9 5b b6 3d 71 0b 22 be
       -0.20287117 0.044386715 0.089042135 -0.15824677

layers.0.bias f4 [256]
000000 cb e6 d6 bb c9 e8 a8 bd 46 06 94 be b3 76 83 be
       -0.0065582744 -0.08247525 -0.28911036 -0.25676498
000010 6b e2 6b be e9 ac 11 be 6c 01 aa bd 62 f0 58 be
       -0.2303559 -0.14226116 -0.083010525 -0.21185449
000020 25 b2 7d be a4 a4 63 bd 34 b2 88 3d 5e 9d c4 bd
       -0.24774988 -0.055576935 0.066746145 -0.09600328
000030 22 d5 b5 3c d6 c5 b7 be ce 32 58 be e4 90 3b be
       0.022196356 -0.35893124 -0.2111313 -0.1831699
000040 30 92 20 3c 5b 72 f4 bc 51 eb 48 be 85 ab 78 be
       0.009800479 -0.029839685 -0.19621016 -0.2428418
000050 c3 ea ff bd b8 4f 4a be 08 be 91 3c ef 7e 3f be
       -0.12495949 -0.19756973 0.01779081 -0.18700765
000060 57 be 04 be cc 0b 17 be 4d 2c 45 bd 26 bc 6d be
       -0.12963234 -0.14750594 -0.04813795 -0.23216304
000070 d3 04 fd bc 37 6e a6 bd fe f1 d7 bd 2d 9b f7 3b
       -0.03088609 -0.081264906 -0.10544203 0.00755634
000080 af c8 61 be 7c a7 3e b8 6b b4 3e be 56 30 f0 bd
       -0.22049211 -4.5455512e-05 -0.18623511 -0.11727969
000090 79 82 50 bd a0 da b6 bd ca fb 6b be 25 ea 72 3d
       -0.05090568 -0.08928418 -0.23045269 0.05930533
0000a0 91 71 8f be ce bf 7e be 02 2a 66 be 3c 6d 83 be
       -0.28016332 -0.24877855 -0.22476962 -0.25669277
0000b0 56 4b 79 be 67 7e 3b be 64 a6 10 be 41 3f 09 3d
       -0.24345145 -0.18309937 -0.14125973 0.03350759
0000c0 21 4c 25 be 18 d1 a2 be 35 6e 69 be 5c b8 1b be
       -0.16142322 -0.3180015 -0.22795947 -0.15207046
0000d0 1e ac 0a be f3 dc 84 bd c6 25 08 be 67 31 11 bd
       -0.1354222 -0.06487455 -0.1329566 -0.035447504
0000e0 8e 0c b1 be 2e 74 2e bd 49 d7 35 be 7d cc 32 be
       -0.3457989 -0.042591266 -0.17757906 -0.17460819
0000f0 13 27 c8 be a2 e2 82 be 93 17 1e be d5 4b ac be
       -0.3909231 -0.25563532 -0.1543868 -0.33651605
000100 6d a7 9a bd e7 27 6a bd 25 13 8f be fd a9 d6 be
       -0.07551465 -0.05716696 -0.27944294 -0.41926566
000110 13 a7 aa be b8 26 69 be ad 01 a4 be 15 ab 97 3d
       -0.33330593 -0.22768676 -0.3203253 0.07405678
000120 b5 6a 09 be 94 1a 8c be 0c a4 52 be 8c 2f 07 be
       -0.13419612 -0.27364028 -0.20570391 -0.13201731
000130 24 08 93 be b8 63 8e be a6 80 f7 bd ec 66 d5 bc
       -0.28717148 -0.27810454 -0.120850846 -0.026050054
000140 f9 4b bb bc fd 20 46 be d0 1c 1b bd e5 bc 48 be
       -0.022863375 -0.19348522 -0.037869275 -0.19603308
000150 ed b6 96 be 16 42 87 be 96 b0 fd bd c7 f2 c3 3d
       -0.29436436 -0.26417607 -0.12387197 0.095677905
000160 9d ee 32 be b1 20 f4 bc a4 a5 95 be cf f8 27 bd
       -0.17473836 -0.029800745 -0.29227936 -0.041008767
000170 7f a4 72 be 3a b5 8b bd 0f 8d 9d be b4 f3 64 be
       -0.23695563 -0.068216756 -0.30771682 -0.2235859
000180 1d 98 a4 be dd 18 64 be 6b 28 c4 be a6 f9 9a be
       -0.32147303 -0.2227511 -0.38312086 -0.30268592
000190 75 32 26 be 24 a6 5a be 3b fa b1 bd 1f 45 8a be
       -0.16230185 -0.2135244 -0.08690306 -0.2700586
0001a0 42 7d 73 be 5e 64 9f be 1b 3e 7d be 54 71 81 be
       -0.23778251 -0.31131262 -0.24730723 -0.25281775
0001b0 e7 96 35 bc b3 4b 9f be 2c c1 b8 be 92 a3 25 bb
       -0.011083341 -0.3111244 -0.36084878 -0.0025274497
0001c0 cd 95 3f be 08 72 20 be ea b9 88 be 0d 06 7e bd
       -0.18709488 -0.156685 -0.2670434 -0.06201749
0001d0 d4 a7 d7 3c 8d 5f 13 be 7a b5 c6 bd 80 8c 43 be
       0.026325144 -0.14391918 -0.09702583 -0.19096565
0001e0 40 9b 73 be 7e 4e 46 be a1 84 88 be 64 b8 57 be
       -0.23789692 -0.1936588 -0.26663688 -0.21066433
0001f0 36 e9 7e bd 19 bf ae be 7c f8 9c 3d 0e 46 21 be
       -0.062234126 -0.3413017 0.07664582 -0.1574938
000200 db 39 5c bc 9f 85 10 be a0 7a 26 bd 24 ac 9f be
       -0.013441528 -0.14113472 -0.040644288 -0.3118602
000210 a7 a7 3f 3c 89 84 24 be f9 91 2c bd 40 2a 5c be
       0.011697686 -0.16066183 -0.042131398 -0.21500492
000220 8c 68 5f 3d 0f bd 23 be 5d 30 ab bb 1f c7 6d be
       0.054543063 -0.15990089 -0.005224271 -0.2322049
000230 19 24 11 be dd 8e 82 be 2a 9c 35 be 5a 61 8d bd
       -0.14173926 -0.2549962 -0.17735353 -0.06903334
000240 22 78 09 be 7c b6 30 be 53 ef cf bc 47 93 b1 3d
       -0.13424733 -0.17257112 -0.025382673 0.08670669
000250 51 7b 9e be 09 3b 22 be 9a 52 af be 44 0f f3 bd
       -0.30953458 -0.15842833 -0.34242707 -0.11868146
000260 53 07 e3 bd f7 fe 45 bd 65 82 0f be f3 38 70 be
       -0.11085381 -0.048338857 -0.14014585 -0.23459224
000270 ea 48 11 be e4 d5 2e be e6 cc 17 be 6c 6c 44 be
       -0.14187971 -0.1707378 -0.14824256 -0.19181985
000280 f7 26 a4 be c2 47 ef bd 59 27 89 bd d6 70 9e bc
       -0.32060978 -0.116836086 -0.06696958 -0.019340914
000290 50 0d 23 be be 99 33 bd 9a 3a 84 be ac a7 75 be
       -0.15923047 -0.04384779 -0.2582596 -0.23989743
0002a0 41 d0 ec bd 21 8e 93 be 1f 6a 15 bd 26 4b 8c 3a
       -0.11563159 -0.28819373 -0.036478158 0.0010703548
0002b0 f2 9e 63 be 04 15 0e be 10 01 8e be eb 2c 83 be
       -0.22228602 -0.13875204 -0.27735186 -0.25620207
0002c0 b0 24 a3 be 3b 7d a3 bd b4 30 a7 bd 0e 05 00 be
       -0.31863928 -0.0798287 -0.08163586 -0.12501928
0002d0 50 40 19 3d 77 57 b0 3c 31 3d b6 be 14 74 48 be
       0.03741485 0.021526081 -0.3559356 -0.1957553
0002e0 15 1e 9f 3b 78 9c 71 bb 10 c4 04 bd 69 99 18 be
       0.004855881 -0.0036866944 -0.032413542 -0.14902271
0002f0 21 7d 0c be 91 7b 88 be 4c f4 da bd 5c 34 d1 bd
       -0.13719608 -0.26656774 -0.10691127 -0.10215065
000300 ae f9 ed ba 63 52 5c 3d 75 1d 79 be 11 bd 0d be
       -0.0018156075 0.053789508 -0.24327643 -0.13841654
000310 93 e5 07 be 7f cd 93 be 91 35 fc bd ae 67 e7 bd
       -0.1327117 -0.2886772 -0.123149045 -0.11299072
000320 4a b9 23 bb 5e 50 db 3b 2e 60 83 be d5 51 88 bd
       -0.0024982267 0.00669293 -0.25659317 -0.06656233
000330 e2 80 23 be a7 4b b3 be ce 44 c2 be 7c a8 35 bd
       -0.15967134 -0.35018656 -0.3794312 -0.044350132
000340 ea 8c 20 bd 5d 0a be bc a1 81 32 be e6 29 45 be
       -0.039196886 -0.023198301 -0.17432262 -0.19254264
000350 94 e9 a5 be 2f f1 9b be 7a 25 af bd d6 3b a7 bd
       -0.32404768 -0.30457446 -0.0855207 -0.0816571
000360 fe 60 7b be 25 72 95 be 43 13 59 3d 3b 1d 77 be
       -0.24548718 -0.29188648 0.052996885 -0.24132244
000370 6a 36 a0 be b7 4f ad bd f3 c4 ee bd 7a 5f 1e be
       -0.31291515 -0.0846247 -0.11658659 -0.15466109
000380 16 c1 c1 be b0 1b a8 bd 54 d6 90 bc 70 16 99 bd
       -0.37842625 -0.08208406 -0.017680325 -0.07474983
000390 bf 82 73 be 41 7c 9f be ed 61 58 be f6 9d 89 be
       -0.23780344 -0.31149486 -0.21131106 -0.26878327
0003a0 8d 04 56 be 14 ff 85 be c2 e0 8e be 8e 71 eb bd
       -0.20900173 -0.26171172 -0.27905852 -0.11496268
0003b0 9e 32 67 bc 9b 5b 9a bd 5d d5 8e be 64 bc b6 be
       -0.014111189 -0.075370036 -0.27897158 -0.35690606
0003c0 2b 49 76 be 5b 1f b1 be 36 25 85 be 4a bd ac 3d
       -0.24051349 -0.34594235 -0.26004952 0.084345415
0003d0 9f 5d 82 be 23 f0 08 be bc 19 75 be b8 55 3b bd
       -0.25462052 -0.13372855 -0.23935598 -0.045736045
0003e0 8a d4 9e be 40 34 b6 bd 7d 1e 6a bc bc e6 b6 bd
       -0.3102153 -0.08896685 -0.014289496 -0.08930728
0003f0 57 b6 45 3c 3e 15 01 bd 9a ba 6e be 8a 46 00 3c
       0.012067399 -0.0315144 -0.2331337 0.007829318

layers.3.weight f4 [80, 256]
000000 3d 66 30 bd 81 24 5c 3d db c1 f0 3c 0f 2c 55 bc
       -0.043066252 0.05374575 0.029389312 -0.013010993
000010 3d 0e 88 bd 0a bb 6d bd 2d 13 60 3d 4f df 8d 3d
       -0.06643341 -0.058039702 0.054705787 0.06927358
000020 eb 5f ce 3d 61 8a 11 be e6 ff c4 bc 76 53 6a bd
       0.10076889 -0.14212944 -0.024047803 -0.0572085
000030 fa c2 2a bc c8 ce 03 3e c5 55 da 3c a1 8e 83 3d
       -0.010422463 0.1287185 0.026652226 0.06423689
000040 b5 6f aa bd dd e7 9c bd bf f8 86 3d 03 37 94 3d
       -0.08322088 -0.07661412 0.06590413 0.07237055
000050 a9 cf ab 3d 8c b7 1e 3d ae a3 00 3d 53 1e 35 3d
       0.083892174 0.038749263 0.031406097 0.044218373
000060 13 b6 b7 3d 1b 05 b7 bc ef 81 22 bc 39 05 d9 3d
       0.08970275 -0.022341302 -0.009918674 0.10596699
000070 20 73 cd bd 43 2e dc bc 70 19 8e 3d e7 19 02 3c
       -0.10031724 -0.026877528 0.069384456 0.007940746
000080 bc f9 08 3e 6c 5a c1 bd ea 58 9a 3d 3a 1d 9d 3d
       0.13376516 -0.09441075 0.0753649 0.0767159
000090 7b ea 02 be 41 28 36 3c aa 9b ac 3d ff fa 0d be
       -0.1278476 0.011117996 0.08428128 -0.13865279
0000a0 76 50 19 3c 01 34 bc bd 91 aa e2 bd 43 02 e1 3d
       0.009357562 -0.091896065 -0.11067689 0.109867595
0000b0 cf 50 f3 3d d2 99 2d bd be 8a 38 3d 0c 95 ad 3c
       0.118806474 -0.042383023 0.04505419 0.021189235
0000c0 01 5c 62 bd 62 8c 8c 3d a6 39 ad 3d a5 28 b3 bc
       -0.055263523 0.068627134 0.08458261 -0.021869967
0000d0 bc 0b c8 bc c9 9a 94 bd a0 79 97 bd 87 7a f2 bc
       -0.024419658 -0.072560854 -0.07396245 -0.029599441
0000e0 57 71 c0 3d 84 6d 30 3d 27 60 d9 3c 1f 5d 08 be
       0.09396618 0.043073192 0.026535107 -0.13316773
0000f0 ef 33 4f 3e 7a 9c c3 bc a3 50 9e 3d b4 ec 43 3e
       0.20234655 -0.023878325 0.07730224 0.19133264
000100 92 6c 44 bd 1b c3 ee bc 7c 44 aa 3d bf d3 95 3d
       -0.047955103 -0.029145768 0.083138436 0.07315778
000110 f5 ee 14 3e 47 4b 92 3c b1 41 46 3d 13 c4 45 be
       0.1454428 0.01785816 0.048402492 -0.19313078
000120 d8 8c 5d 3d 86 c3 e5 bc 3d 84 34 bd 60 2d c2 3d
       0.054089397 -0.028047334 -0.044071425 0.09481311
000130 45 73 07 be 8f 3e 85 3d 48 6f 42 3d 2a ea c6 bd
       -0.13227566 0.06506073 0.047469407 -0.09712632
000140 d9 e5 69 bd b4 39 7b 3c 65 b3 51 3c 62 16 d7 3d
       -0.057103965 0.015333582 0.012799119 0.10502316
000150 84 d2 93 bd ae 30 c0 3d 6e 3b 22 3e 34 15 de bc
       -0.07217887 0.09384285 0.15842983 -0.02710972
000160 87 fe e6 3b b5 8f 61 bb e3 cc 00 3d e3 e6 22 3d
       0.007049385 -0.0034417931 0.031445395 0.039770972
000170 f5 d9 86 bd 00 49 93 bd 40 d4 43 3d 42 fd 3c 3c
       -0.06584541 -0.07191658 0.04780984 0.011534991
000180 07 91 9a 3c b6 c5 87 3b 62 f9 86 3d 30 b5 54 3d
       0.018867983 0.004143442 0.06590535 0.051930606
000190 90 27 d0 bd 46 9e 2b bc 97 bd 80 3d b9 f5 32 bd
       -0.10163796 -0.010474747 0.062861614 -0.04369137
0001a0 e0 5f 91 bd 2d 38 93 3d 5b 85 28 3e 96 65 90 3d
       -0.07098365 0.07188449 0.16457121 0.07050626
0001b0 20 a0 cf bd 18 23 f7 3d 04 3e 87 3d b4 76 41 3b
       -0.10137963 0.120672405 0.066036254 0.0029520215
0001c0 8d 1d 3e 3d 0f e2 73 3d 87 32 ac bd 75 a2 4f bd
       0.0464149 0.05954176 -0.08408075 -0.05069204
0001d0 95 ab b0 bd d5 6f 14 3d 85 90 1e 3d b6 57 78 bd
       -0.08626477 0.036239464 0.038712043 -0.060630523
0001e0 ca 33 9b 3c 4e 0a a0 3d a4 aa a9 3d 5c 2f e3 3c
       0.018945593 0.078144655 0.082845 0.027732544
0001f0 c7 d1 b7 3c 4f 76 71 3d 1e 74 1e bd 4b 24 f1 3d
       0.022438897 0.05895072 -0.038684957 0.117745005
000200 31 cb 5e bd f4 71 21 3c 25 45 32 bc d8 ca 36 3e
       -0.054392997 0.009853829 -0.010880743 0.17850816
000210 ee f2 0d be 31 35 0c be ca 43 64 bd 8f e6 11 3b
       -0.13862202 -0.13692166 -0.05572871 0.0022262668
000220 9f bd ec bd 95 29 a9 3d 00 1e c2 bb 32 c4 81 3d
       -0.11559605 0.08259884 -0.0059239864 0.063362494
000230 9d 19 ab bd d8 50 1e 3d ec 07 aa bc f3 e8 54 3d
       -0.08354495 0.038651317 -0.02075573 0.05197997
000240 93 1a 03 3d 7d c4 b1 bc 55 d9 03 be 21 14 37 bd
       0.032007765 -0.021700138 -0.12875874 -0.04469693
000250 f6 bf 43 3e d9 1f c3 3d 0e c0 45 3d 34 a7 13 3c
       0.19116196 0.09527559 0.04827886 0.009012032
000260 63 91 83 3c 53 80 47 3c f1 6d c0 3c fc 1f 93 3d
       0.016060537 0.012176591 0.023489924 0.07183835
000270 ae 24 b9 bc e4 b3 5f bc 96 ea d7 3c 38 e0 0a bb
       -0.022600498 -0.013653729 0.026356976 -0.0021190774
000280 c3 b5 44 3e be df e4 3d 53 5c d4 3c 35 c0 0c 3c
       0.19209962 0.11175488 0.02592293 0.008590748
000290 ee 98 fe bc 96 4b 17 bd 12 0e f2 3c fa c3 02 3c
       -0.031078782 -0.03693732 0.029547725 0.007981295
0002a0 b7 40 ce 3d 71 f5 ee 3d 0c 24 f9 bb f7 81 04 bd
       0.10070937 0.11667908 -0.007603174 -0.032350507
0002b0 8b d8 ee 3d 82 4c 74 3a 76 0a f9 3d 8b fe 5e bd
       0.11662396 0.0009319262 0.121601984 -0.05444197
0002c0 bd 6e 85 bd 95 52 53 bb 3f b4 f0 3d 01 97 83 bd
       -0.06515262 -0.0032245268 0.11753129 -0.06425286
0002d0 87 94 98 bd 9f 81 44 3d 0b 0a 46 3d 3b d3 aa 3d
       -0.07450204 0.04797518 0.04834942 0.0834107
0002e0 ba 53 54 bc 4b c0 69 3c a7 9a f5 bd d0 c7 b8 3d
       -0.012959415 0.014267038 -0.11992388 0.09022486
0002f0 12 8c ad bc 3a fa 8c bb 27 cf b2 3b f6 d1 de bd
       -0.021184955 -0.0043022903 0.0054568234 -0.108798906
000300 f4 a2 6e bc e2 26 b0 bd 51 4b b0 3d ae b5 95 3d
       -0.014565218 -0.08601166 0.086081155 0.07310043
000310 ad d3 bb 3d 46 58 00 3d a7 c5 3f 3d f3 af 49 bc
       0.09171233 0.031334184 0.046819355 -0.012310016
000320 6d 12 99 bd a6 c0 e2 3d d8 8a 76 bc fb ee 49 bd
       -0.074742176 0.11071901 -0.015047751 -0.049300175
000330 ef 57 0c 3d d0 ca 3c 3d 2a 4a eb 3d 34 71 5f bc
       0.034263548 0.046091855 0.11488755 -0.01363783
000340 64 7a ab bc 88 e9 06 bc ce 5a d1 bd 25 20 7e 3b
       -0.020932384 -0.008234389 -0.10222398 0.0038776484
000350 88 2a 8b 3d 86 f5 0b 3e 64 9e c5 3d 0c 77 0b bc
       0.067952216 0.13667879 0.09649351 -0.00851227
000360 1b 43 89 3d 4b 74 08 3e 54 4e 2a bd 9d 1a 94 3d
       0.067022525 0.13325612 -0.041578606 0.072316386
000370 70 86 c6 bb 85 29 53 bd 77 77 74 bd 61 83 5c 3d
       -0.0060585067 -0.051553268 -0.059684243 0.05383623
000380 e2 61 c2 3d f7 c1 4b bd d8 a2 8b bd 1b b7 9f 3d
       0.09491326 -0.049745526 -0.06818169 0.077985965
000390 34 00 99 3d 27 d6 d8 3d 86 5d 15 3d a7 16 8e 3d
       0.07470742 0.10587721 0.036466144 0.06937914
0003a0 00 7f 95 3d b7 fd 39 3e bb 82 52 3d e8 7e d2 bc
       0.07299614 0.18163191 0.051394206 -0.02569528
0003b0 89 6a a6 bc 2f c7 0f 3c db e9 3d bc 02 c2 bf 3d
       -0.020314472 0.008775516 -0.0115914 0.09363176
0003c0 99 29 49 3d 38 6d 82 bd a3 f0 0a bd b4 d6 ba bc
       0.049111936 -0.06368488 -0.033920895 -0.022807457
0003d0 13 b4 07 3e 09 b1 fa 3d 65 77 b2 3d 64 c3 1a 3d
       0.13252287 0.12240798 0.08714179 0.037783995
0003e0 17 6a 62 3e a9 5f 18 bd 6c e5 14 bd 4d dc e8 bc
       0.22110783 -0.037200604 -0.036351606 -0.02842536
0003f0 df 8e 81 bd 04 b0 b7 bc 68 fa e9 3d 2c 8c 85 bd
       -0.063260786 -0.022422798 0.11424714 -0.06520876

layers.3.bias f4 [80]
000000 19 9b ec bd 0b 70 88 3d 88 a7 e5 bd 51 35 71 bd
       -0.1155302 0.066619955 -0.11213595 -0.058888737
000010 21 9f de bd 49 95 45 be 24 78 08 be a6 b4 b7 bd
       -0.10870195 -0.19295229 -0.1332708 -0.08970003
000020 d9 9c a0 ba f1 05 f5 bd a4 2c 48 bd 58 ea ea bc
       -0.0012253775 -0.11964024 -0.048870698 -0.028676197
000030 b6 ac 23 bd 19 7c 0b 3c b0 1a a5 bc 45 2f 9c 3d
       -0.03995963 0.008513474 -0.020154327 0.076262034
000040 2c 2b 64 3a 29 b8 29 3d a8 2c 77 bd cc e8 b9 bc
       0.0008703943 0.041435394 -0.060345322 -0.022694014
000050 be a1 1e be 1a 94 bc bd b9 40 ca 3c db 99 1f bc
       -0.15491387 -0.09207936 0.024689065 -0.009741272
000060 1e 31 d4 bc 0d 2a 04 be b7 60 8f bd 4e 26 9d 3c
       -0.025902327 -0.12906666 -0.07000869 0.019183304
000070 ae fd 55 3d 39 75 f0 bc 7b 44 37 be a5 01 55 bd
       0.05224388 -0.029352771 -0.17897217 -0.05200352
000080 dc 83 6f 3c 55 24 4a 3d 53 9d 15 be e3 25 3f be
       0.01461884 0.049351055 -0.14610796 -0.18666796
000090 b4 6a 21 bc 50 7b 64 3d 04 48 b4 3b fe aa a0 bd
       -0.0098521 0.055781662 0.005501749 -0.07845114
0000a0 9b 04 9f bd 31 00 b7 bc 26 1c b6 bd 3c 9b ff 3c
       -0.0776455 -0.022338958 -0.08892088 0.031201951
0000b0 34 25 34 bc 8d 6d d4 bd f7 45 67 bd bd 21 14 be
       -0.010995198 -0.10372458 -0.056463208 -0.14465995
0000c0 b3 8d aa bd 53 30 71 3d e3 46 ec bd 79 6c cc 3b
       -0.08327808 0.058883976 -0.11536958 0.006238517
0000d0 78 34 24 be 24 35 8f 3c e1 c6 14 bd 18 f3 86 3a
       -0.1603564 0.017481394 -0.03632248 0.0010295836
0000e0 f5 18 6c bd d2 b2 21 be 31 3d 09 bd c9 45 9b 3d
       -0.05764099 -0.15790871 -0.033505622 0.0758167
0000f0 ee ca 8c 3d 19 58 10 be b8 4e 2d 3d 79 7a ab 3c
       0.06874643 -0.14096107 0.0423114 0.020932423
000100 de 5d 80 bd 16 0d 44 3c b4 24 ed bc 23 91 a8 bd
       -0.06267904 0.011966011 -0.028948165 -0.08230808
000110 cf 5a 45 bb e4 8f 03 be 49 4f c6 3c 6b ee 04 be
       -0.003011394 -0.12847859 0.024207728 -0.12981574
000120 fa dd 94 ba 91 52 4b bd 42 67 3c be fd e0 b6 bd
       -0.0011357658 -0.04963929 -0.18398765 -0.08929632
000130 45 7e 32 be 6c 2d 2d bd 05 15 eb bd 63 00 3b be
       -0.1743098 -0.042279646 -0.114786185 -0.18261866

layers.6.weight f4 [64, 80]
000000 9b d9 fe 3d 50 51 13 be b4 3c ea bc d9 10 5c bd
       0.12443849 -0.14386487 -0.028593399 -0.053727005
000010 62 b0 d4 3d 61 b4 9a bd 01 b4 ac 3b 57 04 26 3d
       0.10385205 -0.07553936 0.0052704816 0.040531483
000020 e5 bc 32 bd 40 33 b5 bb b0 67 26 3e 19 f4 58 bd
       -0.043637175 -0.005529791 0.16250491 -0.052967165
000030 f1 c8 84 3d a2 c4 a1 bd dc c1 30 3e 55 7d 57 be
       0.06483639 -0.07898833 0.17261451 -0.21043904
000040 c8 22 6e 3d 34 30 22 be 86 2f 5c 3d ca aa 44 3e
       0.05813864 -0.158387 0.05375626 0.19205776
000050 da 6b f3 3b 01 dd 97 bd e6 41 c8 bd 39 3d 9e bd
       0.0074286284 -0.074152 -0.09778194 -0.07726521
000060 58 29 96 3c 80 35 99 bd d0 d6 9a 3c 7d 1a 74 bd
       0.018330261 -0.074809074 0.018901259 -0.059595574
000070 e3 c2 99 3c dd 06 17 be 05 eb 3b 3e f8 f7 34 3e
       0.018769687 -0.14748712 0.18351372 0.17672718
000080 54 f8 38 be 77 8c 3e be 53 32 19 3c c2 24 f3 bc
       -0.1806348 -0.1860827 0.009350377 -0.029680613
000090 5b 74 86 3d a7 0a 34 be 30 7f d4 3d 50 1e 91 3c
       0.06565162 -0.17582189 0.103758216 0.01771465
0000a0 1c b1 58 3d 75 eb 9e bd 39 99 2b 3e 20 9a 52 bd
       0.05290328 -0.077597536 0.16757669 -0.051416516
0000b0 c4 7c 21 be 38 08 df bd 5b dd fb bd 02 86 eb 3d
       -0.1577025 -0.108902395 -0.122980796 0.11500169
0000c0 a3 08 e9 3d b6 0a 2b be 99 3b 1a 3d 47 78 04 be
       0.113786004 -0.16703305 0.037654493 -0.12936507
0000d0 bd 1a 91 3d 26 aa 84 bd 07 ee 52 bd 4f 02 38 be
       0.07085178 -0.06477766 -0.05149653 -0.1796963
0000e0 f8 56 a5 3d 2f 15 eb 3d 09 7a cb bd a0 64 bf bd
       0.080732286 0.1147865 -0.09935386 -0.093453646
0000f0 7e 19 0d be 04 54 00 3e 8f 42 63 bd 2b 67 02 3e
       -0.13779256 0.1253205 -0.055483397 0.12734668
000100 90 f5 9e 3d 40 5e 30 be 37 e8 c4 bc 18 1f 18 3e
       0.07761681 -0.17223454 -0.02403651 0.14855611
000110 ea 49 36 bd eb a5 1a 3e bd 23 1b 3d f5 17 df 3d
       -0.044504084 0.15102355 0.03787588 0.10893241
000120 3f e1 40 be b5 db 11 bd 40 74 21 3e 86 8f d1 3d
       -0.18835925 -0.03560992 0.15767002 0.10232453
000130 39 d7 1a 3e 36 e2 d3 3d 11 ce 5f 3d e0 9e 10 bd
       0.15121163 0.10345881 0.05463988 -0.035307765
000140 e7 95 25 3e d7 13 7c be af ff 9b bd 7e f6 05 be
       0.16170464 -0.24616943 -0.07617127 -0.1308231
000150 17 b2 31 3e ce 95 50 bd 07 e9 1d bd 4c cc 45 3e
       0.17353092 -0.050924115 -0.03855231 0.19316214
000160 8f c5 ad bd 38 3d 9d 3d 4f 75 34 3d f3 07 e1 3b
       -0.08484947 0.07677692 0.044057187 0.0068674027
000170 c8 9d 14 bd 9f d6 05 be 4c 31 7b 3c 79 66 5d be
       -0.036283284 -0.13070153 0.0153315775 -0.21621121
000180 93 d5 68 3d 5a 4e 1a be 08 88 03 3e ce 58 2c 3c
       0.056844305 -0.15068951 0.1284486 0.01051922
000190 62 a5 1d bd 59 97 a2 3d 6c 3c e7 bd 7f 61 c6 bd
       -0.0384878 0.079390235 -0.112908214 -0.09686565
0001a0 df ff ce 3d 1d 2f a8 bd 75 81 15 3e 2a 16 fe bd
       0.10107397 -0.08212111 0.14600165 -0.12406571
0001b0 d0 16 06 3e 70 05 68 be 14 b0 72 3d e6 ba da 3c
       0.1309464 -0.22658324 0.059249952 0.026700448
0001c0 14 15 b0 bd ca 09 dd bd cf 72 af 3b a8 ff 08 3e
       -0.0859777 -0.10792883 0.0053542624 0.13378775
0001d0 5f af 20 bb 3e a6 19 be 96 4b 64 3d d3 e9 64 3d
       -0.0024518592 -0.15004823 0.055736147 0.055887055
0001e0 7d bb 6f bc d5 d0 75 bd ea 0a 6d 3e ac dc 4d be
       -0.014632103 -0.06001361 0.23148695 -0.20103711
0001f0 6c 71 4c be f8 9c 32 be 1a 15 3f be 33 f2 d3 3d
       -0.19965142 -0.17442691 -0.18660393 0.1034893
000200 1b c5 17 3e f4 80 e5 bd 14 b4 fd bc 14 d8 35 be
       0.14821284 -0.112062365 -0.030969657 -0.17758209
000210 33 fc 84 bd a2 02 2a be 88 76 ff bc a0 50 4b be
       -0.06493416 -0.16602567 -0.03118445 -0.19854975
000220 19 5b f0 3d 36 b6 30 3d 24 61 db bd 1b 7d 1b be
       0.117361255 0.04314252 -0.107118875 -0.15184443
000230 f8 76 2b be 19 25 e9 3c 12 4f 1a bd 73 cf 36 3e
       -0.16744602 0.028460072 -0.037673064 0.17852573
000240 da 11 cc bc cc 3d 41 be aa 91 20 3d 8d f3 95 3d
       -0.024910856 -0.1887123 0.039201416 0.07321844
000250 62 e4 39 be d2 d6 02 3e 20 d6 59 3c 4c c4 de 3d
       -0.18153527 0.1277726 0.01329568 0.108772844
000260 e1 37 0d be 31 0a 60 3c 0d e2 3e 3e 62 1a 92 bc
       -0.13790847 0.013674305 0.18640919 -0.017834846
000270 9a 82 07 3e 8d 46 16 3d 20 ba d1 3d 2c 77 d0 bc
       0.13233414 0.036688376 0.10240579 -0.02544745
000280 eb a3 07 bd 57 ae 76 3c 30 46 d4 bd 8a 5b 89 bd
       -0.03311531 0.015056214 -0.1036495 -0.06706913
000290 ef ba 0b 3d 11 08 d6 ba b4 81 be b9 94 66 c3 bc
       0.03411382 -0.0016329308 -0.0003633626 -0.023852624
0002a0 22 6e 31 bd 22 9c 23 bd b7 48 8e 3d 33 f3 81 3d
       -0.04331792 -0.03994382 0.06947463 0.06345215
0002b0 38 e0 8e 3d a8 07 9c 3d d1 9d a5 bd 80 b8 86 bc
       0.0697636 0.07618648 -0.08086742 -0.016445398
0002c0 0c d2 63 3c e4 e3 4c bd ac e8 29 3d 47 52 a7 bd
       0.01390506 -0.05002202 0.04148166 -0.0816999
0002d0 b2 48 bb 3d db 4a ce bd 5b f8 90 bd 61 49 04 3c
       0.09144725 -0.10072871 -0.0707862 0.0080741355
0002e0 bd 80 3a 3d fb 8b b2 3d 78 fc 3a 3d 0e 2d fd 3d
       0.04553293 0.087181054 0.04565093 0.12362109
0002f0 8e 34 ca 3d 52 57 dd bc 10 42 5b bd 1c c2 9c bd
       0.09873305 -0.027019177 -0.0535298 -0.07654211
000300 09 fb cb bd a8 6e 78 bd f5 20 12 3d 77 0c c6 3b
       -0.099599905 -0.060652405 0.03567596 0.0060439664
000310 e6 26 4f 3d 43 96 ae ba f7 44 b3 3d a2 dd bb bd
       0.050574206 -0.0013319928 0.087533884 -0.091731325
000320 bb fb 1a bd 20 65 83 bd 55 1d a8 3a d0 cb 98 bd
       -0.037837725 -0.064157724 0.0012826124 -0.07460749
000330 16 1f 7a bd 8c 0e 1e 3d 57 74 bb bd 30 9c a6 3c
       -0.061064802 0.03858809 -0.091530494 0.020338148
000340 8a 00 95 3d 65 7d 4a 3d c8 0a 06 3d 1d d0 f5 bd
       0.072754934 0.04943599 0.032725126 -0.12002585
000350 90 20 19 bd e6 48 a7 bc e1 d7 ac bd 2c f3 f3 bd
       -0.03738457 -0.020420503 -0.08439613 -0.11911616
000360 7c c5 51 3d 42 1b 36 3e 2a be f6 3c 11 5f 76 3d
       0.051213726 0.17783836 0.030119974 0.060149256
000370 ca b1 09 be c9 3c 61 3d 63 40 25 3c 97 2e af bd
       -0.13446727 0.05498961 0.010086152 -0.08553808
000380 95 cf d9 bc 93 91 b3 bc 94 7f 37 3d b2 1a fc 3c
       -0.02658824 -0.021920001 0.044799402 0.030774448
000390 dd 46 11 3a 7c 66 d6 3b 43 93 43 3d 23 52 14 3d
       0.00055418705 0.006542979 0.04774786 0.036211144
0003a0 e1 1c cd bd 46 18 ea 3c a1 d3 05 3d 9c 85 da bc
       -0.10015274 0.028576028 0.03267253 -0.026675038
0003b0 ce 46 6d 3c 68 20 f9 bc 07 24 ec 3d dc 27 97 3d
       0.014482213 -0.03041096 0.11530309 0.073806494
0003c0 27 9c a9 3d 0e 1c 2c be 9e a9 65 3d 22 9a c3 bd
       0.08281737 -0.16807577 0.056069963 -0.09550883
0003d0 ca 23 33 bc 2d ad f0 bd a0 4e 47 bc 0a e9 0d 3e
       -0.010933826 -0.11751781 -0.012164742 0.13858429
0003e0 e0 62 ad bc 0d 21 b0 3d 05 a0 ba 3c 33 43 81 3d
       -0.021165311 0.08600054 0.022781381 0.06311645
0003f0 3d 6b 95 bc a5 ba ee bd 70 6f 31 3e 5b 29 2f be
       -0.018239612 -0.11656693 0.17327666 -0.1710562

layers.6.bias f4 [64]
000000 a4 7f 01 3e da 33 4e 3e b2 6b 4f be 28 be f8 3d
       0.12646347 0.20136967 -0.20255926 0.121456444
000010 a7 ec 2d be 24 1a 8a be 39 f7 d9 3d 9c c0 8f 3d
       -0.16984807 -0.2697307 0.10642857 0.07019159
000020 d9 d3 cc 3d 07 3a 00 3e 64 16 e6 3d be 59 c7 bd
       0.10001344 0.12522136 0.112347394 -0.09733914
000030 db 05 51 3e 1e 20 6c 3d 71 d7 1d 3e 06 ca e4 3d
       0.2041239 0.057647817 0.15414216 0.111713454
000040 01 8e 1f 3d 18 70 49 bd ab a5 4d 3e 51 f1 0e bd
       0.038953785 -0.049179167 0.20082729 -0.034898106
000050 a9 08 0a 3e 4e 6a e8 3d e0 c5 53 be d3 c1 a3 3d
       0.13479866 0.11348401 -0.20680952 0.079959534
000060 9c f8 04 3e 96 4a 58 bd 6b e0 0f 3d 7b 74 73 be
       0.12985462 -0.052805506 0.03512613 -0.23774903
000070 af ab 07 3e ac e4 3c 3e d8 e3 0e be a2 08 94 be
       0.13249086 0.18446606 -0.13954103 -0.28912836
000080 0b 62 5a 3e bb 94 66 3e 1a 3e bf 3d 44 b0 8e bc
       0.21326463 0.22517674 0.09338017 -0.017418034
000090 da d4 58 3d 20 bd 4b 3e 88 c2 c6 3d 5c 8e f9 3d
       0.052937366 0.19896364 0.09705073 0.12185356
0000a0 e2 71 cd 3d ac f7 3b 3e bf 0a 26 3e 5f 92 87 bd
       0.10031487 0.18356198 0.16215037 -0.06619715
0000b0 0f 03 f7 3d 25 3e 5d 3e da b9 b4 3d cf 50 76 be
       0.1206113 0.21605738 0.08824511 -0.24054264
0000c0 57 72 b2 3d 86 fb 49 be d1 a8 2b 3e 94 97 44 be
       0.08713215 -0.19724855 0.16763617 -0.19198447
0000d0 80 76 fa 3d c8 96 00 be 25 a8 46 bd 2a 28 10 3e
       0.12229633 -0.12557518 -0.0485002 0.14077821
0000e0 2b 79 95 bd 0e 64 fe 3d c8 bb 3f 3e b9 02 ad bc
       -0.072985016 0.12421428 0.18723977 -0.021119462
0000f0 3b 33 12 3e 27 00 15 3e 90 99 30 3c e2 34 8f be
       0.14277355 0.1455084 0.0107788 -0.27970034

layers.8.weight f4 [1, 64]
000000 e8 cc b6 bd 89 ee 0a be 6e a8 0b bc 53 f8 f9 bd
       -0.089258015 -0.13567556 -0.0085240435 -0.12205567
000010 a3 2b 4a bd f2 30 2e bb 56 d6 0a 3e 61 a6 eb 3d
       -0.04935802 -0.0026579467 0.13558325 0.11506344
000020 e7 2e 46 3e 7b 1a 04 3e e3 2f 6f bd 6a 5d 29 bb
       0.1935383 0.12900726 -0.058395278 -0.0025843033
000030 64 ef 2b 3e eb 37 9e bd 91 df 3c 3e 85 e8 06 3e
       0.16790539 -0.07725509 0.18444659 0.13174637
000040 b1 45 1b 3e 8e b2 b9 3d 5c 54 03 be 25 6d 88 3d
       0.15163304 0.0906726 -0.1282515 0.06661443
000050 c9 76 16 be af cd d2 3d 66 38 65 bc 2d fa 54 3d
       -0.1469375 0.10293137 -0.013990497 0.0519964
000060 0e f3 ee 3d ff 3d af 3d 31 c5 24 3e 88 7d b3 bc
       0.11667453 0.08556747 0.16090848 -0.021910444
000070 73 d2 1d be 1f d7 c4 bd b3 ac 8a 3d a6 ef aa bc
       -0.15412311 -0.096113436 0.06771221 -0.020866226
000080 80 77 1d be 25 15 21 be b2 ec 35 3e b5 11 9e 3d
       -0.15377617 -0.15730722 0.17766073 0.07718221
000090 ac 4f c8 bd c1 1d 74 3e 30 26 48 3e 69 69 02 be
       -0.09780821 0.23839475 0.19545817 -0.12735523
0000a0 1a d3 b2 bd 2f 52 36 3e 7f 38 64 3e ba e1 d8 39
       -0.08731671 0.17804788 0.22287177 0.0004136691
0000b0 d9 73 24 3e a4 96 69 3e fa 43 48 bd 14 22 bb bc
       0.16059817 0.22811371 -0.048892953 -0.022843398
0000c0 df 7c 18 3e 8d 99 16 bc 00 c7 e8 3d af 5a a4 bb
       0.14891385 -0.009191883 0.11366081 -0.005015693
0000d0 6c 54 0f 3e 6c e2 14 bc 91 50 e4 bc 18 80 8f bd
       0.13997048 -0.009087186 -0.027870448 -0.07006854
0000e0 10 2f a0 39 16 56 25 3e 3b 95 1a be 1a 49 67 bd
       0.00030552642 0.1614612 -0.1509599 -0.0564662
0000f0 c8 73 04 be fb 08 b5 bd 30 33 20 3e 8c 0c c3 bc
       -0.12934792 -0.088396035 0.15644526 -0.023809694
