flwr-mlp/models/checkpoints/round_002.pt (torch, 127593 bytes, 7 tensors)

layers.0.weight f4 [256, 19]
-0.065596946 -0.14055608 0.0024097068 -0.12170799 0.007814263 -0.10860971 -0.08756286 -0.19082543
0.16757555 -0.14374614 0.044426095 0.17948714 -0.07539837 -0.14214933 0.18587686 -0.00055575697
-0.096325 0.08859184 -0.18520918 -0.19359677 -0.060571726 0.039378975 -0.013882307 -0.06077873
-0.043703526 0.20184721 -0.21158917 0.1540271 0.001526485 0.09695494 0.124669 -0.14878172
-0.07455707 0.07992348 -0.09416999 0.10395899 0.12358523 -0.039069217 0.13563654 0.13186751
-0.070787005 -0.12594017 0.05951661 -0.051748313 0.094242595 -0.2262455 0.09073871 0.23842478
0.18376718 -0.045684613 0.028948937 0.17855519 0.13010505 0.028646389 0.033423364 0.14329506
-0.14937115 0.23547192 -0.057572886 0.05597775 0.10760789 -0.088540554 -0.20467417 -0.19172023
0.20594576 -0.07526869 0.048465263 0.1610486 -0.107520856 -0.120227486 0.097581364 -0.15835807
-0.108539894 -0.020686703 0.058460735 0.1707396 -0.09039302 -0.08483224 0.17281969 -0.038956992
0.16778338 0.12534823 0.1749812 0.18899809 0.1639393 0.022165895 -0.14548287 -0.12268058
-0.22460246 -0.06252167 -0.15034369 0.1036352 -0.04940804 -0.04694591 -0.16938905 0.043665823
0.17042945 -0.07033516 0.2240529 0.16627043 -0.21507202 0.10905192 0.21688892 -0.137547
-0.13628596 0.08474751 -0.24597639 0.038948122 0.1514087 0.17570882 -0.004960141 0.17910028
-0.046447907 -0.19938642 0.07333251 0.18274525 0.13841107 0.033020332 -0.17936362 -0.073753595
-0.16429342 -0.1813023 -0.107493825 0.19363925 -0.22152275 -0.11302387 0.05777834 -0.17148277
0.1129744 -0.15496773 -0.016584681 -0.062598206 -0.031643737 0.1685517 -0.16598383 -0.04380189
-0.10580618 0.0016111333 -0.012612479 -0.16947232 -0.07246482 -0.06877486 -0.16605105 0.046083927
0.057830073 0.20787126 0.14058967 0.005479625 -0.0670528 -0.21985869 -0.039400864 -0.052520413
-0.035138156 0.051908515 0.050558083 -0.091392875 0.100040644 0.1336242 0.1763482 0.18478325
0.21720393 0.01530259 -0.11104546 0.22145984 -0.21672635 0.13294671 0.061119694 0.121869154
-0.0024772945 -0.115944736 -0.18386994 0.21947214 -0.001754539 -0.041912075 -0.079858854 0.13947392
-0.11813234 0.011752881 0.23168252 0.10238836 -0.027796414 -0.046101518 -0.017739534 0.16552135
0.060739588 0.12753986 0.013069696 0.12510365 0.10149254 0.0126119405 -0.05315324 0.038323343
0.13972512 0.10919371 -0.062488202 0.12499575 -0.11171929 0.18684983 0.10701343 -0.20146099
-0.21951012 -0.014130414 -0.11127887 -0.16199103 -0.110333495 0.17318675 0.1864533 0.13012202
0.024193827 0.23460151 -0.10774824 0.020678855 0.18742584 -0.20079029 0.10540131 -0.20321886
0.11699411 0.15843038 0.1752752 0.13989726 -0.19346657 0.04545415 -0.12771216 0.024224918
0.04176749 -0.02986197 0.18500549 0.09224841 -0.11964032 0.21443799 -0.031987876 -0.006831522
0.094335645 0.06826011 -0.22366488 -0.11522939 -0.16280651 0.25932324 -0.1995408 -0.015176775
0.19222891 0.012998309 0.014296042 0.06989529 -0.22708991 0.030769236 0.022180995 -0.11034926
-0.11230026 0.069041766 0.03624493 0.073246874 -0.13170144 0.10949106 0.12066526 -0.19920217
00000000: b157 86bd efed 0fbe 2cec 1d3b 0a42 f9bd
00000010: 6507 003c c56e debd 2854 b3bd be67 43be
00000020: ed98 2b3e 3032 13be 23f8 353d 7acb 373e
00000030: 766a 9abd 988f 11be 8156 3e3e 38b0 11ba
00000040: 0b46 c5bd a36f b53d 7aa7 3dbe 3b3e 46be
00000050: 0f1a 78bd d94b 213d 9e72 63bc 1ef3 78bd
00000060: 7802 33bd 09b1 4e3e d5aa 58be 48b9 1d3e
00000070: 5614 c83a 5090 c63d 7652 ff3d 3c5a 18be
00000080: 61b1 98bd ecae a33d 32dc c0bd 73e8 d43d
00000090: 411a fd3d 0b07 20bd 4ee4 0a3e 4708 073e
000000a0: c7f8 90bd 76f6 00be b0c7 733d 0af6 53bd
000000b0: 4302 c13d e6ac 67be 37d5 b93d a025 743e
000000c0: 772d 3c3e ca1f 3bbd 5226 ed3c 2cd7 363e
000000d0: 423a 053e d5ab ea3c f0e6 083d f1bb 123e
000000e0: c0f4 18be 8d1f 713e 8cd1 6bbd ed48 653d
000000f0: 8761 dc3d c054 b5bd 1b96 51be 4f52 44be
00000100: 72e3 523e 7926 9abd 8383 463d ede9 243e
00000110: e533 dcbd d439 f6bd bdd8 c73d 9e28 22be
00000120: 2a4a debd 2977 a9bc 8674 6f3d 5dd6 2e3e
00000130: fa1f b9bd 87bc adbd a5f7 303e 5e91 1fbd
00000140: 68cf 2b3e 495b 003e 462e 333e b788 413e
00000150: b4df 273e 4095 b53c 76f9 14be f53f fbbd
00000160: 30fe 65be 5c0b 80bd b2f3 19be b13e d43d
00000170: 1660 4abd 5b4a 40bd 5374 2dbe efda 323d
00000180: 0f85 2e3e e10b 90bd 206e 653e cc42 2a3e
00000190: d73b 5cbe 9d56 df3d 2118 5e3e 1fd9 0cbe
000001a0: 8c8e 0bbe 1a90 ad3d 3ce1 7bbe 1188 1f3d
000001b0: e20a 1b3e 03ed 333e ae88 a2bb 1066 373e
000001c0: 2940 3ebd f42b 4cbe 5b2f 963d 9221 3b3e
000001d0: a2bb 0d3e 5440 073d 19ab 37be 200c 97bd
000001e0: 893c 28be 4fa7 39be b925 dcbd 5e49 463e
000001f0: dcd6 62be 0f79 e7bd fba8 6c3d 2e99 2fbe
00000200: 1f5f e73d dcaf 1ebe 99dc 87bc 7d33 80bd
00000210: dd9c 01bd d198 2c3e aaf7 29be 9c69 33bd
00000220: e9b0 d8bd aa2c d33a 92a4 4ebc 278a 2dbe
00000230: 7068 94bd d5d9 8cbd 4909 2abe 80c2 3c3d
00000240: 3adf 6c3d 34dc 543e bdf6 0f3e 6d8e b33b
00000250: fa52 89bd a322 61be cd62 21bd a51f 57bd
00000260: 07ed 0fbd 069e 543d fe15 4f3d 302c bbbd
00000270: 1ce2 cc3d c8d4 083e 9f94 343e d237 3d3e
00000280: b56a 5e3e b7b7 7a3c cd6b e3bd 5ec6 623e
00000290: 83ed 5dbe 2f23 083e a558 7a3d 8996 f93d
000002a0: 1b5a 22bb 6f74 edbd 6748 3cbe 4ebd 603e
000002b0: 8ff8 e5ba ffab 2bbd 0a8d a3bd 40d2 0e3e
000002c0: 5eef f1bd 288f 403c 2f3e 6d3e fdb0 d13d
000002d0: 4eb5 e3bc f2d4 3cbd 8052 91bc 6e7e 293e
000002e0: 13ca 783d cf99 023e 4722 563c 2c1b 003e
000002f0: 52db cf3d 50a2 4e3c 36b7 59bd f0f8 1c3d
00000300: 1a14 0f3e f4a0 df3d a1f3 7fbd c6fd ff3d
00000310: 15cd e4bd 9055 3f3e db29 db3d ca4b 4ebe
00000320: 43c7 60be 4183 67bc 2de6 e3bd fae0 25be
00000330: 87f6 e1bd de57 313e 9ded 3e3e b53e 053e
00000340: 2232 c63c 613b 703e 1cab dcbd b466 a93c
00000350: 8fec 3f3e f89b 4dbe a4dc d73d 9b18 50be
00000360: 9c9a ef3d 933b 223e 587b 333e 3a41 0f3e
00000370: 1a1c 46be 212e 3a3d fac6 02be 5673 c63c
00000380: 6314 2b3d 17a1 f4bc 1472 3d3e bcec bc3d
00000390: fc05 f5bd a295 5b3e b805 03bd f6da dfbb
000003a0: 0c33 c13d f5cb 8b3d 6808 65be 63fd ebbd
000003b0: c0b6 26be 04c6 843e 6c54 4cbe 02a8 78bc
000003c0: a8d7 443e dcf6 543c f239 6a3c 4325 8f3d
000003d0: 428a 68be c40f fc3c ebb4 b53c cbfe e1bd
000003e0: aefd e5bd c565 8d3d 9075 143d 7502 963d
000003f0: bedc 06be d93c e03d 591f f73d a7fb 4bbe

layers.0.bias f4 [256]
0.17819384 0.056764364 -0.11120619 -0.19022511 -0.08663231 -0.06556656 0.07928983 -0.019207425
-0.1882931 0.016673835 0.085359074 -0.003107974 0.21339904 -0.22778803 -0.0370357 -0.058225356
0.17535001 0.11243084 0.027668597 -0.024906563 0.042028055 -0.031007294 0.20903711 -0.052088164
-0.022205245 0.02711099 0.061359346 -0.074699014 0.07412787 0.12263727 0.062384278 0.104550466
-0.08051824 0.17083035 -0.024185961 0.045706023 0.012318439 -0.0023131706 -0.08186654 0.19189401
-0.16584495 -0.14152956 -0.17201696 -0.1329616 -0.18650217 -0.16356452 0.08282378 0.1219602
-0.07366202 -0.101820715 -0.025456026 0.017394185 -0.0935677 0.05456916 -0.04350503 0.13864997
-0.1808476 0.09204382 -0.16926424 -0.098032184 -0.18607278 -0.11282402 -0.022792974 -0.19505712
-0.06263518 0.1078737 -0.13808486 -0.24586219 -0.16125154 -0.054574713 -0.19343537 0.14085023
0.0042603994 -0.18323523 -0.20683312 0.0012243057 -0.22735988 -0.09395087 0.051672682 0.086848065
0.14566968 0.033353023 0.1924931 -0.08641385 -0.17406364 -0.14929563 0.035440885 0.18103619
-0.0018664992 0.17005703 -0.20882046 0.17013253 -0.14410914 0.10037604 -0.16227227 -0.078756645
-0.20449434 -0.07537897 -0.1964224 -0.2008396 0.041703094 0.029392257 0.039444063 -0.21089604
-0.24804367 -0.13662922 -0.14733501 -0.07284574 0.152814 -0.114014745 -0.18122339 0.11058257
-0.030132249 0.016494986 -0.18797213 0.02305774 0.13011521 0.040882822 0.10415175 -0.1102409
-0.13576572 -0.05135081 -0.08553624 -0.0115863765 0.10655826 -0.15324555 0.18223679 -0.06708698
0.070403114 0.0058486853 0.085146956 -0.08499146 0.14315978 -0.114535235 0.081111886 -0.16097257
0.13547775 -0.0029629588 0.17057835 -0.115819186 -0.049823396 -0.06740296 0.020096539 0.17218369
0.09268148 -0.005591655 0.0015638717 0.11813 -0.1972725 0.021839492 -0.18209095 0.023498787
0.13507926 0.21839707 0.07386578 -0.086002864 -0.08483403 -0.024216263 0.036121767 0.01918295
-0.18243898 0.018637393 0.10271454 0.12792884 0.019066313 0.15577106 -0.19030398 -0.2020697
0.008675098 -0.19149844 0.16932955 0.16424155 -0.17461787 0.015881136 -0.11303679 -0.19718382
-0.21047404 0.025944022 0.09337772 0.02754196 0.18120284 0.20975155 -0.19702213 -0.108176135
0.14449221 0.14598621 0.09238286 0.015390128 -0.06206076 -0.1672836 0.07349151 -0.029749209
0.17604497 0.20055485 -0.11461855 0.06561516 0.059445404 -0.1920444 -0.021714581 0.058279593
0.17897956 0.19308323 -0.08295227 0.07116541 0.04415677 -0.1779372 -0.15506339 0.036404796
0.15948972 0.13172056 -0.050805178 -0.066744074 -0.24816863 -0.16221315 0.055641416 0.094699
-0.09766956 -0.17974141 0.12212969 -0.11686104 -0.22037779 0.09499404 -0.04247526 0.05221902
-0.2431586 0.017007597 0.1321344 0.03986332 -0.052016944 -0.1436125 -0.14542213 -0.05802558
-0.08048957 -0.1330265 -0.07301886 -0.0701202 0.15545537 0.081756786 -0.17142832 -0.14722803
-0.16510414 -0.21063723 -0.20409356 0.23915862 -0.08307835 0.00019001274 -0.122463115 0.14043401
-0.18282257 0.110473976 0.088072695 0.12099652 0.1710936 0.15533188 -0.0814134 0.1256067
00000000: 7278 363e c081 683d 12c0 e3bd 5fca 42be
00000010: 486c b1bd c347 86bd b562 a23d e458 9dbc
00000020: e8cf 40be 9197 883c bdd0 ae3d 27af 4bbb
00000030: 4785 5a3e 4441 69be bfb2 17bd b67d 6ebd
00000040: f48e 333e 2442 e63d 41a9 e23c d908 ccbc
00000050: 9c25 2c3d 0203 febc d30d 563e 665a 55bd
00000060: c6e7 b5bc de17 de3c f053 7b3d ccfb 98bd
00000070: 5ad0 973d 4029 fb3d a886 7f3d 8e1e d63d
00000080: bfe6 a4bd 27ee 2e3e a321 c6bc 3d36 3b3d
00000090: 47d3 493c 9098 17bb a5a9 a7bd dd7f 443e
000000a0: 42d3 29be 20ed 10be 3725 30be 1627 08be
000000b0: 6dfa 3ebe 757d 27be 849f a93d 45c6 f93d
000000c0: 1ddc 96bd 6187 d0bd 2889 d0bc 407e 8e3c
000000d0: 6ca0 bfbd e983 5f3d 5532 32bd 42fa 0d3e
000000e0: 1d30 39be 7881 bc3d 9b53 2dbe 19c5 c8bd
000000f0: dd89 3ebe 4810 e7bd 55b8 babc 0ebd 47be
00000100: e046 80bd e3ec dc3d 1e66 0dbe 4cc3 7bbe
00000110: 201f 25be bc89 5fbd ec13 46be 0b3b 103e
00000120: d29a 8b3b 04a2 3bbe 10cc 53be e278 a03a
00000130: 07d1 68be 5069 c0bd bca6 533d 66dd b13d
00000140: 6f2a 153e 2e9d 083d e91c 453e bff9 b0bd
00000150: bd3d 32be f4e0 18be 762a 113d 8d61 393e
00000160: 52a5 f4ba 6e23 2e3e 08d5 55be 3937 2e3e
00000170: 5991 13be f491 cd3d b42a 26be 2a4b a1bd
00000180: f766 51be 4a60 9abd f422 49be e5a8 4dbe
00000190: ddd0 2a3d 08c8 f03c 1990 213d 22f5 57be
000001a0: 29ff 7dbe 88e8 0bbe fdde 16be 2630 95bd
000001b0: 467b 1c3e 9080 e9bd a092 39be 1d79 e23d
000001c0: e8d7 f6bc 7e20 873c c47b 40be 96e3 bc3c
000001d0: ec3c 053e bf74 273d 834d d53d fbc5 e1bd
000001e0: 2b06 0bbe 3a55 52bd a02d afbd c9d4 3dbc
000001f0: 383b da3d 67ec 1cbe 489c 3a3e e664 89bd
00000200: 822f 903d 54a6 bf3b 8761 ae3d 0110 aebd
00000210: 7a98 123e 7391 eabd fd1d a63d fed5 24be
00000220: aeba 0a3e 332e 42bb 17ac 2e3e 9c32 edbd
00000230: 9e13 4cbd 900a 8abd 7fa1 a43c ec50 303e
00000240: cacf bd3d 343a b7bb d4fa cc3a 24ee f13d
00000250: cd01 4abe bce8 b23c 0d76 3abe 8780 c03c
00000260: 3852 0a3e 7ba3 5f3e f146 973d 4522 b0bd
00000270: 77bd adbd 2f61 c6bc 6bf4 133d 9025 9d3c
00000280: 49d1 3abe 72ad 983c 005c d23d c7ff 023e
00000290: f530 9c3c 7382 1f3e 0cdf 42be 5ceb 4ebe
000002a0: 0022 0e3c 2b18 44be ba64 2d3e f02e 283e
000002b0: 07cf 32be 2819 823c d57f e7bd 8eea 49be
000002c0: 8286 57be 8f88 d43c d13c bf3d ad9f e13c
000002d0: 3d8d 393e 1cc9 563e 2bc0 49be 738b ddbd
000002e0: c4f5 133e 697d 153e 3a33 bd3d e026 7c3c
000002f0: 6c33 7ebd 644c 2bbe b782 963d 9db4 f3bc
00000300: 2245 343e 405e 4d3e 21bd eabd 3e61 863d
00000310: 067d 733d 4aa7 44be c7e2 b1bc 95b6 6e3d
00000320: 6b46 373e 9cb7 453e e1e2 a9bd 2cbf 913d
00000330: bbdd 343d 2b35 36be f0c8 1ebe 321d 153d
00000340: 4651 233e c1e1 063e 1719 50bd 1eb1 88bd
00000350: eb1f 7ebe 341b 26be 41e8 633d 8df1 c13d
00000360: fa06 c8bd 220e 38be 221f fa3d d754 efbd
00000370: b7aa 61be 3c8c c23d 8afa 2dbd 9ce3 553d
00000380: 91fe 78be 8453 8b3c 3d4e 073e b847 233d
00000390: b80f 55bd 280f 13be 8ae9 14be 3bac 6dbd
000003a0: b7d7 a4bd 1938 08be e98a 95bd 2e9b 8fbd
000003b0: b12f 1f3e 1a70 a73d e88a 2fbe f2c2 16be
000003c0: 0f11 29be 49b1 57be e7fd 50be ffe5 743e
000003d0: fb24 aabd 283e 4739 f1cd fabd efcd 0f3e
000003e0: d735 3bbe 2e40 e23d 755f b43d 06cd f73d
000003f0: 2933 2f3e 520f 1f3e 12bc a6bd 0b9f 003e

layers.3.weight f4 [80, 256]
-0.031987343 0.052852534 -0.022250874 -0.008314111 -0.027581574 -0.07306053 0.08089827 0.05806949
0.0052309097 -0.07148545 -0.015579588 0.028172476 0.024061704 0.024054462 0.027963296 0.0042834943
-0.008783127 -0.0121956 0.0054538297 0.04158937 0.07406894 0.042480722 0.030908622 0.046171702
0.06512355 -0.05797361 0.025677187 0.039520413 -0.020440018 -0.012345567 0.0015104837 0.0015553995
0.029857581 -0.044778645 0.05135731 0.064079076 -0.071870446 0.006303385 0.022672486 -0.07358533
0.02944393 -0.07472209 -0.065850325 0.024932606 0.030614205 -0.03516873 -0.0025292062 0.062007833
-0.0076957066 0.0073690508 -0.0016996793 0.0010650815 -0.009747772 -0.00300602 -0.011636905 0.009224828
0.056303445 0.014765211 -0.010727895 -0.05839476 0.08158505 -0.02258148 -0.021075742 -0.015748998
-0.05541344 0.025918357 0.061787967 -0.016548455 -0.027056092 -0.065510966 -0.0377658 -0.074448586
-0.014317515 -0.047548685 -0.015786273 -0.0036113802 -0.06871575 -0.043092106 0.04371463 -0.06306316
-0.023415722 0.03500304 -0.022210773 0.06324227 -0.05546168 -0.02135212 0.06482848 0.017993795
0.033640202 0.00022550288 -0.007179875 0.095262125 -0.055211965 -0.013119785 -0.05878747 -0.041640602
-0.024191743 -0.01908357 -0.05979396 -0.0077343676 -0.05774296 -0.050879486 0.015179739 -0.050067905
-0.05083154 -0.044347126 0.047964457 -0.028571954 0.0072176196 0.03305258 -0.014710365 -0.0026923877
-0.0065464396 0.07652902 -0.080296755 -0.025693445 -0.04445867 -0.013435964 -0.017552143 -0.016714571
0.04876529 0.03303398 0.056968022 0.012503427 0.020094875 -0.045288075 -0.001485276 0.056030273
-0.009231747 0.015673677 0.002028305 0.09889639 -0.05146343 -0.062727004 -0.050539665 -0.015011659
-0.02833657 0.05373613 -0.026721071 0.00932335 -0.028508069 0.017105618 -0.026596934 0.041959707
0.01316282 -0.037118442 -0.061852556 0.0058537656 0.079191186 0.02346321 -0.059845958 -0.04578883
-0.040105652 0.01937109 -0.02769256 0.03547841 -0.027009314 -0.025321804 -0.00981921 -0.072318
0.046657532 0.064705186 -0.0016748197 0.035364106 -0.034321297 -0.039564494 -0.025951557 0.0030712679
0.012534158 0.004576605 0.0022405838 0.028955562 0.011080691 -0.0047912207 0.05477792 -0.0073817363
-0.059827074 0.057295617 0.07531133 -0.021059092 -0.027100326 0.016715415 0.044433136 -0.009853806
-0.0052500423 0.027105834 -0.058857623 0.056234565 0.03284494 -0.042166878 -0.012570998 -0.020318402
0.0357309 -0.02907759 0.023988552 -0.02365433 0.06907771 -0.050291628 0.031140497 -0.013218044
-0.044523705 0.07098037 -0.01297585 -0.02265608 0.013347029 -0.002225918 0.07733066 0.019123038
-0.0071627083 -0.02621516 -0.040015183 0.021041203 0.017885508 0.0056676553 0.045919698 0.038851187
0.014574807 -0.007874484 0.043647546 -0.04836084 -0.07738028 -0.064572245 -0.01983868 0.041170556
0.05220375 -0.042456433 0.0022790057 0.044553768 0.042908337 -0.033566654 0.014402386 0.031060703
-0.016774442 0.06161561 0.015313304 -0.0349162 0.05109073 0.040759817 0.02046408 0.06725976
-0.04480702 -0.070276745 -0.03970561 0.043068644 -0.0051089283 0.044670697 0.013194825 0.009167938
0.053619314 0.0131638525 0.012841096 0.0018707823 -0.028733093 0.029148508 0.07231811 0.019623782
00000000: 2905 03bd e67b 583d 7747 b6bc e937 08bc
00000010: c1f2 e1bc c2a0 95bd fead a53d 46da 6d3d
00000020: 0d68 ab3b f766 92bd 8741 7fbc f7c9 e63c
00000030: 0d1d c53c dd0d c53c 4813 e53c 8e5c 8c3b
00000040: 1be7 0fbc 0ed0 47bc 0ab6 b23b 9e59 2a3d
00000050: 75b1 973d 4400 2e3d 1434 fd3c 8a1e 3d3d
00000060: 7f5f 853d bc75 6dbd f758 d23c 28e0 213d
00000070: d371 a7bc 1045 4abc 6cfb c53a 8cde cb3a
00000080: e397 f43c d069 37bd 0b5c 523d e43b 833d
00000090: d030 93bd a08c ce3b a6bb b93c e8b3 96bd
000000a0: 6634 f13c e507 99bd 89dc 86bd 773f cc3c
000000b0: a4ca fa3c 160d 10bd 0ac1 25bb edfb 7d3d
000000c0: 442c fcbb 1478 f13b c6c7 deba 349a 8b3a
000000d0: 1eb5 1fbc a600 45bb b8a8 3ebc bc23 173c
000000e0: 719e 663d c9e9 713c 0ec4 2fbc 582f 6fbd
000000f0: 1016 a73d ccfc b8bc 09a7 acbc 0b04 81bc
00000100: 34f9 62bd bc52 d43c 6115 7d3d a090 87bc
00000110: bda4 ddbc 9d2a 86bd 50b0 1abd 8078 98bd
00000120: 0394 6abc 69c2 42bd 3752 81bc e8ac 6cbb
00000130: d8ba 8cbd 5981 30bd 1d0e 333d 4227 81bd
00000140: 54d2 bfbc 595f 0f3d 5ef3 b5bc 2a85 813d
00000150: c92b 63bd a4ea aebc cbc4 843d b967 933c
00000160: 4fca 093d f874 6c39 2845 ebbb ca18 c33d
00000170: f125 62bd 5ef4 56bc 21cb 70bd 568f 2abd
00000180: c32d c6bc 2655 9cbc 83ea 74bd 9470 fdbb
00000190: e283 6cbd 0267 50bd 71b4 783c 0114 4dbd
000001a0: bc34 50bd 55a5 35bd 6176 443d bb0f eabc
000001b0: c881 ec3b 2462 073d be03 71bc c572 30bb
000001c0: 8483 d6bb 3fbb 9c3d a072 a4bd 0f7b d2bc
000001d0: 4b1a 36bd 8422 5cbc 83c9 8fbc ffec 88bc
000001e0: 1dbe 473d a34e 073d 4d57 693d 2ddb 4c3c
000001f0: 029e a43c fd7f 39bd 98ad c2ba 0080 653d
00000200: c140 17bc 1566 803c 50ed 043b 318a ca3d
00000210: 51cb 52bd 0477 80bd ae02 4fbd 76f3 75bc
00000220: 1822 e8bc 6b1a 5c3d 26e6 dabc f7c0 183c
00000230: c189 e9bc 1521 8c3c d0e1 d9bc f1dd 2b3d
00000240: dea8 573c 8209 18bd 1b59 7dbd f2d0 bf3b
00000250: fd2e a23d eb35 c03c 0921 75bd 118d 3bbd
00000260: d345 24bd 1fb0 9e3c 82db e2bc cf51 113d
00000270: a342 ddbc ac6f cfbc c0e0 20bc 761b 94bd
00000280: f81b 3f3d 2784 843d a085 dbba f4d9 103d
00000290: 7d94 0cbd 610e 22bd 5c98 d4bc 5347 493b
000002a0: 125c 4d3c 58f7 953b c2d6 123b 3734 ed3c
000002b0: c98b 353c acff 9cbb d05e 603d 7ee2 f1bb
000002c0: 3c0d 75bd cfae 6a3d d43c 9a3d 1e84 acbc
000002d0: 8101 debc c4ee 883c 85ff 353d dc71 21bc
000002e0: 8c08 acbb 0e0d de3c b114 71bd 3756 663d
000002f0: 6a88 063d 2db7 2cbd 96f6 4dbc c772 a6bc
00000300: 905a 123d 2034 eebc a483 c43c bac6 c1bc
00000310: 9d78 8d3d 98fe 4dbd 5b1a ff3c 7f90 58bc
00000320: 7d5e 36bd 285e 913d a998 54bc 3e99 b9bc
00000330: 7fad 5a3c b5e0 11bb 895f 9e3d eba7 9c3c
00000340: 27b5 eabb 2dc1 d6bc f6e6 23bd 9a5e ac3c
00000350: a184 923c bdb7 b93b 4b16 3c3d 6c22 1f3d
00000360: 2ccb 6e3c fb03 01bc c5c7 323d 0416 46bd
00000370: 8d79 9ebd 743e 84bd ba84 a2bc 75a2 283d
00000380: 99d3 553d cce6 2dbd 5f5b 153b 037e 363d
00000390: a7c0 2f3d 307d 09bd fcf7 6b3c 0473 fe3c
000003a0: 8e6a 89bc a660 7c3d a7e4 7a3c 4a04 0fbd
000003b0: 8344 513d c4f3 263d 49a4 a73c 7cbf 893d
000003c0: 9187 37bd 41ed 8fbd 5aa2 22bd bf68 303d
000003d0: cc68 a7bb 9ff8 363d 1b2f 583c 1e35 163c
000003e0: ed9f 5b3d 33ad 573c 7663 523c 0a35 f53a
000003f0: aa61 ebbc dac8 ee3c 841b 943d 0ec2 a03c

layers.3.bias f4 [80]
0.010560343 0.049620256 0.002221416 -0.044974595 0.010079891 -0.06481294 -0.0643691 -0.014248524
-0.0025422592 -0.04144218 0.044491354 -0.056131158 0.050928425 -0.014766962 0.06196656 0.039461266
0.0102055995 0.05040987 0.022242121 0.036536768 -0.05817107 -0.03166762 -0.007957706 -0.010270452
-0.020256195 -0.078391775 0.00743901 0.040308595 0.01134027 -0.05783479 -0.059707854 0.035746716
0.015954223 0.04131219 -0.038145427 -0.053462643 -0.03465625 0.038344968 0.06314833 -0.07003904
0.013297883 0.0026596403 0.011354844 0.01963218 0.004246966 -0.053206414 -0.066878945 -0.030363379
0.01909218 0.05692736 -0.0069419625 0.0068502985 -0.056271374 0.0067647696 -0.025739389 -0.021389637
0.011211112 -0.03963756 -0.01718918 0.050064664 0.06369155 -0.05039773 0.03747023 0.07441214
0.029731045 -0.014743897 -0.021579094 0.02481944 -0.0081610065 -0.04716533 0.06179305 -0.041356813
-0.053097844 -0.036950447 -0.056966417 0.024722064 -0.05076387 0.023061577 -0.062519774 -0.061669685
00000000: 4a05 2d3c 9c3e 4b3d 2d95 113b 4837 38bd
00000010: 2126 253c a6bc 84bd f2d3 83bd a472 69bc
00000020: 089c 26bb 46bf 29bd 913c 363d c9e9 65bd
00000030: 539a 503d 21f1 71bc a6d0 7d3d 23a2 213d
00000040: 6335 273c 947a 4e3d 1c35 b63c 94a7 153d
00000050: ca44 6ebd e8b5 01bd 0a61 02bc 6645 28bc
00000060: 52f0 a5bc de8b a0bd f0c2 f33b a01a 253d
00000070: 8acc 393c 2ce4 6cbd 3990 74bd 266b 123d
00000080: 6eb2 823c f936 293d 613e 1cbd a5fb 5abd
00000090: b6f3 0dbd 9d0f 1d3d e953 813d a170 8fbd
000000a0: 5ddf 593c 5c4d 2e3b ab09 3a3c aad3 a03c
000000b0: 222a 8b3b f8ee 59bd d4f7 88bd 9fbc f8bc
000000c0: 3467 9c3c aa2c 693d 6779 e3bb 7878 e03b
000000d0: d07c 66bd 00ab dd3b 69db d2bc 5239 afbc
000000e0: d0ae 373c fe5a 22bd 53d0 8cbc 9b10 4d3d
000000f0: b770 823d da6d 4ebd 627a 193d 6465 983d
00000100: 858e f33c 6390 71bc a4c6 b0bc 2352 cb3c
00000110: beb5 05bc 6f30 41bd b61a 7d3d c365 29bd
00000120: 207d 59bd 5a59 17bd 9e55 69bd ed85 ca3c
00000130: c7ed 4fbd a2eb bc3c 5e0a 80bd 5a99 7cbd

layers.6.weight f4 [64, 80]
0.07077721 -0.045414094 -0.028060703 0.015483632 0.07068954 -0.041336015 -0.0021321638 -0.026603272
0.017885996 -0.009205132 0.1362736 -0.0799058 0.033090625 0.008880134 0.1283225 -0.06621438
0.056939136 -0.09494918 -0.034354296 0.14014617 -0.020950047 -0.06626831 0.01139556 -0.004268455
-0.004262696 -0.027783355 -0.056353644 -0.054322384 -0.004172435 -0.030724563 0.13032576 0.14197658
-0.054547064 -0.06694908 -0.02413704 -0.04550475 0.062256873 -0.067370504 0.060782153 0.011375734
0.03571261 0.025776628 0.054423578 0.053269178 -0.029958602 -0.016133584 -0.017821621 0.08734387
0.08489227 -0.08296366 0.049332257 0.026186433 0.065535866 0.011298715 -0.063981995 -0.049286332
0.0031206803 -0.010073097 -0.046795864 -0.01777871 -0.096947476 0.07348591 0.0053904275 0.093638934
0.038277596 -0.056627948 -0.051185444 0.12872626 0.073721886 0.12918909 0.026326122 0.07420431
-0.013999096 -0.011667237 0.06986565 0.091798194 0.14695463 0.06967772 0.01759422 -0.06431781
0.09785969 -0.12789692 -0.087575555 -0.07674979 0.12897238 -0.028592303 -0.050715383 0.113457866
0.012253 0.06125023 0.004741299 0.060619917 -0.08152451 -0.033447117 -0.043717165 -0.020864015
0.03793294 -0.109217994 0.028752483 -0.057621084 -0.08362381 0.07493564 0.045971602 -0.016266186
0.07399009 -0.018691283 0.060741905 -0.09986775 0.1157988 -0.08725537 -0.0057995925 -0.022333499
0.035067815 0.031897027 -0.0406844 0.1097201 -0.016981076 -0.03209452 0.0025120918 0.048963875
-0.04573332 0.07276728 0.10645737 -0.1330105 -0.112101145 -0.09157786 -0.06986815 0.064836346
0.10841278 -0.009955003 -0.031148069 -0.029082075 -0.08386431 -0.11176919 -0.04359058 -0.044190206
0.027780432 -0.09452887 -0.0154205505 -0.09368131 -0.11846123 -0.037696317 0.071698435 0.13316324
-0.08056379 -0.04742427 0.015381047 0.04092581 -0.0719638 0.09133184 -0.013282192 0.06144547
0.038612437 0.086872 0.0909557 -0.042442787 0.11790581 -0.011540424 0.06133133 -0.067824304
-0.03797656 0.07037346 -0.07759649 -0.087326296 0.030838072 0.0328741 -0.024386764 -0.032084975
-0.04053994 -0.012568683 0.10060529 -0.0006096123 0.089970395 -0.01801902 -0.08173825 0.055509675
0.056878433 -0.035564948 0.021659985 -0.061369877 0.09717587 -0.04612614 -0.047641374 0.06674415
0.033760127 0.0377801 0.031421445 0.09147211 0.052023463 0.039273288 -0.06908806 -0.059424367
-0.062397663 -0.09117789 0.039948113 0.024578357 -0.04164866 0.005303726 0.11406077 -0.09745704
-0.007083489 -0.11793265 -0.028137753 -0.08580709 -0.00014089738 0.07636926 -0.03462029 0.030326856
0.08530617 0.044005062 0.094821416 -0.08476309 -0.0045375586 -0.10751652 -0.0922813 -0.12696792
0.03501308 0.10849575 0.055601213 0.013152141 -0.11730128 0.06722134 -0.09934095 -0.041987382
-0.021724908 -0.040412806 0.029501107 0.063124485 0.049500246 0.044018235 0.09209209 0.041779168
-0.07617544 -0.026616866 0.0006777282 0.012367665 0.04601143 -0.005654576 0.09139365 0.09187378
0.017937478 -0.042928305 0.047046535 -0.030014118 -0.05929663 -0.09266358 -0.025737194 0.059798986
0.07772165 0.07375795 -0.015685147 0.08917539 -0.061850116 -0.08976548 0.11862278 0.011353648
00000000: a4f3 903d 2104 3abd 8fdf e5bc 0faf 7d3c
00000010: adc5 903d f44f 29bd c6bb 0bbb 1bef d9bc
00000020: a785 923c 1fd1 16bc 4e8b 0b3e a7a5 a3bd
00000030: 098a 073d fb7d 113c f966 033e 689b 87bd
00000040: 0339 693d b774 c2bd 17b7 0cbd 7a82 0f3e
00000050: 6f9f abbc aeb7 87bd 71b4 3a3c 65de 8bbb
00000060: 16ae 8bbb eb99 e3bc 14d3 66bd 2681 5ebd
00000070: ecb8 88bb 14b2 fbbc 1e74 053e 4f62 113e
00000080: be6c 5fbd 991c 89bd 0bbb c5bc 3063 3abd
00000090: 1001 7f3d 8cf9 89bd b5f6 783d 4961 3a3c
000000a0: 6347 123d 8229 d33c 42eb 5e3d c830 5a3d
000000b0: be6b f5bc 942a 84bc a6fe 91bc 58e1 b23d
000000c0: 00dc ad3d dae8 a9bd 9f10 4a3d ee84 d63c
000000d0: ab37 863d 3f1e 393c fe08 83bd 77e0 49bd
000000e0: 5484 4c3b a209 25bc 05ad 3fbd a8a4 91bc
000000f0: 668c c6bd c87f 963d 2fa2 b03b c5c5 bf3d
00000100: f8c8 1c3d b5f2 67bd d4a7 51bd d1d0 033e
00000110: 80fb 963d 254a 043e e1a9 d73c 6ef8 973d
00000120: 775c 65bc f027 3fbc b915 8f3d b100 bc3d
00000130: 467b 163e 31b3 8e3d c121 903c 0eb9 83bd
00000140: a96a c83d 69f7 02be d05a b3bd fe2e 9dbd
00000150: 5611 043e 683a eabc efba 4fbd 995c e83d
00000160: cfc0 483c 85e1 7a3d e65c 9b3b 974c 783d
00000170: 53f6 a6bd d8ff 08bd c510 33bd 03eb aabc
00000180: 925f 1b3d afad dfbd 548a eb3c 1604 6cbd
00000190: f642 abbd db77 993d b84c 3c3d aa40 85bc
000001a0: 1e88 973d 761e 99bc 81cc 783d 7787 ccbd
000001b0: ec27 ed3d f2b2 b2bd 820a bebb bef4 b6bc
000001c0: 45a3 0f3d 75a6 023d afa4 26bd efb4 e03d
000001d0: e61b 8bbc 8b75 03bd e8a1 243b 588e 483d
000001e0: dd52 3bbd 0307 953d 5206 da3d e833 08be
000001f0: 4995 e5bd 2c8d bbbd 0817 8fbd ebc8 843d
00000200: 8507 de3d 4f1a 23bc 3c2a ffbc 883d eebc
00000210: 0dc1 abbd 3fe7 e4bd 098c 32bd ca00 35bd
00000220: ca93 e33c 5a98 c1bd 7aa6 7cbc fddb bfbd
00000230: cd9b f2bd 7467 1abd a1d6 923d f25b 083e
00000240: a1fe a4bd f43f 42bd c900 7c3c d2a1 273d
00000250: c261 93bd 300c bb3d 8d9d 59bc 3fae 7b3d
00000260: 1328 1e3d f2e9 b13d fb46 ba3d 7dd8 2dbd
00000270: 9a78 f13d 0c14 3dbc 9036 7b3d 78e7 8abd
00000280: 4f8d 1bbd f61f 903d e9ea 9ebd 21d8 b2bd
00000290: 20a0 fc3c fea6 063d c0c6 c7bc 896b 03bd
000002a0: 350d 26bd e1ec 4dbc 250a ce3d 64ce 1fba
000002b0: 6642 b83d a09c 93bc 6266 a7bd 1d5e 633d
000002c0: 5cf9 683d 8dac 11bd 4870 b13c fb5e 7bbd
000002d0: 2404 c73d c3ee 3cbd 9a23 43bd 28b1 883d
000002e0: 0f48 0a3d 4ebf 1a3d c6b3 003d bb55 bb3d
000002f0: 8e16 553d 07dd 203d 0a7e 8dbd f766 73bd
00000300: b194 7fbd 79bb babd a2a0 233d 8d58 c93c
00000310: c997 2abd e1ca ad3b b198 e93d 8e97 c7bd
00000320: 9d1c e8bb ac86 f1bd 2581 e6bc a1bb afbd
00000330: dabd 13b9 7d67 9c3d 01ce 0dbd 0770 f83c
00000340: 00b5 ae3d a73e 343d bb31 c23d 4598 adbd
00000350: cdaf 94bb 9f31 dcbd fafd bcbd e103 02be
00000360: e069 0f3d 0533 de3d 19be 633d 147c 573c
00000370: a73b f0bd 58ab 893d 4573 cbbd f6fa 2bbd
00000380: 6ff8 b1bc e687 25bd 4eac f13c 6947 813d
00000390: c5c0 4a3d 774c 343d c79a bc3d a220 2b3d
000003a0: de01 9cbd 9d0b dabc 92a9 313a bfa1 4a3c
000003b0: 7b76 3c3d 054a b9bb 982c bb3d 5228 bc3d
000003c0: 9ef1 923c 97d5 2fbd deb3 403d 2be0 f5bc
000003d0: 06e1 72bd 67c6 bdbd cfd6 d2bc c8ef 743d
000003e0: 872c 9f3d 680e 973d 237e 80bc 96a1 b63d
000003f0: 8c56 7dbd f7d6 b7bd 80f0 f23d a704 3a3c

layers.6.bias f4 [64]
0.05831606 0.118065014 -0.073127285 0.044853304 -0.1077799 -0.100637294 -0.046431977 0.02727503
0.032912135 -0.011964615 0.04898247 0.032407288 0.09958376 -0.01864984 0.02553347 -0.043914292
-0.05674706 -0.100677624 0.12464323 -0.012143744 0.04815259 0.057080843 -0.083802536 -0.0013190644
0.007515935 -0.09396106 -0.10302775 -0.05525022 0.031509716 0.1169816 -0.12381959 -0.10323334
0.13062398 0.140304 -0.08645169 -0.009901364 0.00068569795 0.06745593 -0.07283289 0.038234033
0.035000388 0.06727376 0.018749727 0.04670963 -0.028670993 0.10449932 0.039950445 -0.07542192
-0.0896706 -0.069302484 0.05499137 -0.04777758 -0.04181027 0.015433639 -0.034745652 0.07965438
0.06623074 -0.02189232 0.10023417 0.006002387 0.056032013 0.067870185 -0.10515052 -0.08063097
00000000: d2dc 6e3d 12cc f13d c2c3 95bd 19b8 373d
00000010: b5bb dcbd ed1a cebd 752f 3ebd e26f df3c
00000020: e0ce 063d 3c07 44bc d8a1 483d 81bd 043d
00000030: 92f2 cb3d 8dc7 98bc 912b d13c 79df 33bd
00000040: 9b6f 68bd 1230 cebd f344 ff3d 8ef6 46bc
00000050: a63b 453d 9acd 693d aaa0 abbd 75e4 acba
00000060: 3c48 f63b a86e c0bd 3700 d3bd 0e4e 62bd
00000070: 5510 013d 0d94 ef3d 2095 fdbd 006c d3bd
00000080: 4bc2 053e daab 0f3e 950d b1bd 5539 22bc
00000090: 69c0 333a 5626 8a3d 6929 95bd 4a9b 1c3d
000000a0: 915c 0f3d d3c6 893d 0799 993c 9952 3f3d
000000b0: 6edf eabc bd03 d63d 14a3 233d cf76 9abd
000000c0: 38a5 b7bd 76ee 8dbd a13e 613d 6cb2 43bd
000000d0: 3f41 2bbd 60dd 7c3c 7551 0ebd d621 a33d
000000e0: fba3 873d 8657 b3bc 9347 cd3d acaf c43b
000000f0: d381 653d 86ff 8a3d 2859 d7bd da21 a5bd

layers.8.weight f4 [1, 64]
-0.07424424 -0.10703655 -0.0902649 -0.10578547 -0.10050957 -0.050004173 0.10042628 0.010535798
0.0304331 0.0805167 -0.055509206 -0.045286354 0.079631194 -0.10799593 0.10697312 0.11022148
0.09037221 0.013726997 -0.11561214 0.020452188 -0.1426569 0.030621797 -0.051101144 0.03505768
0.048440255 0.040847585 0.13095538 -0.084635265 -0.13915837 -0.08368056 0.049216475 -0.064117864
-0.12272154 -0.13431066 0.11729509 0.028704617 -0.114896946 0.15751067 0.11384775 -0.1204891
-0.09382558 0.095618926 0.14468163 0.02029062 0.070056126 0.13170621 -0.055933584 -0.037624065
0.07599587 -0.06004785 0.077500105 -0.058966894 0.10512793 -0.03460061 -0.08599169 -0.05065339
-0.044706777 0.12023265 -0.12377737 -0.09000215 -0.10981574 -0.07785947 0.007001316 -0.03791873
00000000: 5d0d 98bd fb35 dbbd cedc b8bd 0da6 d8bd
00000010: f6d7 cdbd 2dd1 4cbd 4bac cd3d 579e 2c3c
00000020: d64e f93c f1e5 a43d 9f5d 63bd 2f7e 39bd
00000030: ae15 a33d f82c ddbd b914 db3d cdbb e13d
00000040: 1115 b93d 33e7 603c 0fc6 ecbd 598b a73c
00000050: a714 12be 90da fa3c 6f4f 51bd a498 0f3d
00000060: 4a69 463d cc4f 273d 2b19 063e 4155 adbd
00000070: 887f 0ebe b760 abbd 3797 493d 3a50 83bd
00000080: 6e55 fbbd bc88 09be 6838 f03d f225 eb3c
00000090: 174f ebbd 7a4a 213e 0229 e93d fdc2 f6bd
000000a0: a027 c0bd dbd3 c33d 6c27 143e 8438 a63c
000000b0: 9679 8f3d fedd 063e 9d1a 65bd b11b 1abd
000000c0: b9a3 9b3d bcf4 75bd 60b8 9e3d 4587 71bd
000000d0: 504d d73d 5fb9 0dbd 691c b0bd ee79 4fbd
000000e0: 741e 37bd 893c f63d fd7e fdbd 0c53 b8bd
000000f0: 13e7 e0bd c974 9fbd 4c6b e53b ac50 1bbd
