flwr-mlp/models/checkpoints/round_004.pt (torch, 127593 bytes, 7 tensors)

layers.0.weight f4 [256, 19]
000000 5e 09 8a bd 75 3f 17 be 14 ee b4 3c 61 e2 05 be
       -0.06740068 -0.147703 0.02208618 -0.13074638
000010 97 06 c0 3c c8 d0 db bd 0e ba 9c bd db a8 3e be
       0.023440642 -0.10733181 -0.076526746 -0.18619101
000020 bf 61 21 3e 5c e5 07 be f6 5f 23 3d 70 ba 2d 3e
       0.15759943 -0.13271087 0.039886437 0.16965652
000030 81 5d 4d bd d3 d7 15 be 58 0d 38 3e 3a 81 ea bb
       -0.050138 -0.14633112 0.1797384 -0.0071565183
000040 fb fa eb bd b5 5f a8 3d a0 88 43 be d6 bd 40 be
       -0.1152248 0.0822138 -0.19095087 -0.18822417
000050 99 ca 49 bd 12 7b 64 3d d8 18 95 bc 1d 67 76 bd
       -0.049265478 0.05578143 -0.018200323 -0.06015693
000060 d1 93 19 bd 0c fb 40 3e f7 ca 62 be 0a 95 0e 3e
       -0.037494484 0.18845767 -0.22147737 0.13924041
000070 cf e6 08 3c b8 58 ea 3d 98 91 0a 3e 46 41 10 be
       0.00835581 0.11442703 0.13532102 -0.140874
000080 1a 96 87 bd 86 d9 a3 3d 3e cb b7 bd 6c ce e1 3d
       -0.066204265 0.08000474 -0.08974312 0.110257
000090 ee 2c 09 3e fd 76 1a bd cf 41 f6 3d 69 90 05 3e
       0.13396046 -0.037711132 0.12024271 0.1304337
0000a0 13 4f 6b bd 56 3d 0c be 98 21 60 3d 37 32 66 bd
       -0.057448458 -0.13695273 0.054719537 -0.056200232
0000b0 8b 45 ca 3d 26 89 6e be 4f d4 98 3d ea 0e 77 3e
       0.098765455 -0.23294505 0.0746237 0.24126783
0000c0 ff 49 34 3e 5a 45 44 bd b3 68 12 3d 6e 45 32 3e
       0.17606352 -0.0479177 0.03574438 0.17409298
0000d0 7b ca 0a 3e 5f f3 98 3c 0b 1c 3c 3d 2a 30 18 3e
       0.13553803 0.018670736 0.04592518 0.14862123
0000e0 34 ac 00 be 69 4e 80 3e 76 f7 76 bd 2e bb 4f 3d
       -0.1256569 0.25059822 -0.06029459 0.050715618
0000f0 cb 3e e0 3d 85 7a b1 bd 92 69 59 be 02 ef 48 be
       0.10949477 -0.08665947 -0.21231678 -0.19622424
000100 e5 ad 66 3e 7d bc 79 bd 66 a8 15 3d ab 7e 2f 3e
       0.22527273 -0.060970772 0.03653755 0.17138164
000110 3c 7a e0 bd 03 ca e6 bd 7e a1 b0 3d 32 19 1b be
       -0.10960814 -0.112689994 0.08624552 -0.1514633
000120 73 e6 d5 bd 60 2d bc bc 12 8c 70 3d c9 c4 29 3e
       -0.10444345 -0.022970855 0.05872733 0.16578974
000130 f2 cf b3 bd 3b af 96 bd ab a1 30 3e 3b 17 f6 bc
       -0.08779897 -0.07357641 0.17249171 -0.030040374
000140 e7 df 33 3e 64 6f 17 3e 9e 3b 27 3e 65 22 35 3e
       0.1756588 0.14788586 0.16331336 0.17688902
000150 cb 30 2f 3e 20 de 28 3c a5 28 0b be 2b 49 dd bd
       0.17108457 0.010306865 -0.13589723 -0.10804971
000160 ce f0 5d be 6b e9 54 bd 36 2b 0a be 8f 89 db 3d
       -0.21673891 -0.051980417 -0.13493046 0.107195966
000170 0c 29 42 bd 85 08 35 bd e6 3d 2a be 1e 76 51 3d
       -0.047402427 -0.044197578 -0.16625175 0.051138036
000180 35 f5 26 3e b7 1e 88 bd 17 9f 51 3e c4 36 1a 3e
       0.16304477 -0.066464834 0.20470844 0.15059954
000190 b0 70 68 be 77 ca de 3d 5a d5 66 3e a7 6e eb bd
       -0.22699237 0.10878461 0.22542325 -0.11495715
0001a0 b2 bd 1c be 60 a0 b3 3d 70 59 81 be 79 7b 29 3d
       -0.15306738 0.087708235 -0.25263548 0.04137752
0001b0 8e 95 22 3e 88 0e 35 3e 8d 1f 43 3b ff 1b 2a 3e
       0.15877363 0.17681324 0.0029773444 0.16612242
0001c0 77 7c 0b bd 1d 9b 5a be 2c 29 b2 3d 80 f6 3e 3e
       -0.034054246 -0.21348234 0.08699259 0.1864872
0001d0 97 e0 0d 3e dc c3 d6 3c 8b 16 28 be 58 6a a2 bd
       0.13855205 0.02621644 -0.1641485 -0.0793044
0001e0 a2 15 28 be a8 90 3c be ea 6c 03 be ca e8 57 3e
       -0.16414502 -0.18414557 -0.12834516 0.21084896
0001f0 40 a7 5a be 64 8c dd bd 06 53 81 3d f4 a9 24 be
       -0.21352863 -0.10817793 0.063146636 -0.16080457
000200 a5 4c f6 3d 88 11 11 be 38 50 c0 bb 90 a7 85 bd
       0.120263375 -0.14166844 -0.005868938 -0.06526101
000210 fc ac c9 bc f5 30 27 3e 37 15 30 be 85 9b 30 bd
       -0.024618618 0.1632727 -0.17195593 -0.043117065
000220 e5 4e f7 bd 63 00 16 3c f7 2f ca bc 38 1c 32 be
       -0.12075595 0.009155366 -0.024681075 -0.17393577
000230 17 fe b6 bd 17 2d 85 bd dd c9 08 be 54 ba 26 3d
       -0.089351825 -0.06502741 -0.13358255 0.04070504
000240 a5 14 5e 3d 1d 43 55 3e f2 5d 16 3e 22 6b f8 bb
       0.054218907 0.20826383 0.14684275 -0.0075811306
000250 d9 77 85 bd e9 50 64 be 65 cc 1e bd 80 c5 35 bd
       -0.06517 -0.2229649 -0.038769145 -0.044377804
000260 66 50 1a bd 93 64 7a 3d cf 9c 6d 3d 69 b4 94 bd
       -0.03767433 0.06113107 0.058010872 -0.07260973
000270 b2 da e2 3d df 97 2d 3e 99 07 31 3e 3f f7 2e 3e
       0.11076869 0.16952465 0.17288055 0.17086504
000280 f3 d0 65 3e 1b 6a 01 3d a6 5e e0 bd 3d cf 72 3e
       0.22442989 0.03159533 -0.10955553 0.23711868
000290 d5 3c 5d be e5 8f fb 3d cc e0 51 3d c3 47 ec 3d
       -0.21605237 0.12283305 0.051239774 0.11537125
0002a0 70 b6 fb b9 0d f5 11 be 74 b8 38 be 85 5c 6b 3e
       -0.00048010377 -0.14253636 -0.18039113 0.22984512
0002b0 6c 8e 73 bb 2c 2f 20 bd 33 9e 88 bd a7 63 1b 3e
       -0.0037163747 -0.039107487 -0.06670799 0.15174733
0002c0 b1 c2 eb bd ec cd a8 bb fc 58 6e 3e 58 eb fb 3d
       -0.11511744 -0.005151501 0.23276132 0.12300748
0002d0 9c d6 1c bd 89 34 11 bd c1 ca 98 bc 85 57 22 3e
       -0.038290605 -0.035450492 -0.018651368 0.15853699
0002e0 4a e0 4c 3d 77 33 fc 3d af 97 44 3c 02 d2 ec 3d
       0.050018586 0.12314504 0.011999055 0.11563493
0002f0 ab 14 d4 3d d8 d8 cf b8 07 1a 73 bd 79 db 00 3d
       0.103555046 -9.9109195e-05 -0.059350993 0.031459305
000300 26 4c 08 3e 00 dd d7 3d 49 eb 63 bd 4d 98 f6 3d
       0.13310298 0.10540199 -0.055644307 0.12040768
000310 67 be e1 bd 08 e1 39 3e cf 42 fc 3d b9 4e 68 be
       -0.110226445 0.18152249 0.1231743 -0.2268628
000320 57 21 65 be cc c3 92 bc 1d a2 d4 bd 54 56 2b be
       -0.22376 -0.017915629 -0.10382483 -0.1673215
000330 48 12 dc bd 64 60 2a 3e 64 51 39 3e 31 be 01 3e
       -0.10745674 0.16638333 0.18097454 0.12670209
000340 5d 73 d3 3c f2 1c 79 3e 53 cf cc bd 12 c9 a4 3c
       0.025811845 0.24327448 -0.100004815 0.020115409
000350 ce 72 3a 3e f3 37 4e be 2d 39 cf 3d f4 59 5b be
       0.18207857 -0.2013853 0.10118327 -0.21421033
000360 e0 d5 ff 3d 4f b0 30 3e d1 69 24 3e 19 e9 1d 3e
       0.12491965 0.17254756 0.16055991 0.15420951
000370 f1 d5 3e be 44 bf 2e 3d d4 bf 0f be e7 f7 b6 3c
       -0.186363 0.042662874 -0.1403802 0.022335006
000380 f1 5e ee 3c 8e 27 13 bd b0 cb 39 3e e0 e5 ac 3d
       0.029098006 -0.035926394 0.18144107 0.08442283
000390 15 8c f2 bd 75 b4 58 3e bf 90 0f bd 22 2d c9 bb
       -0.11843125 0.21162589 -0.03505015 -0.0061394135
0003a0 96 27 c4 3d 23 db 46 3d ec 53 5a be ad 63 d7 bd
       0.09577863 0.04854883 -0.21321076 -0.105170585
0003b0 48 c2 3d be 90 6b 8b 3e c0 9e 51 be c5 09 9c bc
       -0.18531144 0.272305 -0.20470715 -0.019047627
0003c0 3d 40 40 3e c3 49 41 3c 4a 42 61 3c 37 26 9e 3d
       0.18774505 0.011797371 0.013748715 0.07722133
0003d0 80 dc 6a be 8f 24 02 3d 31 47 f4 3c 50 a3 c7 bd
       -0.22935677 0.031773146 0.029819103 -0.09747946
0003e0 e6 d5 cd bd 44 9e 52 3d f3 06 eb 3c 56 54 9a 3d
       -0.100505635 0.051420465 0.028689837 0.07535617
0003f0 7f 0d 03 be 26 0b ce 3d 80 c8 00 3e 6a 09 3c be
       -0.12798117 0.1006072 0.12576485 -0.18362966

layers.0.bias f4 [256]
000000 2c 37 10 3e f4 e5 13 3d 48 b4 07 be 74 27 46 be
       0.14083546 0.036107972 -0.13252366 -0.19350988
000010 f9 81 02 be 1d a1 9e bd ec 20 83 3d d3 98 2c bd
       -0.12744893 -0.07745574 0.06402764 -0.042137932
000020 b5 e8 41 be 2c 39 15 bc 57 fb a7 3d 27 14 9d bc
       -0.18936427 -0.009107869 0.08202236 -0.019174648
000030 59 98 49 3e d9 4b 83 be 10 a5 94 bd b4 23 90 bd
       0.19687022 -0.25643805 -0.07258046 -0.0703806
000040 1f 99 1e 3e 19 c7 a0 3d 1c cb 0f bc ca 84 69 bd
       0.15488099 0.07850475 -0.008776452 -0.057011403
000050 86 0a 63 3c bb f2 2c bd 52 5f 49 3e e5 48 8f bd
       0.013857489 -0.042223673 0.19665268 -0.069963254
000060 9d f0 04 bd 09 be 95 bc e3 12 40 3d a6 c3 b2 bd
       -0.03245603 -0.018279092 0.04689301 -0.08728723
000070 ef ae 5a 3d d4 8a b4 3d 62 e0 37 3d 78 67 ae 3d
       0.053389486 0.08815542 0.044891723 0.08515829
000080 43 06 bc bd 35 d1 09 3e 27 ad 2b bd f0 52 01 3d
       -0.09180882 0.13458712 -0.041913178 0.031573236
000090 a3 ad 93 3b 13 08 b5 bc da 6e d4 bd 23 15 28 3e
       0.004506783 -0.022098577 -0.10372706 0.16414313
0000a0 f7 20 41 be 8a ce 1e be 9d ac 37 be e6 1c 1a be
       -0.18860231 -0.15508476 -0.1793694 -0.15050086
0000b0 e4 cc 49 be 6e 40 27 be 1b 86 3a 3d b8 12 c2 3d
       -0.19707066 -0.16333172 0.04553805 0.094762266
0000c0 16 80 b3 bd 7e fc 00 be c4 c7 53 bd 40 40 05 3c
       -0.08764665 -0.12596318 -0.051704183 0.008132994
0000d0 ae c7 ce bd c8 5f fa 3c e2 63 94 bd 54 84 ea 3d
       -0.1009668 0.03056325 -0.07245614 0.11451021
0000e0 10 11 48 be 06 f6 94 3d 27 e8 34 be b4 03 00 be
       -0.19537759 0.07273488 -0.17666684 -0.12501413
0000f0 45 13 58 be 7c ef 04 be 30 65 2c bd 43 69 5d be
       -0.211011 -0.12981981 -0.042088687 -0.21622185
000100 1e 44 7a bd 50 19 8f 3d a5 88 1b be fb b2 8e be
       -0.061100118 0.0698725 -0.15188845 -0.27870926
000110 88 a9 3b be d4 dc a0 bd 52 24 59 be 69 fd 00 3e
       -0.1832639 -0.078546196 -0.21205261 0.12596668
000120 e3 ea 13 bc 27 d6 4e be 95 9e 4b be 72 43 ad bc
       -0.009028169 -0.2019888 -0.19884713 -0.021150324
000130 a0 48 7a be 0c ed d9 bd f2 f6 9d 3c 6c fe 81 3d
       -0.24441767 -0.10640916 0.019282792 0.06347355
000140 d0 4b f4 3d 7e b9 48 bb c5 b2 2a 3e 66 f4 dc bd
       0.119285226 -0.003062814 0.16669758 -0.10788803
000150 ab ac 41 be bd 03 25 be 92 42 94 3c 8a 85 30 3e
       -0.18913524 -0.16114707 0.01809815 0.17238441
000160 17 b3 b9 bc 75 02 08 3e 01 bd 61 be 99 d4 0e 3e
       -0.022668405 0.13282187 -0.22044756 0.13948287
000170 84 60 27 be f2 19 89 3d c9 17 39 be 13 00 d1 bd
       -0.16345412 0.06694402 -0.1807548 -0.10205092
000180 78 e6 5b be 64 04 c3 bd c0 1a 68 be eb 16 5a be
       -0.21474636 -0.09522322 -0.22666454 -0.21297805
000190 a6 28 02 3c ac a9 0e bc 3b 81 9e 3b cf db 59 be
       0.007944262 -0.008707445 0.004837183 -0.21275257
0001a0 15 fc 78 be 9e 20 21 be 90 5f 35 be 2a 47 ca bd
       -0.24314912 -0.15735099 -0.17712235 -0.09876855
0001b0 a9 6a e0 3d f4 31 0a be a6 4f 4f be bc f7 9c 3d
       0.10957844 -0.13495618 -0.20245227 0.07664439
0001c0 f5 3d 3d bd 14 6f 4a bc 8a b1 47 be 60 b5 77 b8
       -0.046201665 -0.012355585 -0.1950132 -5.9058308e-05
0001d0 ec 23 d8 3d c1 38 d3 3c 44 69 af 3d 66 f6 05 be
       0.105537266 0.025783898 0.08565 -0.13082275
0001e0 92 a4 27 be b2 11 8b bd c3 2d f2 bd 9f a7 20 bd
       -0.16371372 -0.067904845 -0.118251346 -0.039222356
0001f0 86 5a b5 3d 40 56 35 be fe db 2d 3e 4c aa 8a bd
       0.088551566 -0.17708683 0.16978452 -0.06770763
000200 b5 90 5b 3d 8c 1f 4a bb 55 13 7a 3d 91 e9 e8 bd
       0.0536048 -0.0030841557 0.061053593 -0.11372674
000210 9e ec f4 3d 19 fa fa bd d4 ea 82 3d 55 7c 2d be
       0.11959194 -0.122547336 0.06392446 -0.1694196
000220 20 d1 d6 3d ec 47 02 bd a7 fa 1b 3e a4 9e 02 be
       0.10489106 -0.03180687 0.15232335 -0.12755829
000230 9e bc 8f bd 59 0e b0 bd 92 bf b1 bc 1f b9 0b 3e
       -0.07018398 -0.085964866 -0.021697793 0.13644837
000240 d7 2b 80 3d 38 48 d0 bc 4e ca 27 ba 12 6f ac 3d
       0.06258362 -0.025425062 -0.000640069 0.084196225
000250 49 75 4f be 84 36 62 bb ce 50 4f be c6 46 b7 bb
       -0.20259584 -0.0034517357 -0.20245668 -0.0055931536
000260 29 82 d1 3d 75 62 40 3e ec 78 ee 3c c4 96 f9 bd
       0.10229904 0.18787558 0.029110394 -0.121869594
000270 b8 4b c8 bd a8 df 4a bd 90 b1 1d 3c c0 bb 15 bc
       -0.09780067 -0.0495297 0.009624854 -0.009139001
000280 9b b6 45 be 5d b8 21 bc 48 df 92 3d 38 da a8 3d
       -0.1930794 -0.009870616 0.07171494 0.08244747
000290 73 aa 90 bc 66 7e fc 3d eb c6 4d be b2 c4 58 be
       -0.017659402 0.12328796 -0.20095412 -0.21168783
0002a0 f2 8c dd bb 77 3a 42 be c2 bf 07 3e b2 53 0d 3e
       -0.0067611868 -0.18967615 0.13256744 0.13801458
0002b0 a2 0b 34 be ac 36 f7 3a 22 3e 0e be bf 9c 4d be
       -0.17582563 0.0018860898 -0.1389089 -0.20079325
0002c0 ed 21 73 be 5f f4 d8 bc 0d ac 93 3d b7 bb 00 3b
       -0.2374341 -0.026483713 0.072105505 0.0019643137
0002d0 27 55 15 3e fa af 46 3e 03 aa 57 be f2 f5 f7 bd
       0.14583264 0.19403067 -0.21060948 -0.12107457
0002e0 a6 c7 e7 3d 28 c7 f3 3d b0 a9 80 3d de a1 c7 bc
       0.11317377 0.119032204 0.06282365 -0.024369176
0002f0 2e 28 b1 bd fa 40 34 be db 94 60 3d 9d e7 5e bd
       -0.08650242 -0.17602912 0.05482946 -0.054420102
000300 21 2e 04 3e 9a bc 34 3e 5b 18 09 be 24 46 cb 3c
       0.12908222 0.17650071 -0.13388197 0.02481372
000310 4b 3e 11 3d 45 be 51 be 80 2d 06 bd 57 bd 16 3d
       0.035459798 -0.20482738 -0.032758236 0.036801662
000320 75 9d 28 3e 0a 4e 2c 3e 1e be db bd d3 33 4f 3d
       0.16466315 0.16826645 -0.10729621 0.050586533
000330 9a 42 ac 3b ce 42 50 be 9c 3f 38 be dc e2 b0 3c
       0.005256963 -0.20337984 -0.17993015 0.02159255
000340 2b fe 07 3e d5 9a f3 3d 86 17 9a bd b5 8a b8 bd
       0.13280551 0.11894766 -0.07524018 -0.09010831
000350 16 ee 85 be 5d 20 35 be 2c f1 20 3d 10 9a a0 3d
       -0.26158208 -0.17688127 0.0392925 0.07841885
000360 0e f9 fd bd 7f d2 50 be d5 bb e2 3d 85 aa 16 be
       -0.12401019 -0.20392798 0.11070982 -0.14713486
000370 dd e6 76 be bc 37 9d 3d c2 b9 7a bd e9 87 83 3c
       -0.24111505 0.07676646 -0.06121231 0.016056018
000380 5e d6 84 be 90 c0 30 bc 1e e9 d8 3d d4 b2 bd 3c
       -0.259448 -0.010788098 0.105913386 0.023156561
000390 ce 8c 8b bd d8 7b 1e be 63 25 23 be 46 89 b1 bd
       -0.06813966 -0.1547693 -0.1593223 -0.08668761
0003a0 02 6a ca bd 48 70 1b be 53 9e ca bd 28 6f 8c bd
       -0.09883501 -0.1517955 -0.09893479 -0.06857139
0003b0 0a 3a f8 3d 7b 11 2e 3d ca f7 3b be 35 cc 2e be
       0.12120445 0.04249714 -0.18356243 -0.17070086
0003c0 1f 00 23 be 52 9f 71 be 5f 67 56 be c3 4f 5a 3e
       -0.15918015 -0.23595932 -0.2093787 0.21319489
0003d0 f1 e8 cf bd 19 3a e8 ba 11 c2 09 be fb 5b ed 3d
       -0.10151852 -0.001771751 -0.13452937 0.115898095
0003e0 b8 e9 4c be 7f 73 bd 3d 21 23 9b 3d 92 77 bf 3d
       -0.20011032 0.09250545 0.0757506 0.09348978
0003f0 e2 df 13 3e 41 bd d8 3d 34 fa c4 bd 8b c7 b2 3d
       0.14440873 0.10582972 -0.09618035 0.08729466

layers.3.weight f4 [80, 256]
000000 8a 0e 37 bd 0b 03 5e 3d 35 13 7e bc d6 db a4 bc
       -0.0446916 0.05420212 -0.015507509 -0.020124357
000010 90 2d 15 bd 2e 48 a5 bd 04 e3 ae 3d 3d 16 73 3d
       -0.036420405 -0.08070408 0.085393935 0.05934738
000020 7a 55 63 3c d9 df a5 bd 13 92 a3 bc 9e 0b 8a 3c
       0.01387536 -0.08099336 -0.019967115 0.016851243
000030 2b 89 a8 3c c7 02 9e 3c 2a 35 09 3d 68 d8 c9 3c
       0.02057322 0.019288434 0.033497967 0.024639323
000040 cf 61 d8 bc eb 20 0f bd a8 22 a3 3b 0a fd 1c 3d
       -0.026413826 -0.034943502 0.0049784966 0.038327254
000050 d9 45 a9 3d fa ee 03 3d 44 f2 20 3d 87 85 4f 3d
       0.082652755 0.032210328 0.039293543 0.05066445
000060 7f 08 a4 3d 58 97 72 bd ab 0b b7 3c fc dd 42 3d
       0.08009433 -0.059226364 0.02234443 0.047574982
000070 56 be f4 bc 74 c1 17 bc 2c 99 02 3c 07 25 9b 3b
       -0.029875915 -0.009262431 0.007971089 0.0047346386
000080 68 45 01 3d 96 48 76 bd 39 82 5d 3d b1 f7 88 3d
       0.03156033 -0.060127817 0.054079268 0.066878684
000090 d0 e5 9e bd 35 c4 db ba 6d 12 e5 3c f6 1f a7 bd
       -0.07758677 -0.0016766848 0.027962888 -0.08160393
0000a0 ea 56 e0 3c 86 e9 a4 bd 9f 1a 94 bd 54 8d a6 3c
       0.027385194 -0.080523536 -0.0723164 0.020331062
0000b0 17 36 ff 3c 51 04 6d bd dd 12 41 bc 88 bc 7c 3d
       0.031153722 -0.057865445 -0.0117842825 0.061703235
0000c0 6b 15 dc bc 60 94 86 3c 3f 47 9c 3b 71 a1 3b 3b
       -0.026865682 0.016428173 0.0047692354 0.0028630162
0000d0 c7 c7 b7 bc a6 f8 05 bc fe 03 83 bc aa 70 94 3b
       -0.022434128 -0.008176958 -0.015993115 0.004530032
0000e0 a7 6a 91 3d 1f 72 86 3c 38 58 ab bc 6e 3f a6 bd
       0.071004204 0.016411839 -0.02091609 -0.08117567
0000f0 86 d0 bd 3d 94 58 a8 bc 1e d7 34 bc 18 8f 12 bc
       0.09268288 -0.02055005 -0.011037616 -0.008945249
000100 50 95 87 bd 2f 75 b0 3c 48 d1 96 3d 8c d1 90 bc
       -0.06620276 0.021540252 0.07364136 -0.017678045
000110 bc 8f a0 bb b6 c1 80 bd 36 8f db bc 7f 11 c8 bd
       -0.004899947 -0.062869474 -0.026801687 -0.09768962
000120 94 ef 6b bb 77 38 26 bd f7 17 ee bc 77 69 e8 3b
       -0.0036000954 -0.040581193 -0.029064162 0.0070926505
000130 3f d2 a3 bd 8d 0e 13 bd 8e 74 40 3d fc 23 8c bd
       -0.07999086 -0.03590255 0.046986155 -0.06842801
000140 f0 b7 17 bd 8c fd 0c 3d 2d 08 ae bc 0e 9d 80 3d
       -0.03704065 0.03442149 -0.021244133 0.06279956
000150 98 dc 96 bd 84 5e 31 bc 85 0b 84 3d 29 8c ca 3b
       -0.07366294 -0.010825757 0.0644751 0.006181259
000160 e4 ce 09 3d 4f 8b 06 3c cb 29 29 3a 6e 79 ad 3d
       0.033644572 0.008211925 0.0006453066 0.084704265
000170 bc 87 7b bd b2 bf b7 bc 25 a4 47 bd 01 72 20 bd
       -0.061408743 -0.022430275 -0.048740525 -0.039171223
000180 c3 36 21 bc 93 56 a9 bc 0f 9a 79 bd 7d f2 9a bb
       -0.009839716 -0.020671165 -0.060937937 -0.004728614
000190 0a 1b 87 bd 47 0b 53 bd 06 b8 48 3c f4 d1 88 bd
       -0.06596954 -0.051524427 0.012250906 -0.066806704
0001a0 75 ea 94 bd a1 77 fd bc 9a 50 5f 3d f5 64 a6 bc
       -0.07271282 -0.030940833 0.054520227 -0.020311812
0001b0 8c 5d 92 bb 7c f4 1b 3d 77 0f 3f bb 60 12 3a bc
       -0.004466718 0.038074955 -0.0029153505 -0.01135692
0001c0 27 35 8a 3b af 3d 8a 3d f8 68 b4 bd cd 88 ce bc
       0.004217762 0.067500465 -0.08809084 -0.025211716
0001d0 a5 13 67 bd 4e be 41 bc 77 43 2a bc c7 57 f7 bc
       -0.05641522 -0.011825157 -0.010392061 -0.030193223
0001e0 e3 7b 54 3d 9b 4d fc 3c 6e 5e 6a 3d 55 e5 af 3b
       0.05187596 0.030798724 0.05721896 0.0053679147
0001f0 b9 0f 59 3c fd 1d 1b bd 09 e3 2a bc db 50 6a 3d
       0.0132483775 -0.037870396 -0.010430106 0.057206016
000200 59 2e d8 bc 71 cd b7 3c 9c b3 c2 bb c0 31 ec 3d
       -0.026389288 0.02243683 -0.0059418213 0.115329266
000210 36 1f 81 bd 8e a3 8f bd 50 35 51 bd 58 e8 9b bc
       -0.06304781 -0.070136175 -0.051076233 -0.019031689
000220 88 ae 22 bd 74 b9 6a 3d 97 a1 93 bc 4d 29 c2 3b
       -0.039717227 0.057305768 -0.018021388 0.0059253336
000230 5e 67 28 bd ba 6d 86 3c 03 31 a8 bc 25 a8 29 3d
       -0.041114204 0.016409744 -0.020531183 0.04142012
000240 ea d2 71 3a e4 35 4d bd fe 9b a8 bd 25 41 0c bc
       0.0009224849 -0.050100222 -0.08232878 -0.008560454
000250 07 54 c2 3d 4d 08 b0 3c 52 5a 7e bd 34 5b 33 bd
       0.09488683 0.021488333 -0.062097855 -0.04378815
000260 23 06 10 bd 1a 89 91 3c fc 4c c2 bc 36 87 2b 3d
       -0.035162102 0.01776557 -0.02371835 0.041876994
000270 dd d6 18 bd 62 e1 b1 bc 00 b7 d6 bb 12 51 7e bd
       -0.037314285 -0.021713916 -0.006552577 -0.062089033
000280 43 86 95 3d 99 ab 7b 3d 23 c6 26 3b 60 16 0d 3d
       0.07300999 0.061442945 0.0025447689 0.034445167
000290 76 ef 24 bd a6 72 34 bd 02 7a b0 bc 54 c3 45 ba
       -0.04026743 -0.04405465 -0.021542553 -0.000754406
0002a0 65 6f 8a 3c 15 8f 23 3c 95 df 99 bb 87 e6 81 3c
       0.01689882 0.009982844 -0.0046958425 0.015856994
0002b0 e8 0b d5 3c c1 a6 1d bc 06 b2 71 3d e6 0d 95 bc
       0.026006654 -0.009622277 0.059007667 -0.018195104
0002c0 d7 1a 78 bd 8e d0 62 3d 43 87 ac 3d 30 2e ee bc
       -0.06057247 0.055374674 0.084242366 -0.029074758
0002d0 83 c4 37 bd 6e 96 c2 3c ca 3f 53 3d 27 7c 84 bb
       -0.044865143 0.023753371 0.051574506 -0.0040431204
0002e0 68 29 24 bc 99 44 fc 3c 25 01 8d bd 56 b4 6b 3d
       -0.010019638 0.030794429 -0.06884984 0.05754503
0002f0 28 f8 0d 3d b4 8d 43 bd be 26 17 bc 5a c0 0c bd
       0.03466049 -0.04774256 -0.009225545 -0.03436313
000300 a8 24 09 3d 67 07 28 bd 23 75 87 3c 44 7a c9 bc
       0.033482224 -0.041022684 0.016535347 -0.024594434
000310 2f ef 92 3d 8f 8d 1f bd 97 26 0f 3d ac 21 86 bc
       0.07174527 -0.03895336 0.03494891 -0.016373478
000320 71 91 47 bd 27 8d 9c 3d 74 d6 89 bc 74 3e f1 bc
       -0.048722688 0.0764411 -0.016825892 -0.029448725
000330 46 0e 8d 3c 75 0f 38 ba 77 11 a1 3d c0 8c e9 3b
       0.01721872 -0.0007021346 0.07864659 0.0071273744
000340 2e f1 75 bc 5b ee 91 bc 85 11 4e bd 78 e1 59 3c
       -0.015011115 -0.017813852 -0.050309677 0.013298385
000350 d4 1e 4c 3c d9 43 41 3c f3 da 52 3d 8f e5 e8 3c
       0.012458522 0.011795961 0.051478337 0.028429775
000360 e5 91 71 3c da d7 e7 b9 08 8c f9 3c dc 74 2e bd
       0.014744257 -0.00044220575 0.03046228 -0.042591915
000370 16 6f a2 bd 98 8d 6c bd 86 4c f2 bc 6e a4 0d 3d
       -0.07931344 -0.05775222 -0.029577505 0.03458064
000380 9f b9 a2 3d d8 52 3a bd 45 5f 8f bc b2 01 4e 3d
       0.07945561 -0.045489162 -0.017501483 0.050294586
000390 70 fc 79 3d 7a 75 a4 bc 18 e7 d2 3b 69 a9 19 3d
       0.06103176 -0.020075548 0.00643624 0.037515078
0003a0 e7 01 55 bc c9 e2 a9 3d 2b 2a de 3c 27 0a 5a bd
       -0.013000942 0.08295209 0.027119717 -0.05323234
0003b0 61 01 19 3d 7e 7f ec 3c 57 06 42 3b f0 bd 96 3d
       0.03735483 0.028869387 0.002960583 0.073604465
0003c0 70 cb 39 bd 99 e7 98 bd 0e d1 59 bd fe ad 10 3d
       -0.04536003 -0.07466049 -0.053177886 0.035322182
0003d0 22 9f 00 bb 0a d1 29 3d 41 13 9c 3c 80 87 2f 3c
       -0.00196261 0.04145912 0.01905215 0.010713458
0003e0 5b af 47 3d ee e4 1d 3c 2d f0 88 ba 9e f4 cd 3a
       0.048751216 0.009637101 -0.0010447555 0.001571316
0003f0 6c 7c 35 bd db e1 08 3d 18 e0 a2 3d 0d df e9 3b
       -0.04430811 0.033418518 0.07952899 0.0071371854

layers.3.bias f4 [80]
000000 2d 9f 1b bb 40 9c 66 3d 34 02 1c bc 06 b4 43 bd
       -0.0023746 0.056301355 -0.00952201 -0.047779106
000010 35 56 96 ba d2 a0 98 bd 35 e9 8c bd b6 a6 98 bc
       -0.0011469783 -0.07452549 -0.06880418 -0.018634181
000020 4c 78 e9 bb cb 96 56 bd 35 5f f8 3c 0b b9 70 bd
       -0.007124936 -0.0523899 0.030318836 -0.05877022
000030 a0 ec 29 3d 4f 64 45 bc 7e 81 55 3d 10 5f 0a 3d
       0.04148543 -0.012047841 0.052125446 0.033782065
000040 a3 7e 27 3b 51 05 40 3d b2 91 30 3c 67 12 d7 3c
       0.002555766 0.04688007 0.010776924 0.026253892
000050 f7 ec 75 bd 61 ab 24 bd a1 23 b2 bb 99 12 2c bc
       -0.06004044 -0.040202502 -0.005436376 -0.010502481
000060 25 b8 fb bc 16 a9 b7 bd 8b d7 21 3b 69 4b 1c 3d
       -0.030727455 -0.089677975 0.0024695124 0.038157854
000070 cd fa 6a 3b e9 d8 76 bd af cf 8b bd a3 95 c2 3c
       0.0035855055 -0.060265455 -0.06826722 0.023752993
000080 11 54 5a 3c b7 78 1a 3d ad 5e 44 bd a6 f1 84 bd
       0.013325707 0.03771278 -0.047941852 -0.06491403
000090 70 24 1a bd ed 2e 10 3d 3f 13 5b 3d bf 6b 91 bd
       -0.037632406 0.035201002 0.05348515 -0.07100629
0000a0 15 c2 65 3b d0 9e d6 39 02 8d 3b 3b f3 9b 89 3c
       0.003505831 0.00040935585 0.0028617983 0.016797995
0000b0 e8 08 3c 39 14 ed 7a bd bb b8 8b bd 85 90 2a bd
       0.00017932395 -0.06126125 -0.06822344 -0.04164173
0000c0 fb 4f cb 3b 28 9f 6f 3d 47 2e 95 bc ee 4d a5 3b
       0.006204603 0.058501393 -0.018210543 0.0050446903
0000d0 af e3 90 bd 36 83 a3 3b 37 42 dd bc 6f e3 9c bc
       -0.07074677 0.004990007 -0.027009113 -0.019151418
0000e0 48 b9 7a 3b 5f 06 43 bd 3f 0d 91 bc 56 48 68 3d
       0.003825741 -0.047613498 -0.017706512 0.05670961
0000f0 1f 70 7e 3d 3e 50 72 bd 4f 50 0a 3d 93 0a 88 3d
       0.062118646 -0.059158556 0.033767994 0.06642642
000100 43 72 9f 3c 57 fd 25 bc e5 cc c4 bc 55 6d 66 3c
       0.019463664 -0.010131202 -0.024023483 0.014064153
000110 42 ad 9d bb 89 16 7c bd b5 4c 4f 3d 18 8d 39 bd
       -0.0048119137 -0.06154493 0.050610263 -0.045300573
000120 cd 07 56 bd 0c 1b 1f bd 13 98 86 bd 4b 2f 52 3c
       -0.052253533 -0.038844153 -0.065719746 0.012828658
000130 45 f3 81 bd 4f 8b 90 3c ff d6 84 bd b3 20 90 bd
       -0.06345228 0.017644553 -0.0648632 -0.07037487

layers.6.weight f4 [64, 80]
000000 a4 34 ac 3d 27 68 8f bd 82 12 b0 bc f3 77 7a 3b
       0.08408478 -0.07002287 -0.0214932 0.0038218468
000010 72 ef a3 3d 6a 73 04 bd 1a ca fd 3a 34 60 2f bc
       0.08004655 -0.03233663 0.0019362599 -0.010704089
000020 11 16 ce 3b e5 91 63 bb 1b 7f 08 3e f6 35 91 bd
       0.0062892516 -0.003472441 0.13329737 -0.0709037
000030 32 fd 29 3d e7 4e bb 3b fc f8 0a 3e 64 04 b5 bd
       0.04150123 0.005716193 0.13571543 -0.08838728
000040 6d 76 83 3d 49 63 e2 bd 0e 95 e1 bc 9e ea 16 3e
       0.06419072 -0.110540934 -0.027536895 0.14737937
000050 95 4a d5 b9 b4 ad 88 bd 26 10 21 bc 66 98 bb bc
       -0.00040682094 -0.06673756 -0.00983051 -0.022899818
000060 7f 81 9e 3b 25 2e 5f bc dc dd 39 bd 4d 75 6e bd
       0.0048372145 -0.013621842 -0.045377597 -0.058217335
000070 ac 51 82 bb f0 90 3f bd 59 d8 14 3e ee 6b 17 3e
       -0.003977021 -0.046769083 0.14535655 0.14787266
000080 c1 cf 8b bd 84 a6 a4 bd d0 7e 85 bc d1 8e 18 bd
       -0.06826735 -0.08039573 -0.01629582 -0.037245575
000090 36 1f 6f 3d 2d 23 a4 bd 69 72 87 3d 31 c3 2e 3c
       0.058379374 -0.08014522 0.06613619 0.010666654
0000a0 45 f9 1a 3d b8 1a 1e 3c a4 fd 77 3d 1d f9 40 3d
       0.03783538 0.009649925 0.060544625 0.047112573
0000b0 e4 31 44 bd b5 49 d6 bc 0c 2a 1f bd 91 98 b5 3d
       -0.047899142 -0.026158193 -0.03885846 0.0886699
0000c0 1d ac b2 3d 10 1a c9 bd 84 85 46 3d 25 85 28 3c
       0.08724234 -0.09819424 0.048467174 0.01028565
0000d0 e2 40 86 3d 1f 0e d1 bb 27 2c 7f bd 69 bc 9b bd
       0.06555344 -0.006379857 -0.062297966 -0.07604296
0000e0 b1 62 46 3c 20 b9 e3 3b 14 ac 80 bd 04 fa 7b bc
       0.012108491 0.006949559 -0.06282821 -0.015379433
0000f0 07 1f d8 bd 00 19 a7 3d 60 19 a8 bb 1e 26 ca 3d
       -0.10552793 0.08159065 -0.005129978 0.098705515
000100 32 58 46 3d f7 15 7e bd cd 0b 29 bd 80 10 0a 3e
       0.048423953 -0.062032666 -0.04127102 0.13482857
000110 9b c9 49 3d 99 89 01 3e 96 63 16 3d fb ef b1 3d
       0.04926453 0.12650146 0.036716066 0.08688351
000120 fb 2b 13 bd 3d fd 0d bc 12 90 af 3d c0 98 be 3d
       -0.035930615 -0.008666334 0.08572401 0.093064785
000130 14 5b 22 3e 3b 20 94 3d 85 5d 09 3d e5 8d 4a bd
       0.15855056 0.0723271 0.033536453 -0.049451727
000140 54 f8 e8 3d b2 6a 17 be e4 6c a2 bd 19 eb bf bd
       0.1137549 -0.14786795 -0.079309255 -0.09371013
000150 2c 30 10 3e 43 5d 90 bc 8e 37 3f bd e2 c3 05 3e
       0.14080876 -0.017622596 -0.04668384 0.13063005
000160 61 6f 9f bb a7 0b 8f 3d d0 50 4f 3b b0 c3 8a 3d
       -0.0048655723 0.069846444 0.0031633861 0.06775606
000170 ba f3 91 bd 3a bb ba bc 1f bb 0c bd 9c 84 31 bd
       -0.07126565 -0.022794355 -0.03435814 -0.043339357
000180 a8 7a 48 3d e9 06 f8 bd 30 68 20 3d a3 d2 48 bd
       0.0489451 -0.12110693 0.03916186 -0.049029004
000190 89 bf 73 bd f2 c5 9a 3d 18 b0 e5 3c cb 1a ec bc
       -0.059508834 0.07557286 0.02803807 -0.02882137
0001a0 08 d7 ae 3d 9d ad e9 ba 44 90 95 3d 32 03 da bd
       0.08537108 -0.001782823 0.07302907 -0.10645141
0001b0 08 a1 f0 3d 14 5b d4 bd ee e2 37 3c 62 1c 6d bc
       0.11749464 -0.10368934 0.011223538 -0.014472099
0001c0 07 3c cf 3c 15 18 92 3c 8c 8d 02 bd 8b a5 f5 3d
       0.025297178 0.017833749 -0.03187327 0.119944654
0001d0 41 df 82 bc 22 0b 3d bd 3a 60 03 3c 11 1b 47 3d
       -0.015975596 -0.046153195 0.008018548 0.048609797
0001e0 37 bf 2b bd 93 d7 5f 3d d0 70 ea 3d 0a e4 0d be
       -0.041930404 0.054648947 0.114472985 -0.13856521
0001f0 73 16 f9 bd 1d cb bb bd f5 ae ae bd 8b a0 89 3d
       -0.12162485 -0.091696 -0.08529464 0.06720074
000200 95 2f e6 3d eb 1e 06 bd bb 27 f5 bc e1 f2 3d bd
       0.11239544 -0.03274433 -0.029926172 -0.046374205
000210 37 cd a9 bd 81 cd fa bd 29 77 2b bd 11 82 8f bd
       -0.08291095 -0.12246228 -0.041861687 -0.0700723
000220 0c 3c 19 3d 88 12 98 bd 20 b0 07 bd f3 fd a6 bd
       0.03741078 -0.074254096 -0.03312695 -0.08153906
000230 7c 88 02 be 00 01 e0 bc 4e 44 69 3d 0d 3d 0e 3e
       -0.12747377 -0.027344227 0.056949906 0.13890477
000240 1d b5 89 bd 6c 8e 53 bd 29 0d e1 3c dd 7f 44 3d
       -0.06723998 -0.051649496 0.027472096 0.047973502
000250 05 ac c9 bd 13 c6 ba 3d e0 83 d0 ba 67 7e 9b 3d
       -0.09847263 0.09119811 -0.0015908442 0.07592469
000260 79 14 b6 3c c3 1e ba 3d 6b e9 dc 3d 51 0f 1f bd
       0.022226559 0.090878986 0.107867084 -0.038832966
000270 11 c7 04 3e 2d 2f dd bb be 83 a2 3d 1c 95 50 bd
       0.12966563 -0.0067500086 0.07935284 -0.05092345
000280 42 60 d9 bc a3 f0 23 3d 9d 52 90 bd 64 0c cb bd
       -0.026535157 0.04002441 -0.07047007 -0.09914473
000290 ac 18 30 3d 3b f8 2e 3d 25 44 b5 bc 72 9f 87 bc
       0.04299228 0.0427172 -0.02212722 -0.016555522
0002a0 c4 82 79 bd 92 e1 c1 bb 92 51 c5 3d 1a 26 fb 3b
       -0.060915723 -0.0059167827 0.09634699 0.007664454
0002b0 1c 40 cb 3d aa 17 d5 ba 93 99 94 bd 35 02 14 3d
       0.09924337 -0.0016257663 -0.072558545 0.036134917
0002c0 fe 28 88 3d 39 02 4d bd eb 55 ef 3c 44 e1 67 bd
       0.06648444 -0.050050948 0.029215774 -0.056611314
0002d0 80 69 f7 3d 55 3e 45 bd ff 98 78 bd 40 4e 50 3d
       0.120806694 -0.048155148 -0.060692783 0.050855875
0002e0 f7 33 4d 3d 54 71 62 3d c6 67 2b 3d b4 b2 c4 3d
       0.050098386 0.05528386 0.041847013 0.096043974
0002f0 9e 2d 69 3d 92 aa 01 3d 1b 42 53 bd 6f 7f 5a bd
       0.05692827 0.03165681 -0.051576715 -0.053344186
000300 40 3c 89 bd f2 a6 cc bd 88 94 42 3d dd 4c 0d 3d
       -0.06700945 -0.0999278 0.04750493 0.03449713
000310 89 14 e4 bc 2a a3 cd bb fe 3d f7 3d 13 9d c8 bd
       -0.027841823 -0.006275554 0.12072371 -0.097955845
000320 6f ca be bb 02 86 e4 bd 18 f2 bc bc 74 f3 bc bd
       -0.005822472 -0.111583725 -0.023064658 -0.092261225
000330 4a 83 be bb d1 7f 82 3d 36 c4 79 bd 0b 8b 07 3d
       -0.0058139907 0.06372035 -0.060978137 0.033091586
000340 23 e3 b5 3d ac 26 16 3d f7 7a be 3d 81 14 ce bd
       0.088812135 0.036657974 0.093007974 -0.100625046
000350 08 cd 9a bb 21 43 e5 bd f0 6f ba bd ea 9a 12 be
       -0.0047241487 -0.111944444 -0.09103382 -0.14316908
000360 0e 39 32 3d 77 63 03 3e 1d 68 0b 3d ff 25 13 3d
       0.043511443 0.12830912 0.034034837 0.035924908
000370 76 26 00 be c6 7e 9a 3d e7 0e b7 bd 96 32 22 bd
       -0.12514672 0.07543711 -0.08938389 -0.039599024
000380 80 47 2c bc 3f f7 00 bd 59 94 2b 3d 6a 54 87 3d
       -0.010515094 -0.031485792 0.041889522 0.066078976
000390 aa fd a9 3c 00 46 26 3d d7 6b d2 3d 15 9e 65 3d
       0.02075084 0.0405941 0.10274475 0.056058962
0003a0 c7 6f ac bd c4 6b cf bc 3a f8 6d 3c 66 99 50 3c
       -0.08419757 -0.025319941 0.014524514 0.012731886
0003b0 b5 9d 68 3d bf 1d 42 bb 05 b2 d9 3d 66 5e d9 3d
       0.056791026 -0.002961978 0.10629658 0.10613708
0003c0 15 f3 09 3d 92 78 91 bd 40 e4 63 3d 01 70 35 bd
       0.033679087 -0.07103075 0.055637598 -0.04429627
0003d0 ac 47 3c bd 1a f6 a6 bd 8f 2f af bc 02 be a0 3d
       -0.04596679 -0.08152409 -0.021384982 0.07848741
0003e0 2c bb 84 3d 13 34 a6 3d 2a 50 8d bc d9 85 c9 3d
       0.06481013 0.08115401 -0.01725014 0.098399825
0003f0 08 75 53 bd aa ec ae bd 23 3a 02 3e ee 06 1b bc
       -0.05162528 -0.08541234 0.1271749 -0.009462101

layers.6.bias f4 [64]
000000 15 4e 6b 3d cd 93 f8 3d dc ec 9f bd 04 19 36 3d
       0.05744751 0.12137566 -0.07808849 0.04445745
000010 a9 67 df bd c8 2f dc bd 3b f4 03 bd 92 36 5c 3c
       -0.109084435 -0.10751301 -0.03221534 0.013440745
000020 e8 af ef 3c 8e 15 1c 3a 9e d5 47 3d b9 70 06 3d
       0.029258683 0.00059541396 0.048787706 0.032822344
000030 1e 8d e4 3d 91 57 85 bc b6 de 1f 3d a2 fb 05 bd
       0.111597285 -0.016277106 0.039030753 -0.03271068
000040 64 ad 43 bd 4c 47 df bd d3 03 02 3e 60 e7 e2 bc
       -0.04777278 -0.10902271 0.12696771 -0.027698219
000050 8f bb 52 3d c9 e8 6a 3d 38 8b b5 bd 38 78 1d 3c
       0.0514484 0.057350907 -0.088644445 0.009611182
000060 ef 61 74 3c f4 7b d4 bd 3a 6d cc bd de fb 80 bd
       0.014915927 -0.10375205 -0.09981771 -0.0629804
000070 aa a4 1e 3d ac b2 ef 3d ab 77 06 be 3e f3 e4 bd
       0.038731255 0.11704001 -0.13131587 -0.11179207
000080 af 3d 07 3e 3d 29 13 3e 7d e2 8e bd 29 41 81 bc
       0.13207124 0.143712 -0.06976793 -0.015778141
000090 da 91 dd b9 81 91 aa 3d 85 74 71 bd d8 a2 1e 3d
       -0.00042261073 0.08328534 -0.058949012 0.03872952
0000a0 60 0b 11 3d 6b 6b a4 3d 54 dd 19 3d 0f c2 0e 3d
       0.03541124 0.08028301 0.03756459 0.034853037
0000b0 b1 23 7f bc 48 ab f1 3d 27 bb 1e 3d 9c 10 af bd
       -0.015572474 0.118002474 0.0387527 -0.0854809
0000c0 f7 63 9e bd 1c 56 94 bd 90 ee 87 3d 31 e1 56 bd
       -0.077339105 -0.072429866 0.06637299 -0.052460853
0000d0 40 ae d9 bc 1d 40 5a 3c 53 2d 17 bd 04 54 a2 3d
       -0.026572347 0.01332095 -0.03690846 0.07926181
0000e0 09 1c 81 3d d1 b3 0c bc 54 60 d4 3d 9a 4f d2 3b
       0.063041754 -0.008587793 0.10369936 0.0064181807
0000f0 c3 3b 6f 3d 61 e9 8b 3d ca ac e1 bd db 51 b9 bd
       0.058406603 0.06831623 -0.11019285 -0.09048816

layers.8.weight f4 [1, 64]
000000 ef 51 99 bd b7 c1 dc bd d1 a1 a5 bd d2 60 db bd
       -0.07486331 -0.10779136 -0.08087505 -0.107118264
000010 6f 72 cf bd 90 34 44 bd ae 14 d1 3d 9f 10 ac 3c
       -0.10129248 -0.04790169 0.102090225 0.02100402
000020 91 d8 e2 3c 24 40 a5 3d 8c db 69 bd 4c 94 3b bd
       0.027691158 0.080688745 -0.05709414 -0.045795724
000030 0b 3b b3 3d c5 2f cb bd 7d 66 e8 3d 28 3a d6 3d
       0.08751496 -0.09921221 0.11347673 0.10460311
000040 70 2f b8 3d bc 72 b7 3c 13 a6 f0 bd 1d fe 75 3c
       0.08993423 0.022393577 -0.11750426 0.015014199
000050 30 70 13 be 54 4f f0 3c 32 1f 4e bd 33 59 2e 3d
       -0.14398265 0.029334702 -0.05032272 0.042565536
000060 2c 33 61 3d 80 8e fb 3c d3 a0 f9 3d 1f 16 a3 bd
       0.054980442 0.030707598 0.12188878 -0.07963204
000070 e7 d1 10 be 4c 4a ab bd df 16 28 3d 70 ed 6e bd
       -0.14142571 -0.083637804 0.041037437 -0.058331907
000080 ca b4 ff bd d7 5e 09 be a7 48 f5 3d 01 b8 ae 3c
       -0.12485655 -0.13415085 0.11976748 0.021327974
000090 4f 07 f6 bd 96 40 27 3e 3a d5 ed 3d 4b 1a fa bd
       -0.12013113 0.16333231 0.11612935 -0.12212046
0000a0 9f 47 be bd 5a 89 d3 3d f3 28 1a 3e 7b 3b 33 3c
       -0.092910044 0.10328932 0.15054683 0.010939474
0000b0 0b 52 a0 3d 70 98 0f 3e 5f b7 64 bd 9c 74 16 bd
       0.078281485 0.14022994 -0.05583894 -0.0367323
0000c0 85 37 a4 3d ae 7e 6c bd 20 0b a0 3d 94 65 59 bd
       0.08018402 -0.057738 0.07814622 -0.053075388
0000d0 0d 06 d4 3d a9 fe 0f bd 1e 19 af bd 2a 57 4f bd
       0.103527166 -0.035154972 -0.085497126 -0.050620236
0000e0 44 a9 2a bd b6 7c f3 3d 22 22 04 be 0d e6 b8 bd
       -0.04166533 0.11889021 -0.12903646 -0.09028254
0000f0 3e 87 e9 bd 36 35 a1 bd d4 7a b4 3c 40 b3 08 bd
       -0.114027485 -0.07871477 0.022031225 -0.03337407
