flwr-mlp/models/checkpoints/round_025.pt (torch, 127593 bytes, 7 tensors)

layers.0.weight f4 [256, 19]
00000000: ab39 57bd 3399 15be 0ed3 b1bc 643b 93be
00000010: 1dbb 03bd b6cc 11be 2891 d5bd ac10 53be
00000020: e43e 3f3e 4a2e d3bd 6df8 503d 6f95 0d3e
00000030: 3dbc debc 37d6 15be 44db 4d3e 90d7 4bbd
00000040: a886 1abe 22ef 243d 1ec4 5abe e436 2cbe
00000050: 4782 65bd f62f 0d3e 3612 22bc 48d1 bdbd
00000060: 31c8 7abc 36a8 483e 0fc4 4cbe 2cb7 a73d
00000070: 15cc 33bd 819c 2d3e 2291 fa3d 37cf f5bd
00000080: c2c1 88bd 64c0 813d dcdb 87bd fa88 bd3d
00000090: 684d 663e c770 17bc 9587 8f3d c84e eb3d
000000a0: b8ce a33c 9a10 dfbd ef1c 933d 2e50 37bd
000000b0: a50e ed3d e696 71be e9e1 abbc ded7 693e
000000c0: 4a9c c03d 3ef9 babd 8447 b33d d737 0f3e
000000d0: 22fa e33d f10a 35bc 0947 8e3d c693 e93d
000000e0: 3574 94bd 89dd 943e 04c6 63bd 5759 6c3d
000000f0: 5724 e43d 4e49 99bd bfb1 5dbe 8f14 4abe
00000100: 3c50 673e fa0a 37bd 5faa 02bd 316e 563e
00000110: 2549 02be 98e0 a3bd e320 133d 883c 03be
00000120: e50d 89bd 0b9e 99bd aa0a 613d 13d2 0a3e
00000130: 6914 a4bd 61ad ccbd 85ac 313e fcd8 803c
00000140: eb7e 553e 74b6 323e 4c45 523e 0bc2 ed3d
00000150: 9a8d 373e ad6d babc cbac 15be 22b3 dcbd
00000160: 7160 50be be81 44bd 2255 bebd c16c 953d
00000170: 178d 0dbd 60a8 49bd 2f8f 17be dd96 5d3d
00000180: 5ddd 093e 5529 07be 0ace 583e f7ac b93d
00000190: 13da 54be f387 2f3e 254a 633e c7b5 07be
000001a0: ec85 73be 5c79 a93d 2191 a1be 3f11 7ebc
000001b0: b6c0 2f3e 95fa 043e ef7e 6fbc afc3 bd3d
000001c0: c87d 46bc 564f 8bbe 2512 e53d 49f4 273e
000001d0: 574a 6c3d d62c 98bc aa22 5cbd 091c bfbd
000001e0: e430 15be 9254 3cbe c6ee 49be 174d 923e
000001f0: 4a17 71be 3310 b9bd d17f 093d 8342 d4bd
00000200: 9e5f 133e c9b8 b7bd b532 053d 94f6 e9bc
00000210: eacf 353d 2df4 183e d807 3abe 59a1 bcbc
00000220: 27be eebd a551 db3c 6dcf a1ba f605 1cbe
00000230: 872a d7bd e8ea 2dbd 0978 b3bc 3f85 1d3c
00000240: 83b4 6c3d c2b6 323e b3d8 f63d 3fa3 24bd
00000250: c96b d3bd 945c 72be 010a 913c 3210 57bd
00000260: a6a4 a5bc 6af6 c73d 7238 bf3d 8f84 5ebd
00000270: 1a54 d93d a601 7a3e ca4c b53d 8040 063e
00000280: c674 793e a0c7 af3d 858f a4bd 2ee5 8f3e
00000290: 6a30 87be 23a9 443e 8a43 443d c6a9 a63d
000002a0: ad5c d63c fe74 2cbe be83 3ebe ebb0 553e
000002b0: 3647 42bd 6eaa a0bd 0420 8bbd e980 733e
000002c0: db44 f5bd 5794 aabc 7403 2a3e 82e9 5b3e
000002d0: cdae 78bd 69f5 0ebd ece2 f2bc cad6 093e
000002e0: 60f4 003d 57e3 fe3d 746d fbbc bac8 e33d
000002f0: a420 e53d 5918 e23b 5b65 dbbd 2272 583c
00000300: ecb8 d93d c4d4 2d3d ddde 5fbd 5ad9 ac3d
00000310: d341 e9bd d388 143e b7f2 163e daba bdbe
00000320: c37b 7ebe 96dc 1fbd 52b7 dabd 1e4b 11be
00000330: 6780 d9bd 34b9 fd3d 4e83 173e fc52 d43d
00000340: db94 b43c 5715 573e 5fd5 cdbd e503 2bbd
00000350: faa4 443e f21d 69be 11ba 823d 5e1a 8ebe
00000360: 13dc c23d b9d5 633e 7eb4 1c3e 052e 3a3e
00000370: e707 52be fda3 fa3c b10e 5ebe aa69 29bd
00000380: 1f94 d13b 6c10 78bd f679 303e cc07 413c
00000390: 657c c1bd 3a1f 6b3e a60c 22bd 2249 84bc
000003a0: 11da de3d 1674 02bd efd2 1bbe a080 a8bd
000003b0: 1747 90be a337 9f3e 70c3 67be dea7 c9bb
000003c0: d091 053e 4e04 c33c 5826 1d3b ac62 c83d
000003d0: f5b4 39be 5257 4e3c aacf fb3c 1706 dcbd
000003e0: 9086 a4bd a971 7d3a 7c2d 3fbd 53fb 0c3e
000003f0: bcbb 4abe 76dc cf3c e392 973d 8692 1fbe
-0.05254523 -0.14609222 -0.021707084 -0.2875625 -0.032160867 -0.14238247 -0.10428077 -0.20611829
0.18676335 -0.10311563 0.051018167 0.13826536 -0.027189368 -0.14632498 0.20103174 -0.049766123
-0.1509043 0.040267117 -0.21363875 -0.16817814 -0.056032445 0.13787827 -0.009892037 -0.09268433
-0.015306518 0.19595417 -0.19996665 0.08189234 -0.0438958 0.16954233 0.12234713 -0.12002414
-0.06677581 0.06335524 -0.06633732 0.09254642 0.22490466 -0.009243197 0.07008282 0.11489636
0.019996032 -0.10891838 0.07183253 -0.0447542 0.11575059 -0.2359272 -0.020981746 0.22836253
0.0940481 -0.091295704 0.08753875 0.13986145 0.111316934 -0.011049972 0.06947143 0.11405139
-0.07248727 0.29075268 -0.055608764 0.05770239 0.11139744 -0.07484685 -0.21649836 -0.19734405
0.225892 -0.044688202 -0.03190076 0.20940472 -0.12723215 -0.08001822 0.035920035 -0.1281606
-0.06692103 -0.075008474 0.05494181 0.135567 -0.080117054 -0.09994007 0.17350967 0.015728466
0.20849197 0.17452413 0.20534247 0.116092764 0.1792511 -0.022757376 -0.14616697 -0.10776354
-0.2034929 -0.047975294 -0.092935815 0.07296134 -0.034558382 -0.04923284 -0.14800714 0.054098953
0.1346335 -0.1319936 0.21172348 0.090661936 -0.20786314 0.17141704 0.22196253 -0.13252936
-0.23781556 0.082751006 -0.31556037 -0.0155070415 0.17163357 0.12986214 -0.014617666 0.09265839
-0.0121149495 -0.27208966 0.111851014 0.16401781 0.057688083 -0.018576067 -0.053743996 -0.09331519
-0.14569432 -0.18391636 -0.19719991 0.2857444 -0.2354404 -0.09036293 0.03356916 -0.103642486
0.14391944 -0.08970792 0.03251906 -0.02855996 0.044387735 0.14936896 -0.18167055 -0.023026155
-0.116573624 0.02677233 -0.0012345143 -0.15236649 -0.10506158 -0.042460352 -0.021907823 0.009614288
0.057789337 0.17452529 0.12053051 -0.040194746 -0.10323293 -0.23668128 0.017704966 -0.05250568
-0.020220112 0.09763797 0.09336938 -0.054325636 0.10611744 0.24414691 0.08852537 0.13110542
0.24360952 0.08582997 -0.08035187 0.28104538 -0.26404124 0.19205146 0.047915973 0.081378505
0.026167238 -0.16841504 -0.18604943 0.2086827 -0.047431193 -0.07845007 -0.06793216 0.23779644
-0.11976024 -0.020822687 0.1660288 0.21475795 -0.060713578 -0.03490201 -0.02964922 0.13460842
0.031483054 0.124457054 -0.03069184 0.1112227 0.11187866 0.006899875 -0.107126914 0.013210805
0.10630974 0.042439237 -0.0546559 0.08439894 -0.11389508 0.1450532 0.14741026 -0.3705662
-0.24851899 -0.039028727 -0.10679497 -0.14188811 -0.10620194 0.1238884 0.14796183 0.103673905
0.022043636 0.21004234 -0.10050463 -0.04175176 0.19203559 -0.2276533 0.063831456 -0.27754492
0.09514632 0.22249497 0.15303227 0.18181618 -0.20510827 0.030595774 -0.21685292 -0.041360535
0.0063958312 -0.060562536 0.17234024 0.011781644 -0.094475545 0.2296113 -0.039562844 -0.016148154
0.108814366 -0.03184899 -0.15217184 -0.08227658 -0.28179237 0.31097135 -0.22633147 -0.0061540445
0.13043904 0.023805764 0.0023979153 0.09784445 -0.18135436 0.012594061 0.03073867 -0.10743349
-0.08033478 0.0009668121 -0.046674237 0.13767748 -0.19798177 0.025373679 0.07401063 -0.15583238

layers.0.bias f4 [256]
00000000: d82c c2bc 91e8 c3bd 82d4 a3be ea39 85be
00000010: 871f 7ebe 0e07 1dbe 3d74 e3bd 911d 79be
00000020: 40da 8bbe c812 5dbd 3adf 773d a562 e1bd
00000030: af69 753a 265a c5be e1e4 6ebe 53ed 55be
00000040: c0c6 fabb ecd8 38bd aa15 6cbe 2cf4 8ebe
00000050: fb91 1bbe 3c7a 66be 6e0c 9abc 6f97 51be
00000060: e29c 18be c554 29be 7974 84bd 7854 86be
00000070: cbb4 16bd 5c66 b2bd 0036 05be f8f1 20bb
00000080: 48fc 81be 61e0 64bb 7225 57be 8462 20be
00000090: 5cff 76bd 5541 c1bd 2b89 86be fad1 0f3d
000000a0: 6eb8 93be 0303 88be d47a 70be d5c0 8fbe
000000b0: fce4 86be 74e8 3cbe ce6a 2fbe 2c00 383d
000000c0: db22 2abe 9d15 b7be db55 82be d51a 44be
000000d0: 593c 0dbe 476f 9cbd aee3 03be a76a 75bd
000000e0: cab9 c2be ca18 6ebd 5855 36be 1df3 36be
000000f0: 0e9f d5be 8848 90be e13f 27be b542 b9be
00000100: 1904 c6bd 4726 82bd fba5 9fbe 9816 e3be
00000110: 79d5 b6be c710 84be a269 adbe 7fb6 873d
00000120: 9947 26be 281d 8ebe c69d 56be 86ef 1ebe
00000130: bb9f 9abe afc4 9dbe dcd7 14be 04ee c4bc
00000140: ef55 24bd 767e 60be edf0 8dbd f2b2 56be
00000150: 8634 98be f8d3 92be 50dd 19be f44f a83d
00000160: dbf4 39be dba0 52bd 037c 9fbe e2e8 2dbd
00000170: 0ce2 79be a691 b2bd ff13 adbe 94a3 77be
00000180: 0b78 b1be 248f 7bbe 93e0 ccbe 0eb1 a2be
00000190: e222 3abe a5f3 7abe a82f d9bd e7af 94be
000001a0: 4e27 73be 8666 b3be c647 88be 6cb8 91be
000001b0: 9629 3bbc 59cf b0be 8391 c6be 6a2c 6abc
000001c0: 9e37 5bbe 00ec 3cbe d28f 90be c1c4 97bd
000001d0: f0ca 9d3c 3569 39be 4285 0ebe ef34 44be
000001e0: fadf 75be b060 5cbe f875 94be 4340 70be
000001f0: 43dc b9bd b144 bcbe 5b83 913d f747 3dbe
00000200: 9af4 69bc 801d 2cbe 5292 5cbd 8216 adbe
00000210: 4847 433c 56ed 2abe 438a 83bd 35fc 5fbe
00000220: c920 6c3d 27c4 3fbe 3cde b2bc 8524 83be
00000230: d2d2 0dbe 75c0 91be f970 4cbe f299 d4bd
00000240: 928c 1ebe 88a0 3cbe 2049 d3bc 48ca b43d
00000250: 63ba abbe c4b0 3ebe 9ef0 c1be 5c50 13be
00000260: d00f 11be f3ea a5bd ec1a 1bbe 547a 84be
00000270: cc1c 1fbe 67c2 44be 5839 33be 725e 5fbe
00000280: 74b9 afbe a684 06be 127d b1bd 7471 a0bc
00000290: 7f2e 45be c171 55bd 19c6 87be 1490 79be
000002a0: a555 0cbe 7b38 a1be 4ea4 84bd e117 34bc
000002b0: 8479 74be 3af6 29be f304 9bbe 244f 87be
000002c0: b468 abbe 0aec aabd c434 d2bd 1e4a 18be
000002d0: dec7 393c de43 42bc 410a c3be 2b82 59be
000002e0: 7b61 09bc 8491 fdbb de7f 10bd b873 28be
000002f0: df1a 10be d7eb 8fbe 32b1 0dbe 8b45 dbbd
00000300: ef1a a0bb 65fb 453d 1996 84be d428 28be
00000310: 312a 30be 2bd4 9ebe 50c0 01be cf91 14be
00000320: f4f1 07bd ebf5 86bc 95c6 8fbe 836d 9abd
00000330: 87c8 47be 7648 bebe 6f30 d6be 3ae2 75bd
00000340: f1d6 7ebd f6f1 3fbd 0c57 31be e8f2 51be
00000350: b31e afbe da44 adbe 8561 e1bd 0be2 dcbd
00000360: b82a 8ebe 79a9 9ebe e00f 303d 86ef 80be
00000370: a5ec a8be af4b d2bd 9518 fcbd 8c6e 41be
00000380: 5b1e d1be 9a44 d6bd 4a10 febc 0803 d4bd
00000390: 963e 92be 088f acbe f81b 68be 7756 99be
000003a0: a963 73be 7c86 97be 6d39 a1be 49e1 01be
000003b0: 5394 03bd cd81 9dbd 99c7 96be c0ed cbbe
000003c0: 557e 89be 889b bbbe 7f29 8bbe 5b09 913d
000003d0: 4125 93be 69a5 28be 34f3 88be 230a 8fbd
000003e0: ee19 acbe a022 e7bd dff7 ccbc 705c e2bd
000003f0: 6e6b 69bc 3b64 2ebd 3304 85be 6952 e739
-0.023703024 -0.09565843 -0.31998068 -0.26020747 -0.24816714 -0.15334722 -0.11106155 -0.24327685
-0.2731495 -0.05397299 0.06051562 -0.11005143 0.00093617564 -0.3854534 -0.23329498 -0.20891313
-0.0076530874 -0.045128748 -0.23055139 -0.27920663 -0.15192406 -0.22507566 -0.018804755 -0.20467924
-0.14903596 -0.16536243 -0.06467528 -0.2623632 -0.03679351 -0.0871093 -0.1300888 -0.0024558287
-0.25387788 -0.003492378 -0.21010378 -0.1566258 -0.060302123 -0.09436289 -0.26276526 0.03511236
-0.28851646 -0.26564798 -0.23484355 -0.28076807 -0.26346576 -0.18448049 -0.17130587 0.04492204
-0.16614859 -0.35758677 -0.25456128 -0.1915086 -0.13792552 -0.07638412 -0.12879822 -0.059916165
-0.3803237 -0.05812911 -0.17805994 -0.17866178 -0.41722912 -0.28180337 -0.16332962 -0.36183706
-0.0966875 -0.06354957 -0.3118132 -0.44353175 -0.35709742 -0.2579405 -0.33869654 0.06626605
-0.1623825 -0.2775662 -0.20958623 -0.15521058 -0.3019999 -0.3081412 -0.14535469 -0.024039276
-0.040121015 -0.21923241 -0.069307186 -0.209667 -0.29727572 -0.28677344 -0.1502583 0.08218375
-0.18159811 -0.051422935 -0.311493 -0.042458422 -0.24402636 -0.087191865 -0.33804318 -0.24183494
-0.34661898 -0.24566323 -0.40015087 -0.31775707 -0.18177369 -0.24507006 -0.10604793 -0.29040453
-0.23745462 -0.35039157 -0.2661726 -0.28461015 -0.011423489 -0.34533194 -0.38782892 -0.014292816
-0.21407935 -0.18449402 -0.28234726 -0.07410575 0.019261807 -0.1810654 -0.13918021 -0.19160818
-0.24011222 -0.21521258 -0.28996253 -0.23462014 -0.09075215 -0.36771157 0.07105132 -0.18484484
-0.014279509 -0.16808128 -0.05385048 -0.33806235 0.01191885 -0.16692099 -0.06422856 -0.21873553
0.057648454 -0.1872717 -0.021834485 -0.256138 -0.13849953 -0.28467146 -0.1996497 -0.10380925
-0.15483311 -0.18420613 -0.025791705 0.088276446 -0.3354064 -0.18622118 -0.3787889 -0.14386123
-0.14166188 -0.08101454 -0.15146989 -0.2587458 -0.15538329 -0.19214784 -0.17502344 -0.21813372
-0.34321177 -0.13136539 -0.086664334 -0.019585349 -0.19256018 -0.052110437 -0.26518324 -0.24371368
-0.13704546 -0.31488404 -0.06476651 -0.010992021 -0.2387448 -0.16597834 -0.30277213 -0.26427567
-0.3347832 -0.08345802 -0.102639705 -0.14872023 0.011339156 -0.011857001 -0.3809376 -0.21241061
-0.008385058 -0.007738294 -0.035278194 -0.16450393 -0.1407275 -0.2810962 -0.13837126 -0.10706624
-0.0048860232 0.04833545 -0.25895765 -0.16421825 -0.17203595 -0.31021246 -0.12671018 -0.14508747
-0.03318973 -0.016474685 -0.28081194 -0.07540419 -0.19510089 -0.37164658 -0.41833827 -0.0600302
-0.062216703 -0.04686161 -0.17318362 -0.20502818 -0.3420311 -0.33841592 -0.110049285 -0.10785302
-0.27766967 -0.30988672 0.04298389 -0.25182742 -0.32993045 -0.10268342 -0.12309376 -0.18889827
-0.40843472 -0.104623035 -0.031013627 -0.10352141 -0.28563374 -0.33702874 -0.22666919 -0.2994878
-0.23768486 -0.2959479 -0.31489125 -0.12683596 -0.032123875 -0.07690773 -0.29449156 -0.39829826
-0.26854196 -0.36642098 -0.27180097 0.070818625 -0.2873936 -0.16469349 -0.2674805 -0.06984355
-0.33613533 -0.11285901 -0.025020538 -0.11052787 -0.014246805 -0.042576056 -0.25979766 0.00044121154

layers.3.weight f4 [80, 256]
00000000: f260 36bd 2817 493d d7b3 543d 121e a0bc
00000010: 7aea 77bd 6132 79bd b8b7 523d 35a5 a83d
00000020: 6698 fc3d 9a8a 1cbe dda8 c4bc ba5b 94bd
00000030: 0423 49bc 40c6 2a3e d77a e63c bfb2 8d3d
00000040: 33c2 ccbd 1dae a7bd c1d0 c63d aa77 bd3d
00000050: 9a8c b83d 7a87 2d3d d327 e13c d053 1b3d
00000060: 4305 ac3d 6619 523b a8af 89bc 2bd2 063e
00000070: 6367 eebd 01c4 75bc b5fd 9a3d 85cc 003c
00000080: 30f4 273e bf82 aebd 1860 953d 72f3 b83d
00000090: 859a 02be 9905 5f3c 8c62 c93d 25bf 16be
000000a0: e2f1 e33c 97d2 d6bd 892e 03be cc1a 003e
000000b0: ec04 0b3e 5cc4 e4bc cf36 7c3d 9ee7 4c3c
000000c0: d35d 50bd 951c c23d 4463 fb3d 7a99 e5bc
000000d0: 2a5b f9bc 57ab a6bd b8c0 a7bd b6b2 2bbd
000000e0: 32a4 dc3d aad3 233d 699d 043d 0f08 07be
000000f0: 720d 803e 3347 bbbc dcbd e83d fb6f 863e
00000100: afb7 20bd e48f 20bd 3e76 ac3d 7d21 d63d
00000110: 649c 533e 8e7b 333d dccf 923d 1aa4 54be
00000120: 4cf3 963d af09 c3bc 94d7 18bd 4416 e63d
00000130: 2132 12be 29fd dc3d b7ad 353d 3f80 e9bd
00000140: 2642 58bd 24bf 333c 11cc fe3c d6ef d93d
00000150: a9fe 4abd dd6c 103e 2857 413e b171 23bd
00000160: c20f 1e3b fb0d 5e3b 4545 133d 8d91 db3c
00000170: 32ab 76bd 07ff a0bd e4fc 863d ff24 fa3c
00000180: 6419 273d 67b3 ab3b 9a38 e53d 93dd 943d
00000190: fcb6 c5bd 0895 693c 7249 8a3d 3632 11bd
000001a0: 1c4d 65bd 6a53 bd3d b7e8 3b3e 326f aa3d
000001b0: f6cc fcbd 3b16 163e 8ae9 cd3d fd7e 513c
000001c0: 3c5a 733d bfbd 803d 7895 afbd afc7 60bd
000001d0: bf32 bcbd 122b 673d ea8d 663d 87e2 7ebd
000001e0: 7aa3 563c 0230 b23d a86a b73d 029d 0d3d
000001f0: f11d 713d 1669 ab3d 72bd 39bd 73c7 003e
00000200: ac0d 64bd 824f be3c 9588 10bc 489a 443e
00000210: 95ae 1bbe 2ec3 0dbe 0f10 58bd 4edf 18bb
00000220: df42 02be cd41 b33d a4f0 b6bb d236 c33d
00000230: fbc3 c0bd 5444 8c3d b1ea 63bc 8526 8f3d
00000240: 870f 243d 3990 c5bc d019 0bbe 1c9e 6bbd
00000250: 4ffe 523e a6f4 fe3d 4324 ce3d 1800 ee3b
00000260: 8471 153d c122 9f3c 2c92 053d eb80 ad3d
00000270: c22e 90bc cccf 10bc 6ab1 3b3d 9327 ae3c
00000280: e07b 633e 6dd4 e53d df49 1c3d 9ae8 973b
00000290: ee59 97bc 1de4 fbbc df50 233d fe59 993b
000002a0: d325 f93d 5570 0c3e e058 a93a 3261 30bd
000002b0: cca3 f43d 96c5 063c 0a1c 0d3e 561e 65bd
000002c0: 1e7b 88bd ae90 53bb a476 133e 4452 84bd
000002d0: 168d 9abd 44d4 3b3d 95d1 593d 4dc4 dd3d
000002e0: 2391 1abc c43f 853b f57d 09be 6db1 c73d
000002f0: f30f ebbc c55e e13c cd20 863c fc07 e5bd
00000300: ea99 91bc 41b3 d0bd 1ca7 ba3d 3c11 bc3d
00000310: 7737 cd3d 26ae 4c3d 19ba 263d cb86 1cbc
00000320: 8016 90bd 6c25 013e 5a00 b1ba f222 75bd
00000330: f289 403d ba9b 623d f83a 0c3e 02ce 51bb
00000340: fbe7 e6bc 4f7f 823b 3f09 f4bd a02a 1d3c
00000350: df57 b83d 027b 333e 54ca dd3d f1a1 04bc
00000360: 857e a93d 26ee 343e 8779 43bd b098 d43d
00000370: 7d43 893c 0d06 85bd cdbc 68bd eea5 783d
00000380: 3b6d ce3d 04e0 f3bc e38f 86bd d775 973d
00000390: 6bad a03d 1482 303e 5660 2f3d f606 b73d
000003a0: e007 b43d 6013 503e ca44 773d 79f6 26bc
000003b0: a40e f3bc 8856 4a3c 37ce 07bc 3f9a b33d
000003c0: e776 913d 158e 21bd ad69 0ebd 841a 9fbc
000003d0: 957d 3f3e 8621 1a3e 9efa e43d 3927 383d
000003e0: 94fd 993e dd19 3abd 6fea 22bd b38e febc
000003f0: d1a2 8dbd 09a9 33bd 5a9e 053e 19bd 91bd
-0.044526048 0.04909435 0.05192932 -0.019545589 -0.06052635 -0.06083906 0.05144474 0.08234636
0.12333755 -0.15287247 -0.024006302 -0.07244058 -0.012276415 0.16677189 0.028134746 0.06918859
-0.09997978 -0.08187506 0.097077854 0.0925134 0.090111926 0.04236553 0.02748481 0.037921727
0.08399441 0.0032058596 -0.016807392 0.1316611 -0.11640813 -0.015000344 0.07567922 0.007861261
0.16401744 -0.085210316 0.07293719 0.090308085 -0.12754257 0.013612174 0.098332494 -0.14721353
0.0278253 -0.104893856 -0.1281072 0.12510222 0.13576096 -0.027925663 0.061575707 0.012506394
-0.050870728 0.09478108 0.12274793 -0.028027285 -0.030438978 -0.08138149 -0.08191055 -0.04191848
0.10773505 0.03999678 0.03237668 -0.13186668 0.25010258 -0.022861099 0.11364338 0.2625731
-0.039237674 -0.039199725 0.084209904 0.10455606 0.20665127 0.043819003 0.07168552 -0.20765725
0.07370624 -0.023808328 -0.037314966 0.112347156 -0.14276935 0.10790474 0.04435512 -0.11401414
-0.05279746 0.010970864 0.031103166 0.10641448 -0.04955927 0.14104028 0.18880904 -0.039903346
0.002411828 0.0033882845 0.035954732 0.026802802 -0.06022186 -0.078611426 0.06591204 0.03053522
0.0407957 0.0052398923 0.111924365 0.072688244 -0.09654042 0.014256723 0.0675229 -0.035448276
-0.05598174 0.092444256 0.18350492 0.0832199 -0.12343781 0.14656918 0.1005431 0.012786624
0.059412226 0.06286191 -0.08573431 -0.054877933 -0.091893665 0.05643756 0.056287684 -0.062227752
0.013100499 0.08700563 0.0895589 0.034573562 0.058866445 0.08369653 -0.045346685 0.12576084
-0.0556771 0.023231272 -0.008821626 0.19199479 -0.15203317 -0.13843986 -0.05274969 -0.002332646
-0.12720822 0.08752785 -0.005582886 0.095319405 -0.0941238 0.0684897 -0.013910935 0.06989769
0.04005387 -0.024116622 -0.13584065 -0.05752383 0.20604824 0.12449007 0.1006551 0.007263195
0.03648521 0.019425752 0.032610103 0.08471855 -0.01760042 -0.008838605 0.045823492 0.021259105
0.22215223 0.112221576 0.038156386 0.0046358826 -0.018475499 -0.030748421 0.039872047 0.0046799174
0.121654175 0.13714726 0.0012920164 -0.043061443 0.11945304 0.008225819 0.13780227 -0.055937134
-0.06664108 -0.003228228 0.14400727 -0.064610034 -0.07546441 0.04585673 0.05317839 0.10828457
-0.009434017 0.0040664393 -0.13426955 0.09750638 -0.028694129 0.02751101 0.016373063 -0.111831635
-0.017773587 -0.1019044 0.09113905 0.09182975 0.10020345 0.04997077 0.04070482 -0.0095536215
-0.070355415 0.12611932 -0.0013504133 -0.05984778 0.047006555 0.055324294 0.1369437 -0.003201366
-0.028186789 0.0039824615 -0.11915826 0.009592682 0.09001135 0.17527393 0.10829607 -0.00809525
0.08276085 0.17668971 -0.04772332 0.10380685 0.016755814 -0.06495295 -0.05682068 0.060705118
0.10079428 -0.029769905 -0.06570413 0.07395523 0.07845577 0.17237121 0.042816482 0.089368746
0.087905645 0.20319891 0.060368337 -0.0101906 -0.029670067 0.012349732 -0.008288912 0.087696545
0.07102757 -0.03944214 -0.03476875 -0.019421823 0.1870025 0.1505185 0.11180614 0.04495928
0.30076277 -0.04543482 -0.039774355 -0.031073904 -0.069158204 -0.043862376 0.13048688 -0.07116146

layers.3.bias f4 [80]
00000000: dd06 17be ad22 8d3d 7841 17be e33a 78bd
00000010: dbc3 02be 244c 50be 541c 12be 1d9e cebd
00000020: 60aa 68bb fa75 f3bd fab4 8dbd f332 fdbc
00000030: dff0 5bbd fe17 253c 3515 0dbd b130 a73d
00000040: fa4e e13b 7bce 153d 762a 99bd de6a fcbc
00000050: 4286 2abe 15bb d5bd f8fb f33c 7a05 94bc
00000060: ba09 67bc 6f27 07be 65c7 afbd f1f1 933c
00000070: 3a39 603d 62e9 e1bc 0934 56be 8b3a 95bd
00000080: 118b 593b 6b12 4f3d 9a18 34be 1cff 61be
00000090: e784 bfba 86dc 6f3d e90a 463b ed7f a2bd
000000a0: 62be cfbd 3966 04bd df32 efbd b72b 063d
000000b0: 3103 6ebc db9f e0bd 055d 75bd 9246 35be
000000c0: 4061 debd 4846 6b3d f94d 13be 43eb 283b
000000d0: 57df 3fbe b115 7b3c 0a91 13bd 7658 29ba
000000e0: 0ebf 90bd 7a5b 41be 2eda f7bc 3a50 993d
000000f0: 48d1 603d 78cc 26be 7c5d 283d 2ab9 733c
00000100: 2c80 a8bd d1aa 443c 406a ddbc 3504 d9bd
00000110: 8907 0bbc 98ca 07be 07ef 063d a914 20be
00000120: 2912 cd3b 5121 5dbd 5102 5ebe 9ba7 e3bd
00000130: 11dd 54be 400d 5cbd f543 e3bd 4a3a 69be
-0.14748712 0.068913795 -0.14771068 -0.060603034 -0.12770025 -0.20341545 -0.14268619 -0.100887515
-0.0035501942 -0.118877366 -0.06919284 -0.030908084 -0.05369651 0.010076521 -0.034444053 0.08163584
0.00687587 0.03657387 -0.07478802 -0.030812677 -0.16652778 -0.10436074 0.029783234 -0.018069018
-0.01410144 -0.13198636 -0.08582953 0.018059703 0.054742076 -0.027577106 -0.20918287 -0.07286557
0.0033194462 0.050554674 -0.1758751 -0.22069973 -0.0014611752 0.058559917 0.0030218905 -0.07934556
-0.101437345 -0.03232405 -0.11679625 0.032756533 -0.014527128 -0.1096799 -0.059903163 -0.17702702
-0.10858393 0.057440072 -0.14385213 0.0025774993 -0.18737541 0.015324996 -0.036026992 -0.000646002
-0.07067691 -0.18882552 -0.030255403 0.07486005 0.054887086 -0.16288936 0.04110478 0.0148756895
-0.08227572 0.012003616 -0.027028203 -0.105965056 -0.008485683 -0.13260877 0.032942798 -0.15632881
0.0062582684 -0.05398685 -0.21680571 -0.111159526 -0.20787455 -0.053723574 -0.11096946 -0.22776142

layers.6.weight f4 [64, 80]
00000000: ee71 fc3d 457c 2fbe 950f 13bd 84b1 8bbd
00000010: 6b70 d53d 0f72 ddbd ae1c 873b 92f0 503d
00000020: 346e 8abd 688a 09bd 5b26 263e 1546 68bd
00000030: 0ca4 893d 3f2d cdbd a071 303e b981 6cbe
00000040: f6a4 603d 4c39 35be a8f7 8e3d bcb9 4c3e
00000050: 9721 4cbc d674 a0bd c471 edbd 2161 c3bd
00000060: c450 b93c 5fe7 d8bd b4d9 d23c 0a85 96bd
00000070: 4211 193d 2569 20be 06fb 323e a0ed 343e
00000080: 08d0 4fbe 2125 55be 57c9 f13b f282 37bd
00000090: 7af5 973d 009a 4dbe b362 d53d df18 9a3c
000000a0: 981b 673d 86e9 bcbd 889d 453e d6d4 a5bd
000000b0: 89da 3cbe db33 14be 64b1 0cbe 28d1 da3d
000000c0: ac3b e63d c24e 34be 907e ae3c 8613 24be
000000d0: 056d 793d cec2 c0bd f304 43bd ca59 52be
000000e0: 7bba aa3d 229c 003e f6fe f5bd 36f2 02be
000000f0: c8e2 10be 8992 053e 1cad 68bd fe0b 0b3e
00000100: 4790 953d 0913 47be aa1e abbc b116 123e
00000110: eca8 7fbd 7e9d 143e f031 363d da42 e23d
00000120: 2ad1 64be 4500 7abd f931 233e 3c38 c93d
00000130: e166 0d3e 79a3 d43d efae 5d3d 1826 4abd
00000140: eefa 253e ad34 8bbe c8f4 a6bd 0aba 14be
00000150: d080 333e b069 a6bd c33e 1ebd e5ff 523e
00000160: 11b0 debd cac2 473d ce4a 3f3d 0124 53bc
00000170: c2a8 00bd 0ad3 26be 368b 903c 3095 7fbe
00000180: 1f68 633d 1d42 31be d4b4 143e d70e b53c
00000190: 5bdc 6abd b033 9c3d b819 0ebe 76d3 fbbd
000001a0: 0f7e dc3d 9e2e f4bd 316f 1e3e 176d 12be
000001b0: acec 1a3e 6311 77be 69d4 543d 7db7 f03c
000001c0: 3bdc ebbd 2eea 12be ae74 bb3b ed84 f63d
000001d0: 3662 ea3b a362 40be b340 743d 2fe8 663d
000001e0: 63f7 0ebc abbe 9bbd 5b99 833e 2373 6abe
000001f0: 699c 6bbe 2ada 5abe 79ed 4ebe 20b3 c63d
00000200: 2c99 183e c410 09be a0ab 39bd 4f88 5cbe
00000210: cea7 94bd b862 46be eb4b ddbc c339 6abe
00000220: c213 f93d 826f 603d aec2 07be e842 41be
00000230: 9bd1 2cbe 86b0 113d 8921 62bd 1d2f 423e
00000240: e95e ddbc 7460 5ebe 5263 2f3d d781 8d3d
00000250: d98f 45be 8a22 ff3d 6713 b63c 46af e53d
00000260: 2b2a 38be 5b23 babc 3b91 413e b188 9dbc
00000270: cab6 f83d 2d1f 223d 6f99 d03d 550a 1cbd
00000280: 9c46 8dbc a9a9 7d3c 6591 b8bd 3c26 8fbd
00000290: b568 263d 24fa 923c 6313 853d da01 ffbb
000002a0: 2539 00bd 3c0e 3cbd f74a 913d dc51 e93d
000002b0: 3458 8b3d 5a81 e53d 7587 90bd 70e3 edbb
000002c0: 8551 973c 3d85 53bd e0b4 753d f7bd 9dbd
000002d0: 4bec ad3d 2a86 abbd b44b 86bd e02f 2d3c
000002e0: 8703 873d a01d f63d 3050 623d 5ebc 0a3e
000002f0: 93da 163e eba9 9ebc 1b6e e0bc 3a3c 83bd
00000300: c7ce cebd 20f5 29bd 2b4b 413d 78e3 263c
00000310: 549a e93d 7d83 2b3c bf19 c13d 47dd b9bd
00000320: 4fa7 07bd af51 4cbd 8470 f23c 25ca 6dbd
00000330: d766 29bd c802 003d 5d4c afbd 941c ce3c
00000340: 0838 9f3d ac1b 783d 0c36 243d 0590 c8bd
00000350: da66 e0bc 58d8 92bb 81fc a5bd 5066 bbbd
00000360: fac2 713d 3f1e 483e 417b 5d3d e3e4 903d
00000370: cf27 09be 80dc 703d a2ec 233c 1fc5 a2bd
00000380: e294 c1bc 1605 83bc bb88 963d f71a af3c
00000390: a2a6 bc3c ce52 1e3c ac8a 753d b1d8 343d
000003a0: 7c67 a8bd 502a 5e3d b9e7 4a3d e702 a1bc
000003b0: c9ac 893c 355a c5bc 8162 133e b1ab 993d
000003c0: c101 a93d 97c6 4cbe 86b2 4c3d d547 dbbd
000003d0: 9f31 13bc 1c0d 16be 2489 2bbc e0ec 193e
000003e0: 760d 3fbd ae01 703d c9b8 c73c 9838 4d3d
000003f0: 08c6 56bc 51b1 04be b33c 333e d485 4cbe
0.12326418 -0.17137249 -0.035903532 -0.06820968 0.10421833 -0.108127706 0.004123292 0.051010676
-0.06759301 -0.03357926 0.16225569 -0.05670746 0.067207426 -0.10018396 0.17230844 -0.2309636
0.05484482 -0.17697638 0.069808304 0.19992727 -0.01245918 -0.07834785 -0.11593965 -0.0954001
0.02262152 -0.105910055 0.025738575 -0.07349594 0.037369974 -0.1566511 0.1747857 0.17668772
-0.20294201 -0.20814945 0.007378738 -0.044802614 0.07419868 -0.20078278 0.10419216 0.018810688
0.0564228 -0.092242286 0.19298375 -0.08097236 -0.1844274 -0.14472906 -0.13739544 0.10684425
0.1124185 -0.17608169 0.021300584 -0.16023073 0.060894985 -0.09412156 -0.04761214 -0.20542064
0.083363496 0.1255956 -0.120115206 -0.12787709 -0.1414901 0.1304418 -0.056805715 0.13578793
0.07302909 -0.19440855 -0.020888645 0.14266469 -0.062416956 0.14513204 0.044481218 0.11047907
-0.22345415 -0.061035413 0.15937032 0.09825179 0.13808776 0.103827424 0.054121908 -0.049352735
0.16209003 -0.27188626 -0.08152157 -0.14524093 0.17529607 -0.08125627 -0.038634073 0.20605429
-0.10873426 0.04876975 0.0467022 -0.012887002 -0.03141094 -0.16291443 0.017644506 -0.24959254
0.05551922 -0.17310376 0.14522105 0.022101803 -0.057339054 0.07627046 -0.13876998 -0.12296192
0.10766231 -0.11922954 0.15472104 -0.14299427 0.15129346 -0.24127726 0.051960383 0.029384369
-0.11516615 -0.14347145 0.0057206964 0.12037072 0.007152821 -0.18787627 0.059632014 0.05637377
-0.008725974 -0.076047264 0.25702938 -0.22895484 -0.23008884 -0.21372285 -0.20207776 0.09702134
0.1490218 -0.13385302 -0.04532969 -0.21536373 -0.07258569 -0.19373596 -0.02701374 -0.22873597
0.12161972 0.054793842 -0.13257858 -0.18873179 -0.16876833 0.035568736 -0.055207763 0.18963285
-0.027022796 -0.21716481 0.04281933 0.069095306 -0.19293155 0.1245776 0.022226049 0.112150714
-0.17984836 -0.022721937 0.18903057 -0.019230219 0.12144239 0.039580513 0.10185515 -0.03809579
-0.017245583 0.015482345 -0.09012107 -0.069897145 0.0406272 0.017941542 0.06497838 -0.007782203
-0.031304497 -0.045912012 0.070943765 0.113925666 0.06803933 0.112063125 -0.070570864 -0.0072597787
0.018471489 -0.051640738 0.05998695 -0.077022485 0.08492335 -0.08375199 -0.06557408 0.010570496
0.0659247 0.12017369 0.055252254 0.13548419 0.14731817 -0.019368133 -0.027396252 -0.06407972
-0.100980334 -0.041493535 0.047190826 0.010186069 0.11406389 0.010468361 0.09428739 -0.090754084
-0.033118542 -0.049882587 0.029594667 -0.05805411 -0.04135784 0.031252652 -0.08559487 0.025160111
0.07774359 0.060573265 0.040090606 -0.097930945 -0.027392793 -0.0044813566 -0.08104802 -0.09150374
0.059023835 0.19542788 0.054072622 0.07074907 -0.13394092 0.058804035 0.010005148 -0.07947754
-0.023630563 -0.015993636 0.07350298 0.021375163 0.023028675 0.009663297 0.0599467 0.044151966
-0.08222863 0.05423957 0.049537394 -0.019654704 0.016806023 -0.024090866 0.14393045 0.07503451
0.08252288 -0.19997631 0.04997494 -0.1070706 -0.008983999 -0.14653438 -0.010469709 0.15031767
-0.046643697 0.058595352 0.024380105 0.0501028 -0.013108738 -0.12958266 0.17503624 -0.19972926

layers.6.bias f4 [64]
00000000: 8aeb 173e eea7 643e cfa8 72be 7a28 143e
00000010: 30b1 4fbe 5206 97be 5257 f43d 13d4 a03d
00000020: f230 d93d 94dc 063e 1206 083e 391c 0bbe
00000030: f62c 583e 76ea 9e3d c019 2a3e 64b0 013e
00000040: d3e2 553d 5d05 86bc 9ba8 623e 536d 13bc
00000050: c58c 223e e6cc f23d 468c 70be a972 a73d
00000060: 0cd7 0b3e 4443 f8bc 868c 693d e2a6 8ebe
00000070: 452d 203e e969 513e 66a4 19be 5099 a5be
00000080: d40b 703e 95f2 7a3e f152 e23d ae8b 1db9
00000090: 2219 9d3d 6e4a 563e a435 e33d 10fb 133e
000000a0: 8609 fe3d a4be 433e 48b9 323e 7fe1 e0bd
000000b0: e18d 0c3e a0a2 663e ada3 dd3d 2368 8cbe
000000c0: b0fa d93d 2869 6ebe d2be 2f3e 1b8f 60be
000000d0: 1ed8 083e daff 2abe 746a e8bd 5bf8 243e
000000e0: f895 cebd 9651 073e 29ce 563e a7ae 36bd
000000f0: 4ce3 2a3e e877 293e 331c f93c 26dc a0be
0.14835945 0.22329685 -0.23697208 0.14468566 -0.20282435 -0.2949701 0.119307175 0.0785295
0.10605039 0.13170081 0.13283566 -0.13584985 0.21110901 0.077595636 0.16611385 0.12664944
0.05221827 -0.01635998 0.2213463 -0.008998233 0.15874012 0.118554875 -0.2349101 0.081761666
0.13656253 -0.030305512 0.05701878 -0.27861696 0.15642269 0.20450558 -0.1500412 -0.3234353
0.23442012 0.245066 0.11050976 -0.00015024722 0.07670809 0.2092683 0.110942155 0.14451241
0.1240416 0.19115692 0.17453492 -0.1098051 0.13725998 0.22522974 0.10822234 -0.274232
0.10643518 -0.23282301 0.17162636 -0.2192959 0.13363692 -0.16699162 -0.11348429 0.16110365
-0.10087198 0.13214716 0.20977081 -0.044600155 0.1668827 0.16549647 0.030408954 -0.3141796

layers.8.weight f4 [1, 64]
00000000: 02f4 bcbd c45d 16be 47c8 9fbc 1788 01be
00000010: c0d6 fabc 30c8 073b b41e 103e c847 073e
00000020: 872f 683e 9e97 033e d8bc 6cbd 96d0 2e3b
00000030: 5c0a 333e ae1b 98bd e239 483e 49c9 0d3e
00000040: ee9f 313e b7bc c73d ec8e 05be 5ce7 ad3d
00000050: 1fc4 14be 05d5 f13d b773 e3bc 65dd 473d
00000060: 0992 fe3d d264 c23d 0bb2 303e a6e2 9abc
00000070: c48f 1dbe d933 cbbd b9ac 783d 7142 bcbc
00000080: 7454 24be ff79 24be c415 423e b6e7 d63d
00000090: 9949 bcbd 0a7b 7d3e 6e10 503e 5c53 02be
000000a0: 7627 b7bd e1fe 3f3e 8d23 6f3e 2999 07bc
000000b0: edfe 343e 0c40 753e 42eb 4ebd 2874 cbbc
000000c0: 5376 273e 6218 36bc 0417 ea3d 7ff3 10bb
000000d0: d871 173e 6e99 25bc ab5e 73bb f300 9bbd
000000e0: 0f6c 20bc 0296 2d3e ef2c 1fbe 6671 57bd
000000f0: 0723 06be 15de b7bd 54f0 393e 6190 c6bc
-0.09226228 -0.14684206 -0.01950468 -0.1264957 -0.030619979 0.0020718686 0.14074212 0.13210976
0.2267438 0.12850806 -0.057797283 0.002667462 0.1748442 -0.074271545 0.1955333 0.13846315
0.17346165 0.097527914 -0.13042802 0.08491394 -0.1452794 0.118082084 -0.027765138 0.048795123
0.12430198 0.09491886 0.17255418 -0.018906903 -0.15386873 -0.099219985 0.060711596 -0.0229809
-0.16047841 -0.16062163 0.18953615 0.10493414 -0.09193725 0.24753967 0.20318767 -0.12727112
-0.089430735 0.18749572 0.23353405 -0.008276262 0.17675371 0.23950213 -0.050517328 -0.024835661
0.16353731 -0.011114212 0.11430171 -0.0022117791 0.14789522 -0.010107381 -0.0037135284 -0.075685404
-0.009791388 0.16951755 -0.15544485 -0.05259838 -0.130993 -0.08977906 0.18158084 -0.024238767
