flwr-mlp/models/checkpoints/round_012.pt (torch, 127593 bytes, 7 tensors)

layers.0.weight f4 [256, 19]
00000000: a3ef 86bd fd6f 1dbe 0194 503c a0a6 5ebe
00000010: 77e0 833c fa5e 09be 18d3 a7bd 8f65 46be
00000020: 2ad2 2f3e 630e fdbd ff2e 233d a92d 1e3e
00000030: c111 12bd 154c 0cbe ca4d 4c3e d3ca 2abd
00000040: ec42 08be f66e 553d cd09 48be 176e 3abe
00000050: 6238 11bd ff30 dc3d 342c 823a e925 a3bd
00000060: 8d20 adbc b336 463e 2fb0 5bbe 390d ae3d
00000070: dcbd ddbc c81c 143e e44d 133e 23c4 f5bd
00000080: 445a 68bd c349 8c3d 5b09 a4bd 9da1 f83d
00000090: 7c7b 313e 0b2f cdbc 41bb ab3d bb0e e73d
000000a0: 120f 88bb 5b45 0fbe 2cb3 853d c370 8bbd
000000b0: 0e86 db3d c138 6bbe c482 c53c b052 753e
000000c0: 5171 0e3e 762a 93bd e910 973d 3fb2 1e3e
000000d0: d2e9 f83d 3910 cebb 2c4b 553d 061b 0f3e
000000e0: c73d c3bd a473 8a3e 6978 60bd 74d2 5a3d
000000f0: 2826 b43d 759e 9fbd 5fc6 57be a3cd 51be
00000100: 4327 6d3e e173 1fbd c54b c23b bd18 443e
00000110: 262a e9bd 084e a5bd d71b 8f3d 539f 0cbe
00000120: 825f bbbd a745 5fbd 9162 543d b889 113e
00000130: dc08 bfbd d2ea aebd cad7 343e 159c f8bb
00000140: c64c 443e 4fc2 2c3e c327 373e 963a 0c3e
00000150: 8290 3e3e 8062 23bc 8ea4 0fbe 34d9 d6bd
00000160: f38e 4ebe 67ca 31bd 827e e5bd c0cc c83d
00000170: d3c7 53bd de54 43bd 18d6 2cbe c502 823d
00000180: 7c39 153e c5b8 c3bd a543 403e 100f 013e
00000190: 4527 67be a2e4 073e c674 6a3e 4cad b8bd
000001a0: 65a9 43be 284a b63d bb8d 8dbe bf87 193d
000001b0: 574e 303e 453b 293e f4d5 f138 c830 003e
000001c0: b144 f8bc 4033 74be 7a83 e23d d57a 3a3e
000001d0: 67e1 e03d bcc1 013b 0f5c e9bd 04b0 b8bd
000001e0: befd 1bbe 9cca 30be 8341 36be b49f 7e3e
000001f0: 0681 57be a1f9 c6bd db84 383d e483 01be
00000200: b9a0 0d3e 180c ecbd 2cb5 a03c 10e0 51bd
00000210: ac69 163c 1516 2a3e 7bf3 3bbe a750 1fbd
00000220: 3ca6 09be 0fe2 033d e4df 9ebc 8abe 31be
00000230: 7e47 cfbd c9c6 62bd d83f 89bd 9978 f23c
00000240: 9315 563d 4567 4e3e f749 1d3e 0ab8 d9bc
00000250: f888 84bd 6d07 77be 095f 0bbb 196d 11bd
00000260: ee1f 2bbd f6a4 af3d ae89 a93d 50ee 4dbd
00000270: ffcb 003e a855 773e 543b 0b3e 741b 133e
00000280: 0825 6a3e 7ef6 703d 65e7 c0bd 713a 8b3e
00000290: 3971 80be 032b 0f3e 4f5f 0d3d e846 ba3d
000002a0: 1f62 633c 0e3a 39be ae3c 3cbe 3a2d 6c3e
000002b0: 2a2b 86bc 6059 0dbd 26c2 80bd 1028 503e
000002c0: 1b14 e4bd 69c6 cdbc 8b45 473e d862 2f3e
000002d0: a3f2 7bbd 40d6 d1bc c149 93bc 2f82 1c3e
000002e0: 4dc0 083d ca06 003e 9a78 87bc 6dba df3d
000002f0: c678 cf3d c39a 9a3b 71d6 9dbd 3a19 af3c
00000300: 9192 f53d b349 9b3d 770f 5dbd b678 d93d
00000310: fe48 dbbd f43c 163e 7cc1 193e 6d1d 99be
00000320: 197d 6ebe a399 ecbc 94e6 bcbd fec0 1abe
00000330: 57bd d1bd c743 1c3e 9931 2b3e 9b2c f43d
00000340: 78be 6f3c dbaa 6a3e 50a6 d8bd 1914 3d3b
00000350: 31a7 3e3e 95d7 51be 1bd1 bb3d 527d 7dbe
00000360: dc8c df3d b632 543e 4102 1c3e 8277 283e
00000370: 8271 4dbe 485e de3c 67de 32be edb9 aebb
00000380: 2d83 56bb 815a 88bd a598 2c3e 9d10 083d
00000390: e9b5 d0bd 4471 613e 0a5e 5bbd 2a46 92bc
000003a0: c5b2 b63d 5437 05bc 79a5 37be bb40 92bd
000003b0: d75e 78be eaf5 983e 71b1 5cbe 8a1a 2ebc
000003c0: d9fd 173e d7ee b83c 7e9f 093c 5e76 cf3d
000003d0: 9553 68be ea35 0f3d be68 323d c167 bebd
000003e0: 6a6b cbbd b815 a93c 54e4 18bc cd4b e53d
000003f0: ddbf 36be 5c57 983d 7b11 f53d 00d0 22be
-0.06588676 -0.15374751 0.012730599 -0.2174325 0.016098244 -0.13415137 -0.0819456 -0.19374679
0.17170015 -0.1235626 0.03983974 0.15447105 -0.035661463 -0.13700898 0.19951549 -0.041697334
-0.13306779 0.052107774 -0.19534989 -0.18206058 -0.03545416 0.10751533 0.0009931386 -0.07966215
-0.021133685 0.19356804 -0.21453927 0.08498616 -0.027068071 0.14464104 0.14385182 -0.12000301
-0.05672671 0.068500064 -0.08009597 0.121402 0.17332262 -0.025046846 0.08385325 0.112821065
-0.004152187 -0.13991301 0.06528315 -0.06808617 0.10718928 -0.22970869 0.024110205 0.23957324
0.13910414 -0.07185833 0.07376272 0.15497683 0.12153973 -0.006288555 0.052073643 0.13975152
-0.095332675 0.27041352 -0.054802332 0.05342336 0.0879634 -0.07793895 -0.21071766 -0.204886
0.23159508 -0.03892887 0.0059294426 0.19150062 -0.11384992 -0.08071524 0.06987732 -0.13732652
-0.09149076 -0.054509785 0.051851813 0.14212692 -0.09327862 -0.08540882 0.17660442 -0.007586966
0.19169912 0.16870998 0.17886262 0.13694224 0.18609813 -0.009972215 -0.14027616 -0.10490647
-0.20171718 -0.043405917 -0.1120577 0.09804678 -0.05170424 -0.047688358 -0.16878545 0.063481845
0.1457271 -0.09556726 0.18775804 0.12603402 -0.22573574 0.1327081 0.22896108 -0.09017429
-0.19107588 0.08900863 -0.27647194 0.037482973 0.17217384 0.16526516 0.000115316274 0.12518609
-0.030306192 -0.23847675 0.110602334 0.18210919 0.10980492 0.0019799313 -0.11394512 -0.09017947
-0.15233514 -0.1726479 -0.17798428 0.2486561 -0.21045312 -0.09715582 0.045048576 -0.12647969
0.13830842 -0.11525744 0.01961764 -0.051239073 0.009180468 0.16609986 -0.18354599 -0.038895275
-0.1344232 0.03219801 -0.019393869 -0.17357841 -0.10121058 -0.055365358 -0.0670163 0.029598521
0.05226667 0.20156582 0.15360247 -0.026577014 -0.06471437 -0.24123926 -0.0021266362 -0.035504434
-0.041778497 0.08576386 0.082782134 -0.0502761 0.12577818 0.24153769 0.1359685 0.14365941
0.22865689 0.058828823 -0.09419135 0.27193025 -0.25086382 0.13981251 0.03451472 0.090955555
0.013878374 -0.18088552 -0.18382522 0.23064128 -0.016378004 -0.034509063 -0.06287031 0.20327783
-0.11136647 -0.025119023 0.19460122 0.1712755 -0.061510693 -0.025614858 -0.017979505 0.15284036
0.033386517 0.1250259 -0.016537 0.1092423 0.101304576 0.004718156 -0.07706917 0.021374334
0.11990846 0.075824164 -0.053969827 0.10618727 -0.107072815 0.1467169 0.15015215 -0.29905263
-0.23289908 -0.028881853 -0.09223667 -0.15112683 -0.10241192 0.1526023 0.16718139 0.1192257
0.014632814 0.22916739 -0.105785966 0.002885109 0.18618466 -0.20492394 0.09170743 -0.24754837
0.10915539 0.2072247 0.15235235 0.16451839 -0.20062831 0.027144566 -0.17467652 -0.0053322227
-0.0032731995 -0.06657887 0.16855104 0.03321897 -0.101909466 0.22015864 -0.05355648 -0.017855722
0.08920816 -0.008130867 -0.17934217 -0.071412526 -0.24254929 0.29875118 -0.21552064 -0.010626445
0.14842929 0.022574825 0.008399842 0.101299986 -0.22688134 0.034963526 0.04355692 -0.09297133
-0.09932597 0.02064024 -0.009331781 0.111960985 -0.17846628 0.074385375 0.11966225 -0.15899658

layers.0.bias f4 [256]
00000000: 6c31 453d 3c0a e4bc 0362 5fbe dc83 65be
00000010: b035 45be 25d5 e1bd d72e eebb 28e2 f6bd
00000020: f768 4fbe aa42 38bd f5d1 943d 02a9 7bbd
00000030: ebd5 ca3d 8e68 9cbe 566a 25be b782 09be
00000040: f900 993d 9598 4f3c 5b08 e3bd b76f 1ebe
00000050: 9e23 7fbd 3773 debd 38ca d83d dfd8 0abe
00000060: 4069 98bd 1e41 dabd 55e2 e0bb e6f6 1cbe
00000070: 74d5 2abc 0471 fdbc f07c cebc 9be3 243d
00000080: ab71 24be 66c2 e33c 2711 fbbd 6251 47bd
00000090: db89 9dbc cdfb 87bd 1760 22be a19c c43d
000000a0: b9b2 7ebe 8b6e 54be dcbd 55be b572 4dbe
000000b0: f2ee 57be 3125 2ebe 26f0 84bd 33da ea3c
000000c0: acaf 03be a4f5 5bbe d6c1 22be ac0f 72bd
000000d0: 2bcd 04be fc73 1cbd 2a65 05be 68be 023d
000000e0: fea3 87be 5c7b 6a3c 6bf1 36be cfbf 2bbe
000000f0: afd2 98be 8b6f 3fbe 6ac1 d8bd 55e2 8bbe
00000100: e0b5 81bd 41fe 28bc 15da 4abe 659a b3be
00000110: 7115 86be 6f7d 19be 8e55 86be 7248 b23d
00000120: 63ab 8abd ec29 81be b995 4cbe 83e7 9fbd
00000130: fc31 8cbe d38b 49be 9b58 59bd 3254 053b
00000140: 27f8 dc3c 2125 f0bd 7a09 633d b67f 1abe
00000150: 214b 83be 5105 56be 9e56 51bd 8bad 093e
00000160: 05ea f6bd 66d0 343d 8141 7fbe 12b0 543c
00000170: 9a69 58be 0695 afbc f668 75be 3222 2bbe
00000180: 79b0 86be deee 23be 5536 a3be b633 86be
00000190: 3e2f e2bd 56ea f5bd 6300 57bd 1f91 6dbe
000001a0: c811 73be e2b5 64be a95c 4ebe 10c5 39be
000001b0: 3bc8 9f3c be42 66be 576f 94be 47df b13c
000001c0: 0a6f f0bd a4a6 babd a63a 6cbe 5217 31bd
000001d0: 5327 603d 8246 59bd b6a1 e0bb 8f76 2cbe
000001e0: 7155 63be 94c2 0dbe 76f3 54be c0dc 09be
000001f0: 5d1e d43b 53cc 88be f38f ed3d 3c5a e4bd
00000200: 9c28 a83c ddfc 91bd 7ec2 9d3b fb52 67be
00000210: f913 633d e8fb 07be 50a5 8d3c 530f 41be
00000220: b4d4 853d 481c abbd 0918 853d d77f 28be
00000230: 91af f7bd 43e8 35be e431 e9bd 51cd ec3c
00000240: f8ec 5abd a40c ddbd 0810 a2bc 0f97 ad3d
00000250: b5ec 83be 3ff3 b1bd 845b 89be 8255 9cbd
00000260: 61cf 22bc 6a6e 753d dce5 aabd 46ce 31be
00000270: 8506 01be 6319 e1bd 5474 95bd c39f dfbd
00000280: defd 80be b96f 95bd 9bbf ba39 711b 62bc
00000290: 5a86 dabd 0c44 9e3b 960f 6bbe 2348 60be
000002a0: 7922 80bd d7be 66be 831a 313d 2029 683d
000002b0: 330e 46be a1cf 8cbd 574f 59be 33fb 66be
000002c0: ee8e 92be 5c5b 9ebd aa1b 05bc b2e0 8dbd
000002d0: bb3a a73d 7154 de3d 0713 8fbe 013b 25be
000002e0: 3dab 373d c2c3 1b3d fe67 193a 13a6 c2bd
000002f0: 93db 05be c80e 63be b932 b9bc 6f0f d1bd
00000300: a8d4 b53c 269f af3d 72ce 43be fa8a a7bd
00000310: fd58 42bd 4c0e 7bbe 7f23 c2bd fc65 36bd
00000320: ae10 923d 4878 a33d 1636 46be d12e e4bc
00000330: d593 92bd 3211 8fbe a5d8 89be 42a8 85bc
00000340: 7253 073d fa29 5c3d 7a93 07be 95c7 21be
00000350: e802 92be 9522 70be 788b b6bc f39d 15bc
00000360: 8b46 2ebe cdba 80be bcc5 b63d 1c7f 5abe
00000370: 88ec 95be c293 433b 3f10 ccbd 93a0 91bd
00000380: 3176 a0be e31c 26bd e320 ec3c 6520 debc
00000390: 30e6 13be 5579 67be 953e 46be 9336 41be
000003a0: 4938 19be e449 4dbe f0b0 43be 7a78 c0bd
000003b0: 2509 0e3d 3a70 80bd a553 71be ba2c 8bbe
000003c0: 3f5c 3dbe a038 9abe a90d 67be 6eb9 eb3d
000003d0: 6d21 39be 74a5 47bd e114 37be c363 903c
000003e0: d1d0 83be 5e82 703c 82f5 113d 496c 84bc
000003f0: b56d 9f3d d2b2 b33b 7d34 2ebe 9556 e23c
0.048142835 -0.027836911 -0.21814732 -0.22413582 -0.19258761 -0.11026982 -0.0072687673 -0.12054855
-0.20254885 -0.04498545 0.072666086 -0.061440475 0.09904083 -0.3054852 -0.16153845 -0.1342877
0.07470889 0.012670656 -0.11085578 -0.15472303 -0.062289827 -0.10861819 0.10585445 -0.13559292
-0.0744195 -0.10656951 -0.0068629184 -0.1532856 -0.010426868 -0.03093768 -0.02520606 0.040256124
-0.16058986 0.027802657 -0.12259131 -0.048661597 -0.019230774 -0.06639824 -0.15856968 0.09600187
-0.24872865 -0.20745294 -0.20873207 -0.20063289 -0.21087244 -0.17006375 -0.06491117 0.028668499
-0.12859982 -0.21480423 -0.15894255 -0.059096977 -0.1296889 -0.03819655 -0.13026872 0.031919867
-0.26492304 0.014311638 -0.17865531 -0.16772388 -0.2984824 -0.18694894 -0.10583766 -0.27321115
-0.06333518 -0.010314525 -0.19809754 -0.3507873 -0.26188233 -0.14989255 -0.26237148 0.08705224
-0.06770971 -0.25227296 -0.1997899 -0.07807829 -0.27381885 -0.19682245 -0.053063016 0.0020344374
0.026973797 -0.11725832 0.05542896 -0.1508778 -0.25643256 -0.20900466 -0.051107995 0.13445108
-0.120563544 0.044144057 -0.24927332 0.012981432 -0.21134034 -0.021433365 -0.2396582 -0.16712263
-0.26306513 -0.1600909 -0.3187739 -0.26211327 -0.11044167 -0.12007587 -0.052490603 -0.2319989
-0.23737252 -0.22335008 -0.20152535 -0.1814158 0.019504657 -0.22486398 -0.28991196 0.021712912
-0.11739929 -0.091138154 -0.23069248 -0.04323513 0.054725002 -0.053045757 -0.006855215 -0.16842102
-0.22200562 -0.13843757 -0.20795998 -0.13463116 0.006473346 -0.26718387 0.11599722 -0.11150023
0.020527177 -0.07128308 0.004814445 -0.22590248 0.05543897 -0.13279688 0.017290741 -0.18853502
0.065347105 -0.083550036 0.06498725 -0.16455017 -0.120940335 -0.17764382 -0.11386469 0.028906496
-0.053448647 -0.10793427 -0.019783035 0.08476078 -0.2576653 -0.08688974 -0.26827633 -0.07633497
-0.009937138 0.059919752 -0.083446234 -0.17363843 -0.12600143 -0.1099117 -0.072975785 -0.10919144
-0.25193685 -0.072967 0.00035619442 -0.013800488 -0.10670157 0.004829889 -0.22955164 -0.21902518
-0.06256575 -0.22533737 0.043238174 0.056679845 -0.19341354 -0.068755396 -0.21221672 -0.22556762
-0.28624672 -0.07732269 -0.008124271 -0.06927623 0.08165499 0.1085595 -0.27944204 -0.1613579
0.04484104 0.038028486 0.0005851983 -0.095043324 -0.13072042 -0.22173607 -0.022607194 -0.10208022
0.022196129 0.08575277 -0.19121721 -0.081808046 -0.047448147 -0.24517173 -0.094794266 -0.044530854
0.07132088 0.07981926 -0.1935657 -0.027854355 -0.07157103 -0.27942806 -0.269231 -0.016315583
0.033038564 0.05375097 -0.13239852 -0.15798791 -0.28517842 -0.23450692 -0.0222833 -0.009131896
-0.17019098 -0.25142518 0.089244336 -0.21337551 -0.29282022 0.002984271 -0.09964036 -0.07110705
-0.31340173 -0.040554892 0.028824275 -0.027115056 -0.14443278 -0.22604878 -0.1935981 -0.18868475
-0.14962877 -0.20047718 -0.19110465 -0.09397979 0.03467669 -0.062714055 -0.23567064 -0.2718256
-0.1849222 -0.30121326 -0.22563805 0.11509977 -0.18079157 -0.048741773 -0.17879058 0.017625695
-0.25745252 0.014679519 0.035634525 -0.016164916 0.07784597 0.0054839635 -0.1701221 0.027629176

layers.3.weight f4 [80, 256]
00000000: c30f 55bd 5bd6 4e3d f478 e73b 794a a7bc
00000010: 55b8 8dbd 1ee3 8dbd 5625 953d 6b21 903d
00000020: b55d 883d 0252 e7bd 0de4 9bbc 4f5e 96bc
00000030: 82ba 743c b25b 4a3d 984f e53c 0852 6a3d
00000040: e035 58bd 0ff4 7bbd d58a e23c f745 513d
00000050: 17b3 ae3d 3cd6 fd3c 7e3e 363d 0459 343d
00000060: ffa9 ce3d 594c 31bd 7e94 863c 4849 753d
00000070: ea7a 8cbd e3ee bbbc 89de 0e3d de62 f53b
00000080: b71a 9e3d 2410 cabd 90a4 883d 130a 7d3d
00000090: 0fdc ecbd 6fad 8cbb 1cb1 673d da0d e5bd
000000a0: 14b2 98ba 5d1c a3bd 847a aabd ed71 493d
000000b0: 0583 9a3d be8e 85bd 050f 013b 8006 783d
000000c0: 087f 72bd 94c7 0e3d 8011 dc3c 3803 2c3b
000000d0: af4b 8dbc 631e 28bd 9b84 45bd 1a25 91bc
000000e0: 4eb4 9c3d 4e01 1a3d f0c4 bf38 8adb 00be
000000f0: be92 0e3e 0929 a6bc 6fb8 b33c 6912 943d
00000100: 8d8e 6bbd 3aa3 73ba 3843 b83d 6f9f c83c
00000110: c43b 633d 3e7c d5bc bae5 613c 26de 1cbe
00000120: d369 073d 65ca 19bd 65c1 28bd 4fdc 6b3d
00000130: d89a edbd 5940 4ebb f6e0 3e3d 980a a5bd
00000140: 6da8 6bbd a131 f03c 8051 46bc 7f10 ba3d
00000150: 9ef8 a6bd d01d 193d 3c63 de3d d55b 18bc
00000160: 026d c23c 1ece 0d3c b8f1 f13c b02a 873d
00000170: 9e01 71bd 383d 3ebd ee2b 8a3b 00f5 45bc
00000180: efb6 ce3b 961b f0ba 6222 debc d932 963c
00000190: 1ab4 bbbd dbf9 09bd e5e5 1b3d 5657 7abd
000001a0: cfa6 babd 9ba0 f33c c849 ee3d 2ed9 ea3c
000001b0: cc3f 81bd 3bf7 8c3d 592e b03c 54c6 40bc
000001c0: 36cc f73c 2af3 853d b2ec b7bd f9cd 19bd
000001d0: a540 b9bd 7e1f 5a3c 81b0 513b baaf 7fbd
000001e0: a197 123d 4fe2 403d db6f 8f3d 3737 453c
000001f0: 9323 3d3c 1fbb 8e3c d38a d6bc c44f a93d
00000200: e617 32bd 04d9 923c 97b8 84bc 7f51 113e
00000210: f7d2 cabd db88 e1bd b257 45bd 0b6b 37bc
00000220: edcf a0bd 7b02 943d 109e 4bbc 9708 0b3d
00000230: 76fb 7cbd 1fdb 853c 7302 b5bc 204c 263d
00000240: dfab 173c 1aeb c6bc 9d72 f0bd f7a5 0cbd
00000250: dff6 183e 7403 553d f4a5 04bd 5a91 adbc
00000260: 33ad 7dbc 952f 0a3c bb43 11bc 46cd 8b3d
00000270: 1c3d 3bbd eff1 29bc aa9b 0abb 5607 0bbd
00000280: 5901 1d3e 2c13 bc3d 37ac 7f3c bc29 a83c
00000290: a8d3 12bd af96 34bd 23c1 1b3b 66e7 6f3a
000002a0: 4e9e 633d 9543 8e3d ff8e 68bc 956f 25bc
000002b0: 4db4 b73d e6ed 20bc 588c cd3d 453e 05bd
000002c0: dffd 7bbd 2c87 f93c 7884 bf3d b7db 4dbd
000002d0: 7a31 90bd 5121 2a3d 4f73 453d 78c1 103d
000002e0: 7350 7bbc fdb7 023d 0c23 aebd c07e 9d3d
000002f0: d5e3 583c 1832 1fbd bc8e 1cbc d9db 99bd
00000300: cd35 953c b85b 8cbd be30 3f3d 2c85 893c
00000310: dc07 a23d 3373 e43b a836 5c3d 579d a8bc
00000320: cca1 8abd a12e ba3d f1eb 88bc de61 22bd
00000330: 57f7 023d 9ea0 d93c 883c b73d 2c59 bcbb
00000340: f638 6fbc c183 91bc b48a 97bd c01e 693b
00000350: 6f61 2b3d 12e9 383d 5f3a bf3d 9ad0 b73b
00000360: e0a6 0a3d c922 903d 7f97 0abc a20d 723b
00000370: c659 4bbd 3006 52bd 22ca 8abd 91bd 213d
00000380: 61af c83d 35e9 35bd e877 43bd be27 843d
00000390: 0e05 963d 91b3 6f3b 8943 eb3c 301d 593d
000003a0: 4aee 1f3d 4199 153e 8c7a 153d 1b43 56bd
000003b0: 3505 113b 079f 043c c9e8 9dbc 21c1 bf3d
000003c0: 6c4f 9cbb 32a0 b3bd 473f 4bbd da38 3bb9
000003d0: 5dca 0f3d 0f05 9a3d 8538 493d 70c1 ca3c
000003e0: 3d32 ce3d 16b0 99bc 368f adbc f88d 6bbc
000003f0: 12ce 7bbd e2bb 543c 6eec b83d aa9f 23bd
-0.052016985 0.050497394 0.0070639793 -0.020421254 -0.06919924 -0.06928085 0.07282512 0.07037624
0.06658498 -0.112949386 -0.019029642 -0.018355517 0.014937045 0.049403854 0.027992055 0.057207137
-0.052785754 -0.06151205 0.02765409 0.051092114 0.085302524 0.030985944 0.04449319 0.044030204
0.10091018 -0.0432857 0.016428228 0.05988434 -0.068593815 -0.022941059 0.034880195 0.0074885925
0.07719939 -0.0986636 0.06672013 0.061777186 -0.1156541 -0.004293136 0.05656539 -0.111842826
-0.0011649751 -0.07964394 -0.08324149 0.049180914 0.07544521 -0.065213665 0.001969279 0.060553074
-0.059203178 0.0348583 0.026863813 0.0026247036 -0.017248003 -0.041044604 -0.048222166 -0.017717887
0.07651578 0.0375989 9.144272e-05 -0.12583748 0.13923165 -0.020283239 0.02193853 0.07230074
-0.057508994 -0.0009294037 0.08997196 0.024490086 0.05547692 -0.02606022 0.013787681 -0.15319118
0.033059906 -0.037546534 -0.04120006 0.05758315 -0.116018 -0.003147146 0.04660126 -0.08058661
-0.05753367 0.02932054 -0.012104392 0.09085178 -0.08152889 0.037381947 0.10858771 -0.009299238
0.02373362 0.008655099 0.029534206 0.06599939 -0.058839433 -0.0464451 0.0042166626 -0.012082338
0.0063084285 -0.0018318768 -0.027116004 0.018334793 -0.09165211 -0.033685546 0.03806104 -0.061118446
-0.091138475 0.029739669 0.116351664 0.028668012 -0.063109964 0.06883093 0.021506475 -0.011766035
0.030248743 0.065405205 -0.08980693 -0.037549946 -0.09045533 0.013313172 0.0031996074 -0.062423445
0.035789136 0.047090825 0.070037566 0.01203709 0.011544126 0.01742321 -0.026189243 0.08267167
-0.043479823 0.017925747 -0.0162013 0.14191245 -0.099035196 -0.11012431 -0.048179336 -0.011194955
-0.07852159 0.072270356 -0.012427822 0.03394374 -0.06176325 0.016339837 -0.022095894 0.040599942
0.009257286 -0.024282027 -0.11740611 -0.034337964 0.14937924 0.052005246 -0.032384828 -0.021187473
-0.015483188 0.008434196 -0.008866246 0.06826262 -0.045712575 -0.010372623 -0.0021149912 -0.033942543
0.15332545 0.09183344 0.015605024 0.020527713 -0.035846382 -0.044089016 0.0023766242 0.00091516075
0.055570893 0.06946484 -0.014194249 -0.010097404 0.089699365 -0.009822344 0.10036534 -0.032530088
-0.061521407 0.030459963 0.09351438 -0.050258365 -0.07040687 0.04153568 0.04820567 0.035340756
-0.015339005 0.031913746 -0.085027784 0.07690191 0.013237913 -0.038866132 -0.009555515 -0.07512636
0.01821413 -0.068534315 0.046677344 0.016787134 0.07911655 0.0069717406 0.05376306 -0.020582838
-0.067691416 0.09090925 -0.016714068 -0.039644115 0.031974163 0.026565846 0.08947092 -0.005747935
-0.014600983 -0.01776302 -0.073995024 0.0035571307 0.041840967 0.04514415 0.09337305 0.005609584
0.03385055 0.07037885 -0.008458971 0.0036934395 -0.04964616 -0.051275432 -0.06776835 0.039487425
0.09799076 -0.044411857 -0.047721773 0.06452893 0.07325183 0.0036575536 0.028718727 0.05300635
0.03904561 0.14609243 0.036493823 -0.05231009 0.0022128348 0.008094556 -0.01927604 0.09363008
-0.00477021 -0.08770789 -0.049620893 -0.00017854889 0.035105098 0.07520496 0.049126167 0.024750441
0.10068176 -0.018760722 -0.021186452 -0.01437711 -0.06147582 0.012984248 0.090294704 -0.03994719

layers.3.bias f4 [80]
00000000: a357 49bd 1f8b 8d3d 950a 58bd 0960 40bd
00000010: 3c42 58bd 9bc4 06be a2dd 93bd c945 5abd
00000020: 6dc3 713a e892 b5bd cb04 02bc 59dc 2ebd
00000030: 086c be3a aa6d 9f3a 0d81 8a3c e8f5 6c3d
00000040: 196b 7cbc da7f 513d df2b d4bc 50e8 6bb8
00000050: bf17 e4bd f36e 85bd 97f1 5e3c d433 1fba
00000060: 0b24 19bd 4dbc f2bd 0a9d 04bd fa14 fe3c
00000070: 90c7 8c3c 157c 17bd b755 edbd b616 4cbc
00000080: f139 b93c 9320 513d e79c c1bd 7aef eebd
00000090: dbfb dabc 8d63 3c3d af24 d93c c2c1 94bd
000000a0: c2a4 05bd a2a8 c5bb b3b0 26bd c3c0 043d
000000b0: 1056 45bb fda3 a3bd a11e 7ebd 8ae2 b5bd
000000c0: adb2 ebbc 420f 853d 08dc 74bd 293e aa3b
000000d0: ffa1 edbd 58fb 8c3c 40ec ffbc 0b48 1abc
000000e0: ed00 d0bc ee1b c2bd 7377 efbc a841 a63d
000000f0: 6f06 9e3d 5096 b9bd 6de1 353d 660a 263d
00000100: 1a30 a0bc 33cc f03a 465e 22bd 0d53 d8bc
00000110: b2dd 9d3b 480c cabd a984 e63c 7ef4 9cbd
00000120: 26ed b6bc 51a6 29bd 4f44 e6bd 37da f3bc
00000130: 9410 e8bd 5a28 19bc d534 cbbd ca2e edbd
-0.049155843 0.06911301 -0.052744467 -0.046966586 -0.05279754 -0.13160937 -0.072200075 -0.05328921
0.0009222541 -0.08865911 -0.007935713 -0.04269061 0.0014528045 0.001216342 0.01690724 0.057851702
-0.015406393 0.05114732 -0.025899826 -5.6244724e-05 -0.11137342 -0.065153025 0.013607404 -0.00060730916
-0.03738789 -0.11852322 -0.032376327 0.031015862 0.017185003 -0.03698357 -0.115886144 -0.012456587
0.022610636 0.051056456 -0.09453755 -0.1166677 -0.026731422 0.045993377 0.02650675 -0.07263519
-0.03262783 -0.0060320655 -0.040695857 0.032410394 -0.0030111112 -0.07990263 -0.06204093 -0.088810995
-0.028771723 0.06497051 -0.05978015 0.0051953983 -0.11603164 0.017209694 -0.031240582 -0.00941659
-0.025391066 -0.094779834 -0.029231763 0.08117992 0.07716071 -0.09061873 0.044404436 0.04053726
-0.019554187 0.0018371403 -0.039640687 -0.02640679 0.004817688 -0.09865624 0.02813943 -0.07663821
-0.022329878 -0.041418377 -0.112434976 -0.029767139 -0.11331287 -0.0093479995 -0.09922186 -0.1158119

layers.6.weight f4 [64, 80]
00000000: bb48 f73d 93eb dabd 0d9b 29bc f8df 8abc
00000010: 1159 cb3d 5947 dcbc b7a8 8b3c c6ef 9a3c
00000020: 596a 78bb 55eb 173c f90c 1e3e 01c5 20bd
00000030: 1475 763d 6213 95bc 2e92 263e 53aa 1bbe
00000040: d9f1 713d d368 15be a7c7 263c b2a1 323e
00000050: d87f ae3c 33f2 84bd bc53 2fbd 6abf 24bd
00000060: 94b1 313c a1b1 d1bb 3c5e 75bc c45e 2cbd
00000070: aea1 a4bc 4018 bcbd 4d79 313e 762f 2f3e
00000080: 3d5d f4bd 8f4a 0bbe 304a c73b 47e0 c2bc
00000090: b6b7 643d 464d 0cbe 8374 b13d 1bf5 743c
000000a0: 7a16 653d dd00 e7bc 2bad dd3d caac 7a3c
000000b0: ebe3 b9bd 4e53 20bd 7298 96bd e94c e83d
000000c0: 2efb cf3d ab38 13be 660d 553d 5ec8 37bd
000000d0: b2cc a03d 74c9 a7bc 872a 71bd dafb dcbd
000000e0: fc36 643d 4c83 8b3d 092f 59bd 3f1d 57bd
000000f0: 489a 07be 2516 ca3d ae6e 0ebd d5c3 e13d
00000100: 0000 853d 4025 d2bd 72cb 14bd f761 1a3e
00000110: 528f 7c3c 8944 103e 4fd7 453d a68d d03d
00000120: 68a2 d5bd e891 71bc 0030 f33d b915 d83d
00000130: 32ed 253e e993 af3d 0189 313d 8b53 04bd
00000140: 6fe0 1d3e 58d1 50be b832 82bd a730 cdbd
00000150: 92ef 283e 2f0d eabb 7cb1 fcbc 59fa 283e
00000160: 1107 09bd 6b18 b23d 1d66 f13c e52f 5e3d
00000170: 40ef 3ebd e5ff 61bd b202 b6ba 9788 0dbe
00000180: 22cd 4f3d 07f3 17be 34b2 a63d bb4a 71bc
00000190: c5ec fdbc cee8 aa3d 53f0 efbc 94f6 4fbd
000001a0: 6cbe bc3d 1fe1 d4ba f619 db3d fbec d6bd
000001b0: 1521 c63d 2e52 29be c2d6 2e3d 6ded 743c
000001c0: 972b 55bc 8e76 30bd 996e 5ebb 1d97 0a3e
000001d0: 02e4 85bc 364f d3bd 8759 003d b88b 5b3d
000001e0: 0cf9 96bc 446e 6ebb 1e26 2b3e 539f 1fbe
000001f0: 57d6 14be e0e0 d1bd f104 08be 1920 c63d
00000200: b705 063e 5863 91bd 9404 aebc fb28 cebd
00000210: ec32 81bd 3baf 03be 5533 1dbd cdf0 f2bd
00000220: 9dce b03d 0e95 14bc 0a6e 34bd 740d eebd
00000230: 3038 1bbe 09ae 97bb e10e b23b 69ac 1e3e
00000240: 668b 36bd 9b6c e1bd 361b e63c 3435 8e3d
00000250: 3c98 0bbe ed26 e33d 18f4 8d3c 01ef c43d
00000260: 997e 5fbd 9fbf 673d c572 123e d57f afbc
00000270: 5e0e 0d3e 7aab 4a3c 8360 bf3d 4411 e2bc
00000280: b090 6e3a c2de ec3b 18c8 88bd 437c babd
00000290: 9639 6f3d 5702 303d d305 33bb 0e60 fa3a
000002a0: 0ed5 4fbd 03ad 223b 1aa3 dc3d 5e35 e33c
000002b0: df09 e03d f16c 313c d192 5dbd 0b8c fcbc
000002c0: b848 683d 2a85 a4bd a6fd 553d f733 3cbd
000002d0: 22f3 0a3e f81a 81bd 21ae 9fbd 1960 c53c
000002e0: b727 673d 7705 8d3d 7b47 753d fdf6 ef3d
000002f0: d37b 613d d4f1 ddba 0886 00bd 2fbe 1ebd
00000300: 476b c4bd a008 e3bd 7637 793d d5e1 3b3d
00000310: 3180 05bb 27a9 4cbd ab4b fb3d 65b1 bfbd
00000320: e87b 083b 203c bbbd b8e2 293c 5d8e d2bd
00000330: 5475 45bd 3c01 6e3d 365b d8bd 5d90 583d
00000340: 179d c73d 4844 433c c611 a83d 2788 0bbe
00000350: 921a 93ba a70c 78bd 3e81 b4bd 0f15 1cbe
00000360: 8701 9c3d 8522 393e 6333 c63c 14dd 183d
00000370: 9c63 0cbe 32f5 a73d 324f 73bd 1eab 3fbd
00000380: e8d9 5f3a 93d9 08bd 55d3 1e3d 2b86 953d
00000390: 132b 71bc e331 383d 5019 db3d 7c09 873d
000003a0: aae7 e4bd f4e2 9bbb 29ee 0a3d d235 673c
000003b0: a34b 5f3d ad54 a6ba 42eb e73d 6f6d eb3d
000003c0: 3a1d 9b3d 04c3 f6bd 663c 903d 4d81 6cbd
000003d0: c84d a6bc 725a 91bd 6da2 9ebb fb1c e63d
000003e0: 2f7e 423d 00bb c83d 2a90 293c 0c6b c73d
000003f0: bd4d ddbc 3fb1 bbbd fde2 223e 159e cebd
0.12074419 -0.106894635 -0.010351908 -0.0169525 0.099290974 -0.02688949 0.017048223 0.018913161
-0.0037905185 0.009272416 0.15434636 -0.039250378 0.06017025 -0.018197719 0.162667 -0.15201692
0.059068535 -0.14590769 0.010179437 0.17444494 0.021301195 -0.06491508 -0.042804465 -0.04022161
0.010845561 -0.006399349 -0.0149760805 -0.042082563 -0.020096626 -0.09184313 0.17331429 0.17107949
-0.11931846 -0.1360266 0.006081842 -0.023788584 0.055839263 -0.13701352 0.08664801 0.014951016
0.05592964 -0.028198654 0.10824045 0.015299985 -0.09076675 -0.039141946 -0.073532954 0.113427944
0.101553306 -0.14377086 0.05201473 -0.04486882 0.078515425 -0.020481803 -0.058878448 -0.107902244
0.0557165 0.06812152 -0.05302337 -0.052518126 -0.13242447 0.09867505 -0.03477352 0.1102368
0.064941406 -0.10261011 -0.036326833 0.15076433 0.01541503 0.14088644 0.048301037 0.10183267
-0.10431367 -0.014744259 0.1187439 0.10551018 0.16203764 0.085731335 0.043343548 -0.032306235
0.15417646 -0.20392358 -0.0635733 -0.10019045 0.16497639 -0.007142685 -0.03084635 0.1650175
-0.033454005 0.086960636 0.029467637 0.054244895 -0.046614885 -0.05517568 -0.0013886301 -0.13821636
0.05073274 -0.14838801 0.08139458 -0.01472729 -0.03099669 0.08345185 -0.0292894 -0.050772265
0.092160076 -0.0016241408 0.10698311 -0.10494419 0.09674279 -0.16535255 0.042685278 0.014949185
-0.013010881 -0.043081813 -0.0033940433 0.13534208 -0.016344074 -0.10317843 0.03133538 0.053600043
-0.018429302 -0.0036381641 0.1671376 -0.15588121 -0.14534889 -0.102479696 -0.13283135 0.09674091
0.13088118 -0.070990264 -0.021242417 -0.1006641 -0.06308541 -0.12859814 -0.038379032 -0.11862335
0.08633158 -0.0090687405 -0.044050254 -0.1162366 -0.15158153 -0.004628901 0.0054339026 0.15495457
-0.044566534 -0.11007043 0.028089147 0.069437414 -0.13632292 0.11091409 0.017328307 0.09615899
-0.054564092 0.05657923 0.14301594 -0.02142326 0.13775012 0.012369985 0.0934458 -0.027596124
0.00091005396 0.0072287032 -0.0667879 -0.09105732 0.058404528 0.04297098 -0.0027316704 0.0019102113
-0.050740294 0.0024822361 0.10773297 0.027735408 0.10939383 0.010829196 -0.054095093 -0.030828496
0.056709975 -0.080332115 0.05224385 -0.045947995 0.1356931 -0.06303972 -0.07796884 0.024093674
0.05643436 0.06885808 0.059882622 0.11717031 0.05504973 -0.0016933032 -0.031377822 -0.038755592
-0.09590774 -0.110856295 0.060843907 0.045869667 -0.0020370597 -0.049966004 0.12270292 -0.09360007
0.0020825807 -0.09142327 0.010368995 -0.1028106 -0.048207596 0.058106646 -0.10564272 0.05287205
0.097467594 0.011918135 0.08206515 -0.13626157 -0.0011223129 -0.06055894 -0.088137135 -0.15242408
0.07617479 0.18079574 0.024194425 0.03732021 -0.13709873 0.08201064 -0.0594017 -0.04679405
0.00085392455 -0.03341062 0.03877576 0.07300981 -0.014719742 0.04496945 0.10698187 0.06593606
-0.11176999 -0.0047572795 0.033918533 0.014111953 0.054515492 -0.001269003 0.11324169 0.11495482
0.07573934 -0.12048915 0.0704277 -0.0577405 -0.02030076 -0.07097329 -0.00484114 0.11235996
0.04748362 0.098012924 0.010349313 0.097372144 -0.027014608 -0.091646664 0.15906902 -0.100887455

layers.6.bias f4 [64]
00000000: faa0 9b3d 094a 153e 3a60 cabd 8691 883d
00000010: 0453 00be c095 3ebe 67af 653d 3f27 5f3d
00000020: 7401 963d 5478 b73d ce05 813d 2fd4 213c
00000030: 7ee9 353e ad11 dd3b b30e f53d ecec 753d
00000040: 429b 093c f050 d4bd e43d 193e fc07 4dbd
00000050: 7456 983d 4e9d d13d f3e4 e9bd ebe7 803d
00000060: 25f9 c03d 92b6 b2bd 9bb2 1dbd 7358 12be
00000070: 1ed8 973d 3c8b 0a3e 13c8 15be e273 3dbe
00000080: af04 223e 5789 303e b194 163d f949 33bd
00000090: 7730 9f3b a693 293e 23ac 3d3d 9fe8 843d
000000a0: 413b 4a3d 885e 1d3e 01a9 fc3d 7bc4 243c
000000b0: 966d 963d 7b0e 413e d578 353d f5a8 1abe
000000c0: 5619 dd3c b4f7 c4bd 6e39 123e f8e0 98bd
000000d0: 6180 8e3d 0695 d8bc 036a 20bd 297d ba3d
000000e0: 1bd0 903c 4ad0 aa3d 4aab 053e 5a99 11bc
000000f0: f730 ae3d 036b bc3d 18da 75bd 2590 37be
0.07599063 0.14579023 -0.09881635 0.066683814 -0.12531668 -0.18611813 0.05607548 0.054480787
0.07324496 0.08958498 0.06299935 0.009877249 0.17764851 0.006746492 0.11965694 0.0600404
0.008398833 -0.10367 0.14965016 -0.050056443 0.074383646 0.102350816 -0.11420622 0.06294235
0.094225205 -0.08726229 -0.03850041 -0.14291553 0.07414268 0.13529676 -0.14627104 -0.18501237
0.15822099 0.17239891 0.036762897 -0.043771718 0.0048580724 0.1656023 0.04630674 0.064896815
0.049372915 0.15368092 0.123369224 0.01005661 0.073451206 0.1885318 0.044304688 -0.15103514
0.02698962 -0.09617558 0.1427972 -0.074647844 0.0695808 -0.026438247 -0.0391636 0.09105904
0.017677357 0.08340509 0.13053623 -0.0088866595 0.08505433 0.09200098 -0.060022444 -0.1792608

layers.8.weight f4 [1, 64]
00000000: e9af a6bd 222d e0bd 1fe3 35bd 9b84 e8bd
00000010: ebd7 a6bd db4a 0fbc 2234 eb3d 62cd 863d
00000020: 6cd2 cd3d 43fb da3d 68e4 79bd 3838 89bc
00000030: 388d 073e fba6 b3bd e366 153e 943a d83d
00000040: a2b1 dc3d 49a5 473d 8bb2 f6bd 7ba0 183d
00000050: ae9b 18be 4c12 823d 78f6 08bd 4766 4a3d
00000060: aa51 a83d 3493 503d 0cbf f93d 7827 b1bc
00000070: e93a 19be d17c aebd ccd1 ff3c 1a50 9dbc
00000080: 4736 09be 94fb 12be b012 103e b64f f73c
00000090: 9cee e3bd 6e52 4d3e 3829 1a3e 7b36 01be
000000a0: cea1 b7bd a4ff 103e 9129 3c3e 4a68 87bc
000000b0: fa94 e53d 3bd1 403e b201 58bd 18d7 39bc
000000c0: eb50 d43d 1b2c 19bd ac50 c63d 6fe6 febc
000000d0: a69d df3d f01c 80bc 1b05 85bd 996f 68bd
000000e0: 22a2 d2bb e67a 063e 260b 0dbe 2820 90bd
000000f0: 9de6 fbbd c9cd a8bd 7693 a23d 9bf4 96bc
-0.08139021 -0.109461084 -0.044406053 -0.113534175 -0.08146652 -0.008745874 0.11484553 0.065821424
0.100499004 0.106924556 -0.06100884 -0.01675044 0.13237464 -0.08772083 0.1459003 0.10558048
0.10776068 0.048741613 -0.12045773 0.03726242 -0.14903137 0.06351146 -0.033438176 0.049413946
0.08218701 0.050921634 0.121946424 -0.021625265 -0.14963879 -0.085199006 0.031227969 -0.019203234
-0.13399611 -0.14353782 0.14069629 0.030189376 -0.111294955 0.20050976 0.15054786 -0.12618439
-0.08966409 0.14160019 0.18375231 -0.016529221 0.11210056 0.18829815 -0.05273599 -0.011342786
0.103669964 -0.037395578 0.09683356 -0.031115739 0.10918741 -0.015638798 -0.064951144 -0.056747053
-0.006428019 0.1313282 -0.13773784 -0.07037383 -0.12299845 -0.082423754 0.07938282 -0.018427184
