flwr-mlp/models/checkpoints/round_010.pt (torch, 127593 bytes, 7 tensors)

layers.0.weight f4 [256, 19]
000000 8e 31 89 bd c8 7a 16 be a4 ce 9b 3c cf 4c 45 be
       -0.06698905 -0.14695275 0.019019432 -0.19267581
000010 bd d5 ef 3c 4e 20 03 be fa e5 a4 bd 6b af 47 be
       0.029276723 -0.12805292 -0.08051677 -0.1950051
000020 23 e6 28 3e ee 6c 01 be b6 24 2e 3d 64 88 26 3e
       0.1649404 -0.1263921 0.04251548 0.16262966
000030 b0 68 16 bd e4 85 12 be c1 82 44 3e bb fd 15 bd
       -0.03672093 -0.14308888 0.19190504 -0.03661893
000040 07 04 05 be a6 a6 62 3d 79 f9 45 be 5f 31 3c be
       -0.12989818 0.05533471 -0.19333448 -0.18378209
000050 02 f0 19 bd a9 3e c0 3d 2a c1 ce 3a c7 0d 97 bd
       -0.037582405 0.093869515 0.001577412 -0.07375675
000060 da 6f c0 bc 9b f7 42 3e 21 43 5f be d0 25 ce 3d
       -0.023490835 0.19039766 -0.21802951 0.10065806
000070 49 07 28 bc 9b 9b 0a 3e fa 30 11 3e a3 47 ff bd
       -0.010255643 0.13535921 0.1417884 -0.124648355
000080 17 71 5f bd f9 36 89 3d f8 57 a3 bd 68 96 fb 3d
       -0.05455121 0.06699938 -0.07975763 0.12284547
000090 00 d1 2f 3e 60 d2 00 bd da d9 b8 3d 66 01 f5 3d
       0.17169571 -0.03145063 0.09025927 0.11963157
0000a0 1a 40 48 bc 36 af 11 be c3 10 77 3d 8e 8e 8a bd
       -0.012222314 -0.14226994 0.06031872 -0.067654714
0000b0 90 d7 d3 3d e5 36 6f be 53 e7 01 3d 9a 0f 73 3e
       0.1034385 -0.23360784 0.03171475 0.2373642
0000c0 ce 5d 1a 3e f2 18 82 bd 66 73 84 3d 55 ba 1c 3e
       0.15074846 -0.06352414 0.06467323 0.15305455
0000d0 5f 31 01 3e 78 99 ec bb 0d 3d 50 3d 08 7c 11 3e
       0.1261649 -0.0072204433 0.050839473 0.1420747
0000e0 e1 d0 d3 bd d2 f4 87 3e c6 e1 6e bd 07 f6 47 3d
       -0.10342575 0.2655397 -0.058320783 0.048818614
0000f0 40 3d bf 3d 2d 34 9a bd 19 21 5c be 49 69 53 be
       0.093378544 -0.07529483 -0.21497001 -0.20645632
000100 a3 b8 6d 3e 1f cb 23 bd 77 42 72 3c 5d 2b 3f 3e
       0.23214965 -0.039988633 0.014786354 0.18668886
000110 a9 eb e9 bd 29 5b b9 bd d2 0b 9b 3d 07 97 13 be
       -0.11421902 -0.090505905 0.07570614 -0.14413081
000120 1f 40 b9 bd 3c de 49 bd 7c 61 5e 3d f6 1f 14 3e
       -0.09045433 -0.049284205 0.054292187 0.14465317
000130 4a 2c b9 bd 5d 5d a7 bd 06 f7 37 3e 9b 85 2d bc
       -0.090416506 -0.081721045 0.17965326 -0.010590936
000140 f1 c2 41 3e 2a 7b 2d 3e 49 4c 34 3e 31 b6 13 3e
       0.1892202 0.16941515 0.17607225 0.1442497
000150 9f 33 3c 3e 90 39 0b bc bb b8 0c be a4 0e d4 bd
       0.18379067 -0.008497611 -0.13742344 -0.10354355
000160 e9 25 4e be cf a1 25 bd 6d f1 e4 bd 0d b8 cd 3d
       -0.20131649 -0.040437516 -0.11178861 0.100448705
000170 b7 32 4a bd e4 0f 3f bd 73 83 29 be d2 17 80 3d
       -0.04936477 -0.046646014 -0.1655405 0.06254543
000180 b4 a1 17 3e d1 1a a8 bd ac 6e 3e 3e 02 8f 05 3e
       0.14807779 -0.0820824 0.18596905 0.13042834
000190 d6 7e 64 be d0 19 00 3e 9f da 6b 3e ab c2 bc bd
       -0.22314009 0.12509847 0.23032616 -0.092168175
0001a0 ff 08 3c be de d5 b6 3d bb a7 8a be 59 a1 26 3d
       -0.18362807 0.08927511 -0.27081093 0.040681217
0001b0 97 66 34 3e 82 2f 2d 3e fa bc 95 3b e3 73 08 3e
       0.1761726 0.16912654 0.004569647 0.13325457
0001c0 2e 38 d8 bc a5 65 6d be 7c 04 de 3d 3e bc 3c 3e
       -0.026393976 -0.23183306 0.10840699 0.18431184
0001d0 5f 5f f7 3d 19 89 36 3c 85 20 fd bd 9e eb b3 bd
       0.120787375 0.011141085 -0.12359718 -0.08785175
0001e0 2c c3 1a be fc 3d 2f be d2 e9 2e be e3 60 76 3e
       -0.15113515 -0.17113489 -0.17081383 0.24060397
0001f0 85 c2 55 be 5b 8d cd bd 5f f7 5a 3d 26 a5 05 be
       -0.20874985 -0.10036727 0.053458568 -0.1305128
000200 36 aa 06 3e c5 9f f3 bd fe bd 46 3c 40 90 50 bd
       0.13150868 -0.11895708 0.012130259 -0.050918818
000210 3e 5e ef ba b7 44 27 3e fc a5 39 be 80 f0 25 bd
       -0.0018262339 0.16334806 -0.18129724 -0.04051256
000220 2c 21 07 be a3 cc f9 3c f9 d9 c7 bc 79 ed 35 be
       -0.13196248 0.030493086 -0.02439593 -0.1776637
000230 5c a6 d0 bd b9 c2 5a bd 36 81 9a bd 65 6c 00 3d
       -0.101879805 -0.05340836 -0.07544176 0.031353373
000240 ce bf 57 3d bc ea 4f 3e 77 37 1a 3e cf 58 96 bc
       0.052673154 0.20304388 0.1506022 -0.018352894
000250 33 81 86 bd 61 03 72 be b7 04 62 bc 53 34 f6 bc
       -0.065676115 -0.23634101 -0.013795069 -0.030054247
000260 b9 87 29 bd 28 93 a7 3d b4 cd a8 3d fc d7 53 bd
       -0.0413892 0.08182365 0.0824236 -0.05171965
000270 f3 c2 fd 3d 78 4f 70 3e e2 88 13 3e fb 79 19 3e
       0.12390699 0.23467815 0.14407685 0.14987938
000280 95 9a 66 3e 2f 28 50 3d 11 e6 c5 bd 56 4c 88 3e
       0.22519906 0.050819572 -0.09663022 0.2662074
000290 6f da 75 be 38 f8 07 3e ec 8e 0d 3d 3d d6 c7 3d
       -0.24009107 0.13278282 0.03456013 0.097576596
0002a0 66 45 68 3c 03 68 32 be b2 0f 3c be 4a e2 6b 3e
       0.014176702 -0.1742249 -0.18365362 0.23035541
0002b0 0e 3f 2e bc 48 e6 14 bd c7 03 82 bd 34 28 42 3e
       -0.010635151 -0.036352426 -0.06348377 0.18960649
0002c0 27 67 e8 bd 40 5c d4 bc 41 73 4b 3e ba 67 29 3e
       -0.113478 -0.025922894 0.19868185 0.16543475
0002d0 64 be 67 bd 14 74 e2 bc 6e 71 7e bc 50 16 19 3e
       -0.056578055 -0.027643241 -0.015529973 0.14949918
0002e0 c4 86 15 3d 07 f8 ff 3d 3d db b4 bb 7c 42 e7 3d
       0.036505476 0.12498479 -0.0055192993 0.11291978
0002f0 bb dd d2 3d 9e 3f c4 3b 6d 66 96 bd 60 24 bc 3c
       0.10296198 0.005989029 -0.07343755 0.022966564
000300 dd dc f5 3d 69 b4 ab 3d c8 3b 5b bd 10 9c df 3d
       0.12005017 0.0838402 -0.05352381 0.109184384
000310 1e 0c dd bd ed 7b 1a 3e 64 d1 13 3e 1a 50 92 be
       -0.10793327 0.15086336 0.14435345 -0.28576738
000320 cc 09 6e be 7d e4 dc bc 68 56 bb bd a5 8d 21 be
       -0.23245925 -0.02696442 -0.0914734 -0.1577669
000330 5b 66 d7 bd b8 de 21 3e d9 30 2a 3e 52 3e fc 3d
       -0.1051757 0.15807617 0.16620196 0.12316574
000340 c4 36 44 3c e5 f9 6c 3e 26 9e d8 bd 6a 69 23 3c
       0.011975948 0.23142202 -0.105770394 0.009973863
000350 a8 ad 37 3e 8b db 54 be 83 e3 b8 3d d8 f9 78 be
       0.17937338 -0.20786874 0.090277694 -0.24314058
000360 79 00 dc 3d d1 10 52 3e e0 ea 1e 3e 7e 9c 24 3e
       0.10742278 0.20514227 0.15519285 0.16075322
000370 b6 7a 48 be 63 42 f3 3c af 64 2c be 62 21 b8 3b
       -0.1957806 0.029694742 -0.16835283 0.005619214
000380 5c fa 58 39 91 bc 70 bd c1 30 2d 3e 8e 10 44 3d
       0.00020692631 -0.05877358 0.1691313 0.04786735
000390 8d 90 dd bd 2a 2b 5c 3e ae 96 55 bd 8b 85 4e bc
       -0.108185865 0.21500841 -0.052145652 -0.012605081
0003a0 cd a0 b9 3d df 3f 5f 3b bd 23 41 be be ad 95 bd
       0.090638734 0.003406517 -0.1886129 -0.07308529
0003b0 f5 53 6c be 4f 18 97 3e 3d 2c 5c be 74 11 8a bc
       -0.23078902 0.29510733 -0.2150125 -0.016854025
0003c0 52 a9 1e 3e f9 05 be 3c 47 11 cb 3b d0 22 c9 3d
       0.15494278 0.023196207 0.006197128 0.09821093
0003d0 61 af 6c be bd e7 0d 3d 1e 20 29 3d 21 9e b6 bd
       -0.23113777 0.03464483 0.041290395 -0.089168794
0003e0 8a b4 cd bd 31 71 ff 3c b2 17 d5 39 92 31 df 3d
       -0.10044201 0.031181904 0.0004064418 0.10898127
0003f0 36 02 29 be a2 df ad 3d 3a 01 02 3e af e9 23 be
       -0.1650475 0.0848992 0.1269578 -0.16007112

layers.0.bias f4 [256]
000000 46 cf 7a 3d af 2d 79 bc cd 23 4e be a6 9e 5c be
       0.061232828 -0.015208646 -0.20130844 -0.21544895
000010 47 a0 39 be fc e1 d7 bd 4b 70 e4 3b ed 57 db bd
       -0.18127547 -0.1054115 0.006971394 -0.1071013
000020 6e 01 49 be 3a 52 2a bd 98 6b 99 3d 80 2e 62 bd
       -0.19629452 -0.041582324 0.07491225 -0.055220127
000030 b9 48 f8 3d 09 0a 96 be 33 d5 15 be c7 7a f3 bd
       0.12123246 -0.2930453 -0.1463211 -0.11888652
000040 b1 ea bd 3d f4 e4 dc 3c 98 3d b8 bd f7 84 06 be
       0.092732795 0.026964642 -0.08996123 -0.1313666
000050 5a a9 2b bd a2 af bd bd 65 d7 04 3e 01 9e f1 bd
       -0.041909553 -0.09262015 0.12972791 -0.11797715
000060 21 e3 7e bd 57 a6 c3 bd 3a 14 e3 3b b6 69 06 be
       -0.062228326 -0.09553211 0.0069299014 -0.13126263
000070 de e1 e3 ba d4 8e 6f bc 7c af 13 bc 85 bd 4b 3d
       -0.0017386039 -0.014621455 -0.009014007 0.049741287
000080 a6 e0 1b be 72 a3 32 3d c6 16 dc bd 2e 76 10 bd
       -0.15222415 0.043612905 -0.10746531 -0.035268955
000090 6c 4b 87 bc d2 55 6d bd 85 bf 14 be f1 d8 dd 3d
       -0.016515456 -0.057943173 -0.14526184 0.10832394
0000a0 1f 74 75 be 95 d4 45 be ad 3e 4f be 15 cd 3e be
       -0.23970078 -0.19319375 -0.20238753 -0.1863292
0000b0 09 34 57 be 87 46 2b be fe 5d 38 bd 89 51 13 3d
       -0.21015944 -0.16726123 -0.045011513 0.03596643
0000c0 16 8d f0 bd 5a 18 45 be 91 03 09 be 57 3a 1f bd
       -0.1174566 -0.1924757 -0.13380267 -0.038873997
0000d0 33 01 01 be 58 b9 cd bc d4 19 ff bd 72 06 48 3d
       -0.12598114 -0.025112793 -0.12456098 0.04883427
0000e0 41 60 7c be 36 9e b7 3c 74 d2 38 be d2 66 27 be
       -0.24646093 0.022414308 -0.18049031 -0.16347817
0000f0 06 e7 8f be 50 a6 37 be 86 16 c1 bd e2 a9 83 be
       -0.28105944 -0.17934537 -0.09428124 -0.25715548
000100 5c 8b 87 bd 88 f2 ec 3b 4d c4 3d be 94 b0 ac be
       -0.066183776 0.0072310604 -0.18531914 -0.33728468
000110 73 f8 76 be 08 a6 09 be 25 b0 7f be 61 a3 be 3d
       -0.24118213 -0.13442242 -0.24969538 0.09308506
000120 3c a6 64 bd 77 9c 76 be a9 ef 49 be 4a 0c 83 bd
       -0.055822596 -0.24083124 -0.1972033 -0.06398828
000130 ee 13 8a be e4 20 34 be dc 8b 2e bd 5f ac 4d 3c
       -0.2696833 -0.17590672 -0.04261385 0.0125533035
000140 c9 e8 48 3d ab 7b c7 bd 97 c6 a5 3d ce ff 12 be
       0.049050126 -0.09740385 0.08094519 -0.14355394
000150 f6 51 7c be d6 9c 46 be fb 95 13 bd cc 0c 13 3e
       -0.2464064 -0.19395766 -0.036031704 0.1436035
000160 fc 41 d7 bd ce 87 87 3d b9 43 73 be 6a ee 34 3d
       -0.105106324 0.066176996 -0.23756303 0.044172682
000170 f0 be 4f be 77 71 a1 bb 72 d0 68 be fe 8f 1e be
       -0.2028768 -0.004926856 -0.22735766 -0.15484616
000180 4e d0 7f be ab 8d 13 be ab 63 99 be de ae 81 be
       -0.24981806 -0.14409511 -0.29958853 -0.25328726
000190 44 60 aa bd fd 77 bb bd 25 a3 4a bd a0 2a 62 be
       -0.083191425 -0.09153745 -0.049471993 -0.22086573
0001a0 41 7c 6e be c1 57 53 be 23 ab 49 be 6a dc 26 be
       -0.23289587 -0.20638944 -0.1969419 -0.16295019
0001b0 27 fc 03 3d 6e 16 4f be 06 12 8a be aa 29 05 3d
       0.032222893 -0.202234 -0.26966876 0.032510437
0001c0 e0 ba d1 bd 15 0f 9a bd 88 ad 63 be 90 51 0d bd
       -0.10240722 -0.07522408 -0.22234166 -0.034501612
0001d0 ec 21 77 3d 31 28 10 bd 37 95 82 3c 56 af 25 be
       0.060335085 -0.03519458 0.015940292 -0.16180167
0001e0 e6 c9 5d be e7 a7 f8 bd 69 fa 42 be a6 23 e8 bd
       -0.2165905 -0.121414 -0.19040836 -0.113349244
0001f0 f2 f0 d6 3c bd 44 7d be f3 c3 fc 3d 58 be d2 bd
       0.026237939 -0.24733253 0.12342062 -0.102902114
000200 65 57 f1 3c 47 29 55 bd ec b0 84 3c 40 0e 4c be
       0.029460618 -0.05204132 0.016197644 -0.19927311
000210 c9 1d 8f 3d 36 15 03 be dd ea f3 3c 27 89 3b be
       0.06988103 -0.1280106 0.029775077 -0.18314038
000220 e7 96 91 3d 97 b2 93 bd 11 31 bb 3d 0a 9d 1c be
       0.071088605 -0.07211798 0.09140218 -0.1529428
000230 17 d4 e2 bd 4f 73 20 be 1c 6d c4 bd 80 97 60 3d
       -0.11075609 -0.15668987 -0.095911235 0.05483198
000240 b6 70 f3 bc 69 ae ad bd b0 b5 49 bc 1d 93 a7 3d
       -0.02971683 -0.08480532 -0.012311384 0.081823565
000250 0b 3b 7a be 65 c3 97 bd d4 6d 82 be 24 fb 89 bd
       -0.24436586 -0.074103154 -0.25474417 -0.067373544
000260 32 af 3d 3c 3d 1a b7 3d f2 6e 7e bd b6 d6 28 be
       0.011577414 0.089405514 -0.062117524 -0.16488156
000270 7b da fa bd eb 42 c8 bd a0 f4 60 bd 79 28 b0 bd
       -0.12248703 -0.097783886 -0.054920793 -0.086014695
000280 1c 71 70 be e4 68 84 bd a0 78 a9 3c d8 ea 7b bb
       -0.23480648 -0.06465319 0.020687401 -0.0038439538
000290 de b3 bc bd 90 90 0c 3d a0 67 62 be 18 d4 5c be
       -0.092139944 0.034317553 -0.22109842 -0.21565282
0002a0 a0 8e 53 bd 5a d8 59 be c5 65 83 3d f1 63 9a 3d
       -0.05164969 -0.21273938 0.064158954 0.075385936
0002b0 c6 0f 3e be 30 21 62 bd ad 59 47 be eb ff 5e be
       -0.18560705 -0.05520743 -0.19467802 -0.21777312
0002c0 21 75 8d be 6b 9b 9c bd 0c 6a 29 3c 01 93 6b bd
       -0.27628425 -0.07646831 0.010340225 -0.05751324
0002d0 ab 66 ba 3d ff a1 06 3e d9 81 85 be 73 0d 1d be
       0.091016136 0.13147734 -0.26075628 -0.15337162
0002e0 cf ed 63 3d d3 f5 6f 3d 4f 7f 3a 3c c2 ae aa bd
       0.055646714 0.058584046 0.011382892 -0.08334114
0002f0 44 27 02 be d0 dd 56 be fb c5 94 bb f9 42 c7 bd
       -0.12710291 -0.20983052 -0.0045402027 -0.09729571
000300 23 e5 29 3d 80 d5 d2 3d 6a 8e 34 be 75 7c 84 bd
       0.041478287 0.10294628 -0.17632452 -0.06469051
000310 ba 72 e4 bc a0 df 72 be e6 dd 9b bd ac b3 be bc
       -0.027886737 -0.23718119 -0.07610683 -0.023279034
000320 74 15 b7 3d 50 43 d9 3d 3d e0 36 be 11 80 39 bc
       0.08939639 0.10608542 -0.17858978 -0.011322037
000330 c9 2e 62 bd 62 b0 88 be d6 b2 7d be 85 80 2a bc
       -0.0552204 -0.2669707 -0.24775252 -0.010406618
000340 36 7c 64 3d fc 33 8d 3d ec e4 f2 bd ca da 15 be
       0.05578252 0.06894681 -0.1186007 -0.14634243
000350 57 c3 91 be 5c 8e 64 be b7 79 ae bb ed bf f0 3b
       -0.28469345 -0.22319931 -0.005324568 0.007347098
000360 74 03 20 be bb 41 76 be 0d e0 bf 3d 0b 31 51 be
       -0.15626317 -0.24048512 0.09368906 -0.20428865
000370 03 88 92 be f6 f8 a9 3c a7 20 c5 bd 90 b3 69 bd
       -0.28619394 0.020748597 -0.096253686 -0.05705601
000380 f6 0e 99 be ff fb 1c bd 08 24 32 3d 6d ee 77 bc
       -0.29894227 -0.03832626 0.043491393 -0.015132529
000390 84 30 fc bd d0 f9 50 be 59 88 42 be bd 9b 2c be
       -0.12313941 -0.20407796 -0.18997325 -0.16856284
0003a0 b8 e4 10 be 73 9c 40 be fd 5f 2e be 2e 24 ae bd
       -0.1414975 -0.1880968 -0.17028804 -0.085029945
0003b0 5e e3 51 3d 17 22 6e bd 88 af 68 be 5d 1f 80 be
       0.051242225 -0.05813798 -0.2272321 -0.25023928
0003c0 3e 7e 2f be 98 22 93 be 11 9b 5f be f7 4a 0a 3e
       -0.17138001 -0.2873733 -0.21836497 0.1350516
0003d0 fd 0e 28 be 17 d5 1f bd 6b df 29 be 2e b5 21 3d
       -0.16411968 -0.039021578 -0.16589133 0.039479427
0003e0 7b 80 78 be 3c 5c 0d 3d 2a 34 51 3d 76 98 c5 3b
       -0.24267761 0.03451179 0.05107514 0.0060301377
0003f0 7c 4a c0 3d d9 d9 96 3c d5 8f 1b be a6 9b 12 3d
       0.09389207 0.018414425 -0.15191586 0.03579297

layers.3.weight f4 [80, 256]
000000 37 13 59 bd e5 a2 59 3d 50 26 dc 3a 0b c3 a2 bc
       -0.05299684 0.053133864 0.0016796086 -0.019868394
000010 6e 3e 81 bd cd e9 97 bd 91 a4 98 3d 94 df 85 3d
       -0.06310736 -0.07417641 0.074532636 0.06536785
000020 53 32 6e 3d 85 c3 db bd f6 f4 81 bc 36 e8 3c bc
       0.05815346 -0.10730652 -0.015863877 -0.011529973
000030 5e 6c 86 3c 79 62 1c 3d 6f e3 0b 3d 28 fb 51 3d
       0.016409095 0.03817985 0.034152444 0.051264912
000040 9a 7e 42 bd 72 4a 6d bd eb a2 af 3c 56 e0 4c 3d
       -0.047484018 -0.057932325 0.02143999 0.05001863
000050 ed 66 b2 3d cc e1 f6 3c 30 c1 36 3d 5b 0e 49 3d
       0.08711038 0.030136965 0.04461783 0.049085956
000060 e8 1c cf 3d 2b 78 4f bd 20 b2 c8 3c d2 57 78 3d
       0.10112935 -0.05065171 0.024499 0.060630627
000070 62 fe 7c bd 6f b9 93 bc 6e 6b f0 3c a8 30 33 3c
       -0.061766036 -0.018032758 0.029348101 0.0109368935
000080 a2 f5 8b 3d c1 bf bb bd cf 00 88 3d 93 17 75 3d
       0.0683396 -0.091674335 0.06640779 0.059836935
000090 33 65 d5 bd 3a a1 fb bb 2e 6a 47 3d c6 3f d2 bd
       -0.10419693 -0.007679132 0.048685245 -0.1026607
0000a0 33 b2 0a 3c d6 d0 9c bd 1c 5f 9c bd bd 56 32 3d
       0.008465338 -0.0765702 -0.07635328 0.04353975
0000b0 c4 75 8a 3d 98 d3 7e bd e0 69 8a ba 39 d9 86 3d
       0.06760743 -0.06221351 -0.0010560118 0.06584401
0000c0 4e 12 4d bd a7 81 00 3d 85 e8 a5 3c 34 97 cc 3b
       -0.050066285 0.031373646 0.020252476 0.0062436108
0000d0 af 75 57 bc a5 ab 11 bd e5 8e 38 bd f5 fe 1b bc
       -0.013150617 -0.035564084 -0.04505815 -0.009521236
0000e0 c5 b5 9e 3d 21 b5 05 3d b2 80 23 bb d7 ad e2 bd
       0.077495135 0.03264344 -0.0024948535 -0.110683136
0000f0 c9 c6 fc 3d b7 f5 b2 bc c2 d0 2a 3c 9c 6f 70 3d
       0.12342603 -0.021845682 0.010425748 0.05870019
000100 fa 01 72 bd 7c 4c 9f 3b 49 a1 bd 3d 5d 09 fe 3b
       -0.059083916 0.0048614126 0.09259278 0.007752581
000110 10 72 2e 3d 10 aa 1d bd b6 69 35 3b b6 89 0e be
       0.042589247 -0.038492262 0.0027681417 -0.1391972
000120 67 b3 e2 3c cb 83 ff bc 59 d6 03 bd 9f ca 59 3d
       0.027673436 -0.031190773 -0.03218684 0.05317175
000130 14 08 d5 bd dd 5e 83 bc 9b a8 36 3d 8d 28 8f bd
       -0.104019314 -0.016036445 0.04459439 -0.06990156
000140 87 fb 68 bd c2 f7 dc 3c 1a d3 38 bc 89 d4 a7 3d
       -0.0568805 0.026973609 -0.011280799 0.08194835
000150 c2 0d a0 bd 28 c2 da 3c ac 34 d2 3d 26 5c 03 bb
       -0.07815124 0.026703909 0.102639526 -0.0020043938
000160 26 09 ba 3c e3 d9 89 3c 80 40 cd 3c 1f 05 8e 3d
       0.02270944 0.01682753 0.02505517 0.069345705
000170 5d 49 6d bd 3e b6 2f bd a1 61 eb bb 2c 95 42 bc
       -0.057931293 -0.04289841 -0.007183269 -0.011876386
000180 92 5c 1c 3c 70 2f c3 ba 47 d0 3b bd b7 28 30 3c
       0.009543555 -0.0014891457 -0.045852926 0.010751895
000190 c2 6c ad bd 35 8b 1b bd d9 18 f4 3c 70 c8 8b bd
       -0.084680095 -0.037974555 0.029797005 -0.0682534
0001a0 97 3a b4 bd 22 19 9e 3c 01 a4 d3 3d fd 52 91 3c
       -0.088002376 0.019299094 0.10334016 0.017739767
0001b0 f4 4e 45 bd 4b 48 80 3d f9 2c 3e 3c a9 39 6e bc
       -0.048171 0.06263789 0.011607402 -0.014540114
0001c0 78 87 eb 3c b1 ae 7d 3d 5e 60 b2 bd 0d 86 0f bd
       0.02875112 0.061934177 -0.08709787 -0.03503995
0001d0 31 ac a7 bd 5a 90 9c 3b 3e 77 a7 bb 3d 07 5f bd
       -0.0818714 0.0047779502 -0.0051106503 -0.054450262
0001e0 26 7a 27 3d 07 6a 40 3d f9 44 92 3d be 04 33 3c
       0.040887974 0.046976116 0.07142062 0.010926424
0001f0 86 87 3c 3c bf 32 c0 3b 7e f3 ae bc a3 8a 9f 3d
       0.011506921 0.0058654244 -0.02135634 0.07790115
000200 f5 c0 21 bd fe c8 a1 3c 0b 28 84 bc 80 a5 0c 3e
       -0.03949066 0.01974916 -0.016132375 0.13735008
000210 9f dd ba bd 49 51 d0 bd a9 5e 36 bd e2 64 54 bc
       -0.09124302 -0.10171754 -0.04452387 -0.012963505
000220 88 5b 87 bd 64 79 95 3d 74 e2 2f bc a6 f6 af 3c
       -0.06609255 0.07298544 -0.010735143 0.021479916
000230 99 b8 54 bd 2f cb 5a 3c 7d f8 9f bc 28 17 2c 3d
       -0.05193386 0.013354107 -0.019527668 0.04201427
000240 35 32 35 3c 67 89 09 bd 36 53 dc bd 68 41 02 bd
       0.011059334 -0.033578303 -0.10758059 -0.031800658
000250 35 80 10 3e 64 d7 27 3d 05 70 35 bd b4 9e be bc
       0.14111407 0.040976897 -0.044296283 -0.023269035
000260 b8 41 a3 bc 66 a0 78 3c 6c fd 85 bc cd 4e 81 3d
       -0.019928798 0.015174961 -0.016356193 0.06313858
000270 be e3 38 bd 7e 01 e9 bb 7e b5 2a bb a6 0d 30 bd
       -0.045139067 -0.0071107736 -0.002604812 -0.042981766
000280 f5 ee 08 3e e5 a6 a2 3d ba ba 7b 3c 95 d3 ce 3c
       0.13372405 0.07941989 0.015364343 0.025247375
000290 b7 cb 25 bd 58 a1 28 bd 21 fa b9 ba ca d1 9e 3a
       -0.04047748 -0.041169494 -0.0014188924 0.0012116965
0002a0 8f 81 34 3d 33 b3 72 3d 93 ed 48 bc 72 76 79 bb
       0.04406887 0.05925293 -0.012263673 -0.0038064984
0002b0 7e 5f aa 3d d3 72 0a bc a3 cc bc 3d 93 0e 09 bd
       0.08318995 -0.008450228 0.09218719 -0.033461165
0002c0 23 17 5b bd 5f bf 21 3d 81 70 bb 3d 3d 37 23 bd
       -0.05348886 0.039489146 0.09152318 -0.0398476
0002d0 9a 91 86 bd 7a 2d 1f 3d e2 2d 55 3d a6 71 d5 3c
       -0.0657074 0.03886173 0.05204571 0.026055168
0002e0 cd b2 61 bc 4f ba 05 3d 9a 46 9e bd 56 c7 91 3d
       -0.01377554 0.03264838 -0.0772831 0.071180984
0002f0 ab 70 a2 3c f2 87 2a bd 24 58 02 bc f1 b5 87 bd
       0.019829115 -0.041633554 -0.007955585 -0.066264994
000300 d6 e4 da 3c a3 e0 6e bd ca 87 34 3d f5 f4 37 3b
       0.026720446 -0.0583197 0.04407481 0.002806959
000310 b9 0b 9f 3d 76 83 75 bb cc 99 63 3d 74 93 8d bc
       0.07765908 -0.003746239 0.055566594 -0.017282225
000320 bc 1e 84 bd 0e 5a c1 3d 12 ad 7f bc e8 a6 07 bd
       -0.064511746 0.09441005 -0.015605228 -0.03311816
000330 23 83 f6 3c fc 3f a1 3c 19 40 b5 3d 08 d8 b3 b9
       0.030091828 0.01968383 0.08850116 -0.00034302496
000340 27 fd 90 bc 52 0c 83 bc f3 59 87 bd e6 94 eb 3a
       -0.017698837 -0.015997086 -0.06608953 0.0017973452
000350 4b 18 c3 3c cf 5a 13 3d d2 c9 a9 3d f7 bf b1 3b
       0.023815295 0.035975274 0.08290447 0.0054244953
000360 f5 ef e8 3c e8 d3 5e 3d c5 eb 0d 3b 1a 37 2f bc
       0.028434733 0.05440131 0.0021655422 -0.01069429
000370 df f1 5e bd 5c da 4f bd c9 3c 65 bd 6f aa 18 3d
       -0.054429885 -0.050745353 -0.055966172 0.037271913
000380 b5 32 ce 3d 4b 07 4b bd 46 7a 27 bd d3 70 83 3d
       0.10068265 -0.049567502 -0.040888093 0.06418004
000390 01 54 94 3d d1 cd 8a ba 9d cc ed 3c 9b 6c 40 3d
       0.07242585 -0.0010589903 0.029028231 0.046978574
0003a0 e9 09 ea 3c f8 eb 09 3e 5f c9 11 3d 06 7d 65 bd
       0.028569179 0.13468921 0.035592433 -0.056027435
0003b0 c2 eb 2c 3c 50 20 25 3c da 77 77 bc 07 6c b6 3d
       0.010554256 0.010078505 -0.015104258 0.08907323
0003c0 93 f4 ae bc 57 99 b5 bd 9e f3 5a bd 54 e9 d5 3b
       -0.021356856 -0.08867138 -0.053454988 0.006528059
0003d0 94 0d bf 3c f6 cd 84 3d 34 d0 2b 3d bc f2 b8 3c
       0.023321904 0.064845964 0.041946605 0.022576682
0003e0 13 aa 9f 3d 26 71 26 bc 09 3e 90 bc 99 7a f5 bb
       0.07796111 -0.010158813 -0.017607706 -0.0074914214
0003f0 e3 22 7b bd 38 46 a9 3c 12 0e b9 3d 86 f1 0a bd
       -0.061312567 0.020663366 0.09035887 -0.03392174

layers.3.bias f4 [80]
000000 ff 69 14 bd 27 00 87 3d 09 b6 2b bd 12 9e 40 bd
       -0.0362339 0.06591826 -0.04192165 -0.047025748
000010 a5 c9 1a bd 50 4a ec bd 91 59 99 bd 53 46 2f bd
       -0.03778996 -0.115376115 -0.074877866 -0.042791676
000020 ab 28 ed 3a 06 84 a2 bd d8 51 0e bb ff bf 43 bd
       0.0018093785 -0.07935338 -0.0021716263 -0.047790524
000030 50 fa 3b 3c 70 31 79 39 45 f1 c4 3c 0e 17 52 3d
       0.011473253 0.00023764907 0.024040828 0.051291518
000040 46 ae 64 bc 1a 3a 5a 3d 94 12 8b bc 98 bc fa 3b
       -0.013957566 0.053278066 -0.016976632 0.0076518767
000050 b5 19 cb bd 9e 0a 7f bd e4 a3 23 3c a4 99 0f bb
       -0.099170126 -0.062265985 0.009987805 -0.0021911645
000060 42 27 28 bd 5b a5 e2 bd 78 a2 c3 bc fb c3 fd 3c
       -0.041053064 -0.11066695 -0.023881182 0.03097724
000070 d1 81 40 3c e2 63 30 bd 32 66 d0 bd 37 63 8b bb
       0.011749701 -0.043064006 -0.10175742 -0.0042537707
000080 5a c7 aa 3c 06 17 55 3d 24 68 a7 bd b2 19 d4 bd
       0.020847011 0.05202391 -0.0817416 -0.103564635
000090 9e 2c 07 bd a0 fb 3d 3d 44 eb fc 3c c4 b8 93 bd
       -0.033001535 0.046382546 0.030873902 -0.072129756
0000a0 85 b3 c3 bc 1e 7e cd bb 46 75 e9 bc 27 a1 e7 3c
       -0.023889313 -0.006271138 -0.028498303 0.028275086
0000b0 fc 2d 92 bb e1 6f 9d bd fc 52 73 bd c9 02 a0 bd
       -0.004461048 -0.07687355 -0.059405312 -0.07813031
0000c0 c7 8f 90 bc 23 16 84 3d 1b f7 58 bd cf 83 6b 3b
       -0.017646683 0.06449535 -0.052970033 0.0035936718
0000d0 1a 42 d8 bd 7a 9c 56 3c 23 b9 f7 bc a5 da 6c bc
       -0.10559483 0.01309883 -0.030239647 -0.014456426
0000e0 d9 91 93 bc bb 2b b1 bd be 06 d2 bc 66 31 a3 3d
       -0.018013882 -0.08650919 -0.02563798 0.079684064
0000f0 3e 41 9a 3d 70 00 a7 bd d4 99 31 3d 2c c7 38 3d
       0.07531975 -0.0815438 0.043359593 0.04511182
000100 2d a8 2b bc 8a c1 45 ba b3 ed 17 bd 70 6f 78 bc
       -0.010477108 -0.0007543793 -0.037091922 -0.0151632875
000110 63 24 49 3b 65 f3 be bd ef b7 e9 3c dc 1a 8f bd
       0.0030691854 -0.093237676 0.02853009 -0.06987545
000120 42 a2 09 bd fc 87 1e bd d2 c4 cb bd 4f c7 84 bc
       -0.033602007 -0.038703904 -0.0994965 -0.016208319
000130 fc ce cb bd af ef 52 bb cd 84 ba bd 77 87 d4 bd
       -0.099515885 -0.003218632 -0.09107361 -0.103774

layers.6.weight f4 [64, 80]
000000 d3 f6 e9 3d 79 10 da bd 14 c9 3c bc f7 27 05 bc
       0.11424031 -0.10647673 -0.01152255 -0.008127204
000010 fb 8d c8 3d d0 48 db bc 74 1b f9 3b 04 47 53 3c
       0.097927056 -0.026768118 0.0076021496 0.012895349
000020 b1 0e 64 bb cf c4 db 3b 70 d5 1b 3e e6 5b 0a bd
       -0.0034798796 0.006706811 0.15218139 -0.033779047
000030 3b 02 5d 3d a0 89 43 bc d3 bb 1e 3e b3 7d 0b be
       0.053957205 -0.011934668 0.15501337 -0.13622169
000040 b6 f8 86 3d 13 a8 16 be 7a 61 1d bb a7 5f 29 3e
       0.065904066 -0.14712553 -0.00240144 0.16540395
000050 9c 65 86 3c 0f 17 87 bd 49 87 1c bd 0c 40 01 bd
       0.016405873 -0.06596195 -0.038214955 -0.03155522
000060 8a ac 36 3c 73 aa 84 3a d7 74 cf bc 7b c8 3a bd
       0.011149535 0.0010121599 -0.025324268 -0.04560135
000070 36 71 ae bc d3 33 8f bd 69 a7 2f 3e 51 82 29 3e
       -0.021294218 -0.069923066 0.17153706 0.16553618
000080 44 cd d9 bd 1a fc fb bd 61 bf c5 3b 71 ed c1 bc
       -0.106348544 -0.12303944 0.006034777 -0.023672791
000090 0c f0 74 3d 83 0d f9 bd a5 a5 a7 3d 80 91 48 3c
       0.05979924 -0.1216078 0.08185891 0.012241721
0000a0 0a 5c 51 3d 09 50 40 bc 37 ce c3 3d 79 7a d2 3c
       0.051113166 -0.011737832 0.09560817 0.025693165
0000b0 fc 68 96 bd 2a be b8 bc 84 a9 92 bd bc c0 e0 3d
       -0.07344243 -0.022551615 -0.07161239 0.10974261
0000c0 2a 83 d1 3d d8 83 02 be 82 78 54 3d bc 7f dd bc
       0.10230096 -0.12745607 0.051872738 -0.027038448
0000d0 8d a8 9c 3d 8b 54 88 bc 5e a0 74 bd d0 f1 ca bd
       0.07649336 -0.016641876 -0.05972325 -0.09909403
0000e0 be fd 40 3d be d3 65 3d 90 f2 5c bd a2 c5 34 bd
       0.047116987 0.056110136 -0.053942263 -0.04413379
0000f0 f2 cd f2 bd 2e 39 c2 3d d4 a9 b6 bc 45 cf da 3d
       -0.11855687 0.094835624 -0.022297777 0.10684065
000100 14 6c 7c 3d 41 49 be bd ac d7 2f bd 6c c6 15 3e
       0.06162651 -0.09291316 -0.04293029 0.14626473
000110 11 28 aa 3c ab 84 0d 3e 8a 3a 4b 3d 14 19 ca 3d
       0.020771058 0.1382014 0.049616374 0.098680645
000120 1c f2 aa bd 94 6e 2b bc f7 a1 e3 3d 8b 99 d4 3d
       -0.0834696 -0.010463376 0.11114877 0.103808485
000130 e0 7d 28 3e aa 7f a9 3d 07 e6 38 3d 23 a1 0c bd
       0.16454268 0.08276303 0.045141246 -0.03433336
000140 a2 79 16 3e e1 07 4b be 7d 20 87 bd 9e bf ca bd
       0.14694837 -0.19827224 -0.065979935 -0.09899829
000150 5f 01 26 3e 54 02 06 bc 76 94 1e bd ee cc 21 3e
       0.1621146 -0.008179266 -0.038715802 0.1580083
000160 fc 4b f9 bc 7d 91 aa 3d db 2b d3 3c ae 17 8b 3d
       -0.03043174 0.08328531 0.025777748 0.06791626
000170 b1 0e 5d bd 77 31 49 bd 6f 14 28 bc 09 64 ec bd
       -0.05396909 -0.04911944 -0.010258778 -0.11542518
000180 9c e3 62 3d 88 c2 1d be b8 ff 8a 3d b7 6d ce bc
       0.055392846 -0.15406239 0.06787056 -0.0251988
000190 fb f1 19 bd 16 06 a6 3d b2 24 ae bc ce b7 47 bd
       -0.037584286 0.081066296 -0.021257732 -0.048759274
0001a0 07 82 bc 3d ed 3f 2b 3c 6c 4d c4 3d cb 45 db bd
       0.09204488 0.010452253 0.095850796 -0.10706671
0001b0 67 55 c4 3d fb 62 16 be a4 2a 22 3d 43 27 f1 3b
       0.09586602 -0.14686196 0.039591447 0.0073594167
0001c0 fd 3d 9a 38 4b e5 0b bd 0b ed 9d bb c1 2b 0a 3e
       7.3548385e-05 -0.034154218 -0.0048195175 0.13493253
0001d0 58 3c 77 bc cc 43 b4 bd 30 2d d0 3c 95 f7 4c 3d
       -0.015090071 -0.08801994 0.025412172 0.0500408
0001e0 e0 af c7 bc f6 ea 62 3c 61 d1 1c 3e 1e 84 1c be
       -0.024375856 0.013849964 0.15314247 -0.15284774
0001f0 d1 21 0d be 8c 95 b0 bd cb 12 01 be 82 09 bc 3d
       -0.13782431 -0.08622274 -0.12604825 0.09181501
000200 84 65 05 3e 49 2e 70 bd 1c cb b9 bc f2 04 ae bd
       0.13027006 -0.05863789 -0.022679858 -0.08497037
000210 42 d2 87 bd fc e9 06 be ab c8 20 bd 80 29 d6 bd
       -0.066319 -0.13175195 -0.039253872 -0.10457134
000220 32 ce 9b 3d 52 54 b9 bc 75 69 28 bd 52 ed ea bd
       0.07607688 -0.022623215 -0.041116197 -0.114710465
000230 a1 96 13 be 56 7b 1e bc fb 53 b0 3c 0e ea 19 3e
       -0.14412929 -0.00967296 0.02152442 0.15030691
000240 57 67 47 bd 30 96 c8 bd 32 5e c5 3c 3e 6a 82 3d
       -0.048682537 -0.09794271 0.024092767 0.0636792
000250 d2 98 06 be 3c 4a db 3d 60 e8 8e 3c 8f d3 bc 3d
       -0.13144234 0.107075185 0.01744479 0.09220039
000260 d1 ea 0b bd 6d a4 83 3d d1 b9 09 3e 8d 89 c8 bc
       -0.034159485 0.06427846 0.1344979 -0.024479652
000270 10 e8 0e 3e 45 15 05 3c 15 cd c4 3d 46 c7 f7 bc
       0.13955712 0.008122747 0.09609429 -0.030246388
000280 b0 b9 37 b7 c3 b5 ea 3b 3e 74 85 bd 2a af b5 bd
       -1.0950884e-05 0.007162781 -0.06516312 -0.088713005
000290 8e 53 75 3d c7 fd 3e 3d da c8 5f bc 69 0c a1 3a
       0.059894137 0.04662874 -0.013658727 0.0012287024
0002a0 cc 98 44 bd 00 38 3b 3b 2f e3 df 3d 0a 70 d2 3c
       -0.04799728 0.0028567314 0.10932004 0.02568819
0002b0 4a 1d db 3d 96 e9 1b 3c ad 41 6e bd 5d ef 6e bc
       0.10698946 0.00951614 -0.058168102 -0.014583436
0002c0 ce 51 88 3d 09 99 93 bd f5 e8 38 3d 2b ec 4b bd
       0.06656228 -0.072069235 0.04514404 -0.049785774
0002d0 48 56 08 3e cb e2 6c bd a1 03 a3 bd 5a df 0b 3d
       0.13314164 -0.057833474 -0.079596765 0.03414855
0002e0 24 c4 6b 3d f6 a5 9d 3d 64 b9 5d 3d cd 68 eb 3d
       0.0575601 0.0769767 0.05413188 0.114945985
0002f0 3d 85 4c 3d 69 89 9f 3c a5 71 e4 bc 65 2e 29 bd
       0.049931753 0.019474702 -0.027886221 -0.04130401
000300 58 97 9d bd f2 a0 d3 bd c9 db 83 3d 47 bf 45 3d
       -0.07694882 -0.10333432 0.06438405 0.04827812
000310 b3 79 0f b9 56 fc 07 bd 67 1f 00 3e 7e 09 c7 bd
       -0.00013682879 -0.03319963 0.12511979 -0.09718607
000320 2f c4 91 3a e6 8d be bd c0 75 56 3b d3 c4 c1 bd
       0.0011121089 -0.09304409 0.0032723993 -0.09461369
000330 15 9b e8 bc 17 d8 93 3d dd be be bd 60 db 54 3d
       -0.028394261 0.0721895 -0.09313748 0.051967025
000340 a7 5c ce 3d f5 e4 9d 3c c3 25 b2 3d 4d 7d f1 bd
       0.10076266 0.019274214 0.08698609 -0.11791477
000350 4c aa d0 3a d9 e9 8f bd 2a 13 b6 bd 58 f4 14 be
       0.0015919893 -0.07027025 -0.08890374 -0.14546335
000360 5f a7 90 3d 72 3c 32 3e 3e 17 e9 3c c7 93 31 3d
       0.070631735 0.1740587 0.028453466 0.043353822
000370 83 67 00 be b2 69 a8 3d f2 87 83 bd 8c 1b 2f bd
       -0.12539487 0.08223285 -0.06422414 -0.04275088
000380 dd 40 21 3a 50 76 04 bd 60 a8 10 3d e7 05 95 3d
       0.0006151328 -0.032339394 0.035316825 0.072765164
000390 8d d8 c9 bb 2d d8 3d 3d b9 1d e6 3d 55 90 86 3d
       -0.006159848 0.04634874 0.11236138 0.06570498
0003a0 91 38 cf bd a9 50 5f bc cd 49 03 3d 42 d1 84 3c
       -0.10118211 -0.013630071 0.032052804 0.016213063
0003b0 44 ce 70 3d a8 c7 6d b9 3f 09 f8 3d 70 6e f0 3d
       0.05879046 -0.00022676459 0.121111386 0.11739814
0003c0 08 09 8c 3d 54 df e9 bd 08 26 8c 3d 1c 74 54 bd
       0.0683766 -0.114195496 0.068431914 -0.051868543
0003d0 fc 40 be bc bb df 92 bd b2 58 55 bc 30 4c d8 3d
       -0.023224346 -0.071715795 -0.013021635 0.105614066
0003e0 ad 1a 3b 3d 50 f5 c2 3d 73 88 e7 3b dd c5 e4 3d
       0.045679737 0.09519446 0.0070658266 0.11170552
0003f0 40 bc 0b bd d1 2d ba bd 41 58 1a 3e 7a a4 a0 bd
       -0.034115076 -0.0909077 0.15072729 -0.078438714

layers.6.bias f4 [64]
000000 0a b5 89 3d 8b 2d 0a 3e f7 ba b7 bd 0a fa 6e 3d
       0.067239836 0.13493936 -0.089712076 0.058343925
000010 8d 2a f2 bd 94 5e 27 be 47 d1 20 3d e5 34 2f 3d
       -0.11824522 -0.16344672 0.039262082 0.042775054
000020 a1 e6 85 3d 77 1d 95 3d 91 33 5f 3d ba 4b a2 3c
       0.065381296 0.072810106 0.054492537 0.0198115
000030 b6 f1 28 3e 15 37 17 bb 12 7b d5 3d ec de 2f 3d
       0.16498455 -0.0023073603 0.104238644 0.042937204
000040 ed 62 37 bc d9 a4 ea bd 56 18 0f 3e da ac 55 bd
       -0.011193019 -0.114572234 0.13974127 -0.052166797
000050 e2 35 87 3d db 81 c2 3d 1e c5 d5 bd b8 ee 59 3d
       0.06602074 0.09497424 -0.10437988 0.053206176
000060 d1 59 a0 3d bf 26 e3 bd 23 40 6d bd 24 9c ef bd
       0.07829631 -0.110913746 -0.057922494 -0.11699703
000070 20 19 80 3d 79 66 02 3e 78 9a 12 be 6e cb 24 be
       0.06254792 0.12734403 -0.14316738 -0.16093227
000080 d6 01 18 3e a9 3b 26 3e 25 0e 87 3c 1b 10 27 bd
       0.1484445 0.16233696 0.016486237 -0.040786844
000090 a6 c7 e1 39 1f e2 19 3e f5 f7 c8 3c ed 87 5f 3d
       0.00043064094 0.15027665 0.024532298 0.05457299
0000a0 b8 cd 2a 3d ef e7 10 3e 73 01 e0 3d 8c 09 78 3c
       0.041700095 0.14150976 0.109377764 0.015138995
0000b0 31 b1 62 3d 04 99 33 3e 94 8c 26 3d c1 62 f6 bd
       0.055344764 0.1753884 0.04066141 -0.120305546
0000c0 8b 68 9b 3b 39 de b0 bd fb c6 03 3e 08 99 86 bd
       0.004742687 -0.086361356 0.12868874 -0.06572157
0000d0 14 44 48 3d 33 28 14 bc 76 f6 25 bd 9e 68 ad 3d
       0.04889305 -0.009042787 -0.040518247 0.0846722
0000e0 84 0a 2e 3d 9a 79 83 3d 0b 45 f6 3d be af dd bb
       0.042490497 0.06419678 0.12024888 -0.006765335
0000f0 64 32 9a 3d 94 e0 a7 3d dd 5c 92 bd 31 3f 1f be
       0.075291425 0.08197132 -0.071466185 -0.1555145

layers.8.weight f4 [1, 64]
000000 05 40 a4 bd 3e 78 dc bd f9 ed 5d bd 67 72 e5 bd
       -0.08020023 -0.10765122 -0.054182027 -0.11203461
000010 b3 a7 b3 bd 1b 5c 38 bc 9b d0 db 3d 63 59 56 3d
       -0.087722205 -0.011252428 0.10733148 0.05233134
000020 39 3a 9e 3d ef 75 c6 3d 2b e5 76 bd a2 82 d0 bc
       0.07725949 0.09690463 -0.060277145 -0.025452916
000030 46 be f6 3d c9 61 b6 bd 52 d2 0a 3e bb 5e cb 3d
       0.120480105 -0.0890537 0.13556793 0.09930178
000040 38 ba c7 3d 47 7f 22 3d bb 97 f3 bd 3e 8e 9f 3c
       0.09752315 0.039672162 -0.11894175 0.019477006
000050 e2 b9 16 be 22 10 52 3d 4b dc 1f bd 5b a6 3a 3d
       -0.14719346 0.051284917 -0.039028447 0.045568805
000060 b1 be 97 3d e7 98 db 3c 3b 01 e5 3d ff 77 06 bd
       0.074094184 0.026806308 0.11181875 -0.03282928
000070 b7 a1 17 be df a5 ab bd 6e 07 f8 3c 06 da d7 bc
       -0.14807783 -0.08381247 0.03027698 -0.026349079
000080 f6 01 06 be 5b fe 0f be 1a 2f 06 3e 12 1e ed 3c
       -0.13086686 -0.14061873 0.13103905 0.028945003
000090 46 21 ea bd 88 43 42 3e 25 80 0d 3e c2 d8 00 be
       -0.11432128 0.18971074 0.13818415 -0.12582687
0000a0 24 c7 b8 bd 45 d2 06 3e 0e 07 32 3e a5 4e 15 bc
       -0.09022358 0.13166149 0.17385504 -0.009112989
0000b0 c7 d9 cd 3d bc fc 33 3e 33 50 59 bd 4a a4 a2 bc
       0.10051303 0.1757688 -0.053055 -0.01985373
0000c0 ef e7 c0 3d 5d 7a 33 bd 4b fe b8 3d 9d 97 1d bd
       0.09419238 -0.043817867 0.090328775 -0.038474668
0000d0 45 d7 d4 3d 43 4b c4 bc 5f 90 90 bd b1 a9 60 bd
       0.10392622 -0.023961669 -0.070587866 -0.05484933
0000e0 b7 c5 8a bc f4 99 fe 3d 23 ce 09 be 2d 0d 99 bd
       -0.01693998 0.12431708 -0.13457541 -0.07473216
0000f0 17 90 f7 bd c4 d3 a6 bd a2 45 84 3d ca 8d 8a bc
       -0.1208803 -0.0814586 0.06458594 -0.016913313
