flwr-mlp/models/checkpoints/round_014.pt (torch, 127593 bytes, 7 tensors)

layers.0.weight f4 [256, 19]
00000000: 2e19 73bd fb63 1bbe 45d5 f23b ea4e 75be
00000010: 28f4 183b 061a 0ebe 265f a7bd f110 49be
00000020: 19a2 313e 3498 ffbd 6591 2a3d ab15 1f3e
00000030: 5b9e f8bc 1bc1 0dbe 804a 4d3e 0140 44bd
00000040: 9fa9 0dbe 5e30 3b3d 4375 4dbe b16e 39be
00000050: 3493 15bd cbde f43d b487 fb39 7de6 aabd
00000060: 7477 adbc f72c 483e a695 56be c28b a63d
00000070: b19b 10bd 43eb 183e a1fd 113e e7c1 e7bd
00000080: c2e5 7fbd 1889 913d fc90 a8bd abaf f13d
00000090: bb51 383e 7c32 e1bc 9023 a93d 9609 e13d
000000a0: 021f 2b3b f742 0bbe 75f8 933d 02c5 86bd
000000b0: 3829 e03d 2871 69be 5961 713c 78c8 743e
000000c0: 7ad7 073e f34c 9fbd 5084 993d 46bd 1b3e
000000d0: a661 e93d 1bf2 f6bb 8b52 3d3d 107c 0c3e
000000e0: 9d1f c2bd 9daa 8c3e 4069 4dbd 2762 613d
000000f0: ed3d b83d 7aab 9ebd 6e3f 59be 1e8d 54be
00000100: c742 663e d3d6 12bd a865 0d3b 8be3 473e
00000110: 5368 e6bd c82e 9fbd 1887 8a3d 9261 09be
00000120: 0ee3 aebd 2c20 82bd f10d 5a3d 1e65 103e
00000130: 533a c8bd d640 b9bd b60a 2f3e 2267 82bb
00000140: 8feb 453e f1cc 2d3e ab80 3f3e bde1 093e
00000150: bb7a 413e 9fb7 2fbc fbe7 14be 7700 dcbd
00000160: 137d 50be 0fc5 2ebd 09bf dbbd 83c3 c83d
00000170: 0afd 45bd 69fc 47bd 5b44 2cbe 0350 863d
00000180: 0ed7 143e 6951 d5bd face 453e f88f f13d
00000190: 0aba 60be 70e5 133e 06e5 6b3e 3570 bdbd
000001a0: 3dd0 4cbe 3749 b93d 1fe3 8ebe ffa1 163d
000001b0: 81c0 313e 33b4 233e b2ed e83a 4cb6 ef3d
000001c0: 7004 d6bc 0ce8 79be e08d e23d 19ae 343e
000001d0: bd5e d23d 15df 23bb 58cd ccbd d720 b8bd
000001e0: 0f6b 16be e5e6 2dbe 40fe 40be 776b 803e
000001f0: ef1b 5cbe 8d99 c6bd 066f 3b3d 3229 04be
00000200: c532 0e3e 40f0 e3bd 142b bb3c 0fc6 4dbd
00000210: e872 593c 5e5f 253e 16fa 3bbe dd14 25bd
00000220: d206 08be 8be2 0a3d 4298 8cbc 69d5 2dbe
00000230: 1620 d4bd c414 55bd b33c 5bbd 212a bd3c
00000240: c310 583d 76f2 483e fdf2 183e 478c eebc
00000250: 5468 8dbd a6ca 79be 02ec a23a d6bc 1dbd
00000260: 2c7a 24bd cd21 b93d d0f5 b03d 7410 49bd
00000270: 5254 f23d aa04 783e 839a 003e 611d 103e
00000280: bf13 6d3e 044f 853d de50 b6bd 9e99 8d3e
00000290: 2861 84be c0e2 183e eff3 2a3d d235 b43d
000002a0: 30ee ba3c 80de 3cbe 1168 37be 8018 6d3e
000002b0: 316d b7bc a208 20bd 07ae 73bd a573 543e
000002c0: ceef ddbd 3d50 a9bc 1ab0 463e 65d2 383e
000002d0: 2e6d 7ebd 0055 c0bc feb0 a6bc aeb0 183e
000002e0: 8d32 233d 88d1 003e 921c a6bc 5864 dd3d
000002f0: c1fa d63d c1e6 993b b72b 9ebd 3cb1 b23c
00000300: 1ba9 f13d 3f0b 8b3d a5b5 6ebd cca2 d03d
00000310: 137c ddbd 0ff0 143e 9389 173e 3549 a1be
00000320: a20e 6cbe bb9e f2bc 1f34 c5bd 91fe 1bbe
00000330: 44d4 ccbd 2113 193e c247 263e fa82 eb3d
00000340: 66fc 4e3c 3417 623e a6c7 dfbd 4527 52ba
00000350: ee92 3d3e e156 56be 9ecb ae3d 0a16 80be
00000360: 0982 d33d 992b 593e 1473 1c3e 017a 263e
00000370: f394 52be cb7f f73c 301c 3abe 9c4a 4cbc
00000380: c037 0ebb 6475 8abd 204e 2e3e 2793 e33c
00000390: 03e8 cabd 28ac 623e fdf9 54bd 21ea 92bc
000003a0: 8072 b93d cd68 74bc 6eef 30be c27a 90bd
000003b0: 89d1 82be 65d1 983e 4d0a 60be 5d12 07bc
000003c0: 075a 103e 1c1b dd3c 8d7f db3b 7183 d33d
000003d0: 3408 62be ae75 043d 17f3 373d aa9d c5bd
000003e0: 1e68 c3bd 343c 8e3c fdb0 86bc d55d eb3d
000003f0: c5be 43be ddde 883d 1de8 e93d db96 21be
-0.059350185 -0.15174858 0.0074106776 -0.23955885 0.0023338888 -0.13877115 -0.08172445 -0.19635369
0.17346992 -0.12480202 0.041642565 0.1553561 -0.030348947 -0.13843195 0.2004795 -0.0479126
-0.13834237 0.045700423 -0.20064263 -0.18108632 -0.036517337 0.11956557 0.00047975557 -0.083447434
-0.021175124 0.19548403 -0.20955524 0.081321254 -0.03530473 0.14933495 0.14256908 -0.11316281
-0.062474973 0.07106227 -0.082307786 0.11801084 0.17999928 -0.027489893 0.08258736 0.109881565
0.0026111011 -0.13599764 0.07225124 -0.06580545 0.10945362 -0.22797072 0.014732682 0.23904598
0.13265792 -0.07778349 0.0749594 0.15208921 0.11395578 -0.0075361854 0.046221297 0.13719201
-0.09478686 0.27473918 -0.050149202 0.055025246 0.089961864 -0.0774755 -0.21215603 -0.20756957
0.22486411 -0.035849404 0.0021575484 0.19520395 -0.11250367 -0.07772595 0.06764048 -0.13416126
-0.08539401 -0.063537925 0.05323595 0.14101073 -0.097767495 -0.090455696 0.1709393 -0.0039795795
0.1932814 0.1697271 0.18701427 0.13465019 0.18894474 -0.010724931 -0.14541619 -0.10742276
-0.20360212 -0.0426684 -0.107297964 0.09802916 -0.04833702 -0.0488247 -0.1682295 0.0655823
0.14535162 -0.104159184 0.19317237 0.11795038 -0.21945968 0.14442992 0.23036584 -0.092499174
-0.20001312 0.09047168 -0.27907655 0.036775585 0.1735859 0.1598671 0.0017771034 0.11704692
-0.026125163 -0.24404925 0.11062217 0.17644538 0.10271976 -0.0025004793 -0.10000104 -0.08990639
-0.14689277 -0.1698261 -0.18846989 0.2508199 -0.21495031 -0.09697256 0.045760177 -0.1290634
0.13886555 -0.111298084 0.02284769 -0.05023771 0.013272025 0.16149661 -0.18357119 -0.0403031
-0.13283852 0.033907454 -0.017162446 -0.16975941 -0.103576824 -0.052021757 -0.053524684 0.023091378
0.05275036 0.19623742 0.14936443 -0.029119624 -0.06904665 -0.2439371 0.0012429955 -0.038510166
-0.040155575 0.0903965 0.08640635 -0.049087957 0.11832489 0.24220529 0.12558942 0.14073707
0.23152064 0.06509212 -0.08902143 0.27656263 -0.25855374 0.14930248 0.04173654 0.08799328
0.022818655 -0.18444252 -0.17910792 0.23153877 -0.022390934 -0.039070733 -0.059492137 0.2074724
-0.10836755 -0.020668143 0.19403115 0.18049009 -0.06211584 -0.023478031 -0.020348068 0.14911148
0.03984313 0.1257993 -0.020277295 0.10810155 0.10497046 0.0046966975 -0.07723182 0.021813028
0.117998324 0.067892544 -0.0582787 0.10187301 -0.10814681 0.145447 0.14798574 -0.31501165
-0.23052457 -0.029616704 -0.09629082 -0.15233828 -0.10001424 0.14948703 0.16238311 0.11499591
0.012633419 0.22079164 -0.10926752 -0.0008016716 0.1851308 -0.20931579 0.08534931 -0.25016814
0.103275366 0.21208037 0.15278274 0.16257478 -0.20564632 0.030212304 -0.18174815 -0.01246896
-0.002170071 -0.06760672 0.1702199 0.027780129 -0.09907534 0.22135985 -0.05199622 -0.017933907
0.09055042 -0.014917565 -0.17278835 -0.07054664 -0.25550488 0.29847255 -0.2187893 -0.008244124
0.14096843 0.026990466 0.006698555 0.10327805 -0.22073442 0.03233879 0.044909563 -0.09649213
-0.09541343 0.017362691 -0.016441816 0.114925064 -0.19115742 0.06683133 0.11421225 -0.15780203

layers.0.bias f4 [256]
00000000: fa71 233d 2af0 37bd a358 71be 8446 6fbe
00000010: bbd9 48be 84ed ebbd b8f7 e5bc 1560 0dbe
00000020: 257c 55be 1917 38bd f3cc 953d 7a55 93bd
00000030: 9b97 9e3d 3533 a2be 8745 37be 7b3f 19be
00000040: 6362 753d 6253 6f3b 60cf 07be cf6b 2dbe
00000050: 8c23 9bbd 7871 03be c73b b03d a8bf 1bbe
00000060: 9cd0 afbd 6428 f4bd 6ce4 a7bc 97d8 30be
00000070: 784a 81bc 37ab 44bd ab30 3cbd 424e 103d
00000080: fc8b 32be e483 973c 24c3 11be b1d8 84bd
00000090: 8f0a c2bc 2bff 96bd d3e0 33be a78e ad3d
000000a0: 2024 82be ac37 5ebe 4272 58be a1bd 5abe
000000b0: 1eac 5abe c97b 2fbe bb8e aabd bb5d d63c
000000c0: e09d 09be d19d 6fbe 0d5b 35be e14e a5bd
000000d0: 3f82 01be a957 37bd b9a7 07be 5eb0 573c
000000e0: 9476 90be e47b fc3a 6827 32be f162 2bbe
000000f0: 4907 a4be 4c7f 50be 50b7 efbd f7e8 91be
00000100: dcf1 81bd ad35 c1bc 6665 59be e93e b9be
00000110: 8188 8ebe 0677 2dbe ff77 8fbe 1f64 b33d
00000120: b43c aabd 1876 84be ffe0 4ebe df6c babd
00000130: 6ffe 8ebe 39cb 5dbe 97ea 84bd e2c5 c5bb
00000140: fec2 673c 9a8b 0cbe 145e e73c 0051 27be
00000150: ba79 87be d94b 63be cc9f 93bd b5d3 003e
00000160: 4e81 09be fbb0 9d3c 195b 86be 9018 63bc
00000170: b107 60be 66a1 17bd 331c 84be 3816 39be
00000180: ed9f 8cbe f950 31be 95ac abbe 31f0 8bbe
00000190: 2a33 02be 15c8 13be 1411 6fbd ebec 71be
000001a0: c9b4 75be c675 7dbe 1f6f 55be 0f0e 48be
000001b0: 51a7 203c cedf 7bbe 1506 9dbe fc6b 7a3c
000001c0: a6ed 03be 2327 e2bd 00e1 71be afb2 50bd
000001d0: 1c9f 453d 9936 98bd 8deb c8bc f5a6 34be
000001e0: b3c6 68be c88e 1cbe 2952 69be d190 1bbe
000001f0: 988b 32bc 28b8 94be ca6e d83d 6d3c 00be
00000200: 84ca 4c3c 2fe8 b0bd 9708 1ebc d90a 7cbe
00000210: 91c3 353d 4f53 12be 5c26 5fb9 4fc0 47be
00000220: 6f48 813d da46 c3bd 2f77 383d e4d5 34be
00000230: 8122 09be 46d4 47be 0c11 0bbe 7a26 5a3b
00000240: e016 96bd 48e0 f8bd d1f0 dabc 71c3 b33d
00000250: 698b 8abe 99dc ccbd 5b56 91be 37df b3bd
00000260: 5997 0bbd b7ff 0b3d 990b cabd 8c7c 38be
00000270: 010c 04be 7f75 fdbd be7d bebd 12b3 02be
00000280: b2db 8abe e279 afbd fe38 4abc af4d 80bc
00000290: bd71 eebd a2b3 84bc 057a 72be e3a1 67be
000002a0: 602a 99bd 80dd 71be a36f f93c b51e 273d
000002b0: eae0 4bbe 5bd9 b5bd f024 6cbe 7a95 6ebe
000002c0: 9143 96be 2469 9ebd f045 dabc 7535 acbd
000002d0: 6321 963d 3b47 bc3d 5841 99be 908c 2dbe
000002e0: 968f 0a3d 9cc8 ce3c 638f b1bb f731 dbbd
000002f0: 26d1 07be 6f2e 6cbe 163e 33bd 4342 d1bd
00000300: 7917 413c 4a89 983d ca64 50be 89fa c2bd
00000310: 9e1f 84bd 7152 82be 6ca8 d6bd dd7a 7fbd
00000320: d777 4c3d e662 6c3d f551 51be bda6 39bd
00000330: 47ef b3bd d0ba 97be f270 94be 1109 e2bc
00000340: c569 803c 405f 183d fa9d 11be dfc3 29be
00000350: 3349 94be 4a79 80be 1971 1dbd d4b6 e8bc
00000360: fc70 42be 3308 85be 5496 a73d 4646 63be
00000370: 3622 98be 77a7 5cbc 0422 d5bd 95ee bbbd
00000380: 249e a8be 3511 54bd 5977 663c 87f3 15bd
00000390: 264f 29be 1e92 7dbe a122 4bbe 1bce 53be
000003a0: d7e3 21be d621 5abe af1e 55be fc10 c7bd
000003b0: 1e0d a03c b9f5 8abd a8eb 7cbe a646 95be
000003c0: 37a8 46be df5e 9fbe 336c 69be 21b9 d43d
000003d0: ee42 48be 5b7c 85bd 798c 41be 199a 9039
000003e0: 24ba 89be f48c 1abc 6a88 a83c 924c 11bd
000003f0: 3e67 833d 0ef8 aabb 7e25 3ebe a38a d93c
0.03990362 -0.044906773 -0.23568968 -0.23366743 -0.19614308 -0.11519912 -0.028072223 -0.13806184
-0.20848139 -0.044943903 0.073144816 -0.07194038 0.0774376 -0.31679693 -0.17897616 -0.14965622
0.059908282 0.0036518206 -0.13262701 -0.16935657 -0.075751394 -0.12836254 0.086051516 -0.1520983
-0.08584711 -0.119217664 -0.020494662 -0.17270122 -0.01578258 -0.048014846 -0.04594485 0.035230882
-0.17436212 0.018495508 -0.14234596 -0.06486643 -0.023686675 -0.07372888 -0.17566232 0.084744744
-0.25418186 -0.21700925 -0.21137336 -0.213614 -0.2135472 -0.17137064 -0.08328005 0.026167741
-0.13439131 -0.23400046 -0.17710514 -0.080716856 -0.12647341 -0.044761334 -0.13247575 0.013164608
-0.28215468 0.0019262997 -0.17397845 -0.16736962 -0.32036808 -0.2036106 -0.11704886 -0.2849805
-0.06344959 -0.023585165 -0.21230087 -0.3618081 -0.2783852 -0.16939935 -0.28021237 0.08759331
-0.083123595 -0.25871348 -0.20203017 -0.09102797 -0.27928492 -0.21659555 -0.06490057 -0.0060355524
0.014145611 -0.13725129 0.028243102 -0.16339493 -0.26460057 -0.22196902 -0.07208213 0.1258076
-0.13428232 0.01924943 -0.26241377 -0.013860837 -0.21877934 -0.037019156 -0.25802764 -0.18074882
-0.27465764 -0.17316045 -0.33530107 -0.2733169 -0.1271483 -0.14431794 -0.058365896 -0.23625533
-0.23994745 -0.24751958 -0.2084317 -0.19536613 0.009805516 -0.24597093 -0.30668703 0.015284535
-0.12883624 -0.11042621 -0.23620987 -0.050951656 0.04824744 -0.07432289 -0.024526382 -0.17641814
-0.22732048 -0.15288842 -0.22785248 -0.15191962 -0.01089754 -0.2904675 0.10568006 -0.1252305
0.012499455 -0.086380355 -0.009645603 -0.24613513 0.04437596 -0.14289592 -0.00021281227 -0.19506954
0.06312644 -0.09534998 0.045035537 -0.17659718 -0.13392068 -0.1951457 -0.13580722 0.0033287094
-0.07328582 -0.12152153 -0.026726158 0.08777512 -0.27059487 -0.10003013 -0.28386196 -0.08782809
-0.034079883 0.034179416 -0.09865493 -0.18016261 -0.12895204 -0.12375926 -0.09301327 -0.12763622
-0.2712074 -0.08568169 -0.01234269 -0.015662042 -0.116427876 -0.016198937 -0.2367936 -0.22620349
-0.074787855 -0.23619652 0.03044874 0.04080077 -0.19910017 -0.08879348 -0.23060966 -0.23299208
-0.29348424 -0.07734898 -0.026644677 -0.084086336 0.07330587 0.09193274 -0.29932666 -0.16948152
0.03382834 0.025242142 -0.0054187044 -0.107028894 -0.13263378 -0.23064588 -0.04376038 -0.102177165
0.0117853815 0.07448061 -0.20350948 -0.09520442 -0.06451343 -0.25453523 -0.10481343 -0.06237303
0.049918976 0.057711504 -0.2044142 -0.04532503 -0.08785873 -0.29634714 -0.2899242 -0.027592214
0.015675435 0.037200212 -0.1422042 -0.16578625 -0.28962097 -0.25092536 -0.038437936 -0.028407492
-0.18988413 -0.25982818 0.0818297 -0.22194776 -0.297136 -0.013467661 -0.104068786 -0.09176365
-0.32933152 -0.051774222 0.014066541 -0.0366092 -0.16534099 -0.2476277 -0.19837429 -0.20684092
-0.1580957 -0.2130197 -0.20812486 -0.097200364 0.019537505 -0.06785149 -0.2469927 -0.29155463
-0.19400106 -0.31127068 -0.22795181 0.10386873 -0.19556782 -0.065178595 -0.18901242 0.00027580632
-0.26899827 -0.00943302 0.02057286 -0.035473414 0.06416176 -0.0052175587 -0.1856899 0.026555365

layers.3.weight f4 [80, 256]
00000000: 5122 43bd 512e 573d b84c 173c 5e49 c4bc
00000010: 7e47 8abd 67be 8bbd 8d5e 7e3d 9952 8c3d
00000020: dcc6 9c3d 2fc0 fdbd 8220 ccbc 030f 00bd
00000030: 628c 283c ec9e 853d 7b1a ec3c 4101 773d
00000040: baf2 81bd 6e83 81bd 7c75 e53c c27b 7f3d
00000050: 0571 b23d e37c ff3c 899d 343d d790 3b3d
00000060: cb62 ce3d f580 2bbd 21c6 183c 3dc3 903d
00000070: 6df1 a3bd 59d4 f5bc 46e1 2b3d e429 9f3b
00000080: e83d b63d 7621 d1bd fb4e 903d a2a8 7d3d
00000090: 36ab fcbd 72af edba 3668 803d b67d f1bd
000000a0: 6b0a 9c38 e09e a0bd 3827 bbbd 14b3 763d
000000b0: d90f aa3d 8a28 84bd 7e3d 633c 081a 643d
000000c0: d5c3 66bd 2337 283d d3aa 173d 2c2b 04bb
000000d0: d10f bebc 7b3c 52bd b3b9 5ebd 75ff 98bc
000000e0: 68c3 a73d a824 173d e05e 86ba 3b5e 06be
000000f0: eccd 173e 8284 7ebc 69dd 1a3d a772 c13d
00000100: c87c 6fbd e299 15bc 94fd ae3d fb1c fa3c
00000110: 23e3 933d 3f3e aebc 3c1f ae3c 24b8 28be
00000120: b84b 213d 5d99 18bd cdcf 39bd 027b 873d
00000130: 10c8 eabd 4897 133c f0c6 4b3d 4dad a7bd
00000140: 4a60 58bd c9b8 bd3c fd7b 04bc 2c1c bf3d
00000150: 96ae a8bd a760 253d d278 fe3d d2bd 58bc
00000160: 3e6b b13c e473 f53b d41d 023d d6d6 763d
00000170: a89d 86bd d0b9 56bd 3e1b 503c 3717 44bc
00000180: 0a06 1b3c 5cf1 75bb 1753 54bc b5e6 b73c
00000190: abeb c1bd cfc8 00bd 2f09 293d a0e7 76bd
000001a0: 6432 bbbd 8e60 0e3d b1d8 fc3d daad 223d
000001b0: a54a 8ebd db43 9f3d fe9c d43c b3df 9bbb
000001c0: 751f 0e3d 6e3c 6f3d e342 b1bd a3f9 2abd
000001d0: 4fdb aebd 05bf 983c 0a9c 8c3c 6b95 81bd
000001e0: d0a6 f83c 02c5 4e3d 979e 963d 5f0a 873c
000001f0: 201c dc3b 3eb2 e63c 53b9 f4bc 02ab b23d
00000200: 5f4f 2dbd 311b 883c 3077 b5bc faa8 153e
00000210: c0b1 d1bd c9cf f6bd 538f 53bd 0d55 52bc
00000220: b2b0 babd 012e 933d d5f8 19bc 0388 2c3d
00000230: f4bf 99bd 5189 a53c 5838 b9bc 904a 2d3d
00000240: 59e4 423c 5d0b d6bc 8e20 f7bd 74da 2abd
00000250: 4501 223e a91e 833d b0a6 98bc d862 59bc
00000260: 6475 58bc 86af 123c 7874 f0ba 57d9 8a3d
00000270: 2434 25bd 5088 0fbc 2a59 b33a c070 acbc
00000280: 314f 233e 5bca d63d d365 963c 4673 683c
00000290: c812 08bd 4436 36bd d82c 3c3c 58a8 033b
000002a0: e286 793d cc71 ab3d 5afe 52bc 5b56 94bc
000002b0: c5d0 d23d d285 d7bb 99d0 cb3d 8561 23bd
000002c0: cefc 78bd 83e8 a73c a34f cf3d 0331 5cbd
000002d0: 8df2 8fbd 84aa 253d f501 3a3d 6a31 3d3d
000002e0: 30f0 98bc 8a54 e63c 840a bebd 766e a23d
000002f0: 94e4 373b 4c2d 00bd 1a86 d9ba bd0e aebd
00000300: 6f8e 383c fb4a 9abd 0001 5c3d 23f5 f53c
00000310: 197e 9e3d 0f5b 1e3c 74a4 473d 88cb c3bc
00000320: 52a4 91bd 7744 c43d abe2 56bc b69b 25bd
00000330: 4620 fc3c 3211 df3c ec52 b83d 1524 c8bb
00000340: bd2a 24bc a291 75bc cf3b a9bd 48af c03b
00000350: ed0e 243d 943c 823d 2db6 c13d d56b 193b
00000360: ab7a 313d 9f9d ac3d 3c92 95bc 8a19 aa3c
00000370: c3bd 33bd 19ea 5cbd 600c 88bd 3745 313d
00000380: 232f c73d 8f7b 48bd ebaa 50bd 360e 883d
00000390: 8e3b 9e3d d2f0 6a3c a516 fd3c c7e8 683d
000003a0: 8bc6 293d 6396 1a3e 949a 1b3d a830 45bd
000003b0: ad06 a83a ef0f a53b 4454 8abc 4ed3 be3d
000003c0: 8c26 bd3b f668 aabd 1783 3fbd 3d49 27bb
000003d0: 5a1c 5e3d 2ece b63d 59ca 833d 85d1 183d
000003e0: c6ea 003e f303 a5bc cdf9 d0bc 5792 afbc
000003f0: 4d62 80bd 528f d33b c4ca cc3d 7053 4bbd
-0.04764015 0.052534405 0.0092346 -0.023960765 -0.06751917 -0.06823426 0.06210189 0.06851692
0.07655117 -0.12390172 -0.024917845 -0.031264316 0.010287376 0.065244526 0.02882122 0.06030393
-0.063451245 -0.06323896 0.028010122 0.062373884 0.08712963 0.03118748 0.04409555 0.045792427
0.10077437 -0.04187103 0.009324581 0.07068489 -0.08005033 -0.030008482 0.041962884 0.0048572887
0.088985264 -0.1021146 0.07046314 0.0619284 -0.123373434 -0.0018133952 0.06269877 -0.117915556
7.4406e-05 -0.07842803 -0.0913834 0.060229376 0.08303804 -0.06453045 0.013869641 0.055688888
-0.056339104 0.041068207 0.037028145 -0.0020167334 -0.023200901 -0.05132721 -0.054376315 -0.018676499
0.08191568 0.036900192 -0.0010251664 -0.13121884 0.14824647 -0.015534522 0.03780881 0.09445696
-0.05846861 -0.009130927 0.0854446 0.030531397 0.07221057 -0.021269916 0.021255128 -0.16476494
0.03937885 -0.037255634 -0.04536419 0.06615259 -0.1146394 0.009008236 0.04975027 -0.081873514
-0.052826203 0.023159401 -0.008086202 0.09331545 -0.082364246 0.040375378 0.124253884 -0.01322885
0.021657582 0.007490622 0.031766728 0.060263477 -0.06573039 -0.0524233 0.012701808 -0.0119684255
0.009461889 -0.0037527895 -0.012959263 0.022448877 -0.09468778 -0.031441506 0.041268524 -0.06027949
-0.091404706 0.03476005 0.12346018 0.03971658 -0.06947831 0.07776614 0.025953766 -0.0047568916
0.03469797 0.05840724 -0.08655336 -0.04174198 -0.085379235 0.018645773 0.017164249 -0.06327327
0.03035298 0.05048085 0.07354467 0.016484438 0.00671722 0.028161164 -0.029873526 0.087240234
-0.042312022 0.016614528 -0.02215156 0.1461524 -0.10238981 -0.120513506 -0.051650357 -0.0128376605
-0.09115733 0.07186509 -0.009397705 0.0421219 -0.07507315 0.02020708 -0.022609875 0.042307436
0.011895263 -0.026128465 -0.12066756 -0.04171224 0.15820797 0.06402332 -0.01863417 -0.013268195
-0.013211582 0.008952981 -0.0018345257 0.067797355 -0.04033293 -0.008760527 0.0013683189 -0.021049857
0.15948178 0.10487815 0.0183591 0.01418764 -0.033221036 -0.044485345 0.011485301 0.0020089354
0.06091965 0.083713144 -0.012878025 -0.018107584 0.10293726 -0.006577232 0.09951896 -0.039887924
-0.06078797 0.020496612 0.101226114 -0.05375768 -0.07028685 0.04044582 0.045412023 0.046189703
-0.018669218 0.028116483 -0.092793494 0.07931225 0.0028059827 -0.0312932 -0.0016595752 -0.08498905
0.011264428 -0.07533833 0.05371189 0.030024117 0.07738895 0.009665265 0.04874082 -0.023900762
-0.0711142 0.09583371 -0.013115565 -0.0404317 0.030777108 0.027229879 0.09000191 -0.006107817
-0.010019955 -0.014988335 -0.08263361 0.00588027 0.040053297 0.063592106 0.094585754 0.002341022
0.043329876 0.08428501 -0.018258207 0.020764131 -0.043882143 -0.05393419 -0.06642985 0.0432789
0.097257875 -0.04894596 -0.05094425 0.066433355 0.07726203 0.014339643 0.030894587 0.05686262
0.04144911 0.1509643 0.037989214 -0.048142105 0.0012819372 0.0050373 -0.016885884 0.09317647
0.0057724174 -0.08320801 -0.046755876 -0.002552583 0.054226257 0.089260444 0.06435079 0.03730919
0.12589559 -0.020143485 -0.02550974 -0.021432085 -0.062687494 0.006456294 0.09999612 -0.04964012

layers.3.bias f4 [80]
00000000: 8ec2 80bd b944 8f3d 03c5 83bd 9356 4abd
00000010: 708c 81bd 646b 14be 1be8 aebd 098b 7ebd
00000020: 105a 8e3a 62a6 cabd b4d2 8dbc f35e 1ebd
00000030: 62e9 ebbb 933b b93b ac43 c53b 455e 8a3d
00000040: 2a89 66bc a376 3d3d aca3 03bd 50e7 a8bb
00000050: 4a93 00be e463 94bd 901a 843c b4ec 7a39
00000060: 96c9 27bd ceb4 f1bd b320 22bd 6a90 ee3c
00000070: 8162 dc3c d744 febc 6177 04be c99d afbc
00000080: 627e ae3c 845f 543d ca54 d7bd dcd8 06be
00000090: c3e3 c0bc b171 463d 7903 c43c b3fc 97bd
000000a0: 13ce 22bd d5bf 34bc 8289 44bd ce8a 0f3d
000000b0: 86f8 aabb e8ab afbd d823 71bd ca15 cfbd
000000c0: ffdb 24bd f6b8 803d 09b4 93bd 803d 8b3b
000000d0: 5e32 01be 69be a83c fcd3 05bd b353 a5bb
000000e0: 3606 06bd 8b77 dcbd 1f20 f2bc b130 a93d
000000f0: cc64 a33d a2a2 cbbd 4e38 2f3d 87fa 033d
00000100: 6b60 fabc fd56 bb3b bc5c 21bd e5f6 28bd
00000110: 6a81 683b 6baf dcbd f6f9 be3c 6cb2 b3bd
00000120: e5ec 94bc 020c 3abd f537 04be 2c62 2abd
00000130: f2a8 00be 48d1 50bc 53b6 d9bd 3b81 03be
-0.06287108 0.0699553 -0.064340614 -0.04939897 -0.063256145 -0.14494091 -0.08540364 -0.062144313
0.0010860581 -0.09895016 -0.017312385 -0.03866477 -0.0071994523 0.0056528538 0.00602003 0.06756262
-0.014070788 0.04625572 -0.03213851 -0.0051545277 -0.12556186 -0.07245615 0.016125947 0.00023930037
-0.04096373 -0.11802064 -0.039581966 0.029121596 0.02690244 -0.031038685 -0.12936164 -0.021437543
0.021300498 0.051848903 -0.10514219 -0.13168663 -0.023546105 0.04844827 0.023927437 -0.074212454
-0.03974731 -0.011032064 -0.0479827 0.035044484 -0.0052176146 -0.085777104 -0.058872074 -0.10111578
-0.040248867 0.062852785 -0.07212073 0.0042492747 -0.1261687 0.020598607 -0.032672867 -0.005045378
-0.032720767 -0.107649885 -0.029556332 0.0826124 0.0797821 -0.09943129 0.042778306 0.032221343
-0.030563554 0.005717157 -0.03939508 -0.041251082 0.0035477527 -0.10775646 0.02331255 -0.08774266
-0.018179366 -0.045421608 -0.12911971 -0.04159753 -0.12564448 -0.012745209 -0.10630479 -0.12842266

layers.6.weight f4 [64, 80]
00000000: c7be ff3d 9557 edbd 6ba2 42bc 87bb b4bc
00000010: 7284 d63d 440a f4bc b4c0 e13c 9796 e63c
00000020: b135 7fbc e701 213c ed29 203e 614b 22bd
00000030: 4659 803d d3b8 f7bc a0fc 2a3e 386f 2cbe
00000040: 499e 6c3d 9644 1cbe 06b1 a53c e010 3a3e
00000050: f9e8 ac3c 9b64 7abd fb60 6abd e379 32bd
00000060: 864d 0f3c dd39 85bc ae3a 6cbb 861d 43bd
00000070: 82bf b1bc 38bf e6bd 5930 393e 4616 343e
00000080: cb12 09be e436 0ebe 72e7 1a3c 3861 b2bc
00000090: 685e 6e3d 6926 13be 5a6d bd3d f448 843c
000000a0: 830e 653d 4855 23bd a0dc 023e 70d6 40b8
000000b0: c2ad ebbd b0cf 56bd 46d6 a5bd cf01 ea3d
000000c0: b28d d93d f9ec 1cbe 1340 4f3d 363d 89bd
000000d0: b0f1 9f3d 75e5 13bd 4ed4 6cbd 0f6d fabd
000000e0: 09d3 843d 92f3 9e3d ddfc 70bd ae2c 73bd
000000f0: eab4 0bbe a341 d63d 2dbc 19bd a90d e83d
00000100: 710d 813d c881 f6bd c604 fdbc a144 1d3e
00000110: 4ce0 3c3b 6b2e 133e 1c95 313d 52c7 db3d
00000120: 9f64 02be b8a0 88bc 7a79 063e fcb7 dd3d
00000130: ac19 233e 0e71 bd3d b750 3b3d 9737 12bd
00000140: a5f4 223e 9026 58be 5881 82bd 9c40 d9bd
00000150: f42a 2f3e 6657 14bc d463 a1bc 5729 343e
00000160: 2c01 41bd a123 b53d 1c06 073d 8c30 343d
00000170: 1468 2ebd f07a 8ebd 4319 973b 9384 22be
00000180: 5f3a 523d 0843 15be 7fa1 bd3d 5881 bfbb
00000190: ba2f f0bc 44f6 b43d 36d6 41bd 0759 69bd
000001a0: d773 b83d f57f 65bc 5dfa f43d db9a e5bd
000001b0: 9a5a c03d be1b 42be 440f 543d 0e6b ae3c
000001c0: 2477 00bd 12dd 4abd b6ed ac3a 01bf 0d3e
000001d0: 4efc 37bc bcdc e6bd 9ceb 1e3d 06e0 5e3d
000001e0: 2fe1 89bc 5c43 80bc 03fd 403e 8784 22be
000001f0: d6c5 2bbe 5b5f edbd a2b7 0ebe c98d ca3d
00000200: bb69 0c3e 4b17 a1bd 29de adbc eaef febd
00000210: f9de 7dbd ff4f 0dbe fcc3 18bd 7b92 0abe
00000220: c61e c63d f0cc 033b 0185 6dbd 4535 fabd
00000230: 0358 1fbe 8f71 463b 64bf ffba ac5f 233e
00000240: c33b 36bd d44c 02be 0e0c 033d 8c6a 973d
00000250: c8a5 11be 1619 ec3d 8386 643c 4c40 d33d
00000260: ecf1 94bd 8345 4a3d d369 203e a125 8ebc
00000270: 1295 0b3e 7845 aa3c a1ee c53d a0e2 f3bc
00000280: 3a11 dc39 2909 3d3c ec83 94bd 40c3 c8bd
00000290: 18d1 713d 234c 0e3d 1dca d63b b97a 523b
000002a0: 2048 6cbd 80fc acb8 9bbb d13d 0b6e 153d
000002b0: 9c44 d93d 46da b93c 1453 60bd 7772 fabc
000002c0: 7c5c 543d 037c 97bd cb7f 5c3d eba3 3dbd
000002d0: dc96 083e 0a0d 8fbd 2415 90bd 5b55 bd3c
000002e0: d0ac 573d 54bc 803d 02af 843d 7642 e73d
000002f0: 344d 723d 5660 c8bc ae5a febc 5899 22bd
00000300: 0e09 cebd e36f cdbd 3bfb 703d 2b0a 343d
00000310: 7cbc b13b 42df 55bd de49 f63d 1e3f bdbd
00000320: d5f1 11bb ec7f aebd 2900 ac3c f957 debd
00000330: 74ac 68bd e9b0 593d 01df cdbd 4cd6 493d
00000340: f3c7 c53d a91e 783c 3906 983d 9ab2 10be
00000350: 784e e4bb 7fe0 6cbd 8f26 b3bd c3f3 1cbe
00000360: 3b9d 9e3d 8ad9 3d3e d648 cb3c b570 303d
00000370: 3929 0fbe bab4 a63d a581 34bd e237 59bd
00000380: 0720 c3bb 0fe9 0abd cf08 383d c76d 923d
00000390: 23c7 c1bc aef3 273d c821 c43d a2e2 853d
000003a0: c320 ecbd bb85 a63b 09dd 243d aa34 273c
000003b0: f0cc 3f3d 7ec1 87ba c8f8 ed3d 939f dc3d
000003c0: 3c13 a53d 2082 08be 9727 8f3d cf08 88bd
000003d0: 28d1 6abc 2543 97bd 0311 b73b df25 fb3d
000003e0: cba5 ce3c a838 cb3d f41a 5a3c 5789 bb3d
000003f0: 3a2e c1bc e396 bfbd 0743 283e 9da1 f4bd
0.1248756 -0.115889706 -0.011879544 -0.022062076 0.10474481 -0.029790051 0.027557708 0.028147979
-0.015576766 0.009827114 0.15640993 -0.03962267 0.062670276 -0.030239498 0.16697931 -0.16839302
0.05776814 -0.15260538 0.020226013 0.181705 0.021107184 -0.0611311 -0.057221394 -0.04357327
0.00874651 -0.016262943 -0.0036045718 -0.047635578 -0.021697763 -0.11266941 0.1808485 0.17586622
-0.13386075 -0.13888127 0.009454595 -0.021774873 0.0581955 -0.14370121 0.09249373 0.016148068
0.055922043 -0.039876252 0.12779474 -4.5976078e-05 -0.11507751 -0.05244416 -0.0809751 0.11426126
0.10622729 -0.15324773 0.050598215 -0.06701128 0.0780977 -0.0361075 -0.057819657 -0.122278325
0.06485564 0.07761301 -0.0588349 -0.05936878 -0.13643232 0.10461738 -0.037532974 0.113307305
0.06301392 -0.120364726 -0.030886065 0.15358211 0.0028820215 0.14373176 0.043355092 0.10731377
-0.12733696 -0.0166782 0.13132277 0.10826108 0.15927762 0.09250079 0.045731273 -0.035697546
0.15913637 -0.2110846 -0.063723266 -0.106080264 0.17106229 -0.009054041 -0.019700922 0.17593895
-0.04712026 0.08844686 0.03296481 0.04399161 -0.042579725 -0.06957042 0.0046111657 -0.15870886
0.0513252 -0.14576352 0.092593186 -0.0058442764 -0.029319633 0.08836034 -0.047323428 -0.05696967
0.0900647 -0.014007558 0.119618155 -0.11211177 0.09392281 -0.18955895 0.05177237 0.021291282
-0.03136362 -0.049527235 0.0013193402 0.13842393 -0.011229588 -0.112725705 0.038798913 0.054412864
-0.016831009 -0.01565712 0.18846516 -0.15870868 -0.16774687 -0.11590453 -0.13937238 0.098903246
0.13712208 -0.07865771 -0.021224098 -0.12448104 -0.06198022 -0.13800047 -0.03729628 -0.1353244
0.09673838 0.0020111166 -0.05798817 -0.122171916 -0.15560918 0.0030280089 -0.0019511995 0.15954465
-0.044490587 -0.1272462 0.031993918 0.07393369 -0.14223397 0.11528222 0.013948086 0.10314998
-0.072727054 0.049382698 0.15665369 -0.017351927 0.13631085 0.020785078 0.096646555 -0.02977115
0.00041974505 0.0115378285 -0.072517246 -0.09802866 0.059037298 0.03474058 0.0065548555 0.0032116605
-0.05768597 -8.248631e-05 0.10240861 0.0364819 0.10608789 0.022687089 -0.05476673 -0.03057216
0.051846012 -0.073967 0.05383281 -0.046298902 0.13338798 -0.06984909 -0.07035282 0.02311199
0.05265504 0.06285921 0.064786926 0.11291973 0.059155658 -0.024459999 -0.031049099 -0.03969702
-0.10060321 -0.10031106 0.058833342 0.04395501 0.0054240804 -0.05221487 0.12025808 -0.09240554
-0.0022269387 -0.08520493 0.02099617 -0.10856623 -0.05680509 0.05314723 -0.100523 0.049276635
0.09657278 0.015144029 0.07423062 -0.14130631 -0.006967362 -0.057831284 -0.08747589 -0.15327363
0.07744833 0.18540016 0.024815004 0.043076236 -0.13980569 0.081399396 -0.04406895 -0.05303181
-0.0059547457 -0.03391367 0.044930276 0.071498446 -0.023654526 0.041003875 0.09576756 0.065373674
-0.11529686 0.00508186 0.040249858 0.010205427 0.046826303 -0.0010357348 0.11619717 0.10772624
0.08060309 -0.13330889 0.06989973 -0.06642305 -0.014332093 -0.07385854 0.0055867448 0.12263083
0.02522554 0.09922916 0.01331209 0.09157055 -0.023581613 -0.09354951 0.16431819 -0.11944888

layers.6.bias f4 [64]
00000000: 1243 af3d 3e86 203e 6ec7 ddbd c088 9d3d
00000010: b1b5 05be bc86 51be 5e33 943d 3384 823d
00000020: f82c ad3d fe47 d43d 4deb 943d c766 85bc
00000030: 6e38 3f3e 6e23 833c 967d 033e 8c56 9f3d
00000040: f062 913c 9b55 bfbd b4eb 213e 895b 59bd
00000050: 7501 b23d c63a de3d a41a 04be e34e 993d
00000060: 914e d83d 0000 b5bd b7aa 91bc 30ea 2cbe
00000070: 08a0 b03d b199 133e 2e33 11be e0da 58be
00000080: ce99 2c3e 3f2b 3a3e d81a 593d b706 29bd
00000090: ff17 4d3c bd42 343e 63b6 783d aa5e 9c3d
000000a0: 973e 733d 778c 263e 8725 0b3e 434a e73a
000000b0: 4806 b03d 74d0 4a3e cde6 573d 3a0b 36be
000000c0: 28c1 373d 2660 dabd 76b3 1c3e c533 b6bd
000000d0: d1a8 b63d 7266 71bd 7d12 0fbd c433 cd3d
000000e0: 855c 37bc dd0c c53d df1d 113e a6f8 f4bb
000000f0: a209 c33d de51 d23d c4c9 27bd d302 51be
0.085577145 0.1567621 -0.10829054 0.076920986 -0.13057591 -0.20461553 0.0723636 0.06372871
0.08455843 0.10365294 0.072714426 -0.01628436 0.1867387 0.016008105 0.12840876 0.077801794
0.017747372 -0.093425 0.1581257 -0.05306581 0.08691684 0.10851054 -0.12900788 0.074857496
0.1056186 -0.088378906 -0.017781598 -0.1688621 0.086242735 0.14414097 -0.1417968 -0.21177244
0.16855547 0.1818056 0.053004116 -0.04126617 0.012517928 0.17603584 0.060720813 0.07635243
0.059385862 0.1626452 0.13588534 0.0017646033 0.08594948 0.19806081 0.052710343 -0.1777772
0.044861943 -0.1066287 0.15302834 -0.08896593 0.08918918 -0.05893559 -0.03492974 0.10019639
-0.011191492 0.09621594 0.14171551 -0.0074759303 0.09523322 0.10269521 -0.040963903 -0.20411234

layers.8.weight f4 [1, 64]
00000000: 8d0f abbd 09a5 ecbd 646c 0bbd d50d edbd
00000010: e0a3 9abd c2fa 2cbc 517f f73d a024 9e3d
00000020: 447a 043e 1127 e93d 9999 79bd 7a1d 75bb
00000030: 7ed3 103e 92be aebd 2e31 1f3e f8d3 e13d
00000040: 67e8 e73d fb14 713d 4751 fbbd aa97 133d
00000050: 42ac 19be 5611 923d e1ea f8bc 4ec4 583d
00000060: acae b93d 82dc 623d b9b7 073e 22c5 9cbc
00000070: 42e3 1bbe c3f2 b3bd b4d4 243d daf8 98bc
00000080: ee43 0dbe 0ed0 16be d192 173e 64ca 123d
00000090: b5bd debd 3371 573e 61bb 253e bb2e 02be
000000a0: 6f8a b6bd 021c 1a3e 3237 453e 72e4 6dbc
000000b0: 49d3 fa3d 3fc5 4b3e 0cd6 54bd 2ce6 22bc
000000c0: 2ee2 e63d 6729 eabc a1d9 d43d 5738 b4bc
000000d0: de55 eb3d 0781 cabb 5fd4 76bd 8fe4 75bd
000000e0: 3cf0 55bb e567 0d3e 5527 10be 129d 8abd
000000f0: 7860 00be 71a9 acbd f04e d03d 566f 92bc
-0.083525755 -0.115549155 -0.034038916 -0.11574904 -0.07550788 -0.010557832 0.120848306 0.077218294
0.12937266 0.113844045 -0.060937498 -0.0037401603 0.14143178 -0.08532442 0.15546104 0.11026758
0.11323624 0.0588579 -0.12271362 0.03603331 -0.15007117 0.07132213 -0.030385436 0.052921586
0.09066519 0.055386074 0.13253678 -0.019136969 -0.1522341 -0.087865375 0.040241912 -0.01867335
-0.13795444 -0.14727804 0.148021 0.035837546 -0.108760275 0.21039276 0.1618476 -0.12713139
-0.08913123 0.15049747 0.19259337 -0.014519798 0.12247331 0.19899462 -0.051961944 -0.009942573
0.11273609 -0.028584195 0.10393072 -0.021999521 0.11490987 -0.006179932 -0.060261127 -0.060032424
-0.0032644412 0.13809164 -0.14077504 -0.0676824 -0.125368 -0.08430756 0.10171306 -0.017875355
