flwr-mlp/models/checkpoints/round_026.pt (torch, 127593 bytes, 7 tensors)

layers.0.weight f4 [256, 19]
0	0xbd6113a9	-0.05495039
1	0xbe164504	-0.14674765
2	0xbcc8e411	-0.024522813
3	0xbe950391	-0.29104283
4	0xbd0aef51	-0.033919636
5	0xbe13e962	-0.14444497
6	0xbdd7c68c	-0.10535917
7	0xbe52cf10	-0.205868
8	0x3e43edbb	0.19133656
9	0xbdc83619	-0.09775943
10	0x3d496898	0.049172014
11	0x3e0b3505	0.13594444
12	0xbcf29f2b	-0.029616913
13	0xbe1678af	-0.14694475
14	0x3e503eea	0.203365
15	0xbd403507	-0.04692557
16	0xbe182035	-0.14856036
17	0x3d26350a	0.040577926
18	0xbe58b819	-0.21163978
19	0xbe2b7a89	-0.16745962
20	0xbd736c6b	-0.059429567
21	0x3e0cd97c	0.13754839
22	0xbc37d887	-0.011221058
23	0xbdc14294	-0.09436527
24	0xbc8aefcd	-0.016960049
25	0x3e4ca86a	0.1998612
26	0xbe4988ff	-0.19681166
27	0x3da6338e	0.08115302
28	0xbd3c7431	-0.046009246
29	0x3e2e581e	0.17025802
30	0x3df34e19	0.1188013
31	0xbdf5698d	-0.11983023
32	0xbd8ddda4	-0.0692704
33	0x3d78966d	0.060690332
34	0xbd913702	-0.0709057
35	0x3dbf9771	0.09355057
36	0x3e6af7b9	0.22946061
37	0xbc24e1f3	-0.010063636
38	0x3d8ccb67	0.068747334
39	0x3def8442	0.11695148
40	0x3c9eff78	0.019408926
41	0xbddb5a62	-0.107105985
42	0x3d9978c0	0.07493734
43	0xbd2d326f	-0.042284425
44	0x3de9ce65	0.1141632
45	0xbe71b422	-0.23603871
46	0xbcb0dcbe	-0.021589633
47	0x3e6b92da	0.23005238
48	0x3dba2bf7	0.09090417
49	0xbdbbef78	-0.091765344
50	0x3db5fa6c	0.08885655
51	0x3e0d884d	0.13821526
52	0x3dde041d	0.10840628
53	0xbc3d5ee6	-0.01155827
54	0x3d95d5af	0.073161475
55	0x3de11e36	0.109920904
56	0xbd94d540	-0.07267237
57	0x3e953ed5	0.291495
58	0xbd69f720	-0.057120442
59	0x3d5be9f7	0.053689923
60	0x3deae665	0.114697255
61	0xbda32336	-0.079657
62	0xbe59f922	-0.21286443
63	0xbe4bec84	-0.19914442
64	0x3e682f08	0.22674191
65	0xbd2ee8c0	-0.042702436
66	0xbd01d629	-0.03169838
67	0x3e56cb74	0.20976049
68	0xbe05dc15	-0.13072236
69	0xbdaba646	-0.083813235
70	0x3d04b37a	0.032397725
71	0xbe015dda	-0.12633458
72	0xbd8922d8	-0.06696099
73	0xbd9e447f	-0.07727908
74	0x3d6e7f29	0.058226738
75	0x3e082e1b	0.13298838
76	0xbda49f11	-0.08038152
77	0xbdd16a89	-0.10225398
78	0x3e331d28	0.17491591
79	0x3c90cbb6	0.017675262
80	0x3e557dec	0.20848817
81	0x3e3378d4	0.17526561
82	0x3e55fca1	0.20897152
83	0x3df1c996	0.118060276
84	0x3e380b4a	0.17973056
85	0xbcad84e0	-0.021181524
86	0xbe17a348	-0.1480838
87	0xbde27d11	-0.11059011
88	0xbe4bd035	-0.19903643
89	0xbd4c99a5	-0.049951214
90	0xbdbeea74	-0.09322062
91	0x3d962bdb	0.073325835
92	0xbd0d611d	-0.034516443
93	0xbd4b75f8	-0.04967305
94	0xbe1ab6ab	-0.15108745
95	0x3d59626b	0.053072374
96	0x3e08a894	0.13345557
97	0xbe0c8a25	-0.13724573
98	0x3e58c874	0.21170217
99	0x3db57f9e	0.08862232
100	0xbe51b936	-0.20480809
101	0x3e2d0062	0.16894677
102	0x3e63bbeb	0.22239654
103	0xbe0eb2c9	-0.13935389
104	0xbe789ae0	-0.2427783
105	0x3da74787	0.0816794
106	0xbea4585a	-0.32098657
107	0xbce70204	-0.028199203
108	0x3e2c6f57	0.16839348
109	0x3e0340d6	0.12817702
110	0xbc8640a6	-0.016388249
111	0x3dbedaf6	0.09319107
112	0xbc6aa4c4	-0.01432151
113	0xbe8cdb18	-0.27510905
114	0x3de5ab00	0.11214256
115	0x3e25d646	0.1619502
116	0x3d5e5945	0.054284353
117	0xbc937b49	-0.018003123
118	0xbd55b481	-0.052174095
119	0xbdbf1073	-0.09329309
120	0xbe13c2f3	-0.14429836
121	0xbe3d2e67	-0.18474732
122	0xbe49a66c	-0.19692391
123	0x3e93c11e	0.28858274
124	0xbe741897	-0.23837505
125	0xbdbbdcb6	-0.09172957
126	0x3d089acf	0.033350762
127	0xbdd1d857	-0.10246342
128	0x3e12940c	0.14314288
129	0xbdb6b7fa	-0.089218095
130	0x3cf6e113	0.03013662
131	0xbcd5ea1c	-0.026112609
132	0x3d3e46bc	0.046454176
133	0x3e16b6da	0.1471819
134	0xbe36dc49	-0.1785747
135	0xbcb6b46a	-0.022302825
136	0xbdf4f5dc	-0.119609565
137	0x3cc9525b	0.024575403
138	0xbb8a29eb	-0.004216423
139	0xbe1c3381	-0.15254022
140	0xbddb0f42	-0.106962696
141	0xbd245231	-0.040117446
142	0xbc95ffaf	-0.018310396
143	0x3c2a45ea	0.010392645
144	0x3d7a8e5d	0.061170924
145	0x3e30be26	0.17260036
146	0x3df1c805	0.11805729
147	0xbd20e724	-0.039282933
148	0xbdd8c13c	-0.105837315
149	0xbe6ebcaa	-0.23314157
150	0x3c8a33c6	0.01687039
151	0xbd583cc3	-0.052792322
152	0xbc9aa5ed	-0.018877948
153	0x3dc74957	0.09730785
154	0x3dbb2a9d	0.09138987
155	0xbd66bd05	-0.056332607
156	0x3dd43277	0.10361188
157	0x3e7a2137	0.24426733
158	0x3da94872	0.08265771
159	0x3e040773	0.12893467
160	0x3e77f945	0.24216183
161	0x3dae3621	0.08506418
162	0xbda080bf	-0.07837056
163	0x3e8f8298	0.28029323
164	0xbe86e6db	-0.26348004
165	0x3e47c34b	0.19508092
166	0x3d462430	0.048374355
167	0x3da6e810	0.08149731
168	0x3cda89d3	0.026677048
169	0xbe2d43ea	-0.16920438
170	0xbe3ed17c	-0.186346
171	0x3e56463c	0.2092523
172	0xbd50a4a0	-0.05093825
173	0xbda64385	-0.08118347
174	0xbd8c25d9	-0.06843156
175	0x3e78d936	0.2430161
176	0xbdf766f2	-0.12080182
177	0xbca574bf	-0.02019727
178	0x3e2a51d7	0.16632782
179	0x3e5feb52	0.21867111
180	0xbd6c885a	-0.057747222
181	0xbd139ac5	-0.03603627
182	0xbd02858f	-0.031865653
183	0x3e0618b9	0.13095368
184	0x3d0ddd9f	0.034635182
185	0x3df8a98f	0.12141716
186	0xbced09ef	-0.0289354
187	0x3ddfdc51	0.10930694
188	0x3ded5682	0.11588766
189	0x3b959440	0.004564792
190	0xbddde74e	-0.108351335
191	0x3c5a915f	0.013340323
192	0x3dddec4b	0.10836085
193	0x3d220e63	0.0395645
194	0xbd68509d	-0.056717504
195	0x3daa5d90	0.08318627
196	0xbde41248	-0.11136299
197	0x3e19d988	0.15024388
198	0x3e16b8a9	0.1471888
199	0xbebfc976	-0.3745839
200	0xbe7fc0ef	-0.24975942
201	0xbd2713ee	-0.04079049
202	0xbddd48e5	-0.10804919
203	0xbe1129de	-0.14176127
204	0xbde38d6d	-0.11110959
205	0x3dffc0b3	0.12487926
206	0x3e11780b	0.14205949
207	0x3dd8970e	0.105756864
208	0x3c99f479	0.018793331
209	0x3e582b96	0.21110377
210	0xbdc7be86	-0.09753136
211	0xbd23a735	-0.039954383
212	0x3e46fde7	0.19432794
213	0xbe6bdefb	-0.23034279
214	0x3d82868b	0.06373318
215	0xbe8db2b7	-0.2767541
216	0x3dc47f1e	0.09594558
217	0x3e6507bc	0.22366232
218	0x3e1c4489	0.15260519
219	0x3e3b9b4e	0.18320963
220	0xbe5096dc	-0.20370048
221	0x3d093bd1	0.03350431
222	0xbe5f5949	-0.21811403
223	0xbd289bdb	-0.04116426
224	0x3bde9842	0.006793053
225	0xbd72384a	-0.059135713
226	0x3e338c10	0.17533898
227	0x3c5cfd0c	0.013488065
228	0xbdbf7657	-0.093487434
229	0x3e6df6bf	0.23238657
230	0xbd43c1b2	-0.047792144
231	0xbc8b1d37	-0.016981704
232	0x3de09765	0.10966376
233	0xbd1037e2	-0.035209544
234	0xbe1de32f	-0.15418695
235	0xbdb22d0b	-0.086999975
236	0xbe8d48d0	-0.27594614
237	0x3ea23164	0.31678307
238	0xbe658533	-0.22414093
239	0xbb751e6d	-0.0037402168
240	0x3dffead7	0.12495964
241	0x3cd6e0f1	0.026230307
242	0x3a7c4884	0.0009623843
243	0x3dc63ec4	0.0967994
244	0xbe365f98	-0.17809904
245	0x3c5ac7fb	0.013353343
246	0x3cfb4746	0.030673634
247	0xbde3320d	-0.11093531
248	0xbda3b3f7	-0.0799331
249	0x39ac06ba	0.00032811408
250	0xbd4fcfbc	-0.05073522
251	0x3e0ac65e	0.13552234
252	0xbe4ba4c2	-0.19887069
253	0x3cbf395d	0.023342783
254	0x3d8c9cc7	0.068658404
255	0xbe18d1f2	-0.14923838

layers.0.bias f4 [256]
0	0xbce06dfc	-0.027396195
1	0xbdc9155e	-0.098185286
2	0xbea7c108	-0.3276446
3	0xbe86ba02	-0.26313788
4	0xbe7fdf11	-0.24987437
5	0xbe1e46f1	-0.1545675
6	0xbdef23fd	-0.11676786
7	0xbe819413	-0.25308284
8	0xbe8fdbac	-0.28097284
9	0xbd4cf74f	-0.05004054
10	0x3d7d114a	0.061784066
11	0xbde92bc9	-0.113853045
12	0xbb9cc611	-0.0047843535
13	0xbec81a61	-0.39082626
14	0xbe77a2e5	-0.24183233
15	0xbe5caf3a	-0.21551219
16	0xbc430941	-0.011904062
17	0xbd36c7fb	-0.04462431
18	0xbe757ae8	-0.23972666
19	0xbe92e7af	-0.28692386
20	0xbe1f2296	-0.15540537
21	0xbe6cac20	-0.23112535
22	0xbcc628d9	-0.0241894
23	0xbe52e2c8	-0.20594323
24	0xbe1be477	-0.15223871
25	0xbe2ea7fc	-0.17056268
26	0xbd8c20ec	-0.06842217
27	0xbe899f13	-0.26879176
28	0xbd1f199d	-0.038842786
29	0xbdb0fc66	-0.08641891
30	0xbe0a4a40	-0.13504887
31	0xbb3235c8	-0.00271927
32	0xbe8743d1	-0.26418927
33	0xba9655d3	-0.0011469669
34	0xbe5b616b	-0.21423881
35	0xbe28946e	-0.16462871
36	0xbd8588ea	-0.06520255
37	0xbdc5e4fb	-0.09662815
38	0xbe8c1a52	-0.2736383
39	0x3d05539f	0.03255045
40	0xbe9518ef	-0.29120585
41	0xbe87a6bc	-0.26494396
42	0xbe7562f7	-0.23963533
43	0xbe92032b	-0.28518042
44	0xbe88cb6c	-0.267177
45	0xbe3c9f39	-0.18420114
46	0xbe36b279	-0.1784152
47	0x3d440c43	0.047863256
48	0xbe2b2b0e	-0.16715643
49	0xbebca70b	-0.36846194
50	0xbe861c71	-0.26193574
51	0xbe4bbd6d	-0.19896479
52	0xbe0e0680	-0.13869667
53	0xbd96e248	-0.073673785
54	0xbe033e08	-0.12816632
55	0xbd82c3ff	-0.063850395
56	0xbec55d34	-0.3854767
57	0xbd795f50	-0.060881913
58	0xbe34abb9	-0.17643632
59	0xbe389b0a	-0.18027893
60	0xbed934d6	-0.42423123
61	0xbe946dca	-0.28990012
62	0xbe31021c	-0.17285961
63	0xbebba144	-0.36646473
64	0xbdce3c0a	-0.10070045
65	0xbd8b5223	-0.06802776
66	0xbea401b0	-0.32032537
67	0xbee681dc	-0.4502095
68	0xbeb97207	-0.36219808
69	0xbe888bda	-0.26669198
70	0xbeafe1b2	-0.3435188
71	0x3d89861d	0.06715033
72	0xbe2f9f65	-0.17150648
73	0xbe8f2f7b	-0.27965912
74	0xbe56f71a	-0.209927
75	0xbe26a8af	-0.16275285
76	0xbe9b9666	-0.30388182
77	0xbe9ff574	-0.31241953
78	0xbe19da30	-0.15024638
79	0xbcc76fe0	-0.024345338
80	0xbd2abd97	-0.041684713
81	0xbe686039	-0.22692956
82	0xbd9daba5	-0.07698754
83	0xbe592ed8	-0.21209276
84	0xbe9894d5	-0.2980105
85	0xbe968779	-0.29400232
86	0xbe1ebe0a	-0.15502182
87	0x3da81112	0.08206381
88	0xbe3aa78d	-0.18227978
89	0xbd70239a	-0.058627702
90	0xbea0e2cd	-0.31423035
91	0xbd358a0f	-0.044321116
92	0xbe7aea6c	-0.24503487
93	0xbdb51ae8	-0.088430226
94	0xbeb2542a	-0.34829837
95	0xbe7dcdd8	-0.24785554
96	0xbeb47c6f	-0.35251185
97	0xbe8007d0	-0.2500596
98	0xbecf9267	-0.40541384
99	0xbea4005e	-0.3203153
100	0xbe3ab9cc	-0.18234938
101	0xbe80c89a	-0.25153047
102	0xbde89bd7	-0.11357849
103	0xbe97dc6f	-0.29660365
104	0xbe6f866a	-0.23391119
105	0xbeb8094f	-0.35944602
106	0xbe8c27b5	-0.27374044
107	0xbe972f31	-0.29528192
108	0xbc5fa6ec	-0.013650637
109	0xbeb4b910	-0.3529744
110	0xbec862f4	-0.39137995
111	0xbc803714	-0.015651263
112	0xbe5e74ae	-0.21724197
113	0xbe40f457	-0.18843208
114	0xbe9267d4	-0.2859484
115	0xbd9087f0	-0.07057178
116	0x3cadb541	0.021204593
117	0xbe4162d5	-0.18885358
118	0xbe18fd7c	-0.14940447
119	0xbe45b9b5	-0.19309123
120	0xbe7693e9	-0.24079861
121	0xbe63da21	-0.22251178
122	0xbe98f1d4	-0.29872
123	0xbe746890	-0.23868012
124	0xbdc70705	-0.09718136
125	0xbebf3301	-0.373436
126	0x3d8f9bb4	0.0701212
127	0xbe431d27	-0.1905409
128	0xbc6e489e	-0.0145436805
129	0xbe2eef2b	-0.17083423
130	0xbd65eb98	-0.056132883
131	0xbeb0f996	-0.3456542
132	0x3c388375	0.011261811
133	0xbe2b12a4	-0.1670633
134	0xbd8ad813	-0.06779494
135	0xbe657a42	-0.22409919
136	0x3d71f61b	0.059072595
137	0xbe467dd9	-0.19383945
138	0xbcde6c2f	-0.027151195
139	0xbe86b94e	-0.2631325
140	0xbe0e8b90	-0.13920426
141	0xbe96d87d	-0.29462042
142	0xbe4fc160	-0.2028861
143	0xbde91def	-0.113826625
144	0xbe23c848	-0.1599437
145	0xbe3fb138	-0.18719947
146	0xbcd6e23d	-0.026230926
147	0x3dba44a9	0.09095127
148	0xbeafe5ac	-0.34354913
149	0xbe462ebd	-0.19353767
150	0xbec695a3	-0.3878604
151	0xbe161046	-0.14654645
152	0xbe1cac07	-0.15299998
153	0xbdb67b4e	-0.08910237
154	0xbe1cc602	-0.15309909
155	0xbe8a06ed	-0.2695841
156	0xbe2386dc	-0.15969414
157	0xbe4c43e2	-0.1994777
158	0xbe37f698	-0.17965162
159	0xbe688648	-0.22707474
160	0xbeb29a55	-0.3488337
161	0xbe098e55	-0.13433202
162	0xbdc6e4bb	-0.097115956
163	0xbcb0f5dd	-0.021601612
164	0xbe4f46a9	-0.20241798
165	0xbd6b7130	-0.05748099
166	0xbe87fd85	-0.26560608
167	0xbe7be1de	-0.2459788
168	0xbe0f3d00	-0.13988113
169	0xbea48d7f	-0.32139203
170	0xbd8b9cc7	-0.06817012
171	0xbc1f4cbb	-0.009722884
172	0xbe7c1d3b	-0.24620526
173	0xbe2efac7	-0.17087851
174	0xbe9f49cc	-0.3111099
175	0xbe899d1e	-0.26877683
176	0xbead68a7	-0.33868906
177	0xbdb1bb99	-0.086783595
178	0xbdde75d1	-0.108623154
179	0xbe1cea43	-0.15323739
180	0x3bd6831a	0.0065463902
181	0xbc9a3e7f	-0.018828629
182	0xbec5c555	-0.38627115
183	0xbe5d3510	-0.21602273
184	0xbc203a1b	-0.009779478
185	0xbc0b1acc	-0.008490276
186	0xbd0947bb	-0.033515673
187	0xbe2e2493	-0.1700614
188	0xbe0d9326	-0.13825664
189	0xbe925e3d	-0.28587523
190	0xbe14a673	-0.1451662
191	0xbdd9c505	-0.106332816
192	0xbb3596fb	-0.00277084
193	0x3d43bea5	0.047789235
194	0xbe8648eb	-0.26227507
195	0xbe2e4fb7	-0.17022596
196	0xbe370d1e	-0.17876098
197	0xbea351bb	-0.31898293
198	0xbe0053ad	-0.1253192
199	0xbe1e04cf	-0.15431522
200	0xbd2074ac	-0.039173767
201	0xbcbb8492	-0.022890363
202	0xbe931982	-0.28730398
203	0xbda41933	-0.08012619
204	0xbe5127af	-0.20425294
205	0xbec0534a	-0.37563545
206	0xbed9937d	-0.42495337
207	0xbd7d162e	-0.06178873
208	0xbd84ebbf	-0.064902775
209	0xbd5bbce0	-0.053646922
210	0xbe31edb3	-0.17375831
211	0xbe552c38	-0.2081765
212	0xbeb35492	-0.3502546
213	0xbeb2450d	-0.34818307
214	0xbdeef19f	-0.11667179
215	0xbdec46b5	-0.11536924
216	0xbe923031	-0.28552392
217	0xbea20256	-0.31642407
218	0x3d32b7f2	0.043632455
219	0xbe81e109	-0.25367
220	0xbeac9712	-0.33709008
221	0xbdda1871	-0.10649193
222	0xbdfb7409	-0.12277991
223	0xbe4c69ac	-0.19962186
224	0xbed48c9b	-0.41513523
225	0xbddee0c8	-0.10882717
226	0xbd1eac67	-0.038738634
227	0xbddeb8dc	-0.10875103
228	0xbe97b853	-0.29632816
229	0xbeb080bc	-0.34473217
230	0xbe67fb2f	-0.22654413
231	0xbe9de78b	-0.30840716
232	0xbe764c62	-0.24052575
233	0xbe9cecca	-0.30649406
234	0xbea583fe	-0.32327265
235	0xbe03b399	-0.1286148
236	0xbd063801	-0.032768253
237	0xbd9c5ac9	-0.076345034
238	0xbe99cb81	-0.30038074
239	0xbecf96e5	-0.4054481
240	0xbe8e3010	-0.27771044
241	0xbebfb2da	-0.3744114
242	0xbe8cb3f4	-0.27481043
243	0x3d89b39c	0.06723711
244	0xbe97aae9	-0.29622582
245	0xbe318a71	-0.17337967
246	0xbe8d7cf1	-0.27634385
247	0xbd95a1fc	-0.07306287
248	0xbeb0b24e	-0.34511036
249	0xbdf701da	-0.120609
250	0xbcd6bce2	-0.026213113
251	0xbdee0a00	-0.11623001
252	0xbc823454	-0.015894093
253	0xbd350b92	-0.044200487
254	0xbe884d0d	-0.26621285
255	0x3b0df4f1	0.002166089

layers.3.weight f4 [80, 256]
0	0xbd33612b	-0.04379384
1	0x3d381862	0.04494513
2	0x3d5a44f1	0.053288404
3	0xbc9d62d1	-0.019212158
4	0xbd78701d	-0.060653795
5	0xbd80462b	-0.062633835
6	0x3d4e6067	0.050384905
7	0x3dbb7b7b	0.091544114
8	0x3e01c13c	0.1267137
9	0xbe21fcd4	-0.15819103
10	0xbce16e93	-0.027518546
11	0xbd98471b	-0.07435437
12	0xbc862251	-0.016373785
13	0x3e34dbce	0.17661974
14	0x3cf12b9d	0.029439742
15	0x3d8b0bb2	0.0678934
16	0xbdd30808	-0.10304266
17	0xbdad3f8e	-0.08459388
18	0x3dd14377	0.10217946
19	0x3dc9ef82	0.098601356
20	0x3dc01c68	0.09380418
21	0x3d3b01d2	0.045656033
22	0x3cd9961e	0.02656084
23	0x3d2e0aef	0.042490896
24	0x3dae97c1	0.085250385
25	0x3c22bf0a	0.009933243
26	0xbca17eb3	-0.019713735
27	0x3e0c0a4c	0.13675803
28	0xbdf06d7c	-0.117396325
29	0xbc755caf	-0.014975711
30	0x3da21628	0.07914382
31	0x3bae5bcd	0.005321002
32	0x3e2bede2	0.16789964
33	0xbdaecd38	-0.08535236
34	0x3d8d1813	0.068893574
35	0x3dbdb977	0.0926389
36	0xbe043600	-0.12911224
37	0x3c70aac0	0.0146891475
38	0x3dd3d976	0.10344212
39	0xbe182563	-0.14858012
40	0x3d07bba3	0.03313793
41	0xbdd8f54a	-0.1059366
42	0xbe01ede0	-0.12688398
43	0x3e086c03	0.13322453
44	0x3e0ccd3b	0.13750164
45	0xbcedac3a	-0.029012788
46	0x3d7d00e6	0.061768435
47	0x3c339654	0.010961134
48	0xbd5762e3	-0.05258454
49	0x3dd580ab	0.10424932
50	0x3e095343	0.13410668
51	0xbcd9ff40	-0.02661097
52	0xbd0364a2	-0.032078393
53	0xbdb54e50	-0.088528275
54	0xbda55e8a	-0.080746725
55	0xbd3afe64	-0.045652762
56	0x3de499ca	0.111621454
57	0x3d22f9ed	0.03978913
58	0x3cf9bc41	0.030485274
59	0xbe03ace8	-0.12858927
60	0x3e840c0a	0.25790435
61	0xbc9f741b	-0.019464543
62	0x3df1a589	0.117991515
63	0x3e90988b	0.2824138
64	0xbd0eb05b	-0.034836154
65	0xbd143214	-0.03618057
66	0x3db502df	0.08838438
67	0x3de09846	0.10966544
68	0x3e6111a8	0.21979392
69	0x3d50c8dc	0.050972804
70	0x3da1118c	0.07864675
71	0xbe5af8e9	-0.21384014
72	0x3d9d0fe1	0.07669044
73	0xbcd13b2d	-0.025540913
74	0xbd135b30	-0.035975635
75	0x3dea19a7	0.11430674
76	0xbe10bb9c	-0.14134067
77	0x3df521a5	0.11969308
78	0x3d24cb70	0.040233076
79	0xbde79acc	-0.11308822
80	0xbd638c35	-0.055553634
81	0x3be62d6a	0.0070244567
82	0x3d1d0ac5	0.03834035
83	0x3ddc07b7	0.10743659
84	0xbd27f450	-0.04100448
85	0x3e1e2c3e	0.15446565
86	0x3e4c2036	0.19934162
87	0xbd261c22	-0.040554173
88	0x3b6c0aa8	0.0036017094
89	0x3b111cec	0.0022142483
90	0x3d09b349	0.033618245
91	0x3cc0aefa	0.023520935
92	0xbd4c60ef	-0.04989713
93	0xbd9cde73	-0.07659616
94	0x3d918e87	0.07107263
95	0x3d01dee3	0.031706702
96	0x3d371590	0.044698298
97	0x3bd35de7	0.006450403
98	0x3dfe6b54	0.12422815
99	0x3d9d7d2b	0.076898895
100	0xbdc9b361	-0.09848667
101	0x3ca22ce7	0.019796802
102	0x3d87b101	0.06625558
103	0xbd1856ea	-0.037192263
104	0xbd63fbc8	-0.05566004
105	0x3dc6a499	0.09699363
106	0x3e403da9	0.18773521
107	0x3db81d1f	0.089899294
108	0xbdfb3812	-0.12266554
109	0x3e21525d	0.15754075
110	0x3dddf7a3	0.108382486
111	0x3c484956	0.012224516
112	0x3d784f8b	0.060622733
113	0x3d77a212	0.060457297
114	0xbda9064e	-0.08253156
115	0xbd5acf29	-0.05342022
116	0xbdc504ea	-0.09620078
117	0x3d71c443	0.05902506
118	0x3d7e6a20	0.062112927
119	0xbd7d8de1	-0.061902884
120	0x3bda02b3	0.006653154
121	0x3db16b73	0.086630724
122	0x3db9fb22	0.09081103
123	0x3d1ef836	0.03881093
124	0x3d897eec	0.067136616
125	0x3db0e170	0.08636749
126	0xbd496fbe	-0.04917883
127	0x3e00f572	0.1259363
128	0xbd6f550e	-0.058430724
129	0x3cd168ae	0.02556261
130	0xbc23d6c9	-0.009999939
131	0x3e457f31	0.19286801
132	0xbe21c8c6	-0.15799245
133	0xbe0ce504	-0.13759238
134	0xbd5163a8	-0.05112043
135	0xbb346d56	-0.002753099
136	0xbe07223d	-0.13196655
137	0x3dc01dd3	0.093806885
138	0xbaa52c37	-0.0012601678
139	0x3dce34dc	0.10068676
140	0xbdc3653f	-0.095407955
141	0x3d99cf69	0.075102635
142	0xbc32a503	-0.0109036
143	0x3d91606b	0.070984684
144	0x3d203c4a	0.039119996
145	0xbcc6c865	-0.024265477
146	0xbe0ecdf8	-0.13945758
147	0xbd815e4b	-0.06316813
148	0x3e59cf28	0.2127043
149	0x3e08ff2d	0.13378592
150	0x3deaff24	0.114744455
151	0x3c37d2d4	0.011219699
152	0x3d181479	0.0371289
153	0x3ca2bac9	0.019864457
154	0x3cf72754	0.03017012
155	0x3daec09f	0.08532833
156	0xbc824be8	-0.015905336
157	0xbc33e5df	-0.0109800985
158	0x3d4e178e	0.050315432
159	0x3cbf9ed7	0.02339117
160	0x3e6cad24	0.23112923
161	0x3de30ac9	0.110860415
162	0x3d2890ab	0.04115359
163	0x3bd39c59	0.006457847
164	0xbc6ab291	-0.0143248
165	0xbd0210e3	-0.031754386
166	0x3d21985a	0.039451934
167	0x3a7a4ab4	0.0009547875
168	0x3e03eede	0.1288409
169	0x3e13bb07	0.14426814
170	0x3b99db01	0.0046952968
171	0xbd335f88	-0.043792278
172	0x3df81a3c	0.12114379
173	0x3c0ad18a	0.00847281
174	0x3e0f8a17	0.14017521
175	0xbd7671e6	-0.060167216
176	0xbd84b5e5	-0.06480006
177	0xbb871f4d	-0.0041236044
178	0x3e145f84	0.14489561
179	0xbd797487	-0.060902145
180	0xbd9ac2dd	-0.075566985
181	0x3d2b109e	0.041763894
182	0x3d632d7e	0.055463307
183	0x3ded600b	0.11590584
184	0xbc3a6d35	-0.011378576
185	0x3b895a95	0.0041917064
186	0xbe0d5f83	-0.13805966
187	0x3dc6ab6a	0.097006634
188	0xbcd3e679	-0.025866734
189	0x3cfb209d	0.0306552
190	0x3cb2d532	0.021830175
191	0xbdeabe3b	-0.11462065
192	0xbc927408	-0.017877594
193	0xbdd7658e	-0.10517417
194	0x3db5c7d3	0.08876004
195	0x3dbee5c1	0.09321166
196	0x3dd6e683	0.10493185
197	0x3d622c61	0.055218104
198	0x3d2b80f5	0.04187103
199	0xbc111ea4	-0.008857403
200	0xbd8e7b28	-0.06957084
201	0x3dfed5bb	0.124431096
202	0x3b831da6	0.004001337
203	0xbd7bfd91	-0.061521117
204	0x3d3f5dce	0.04672032
205	0x3d6c44b7	0.05768272
206	0x3e1426ac	0.14467877
207	0xbbc123f7	-0.00589418
208	0xbd0da0cc	-0.034577176
209	0x3b567741	0.003272489
210	0xbdfe88bb	-0.12428423
211	0x3c4e1bc3	0.012579861
212	0x3dc3abc4	0.09554246
213	0x3e42c6ad	0.19021101
214	0x3de88eab	0.11355337
215	0xbc4884d6	-0.012238702
216	0x3da559af	0.080737464
217	0x3e44d100	0.19220352
218	0xbd54e5f1	-0.0519771
219	0x3de774d8	0.11301583
220	0x3cb8ea7d	0.02257275
221	0xbd93a508	-0.072092116
222	0xbd5dc194	-0.05413969
223	0x3d8284c5	0.0637298
224	0x3dd23ae7	0.10265141
225	0xbcdbeec6	-0.026847254
226	0xbd8fc18b	-0.07019337
227	0x3d93c57c	0.072154015
228	0x3da7934a	0.0818239
229	0x3e3f6d66	0.18694076
230	0x3d4184ca	0.04724578
231	0x3dbd6479	0.09247679
232	0x3dbdd4a0	0.092690706
233	0x3e5217d9	0.2051691
234	0x3d82c235	0.06384698
235	0xbc27d754	-0.010244209
236	0xbcf9d6e5	-0.030497978
237	0x3c677882	0.014127852
238	0xbbcf25c3	-0.00632164
239	0x3db170da	0.08664103
240	0x3d9b856c	0.075938076
241	0xbcf6b1d7	-0.030114098
242	0xbd1b7eda	-0.037962772
243	0xbc98c2eb	-0.018647632
244	0x3e4e19ce	0.20127031
245	0x3e26ed7c	0.1630153
246	0x3df250c7	0.11831813
247	0x3d207fc5	0.03918435
248	0x3ea3d25b	0.31996426
249	0xbd3c4c36	-0.045971118
250	0xbd28722c	-0.041124508
251	0xbce787af	-0.028262941
252	0xbd93fc74	-0.07225886
253	0xbd40d140	-0.047074556
254	0x3e088a1f	0.13333939
255	0xbd99f100	-0.0751667

layers.3.bias f4 [80]
0	0xbe20c74a	-0.15701023
1	0x3d8a1612	0.06742491
2	0xbe20262f	-0.15639566
3	0xbd803ee9	-0.06261999
4	0xbe0c17c2	-0.13680938
5	0xbe522e22	-0.20525411
6	0xbe10e1bc	-0.14148611
7	0xbdd88f18	-0.10574168
8	0xbb7dd9f0	-0.0038734637
9	0xbde8bf81	-0.113646515
10	0xbd9a361d	-0.075298525
11	0xbcfb9f59	-0.030715631
12	0xbd6d6b56	-0.05796369
13	0x3c0d52dc	0.008625712
14	0xbd183557	-0.037160244
15	0x3da3441f	0.079719774
16	0x3c2ca18e	0.0105365645
17	0x3d0322ff	0.032015797
18	0xbda5e3e9	-0.08100111
19	0xbd07559b	-0.033040624
20	0xbe28dca4	-0.16490418
21	0xbddeceb8	-0.10879272
22	0x3d0268be	0.03183817
23	0xbca72da2	-0.020407502
24	0xbc0841d3	-0.008316475
25	0xbe0ac6c7	-0.1355239
26	0xbdb619e7	-0.08891659
27	0x3c70dc5e	0.014700977
28	0x3d62aebf	0.055342432
29	0xbce2d635	-0.027690032
30	0xbe5fe5fc	-0.21865076
31	0xbd9d3dd7	-0.07677811
32	0x3a6a151b	0.00089295366
33	0x3d5506a3	0.052008282
34	0xbe397a00	-0.18112946
35	0xbe6b56e9	-0.22982372
36	0x3ac9b7c6	0.0015389852
37	0x3d6c5af8	0.057703942
38	0x39f33284	0.0004638621
39	0xbda24912	-0.07924093
40	0xbdd620d4	-0.1045548
41	0xbd10122e	-0.035173588
42	0xbe0006c2	-0.12502578
43	0x3d112c86	0.03544285
44	0xbc87671f	-0.016528664
45	0xbde5b2a9	-0.11215717
46	0xbd7a9fbd	-0.061187495
47	0xbe3c9618	-0.18416631
48	0xbde989bb	-0.11403223
49	0x3d6a9fbf	0.057281252
50	0xbe1d10a6	-0.15338382
51	0x3a6e8af0	0.0009099683
52	0xbe44dd40	-0.19225025
53	0x3c8272e4	0.015923925
54	0xbd00c020	-0.031433225
55	0xbaf7fcef	-0.0018919985
56	0xbd983ded	-0.074336864
57	0xbe490e4f	-0.19634365
58	0xbd0791bd	-0.03309797
59	0x3d915f51	0.07098258
60	0x3d5ca5bf	0.053869005
61	0xbe2e616d	-0.17029352
62	0x3d1bea57	0.03806528
63	0x3c6f732a	0.01461486
64	0xbdb4aac8	-0.088216364
65	0x3c1e3aaa	0.009657541
66	0xbcc81092	-0.024421964
67	0xbde866fb	-0.11347767
68	0xbbfb2801	-0.007664681
69	0xbe0b6e32	-0.13616255
70	0x3d11a2a4	0.035555497
71	0xbe262b66	-0.16227493
72	0x3c283f42	0.010268988
73	0xbd5b4236	-0.05352994
74	0xbe676c01	-0.22599794
75	0xbdefb7f1	-0.11705006
76	0xbe5b60e1	-0.21423675
77	0xbd6772cd	-0.056505967
78	0xbde44cc7	-0.111474566
79	0xbe75e800	-0.24014282

layers.6.weight f4 [64, 80]
0	0x3df89df9	0.12139506
1	0xbe39a341	-0.18128683
2	0xbd212b7c	-0.03934811
3	0xbd99350e	-0.074808225
4	0x3dc8977b	0.097945176
5	0xbde928d5	-0.11384741
6	0xbb9c7980	-0.004775226
7	0x3d529ca8	0.05141893
8	0xbd8d66ad	-0.069043495
9	0xbd122e59	-0.03568873
10	0x3e23d288	0.1599828
11	0xbd75d20a	-0.060014762
12	0x3d87461c	0.06605169
13	0xbddff8d6	-0.109361336
14	0x3e311d5b	0.17296354
15	0xbe6cda8f	-0.23130248
16	0x3d62ecc3	0.055401575
17	0xbe37755f	-0.17915867
18	0x3d94a18b	0.072573744
19	0x3e4b5bca	0.19859233
20	0xbc7bfe89	-0.01538051
21	0xbda94854	-0.082657486
22	0xbe021222	-0.1270223
23	0xbdd2c79c	-0.10291979
24	0x3cb0be40	0.021575093
25	0xbdeac2fe	-0.11462973
26	0x3cd81a06	0.026379596
27	0xbd9ab510	-0.07554066
28	0x3d3167ae	0.043311767
29	0xbe209c51	-0.1568463
30	0x3e313ded	0.17308779
31	0x3e356e8a	0.17717949
32	0xbe59b88b	-0.21261804
33	0xbe5975d6	-0.21236357
34	0x3ba9d664	0.005183028
35	0xbd4c5f8f	-0.04989582
36	0x3d9310cb	0.071809374
37	0xbe4f1224	-0.20221764
38	0x3ddaf42a	0.10691102
39	0x3c9e2d5e	0.019308742
40	0x3d5fd3f5	0.054645497
41	0xbdc4d5cc	-0.09611091
42	0x3e4e9e64	0.20177609
43	0xbdb4eaf7	-0.088338785
44	0xbe46f3f8	-0.19429004
45	0xbe2155eb	-0.15755431
46	0xbe0fc066	-0.14038238
47	0x3ddf16df	0.10893034
48	0x3de3d99f	0.11125492
49	0xbe3621a8	-0.17786276
50	0x3c22c642	0.009934964
51	0xbe282054	-0.16418582
52	0x3d6f2e6a	0.058393873
53	0xbdca1abf	-0.09868383
54	0xbd346a34	-0.044046596
55	0xbe59fd29	-0.21287979
56	0x3da7f5d7	0.08201187
57	0x3e01fc42	0.12693885
58	0xbe0154e6	-0.12630042
59	0xbe07a796	-0.13247523
60	0xbe19aac4	-0.15006548
61	0x3e014eaa	0.12627664
62	0xbd6a9506	-0.057271026
63	0x3e0dd407	0.13850413
64	0x3d940412	0.07227339
65	0xbe496faf	-0.1967151
66	0xbcba4359	-0.022737192
67	0x3e11b675	0.14229758
68	0xbd9c6dcd	-0.0763813
69	0x3e1279bd	0.14304252
70	0x3d34851a	0.044072248
71	0x3ddbf968	0.1074093
72	0xbe723086	-0.23651323
73	0xbd87f9a0	-0.06639409
74	0x3e24a781	0.16079523
75	0x3dc3ed27	0.095667176
76	0x3e087367	0.13325273
77	0x3dd65d8e	0.10467063
78	0x3d4ebc2a	0.050472416
79	0xbd5a8501	-0.0533495
80	0x3e24b4ce	0.16084597
81	0xbe904220	-0.2817545
82	0xbdac4ba2	-0.08412863
83	0xbe1b5ce8	-0.1517216
84	0x3e2d72dd	0.16938348
85	0xbdb11bb0	-0.08647859
86	0xbd3e83ba	-0.046512343
87	0x3e548ff8	0.20758045
88	0xbde770bf	-0.113008015
89	0x3d43a0ef	0.0477609
90	0x3d3976d6	0.045279346
91	0xbcad15d4	-0.021128573
92	0xbd01f295	-0.031725485
93	0xbe30ebcf	-0.17277454
94	0x3c9f25fe	0.019427296
95	0xbe809dcb	-0.25120386
96	0x3d6b0edd	0.05738722
97	0xbe335af5	-0.17515166
98	0x3e1843b2	0.14869574
99	0x3cb5afe0	0.02217859
100	0xbd72c420	-0.05926907
101	0x3d948f8d	0.07253943
102	0xbe1becb3	-0.15227012
103	0xbe055acf	-0.13022922
104	0x3ddc1272	0.10745706
105	0xbe029549	-0.1275226
106	0x3e1fdbda	0.1561121
107	0xbe15a66a	-0.14614263
108	0x3e221566	0.15828475
109	0xbe7b1392	-0.24519184
110	0x3d51ef92	0.051253863
111	0x3cfb35c5	0.030665288
112	0xbdff78cd	-0.12474213
113	0xbe1ebdc7	-0.15502082
114	0x3b9a77cc	0.004713988
115	0x3ded24a5	0.11579255
116	0x3bb65421	0.005564228
117	0xbe440521	-0.19142582
118	0x3d8236c7	0.06358104
119	0x3d68f401	0.056873325
120	0xbc1c8242	-0.00955254
121	0xbda455d9	-0.08024187
122	0x3e885775	0.26629224
123	0xbe708014	-0.23486358
124	0xbe739f36	-0.23791203
125	0xbe681e1d	-0.22667737
126	0xbe5290ef	-0.205631
127	0x3dcc65b1	0.099803336
128	0x3e18142b	0.14851443
129	0xbe0be95e	-0.13663241
130	0xbd656a98	-0.05600986
131	0xbe5ecbbe	-0.21757409
132	0xbd9806fc	-0.07423207
133	0xbe4d31d2	-0.20038536
134	0xbcbeac57	-0.023275537
135	0xbe717086	-0.2357808
136	0x3df7d94c	0.12101993
137	0x3d683255	0.056688625
138	0xbe0ec729	-0.13943161
139	0xbe490341	-0.19630148
140	0xbe34ada2	-0.1764436
141	0x3d0342ec	0.032046244
142	0xbd66af2f	-0.05631941
143	0x3e45ad16	0.19304308
144	0xbcdd3703	-0.02700377
145	0xbe5dc611	-0.21657588
146	0x3d29ff47	0.041503217
147	0x3d8e06b7	0.069348745
148	0xbe50c4d3	-0.20387582
149	0x3dfcadfd	0.12337873
150	0x3cb5831f	0.02215725
151	0x3de097e7	0.10966473
152	0xbe46e92b	-0.19424884
153	0xbcdf023c	-0.027222745
154	0x3e43784e	0.19088861
155	0xbcaa4880	-0.020786524
156	0x3df060c8	0.117372096
157	0x3d27a12c	0.04092519
158	0x3dcac184	0.099001914
159	0xbd29bf47	-0.041442182
160	0xbc8d3d5f	-0.017241178
161	0x3c676132	0.014122294
162	0xbdbeaed1	-0.09310687
163	0xbd8ecd6d	-0.069727756
164	0x3d0f6c8b	0.035015624
165	0x3ca2eaee	0.019887414
166	0x3d8a1c25	0.067436494
167	0xbc3c3a53	-0.011488515
168	0xbcf1c834	-0.02951441
169	0xbd3e2b20	-0.046427846
170	0x3d84c00a	0.06481941
171	0x3e014302	0.12623218
172	0x3d868781	0.06568814
173	0x3df85128	0.12124854
174	0xbd960ab4	-0.0732626
175	0x3ac2600c	0.001482965
176	0x3c929ed0	0.017897993
177	0xbd50779f	-0.05089533
178	0x3d6ee7f5	0.05832668
179	0xbda44f3c	-0.08022925
180	0x3da587f4	0.080825716
181	0xbdb3fa23	-0.08787944
182	0xbd89987f	-0.067185394
183	0x3c2ef124	0.01067761
184	0x3d8ab469	0.06772692
185	0x3e02e867	0.12783967
186	0x3d4e3774	0.050345853
187	0x3e1334be	0.14375588
188	0x3e1939c0	0.14963436
189	0xbcaa2854	-0.020771183
190	0xbcc0a31e	-0.02351528
191	0xbd884bc4	-0.06655076
192	0xbdcb0bd8	-0.099143684
193	0xbd0a5015	-0.03376778
194	0x3d313373	0.043261956
195	0x3c06e141	0.008232416
196	0x3e039e56	0.12853369
197	0x3c6bf808	0.014402397
198	0x3dbc74e1	0.092019804
199	0xbdb9dd47	-0.090754084
200	0xbd1193ca	-0.035541333
201	0xbd38bbee	-0.0451011
202	0x3cf2dc61	0.0296461
203	0xbd5e4697	-0.05426654
204	0xbd2a2720	-0.04154122
205	0x3d14b7f1	0.036308233
206	0xbdb86727	-0.0900405
207	0x3cdc0b8a	0.026860971
208	0x3d939707	0.072065406
209	0x3d848b2f	0.0647186
210	0x3d140e5d	0.03614651
211	0xbdb78982	-0.089617744
212	0xbd0c685b	-0.03427921
213	0x3aac53b0	0.0013147499
214	0xbd85642e	-0.065132484
215	0xbdaa28d8	-0.083085716
216	0x3d617688	0.05504468
217	0x3e471846	0.19442853
218	0x3d69c3eb	0.057071608
219	0x3d9aaaaa	0.07552083
220	0xbe06f596	-0.13179621
221	0x3d532780	0.051551342
222	0x3c4572db	0.012051309
223	0xbda71221	-0.08157755
224	0xbcc53a55	-0.024075666
225	0xbc8556b6	-0.016276699
226	0x3d9ca7d5	0.07649199
227	0x3ca2a0a0	0.019851983
228	0x3cdee2a4	0.02720768
229	0x3bf7a5dc	0.007557614
230	0x3d7702d2	0.060305424
231	0x3d265bb4	0.0406148
232	0xbd9873de	-0.07443975
233	0x3d59fc03	0.053218853
234	0x3d491588	0.0490928
235	0xbcab46b7	-0.020907743
236	0x3c5b62a0	0.013390213
237	0xbcc8d57d	-0.024515862
238	0x3e1373d0	0.14399648
239	0x3d9417b6	0.07231085
240	0x3da52274	0.08063212
241	0xbe569d2c	-0.20958394
242	0x3d3fe3be	0.04684805
243	0xbde9e70e	-0.11421023
244	0xbc75ac2e	-0.014994664
245	0xbe1ab21e	-0.15107009
246	0xbc970e76	-0.018439513
247	0x3e1ad9ca	0.15122142
248	0xbd4f5137	-0.050614562
249	0x3d691bde	0.05691134
250	0x3cb7840d	0.022401834
251	0x3d38868c	0.04505019
252	0xbc5b582e	-0.013387723
253	0xbe0979ff	-0.13425444
254	0x3e343971	0.17600037
255	0xbe4d51c8	-0.20050728

layers.6.bias f4 [64]
0	0x3e1cc9a5	0.15311296
1	0x3e69c8a0	0.22830439
2	0xbe7d09ca	-0.24710765
3	0x3e1a4b8a	0.15067878
4	0xbe5b0e1e	-0.21392104
5	0xbe991559	-0.298991
6	0x3df4b373	0.1194829
7	0x3d9e3c6e	0.0772637
8	0x3dd3c4f1	0.10340298
9	0x3e05f38e	0.1308119
10	0x3e0c9517	0.13728748
11	0xbe0a3d48	-0.1349994
12	0x3e5a9a0a	0.21347824
13	0x3daad872	0.08342065
14	0x3e2ceabf	0.16886424
15	0x3e04b700	0.12960434
16	0x3d54847e	0.051884167
17	0xbc3643b6	-0.011124542
18	0x3e673773	0.22579746
19	0xbba4e044	-0.0050316174
20	0x3e26af45	0.16277798
21	0x3defe965	0.11714438
22	0xbe76f750	-0.2411778
23	0x3da40ad6	0.08009879
24	0x3e0dd89b	0.1385216
25	0xbcc2a0d2	-0.023758326
26	0x3d753757	0.05986723
27	0xbe936cb0	-0.2879386
28	0x3e251ffc	0.16125482
29	0x3e55de6a	0.20885625
30	0xbe1d2c52	-0.15348938
31	0xbeaa8138	-0.3330171
32	0x3e74cf72	0.23907259
33	0x3e7fc7d9	0.2497858
34	0x3debf9e6	0.11522274
35	0x3b035f1e	0.0020045708
36	0x3da7d8b2	0.08195628
37	0x3e590bcb	0.21195905
38	0x3de8bd31	0.113642104
39	0x3e19c28f	0.15015624
40	0x3e04502a	0.12921205
41	0x3e46c62d	0.19411536
42	0x3e35dcf7	0.17760073
43	0xbdef2af6	-0.11678116
44	0x3e119d43	0.14220147
45	0x3e69c84e	0.22830316
46	0x3de77ad5	0.11302725
47	0xbe8ffcbf	-0.28122517
48	0x3de4be04	0.11169055
49	0xbe7743aa	-0.24146906
50	0x3e2e788b	0.17038171
51	0xbe68441b	-0.2268223
52	0x3e0bc885	0.13650711
53	0xbe3874cc	-0.18013304
54	0xbdff94de	-0.12479566
55	0x3e29a57b	0.16567032
56	0xbde44c42	-0.111473575
57	0x3e09a48e	0.13441679
58	0x3e5b9743	0.2144442
59	0xbd497b4c	-0.04918985
60	0x3e319727	0.17342816
61	0x3e2ea88f	0.17056488
62	0x3cfab531	0.030603977
63	0xbea5fc79	-0.32419184

layers.8.weight f4 [1, 64]
0	0xbdbd4be0	-0.09242988
1	0xbe19223c	-0.14954466
2	0xbc709ebb	-0.014686282
3	0xbe01cded	-0.1267621
4	0xbcc453cb	-0.023965737
5	0xbb144450	-0.0022623725
6	0x3e1009dc	0.14066261
7	0x3e097cf8	0.13426578
8	0x3e6c8b0c	0.23099917
9	0x3e022812	0.12710598
10	0xbd6c8560	-0.057744384
11	0xbc44dfa9	-0.012016215
12	0x3e34fc64	0.17674404
13	0xbd965fd8	-0.073424995
14	0x3e4ab4f3	0.19795589
15	0x3e0f63fb	0.14002983
16	0x3e344eb3	0.17608146
17	0x3dcff852	0.10154785
18	0xbe04cce0	-0.12968779
19	0x3db68371	0.08911789
20	0xbe136a82	-0.14396098
21	0x3df4d9ad	0.11955581
22	0xbccf7eeb	-0.025329074
23	0x3d404097	0.046936598
24	0x3e011e1e	0.12609145
25	0x3dc56495	0.09638325
26	0x3e334335	0.17506106
27	0xbc7503a2	-0.014954479
28	0xbe1cdd5e	-0.1531882
29	0xbdcba1f0	-0.099429965
30	0x3d6bfd51	0.05761463
31	0xbcad6973	-0.021168446
32	0xbe25eb00	-0.16202927
33	0xbe252eda	-0.16131154
34	0x3e45b619	0.19307746
35	0x3de4427f	0.111454956
36	0xbdb71b88	-0.08940798
37	0x3e7fd6f6	0.24984345
38	0x3e51a050	0.2047131
39	0xbe0126bc	-0.12612432
40	0xbdb59c55	-0.088677086
41	0x3e425d31	0.18980862
42	0x3e720030	0.23632884
43	0xbbb5e650	-0.005551137
44	0x3e396f3c	0.18108839
45	0x3e77e2a7	0.24207555
46	0xbd4d58ef	-0.05013364
47	0xbcb9a88c	-0.022663377
48	0x3e2b607b	0.16736023
49	0xbc1ff146	-0.009762114
50	0x3de74cca	0.11293943
51	0xbaa5479a	-0.001260984
52	0x3e18967e	0.14901158
53	0xbb377283	-0.0027991838
54	0xbb6a2b03	-0.0035731203
55	0xbd9f3ab4	-0.077748686
56	0xbb310e66	-0.0027016639
57	0x3e2faebc	0.171565
58	0xbe20230e	-0.15638372
59	0xbd65c1ea	-0.056093134
60	0xbe06e5ae	-0.13173553
61	0xbdb7bce2	-0.089715734
62	0x3e3ecf3e	0.18633744
63	0xbcc3611a	-0.023850013
