flwr-mlp/models/checkpoints/round_023.pt (torch, 127593 bytes, 7 tensors)

layers.0.weight f4 [256, 19]
00000000: 7a26 53bd 9b7e 14be afc4 a1bc 3efa 8fbe
00000010: e668 02bd e23b 10be 8797 cabd 2a77 50be
00000020: eaeb 393e 8284 e1bd 921e 4f3d db62 123e
00000030: d830 ffbc b7b6 11be 772f 4d3e e845 49bd
00000040: 9120 15be 30c9 243d 0a4b 5bbe f8f8 2cbe
00000050: 420a 5abd 220d 0a3e f168 d5bb da03 c1bd
00000060: 650a 8ebc 9ee2 493e 618f 4ebe 1911 ad3d
00000070: ebef 1dbd 049f 2a3e 7793 fe3d f650 f5bd
00000080: 19e0 82bd c065 823d fa75 92bd e6a6 ca3d
00000090: ff8e 603e 7ba4 85bc 0a56 933d e440 e33d
000000a0: eef7 b63c 4b0f ebbd 31d6 8b3d bcb6 48bd
000000b0: 8678 f13d e046 6ebe 7caa 87bc eae9 6c3e
000000c0: c498 ca3d 2219 b8bd 520b af3d 34fb 123e
000000d0: 7769 d83d 213d 34bc ad2e 713d 4930 fa3d
000000e0: c3bf 99bd d6d7 913e 34f1 4fbd f73d 553d
000000f0: ec87 dc3d 38f5 97bd ac6d 5ebe fefd 4fbe
00000100: c76f 623e 31c1 3ebd 14f6 f3bc 4c7b 543e
00000110: cce0 f7bd 618e a5bd ec0b 293d 399c 05be
00000120: a431 8fbd c8c1 95bd 5a48 543d 6ad5 093e
00000130: 62ce a1bd 7d42 c4bd ee9a 2e3e 2b42 123c
00000140: 2c5d 553e 4735 303e f659 523e fb06 f43d
00000150: 6f55 323e 9857 e9bc 7f2b 12be e490 d5bd
00000160: 1309 52be 60e5 3bbd 48ff c2bd e083 ac3d
00000170: bd9c 0cbd 002f 3fbd 3922 1bbe 5d86 593d
00000180: 160f 083e 30e7 febd 5486 503e 96a9 b93d
00000190: e55e 57be 9aa2 313e d93c 673e abf3 f2bd
000001a0: 49d5 68be 6452 a53d 705b 9ebe 7bea babb
000001b0: a961 2d3e aa9b 083e 991d 0dbc 9fab c63d
000001c0: f400 84bc 51c2 8abe c33e e43d 494b 273e
000001d0: 2b07 843d 692b 98bc 0c62 78bd a93d c6bd
000001e0: 055e 14be 9cc9 3abe 5964 48be 84e5 8f3e
000001f0: c0c9 6ebe e197 bebd aad8 133d b8bb dcbd
00000200: 65df 143e afd1 b9bd ab2b 133d a871 eebc
00000210: b581 3b3d 1afd 1a3e 9433 3cbe a6c6 d2bc
00000220: 1305 f1bd 2d67 ee3c 4e5a 7bbb 344d 1fbe
00000230: 26b7 dfbd 22b7 2bbd 194f c4bc ac8c 183c
00000240: c4c6 6c3d fc69 373e 1909 fe3d 6524 11bd
00000250: 4411 c9bd 62bb 71be baed 853c ff88 38bd
00000260: 7fcc f8bc 3074 be3d ce76 c13d e546 6bbd
00000270: f004 d53d 472a 703e a9f2 c53d 5e98 073e
00000280: 1259 7c3e f0dc b43d 76fe acbd 46cf 8d3e
00000290: 94c8 86be 5dac 373e 2159 443d fcd5 a03d
000002a0: 6015 e13c 2337 37be 7ea2 3dbe 691d 593e
000002b0: 261c 32bd 58c5 8fbd 8c6b 87bd ddaf 6e3e
000002c0: cdf7 ebbd 3039 9abc 443b 2a3e c8d1 563e
000002d0: f974 81bd ac59 0cbd 01f1 e1bc 7516 0e3e
000002e0: c813 f13c 41fe 013e aba7 fabc deb9 e63d
000002f0: fef2 dd3d dd7d b23b ec7c cbbd 29d6 883c
00000300: a7c8 da3d aaba 453d 2db7 71bd f8e3 b13d
00000310: fa26 e8bd 422d 133e 4f3f 163e 217e babe
00000320: 2d86 78be f3be 16bd 6c99 dcbd 7ad6 11be
00000330: a2bb cdbd 6db7 013e 2d72 1e3e afca df3d
00000340: d560 b53c 33fa 563e c1cd d3bd 627f 16bd
00000350: 11b3 443e b8a4 62be 5b8b 8b3d 98d4 8bbe
00000360: 6c24 be3d 39cc 5f3e 03e2 173e a3f6 333e
00000370: 54ad 53be 8fe5 013d 5c48 5abe cb69 22bd
00000380: 18e2 0f3b ca11 82bd dd92 2c3e 49de 7e3c
00000390: 692a c1bd dccf 683e 2690 3fbd e769 92bc
000003a0: 39a4 dd3d 23fa e5bc 878d 1dbe 2258 a8bd
000003b0: 2980 8dbe 8546 a03e dc54 69be 7b01 b6bb
000003c0: 96b0 023e 4145 e73c 3a3d 573b a7dc c43d
000003d0: 8c49 3ebe 5ce4 683c dcbc 163d 24e0 d7bd
000003e0: 9fd9 9fbd f11a 9eb9 0073 3fbd fbbb 073e
000003f0: 7abf 4dbe 675a 0c3d fc1c a63d d1d1 1cbe
-0.051550366 -0.14501421 -0.019747106 -0.28120607 -0.03183832 -0.14085343 -0.09892183 -0.20357957
0.181564 -0.11011602 0.050566263 0.14295523 -0.03115122 -0.14229856 0.20037638 -0.049138933
-0.14563204 0.04023093 -0.21415344 -0.16891849 -0.05323244 0.13481572 -0.006512754 -0.09424563
-0.01733894 0.19715354 -0.20171882 0.08450527 -0.03855888 0.16662222 0.124304704 -0.11978333
-0.063903995 0.063670635 -0.071514085 0.098951146 0.21929549 -0.016313782 0.07194145 0.11096361
0.022335019 -0.11477526 0.06827963 -0.049002394 0.11790566 -0.23269224 -0.016560785 0.23136106
0.09892419 -0.08989169 0.08547081 0.14353639 0.10566991 -0.011000902 0.058882404 0.12216241
-0.07507279 0.28484982 -0.05076714 0.052061047 0.107681125 -0.07419819 -0.21721524 -0.20311734
0.22112952 -0.04657096 -0.029780425 0.20750159 -0.121034235 -0.08083797 0.041271135 -0.13047875
-0.0699189 -0.073123515 0.051826812 0.13460317 -0.079006925 -0.09582994 0.17051288 0.0089269085
0.20836323 0.17207824 0.2054213 0.11915394 0.17415403 -0.02848415 -0.14274405 -0.10428026
-0.20511274 -0.045873046 -0.09521347 0.08423591 -0.034329165 -0.046675682 -0.15149774 0.053106654
0.13287005 -0.12446439 0.20363742 0.09065549 -0.21032293 0.17347184 0.22581805 -0.11862882
-0.22737612 0.080723554 -0.30929136 -0.005704222 0.16931786 0.13340631 -0.008613014 0.09700703
-0.016113736 -0.27101377 0.11144783 0.16337313 0.0644668 -0.018575387 -0.06064038 -0.096797295
-0.1448899 -0.1824097 -0.1956953 0.28104794 -0.23319149 -0.09306312 0.0360953 -0.10777992
0.14538343 -0.09073197 0.035930317 -0.02910693 0.045777995 0.15135613 -0.1837905 -0.025729489
-0.11768546 0.029101932 -0.0038353386 -0.15556794 -0.10923605 -0.041922696 -0.023963498 0.009310883
0.057806745 0.17911524 0.12404079 -0.0354351 -0.09817746 -0.23606637 0.016348708 -0.045052525
-0.030370949 0.09299505 0.09446488 -0.057440657 0.104013324 0.23453628 0.096654244 0.13241717
0.24643353 0.08831203 -0.08446972 0.276972 -0.26324904 0.17936845 0.047936562 0.07853314
0.027476013 -0.17892127 -0.18519017 0.21202625 -0.043483876 -0.07020062 -0.0661231 0.23309274
-0.115218736 -0.018826097 0.1662417 0.20978463 -0.06321139 -0.034265205 -0.02758074 0.13875754
0.029428378 0.12694646 -0.030597528 0.1126592 0.10837363 0.005447133 -0.09935936 0.016703682
0.10682803 0.04827372 -0.05901258 0.0868606 -0.11335559 0.14372733 0.14672588 -0.36424354
-0.24269934 -0.036803197 -0.107714504 -0.14241973 -0.10045554 0.12667628 0.15473242 0.10927331
0.0221409 0.20993881 -0.10341979 -0.036742575 0.19208933 -0.22133148 0.06813689 -0.27310634
0.09284291 0.21855249 0.1483231 0.17574553 -0.20671588 0.031713065 -0.21316665 -0.039651673
0.002195483 -0.06351049 0.16852899 0.015555927 -0.09431917 0.22735542 -0.04676833 -0.017872764
0.108223386 -0.028073376 -0.1538602 -0.08219935 -0.2763684 0.31303802 -0.22786278 -0.0055543757
0.12762675 0.028231265 0.003284289 0.096123986 -0.18582743 0.014214601 0.036801204 -0.10540798
-0.0780518 -0.0003015618 -0.046740532 0.13255303 -0.20092574 0.034265902 0.08110997 -0.15314414

layers.0.bias f4 [256]
00000000: dcea 63bc 7788 b5bd a087 9dbe f702 85be
00000010: 6d50 78be 489d 18be 9a73 c7bd 29b1 69be
00000020: 45b0 86be 283d 6dbd 8a57 853d 24e7 d7bd
00000030: c49b a23b cc33 bfbe 735e 63be 5ab8 49be
00000040: 1ab4 2a3b 8d39 1abd 0f8b 5abe 351f 86be
00000050: f810 0fbe 03b6 59be 3426 0939 e4f5 46be
00000060: b0b9 0fbe 6c2c 22be 4071 6dbd 398e 7bbe
00000070: 0c1b 19bd d419 b0bd 724d f2bd 830c 0b3a
00000080: db55 73be 3442 6fbb 80fa 4bbe f6d6 0cbe
00000090: 0686 69bd 6c07 b8bd ddf0 7cbe aa96 353d
000000a0: 3be5 92be 363f 84be c8a1 6bbe 2cd5 88be
000000b0: bf5a 81be 4e5c 3cbe 4093 21be abec 183d
000000c0: 7e29 2abe 8e44 acbe 5b26 7cbe 04ae 31be
000000d0: 0142 0cbe 0a07 93bd 9486 04be 0c0b 38bd
000000e0: 4d41 b8be 63eb 4bbd 9823 37be 7c5e 36be
000000f0: 54e6 cfbe 2f36 8abe f4a3 24be 0d36 b1be
00000100: 52c1 b3bd c683 73bd fb61 98be f7b5 ddbe
00000110: 9b3a b1be d1da 77be 618c a8be 3a29 8f3d
00000120: 359b 17be 2b2e 8dbe cd40 53be 957a 14be
00000130: 0406 98be aa0a 97be 0b4e 09be 9152 d7bc
00000140: 00c1 0ebd 5905 52be 674e 5ebd 8db8 4fbe
00000150: 6096 98be a5a8 8bbe c3f1 0dbe 506c b23d
00000160: 2e76 35be e195 26bd 5059 9abe 14ca 31bd
00000170: c236 75be b6e9 95bd 2635 a6be 7bf3 6fbe
00000180: 3480 abbe 77ff 6dbe daf0 c7be 4a4c 9fbe
00000190: 1cf0 2ebe b4fe 6abe bc53 c5bd a206 8dbe
000001a0: 6da4 70be b30b aabe 21dc 83be 9255 89be
000001b0: 300f 37bc ec3e a7be a6d7 bebe 7120 f4bb
000001c0: 8313 4ebe d15b 2fbe 2100 8dbe 28d3 89bd
000001d0: ea4b e13c 44e2 25be 3886 f2bd 123f 43be
000001e0: 5820 73be 188a 50be a319 8ebe 5274 63be
000001f0: 595f 9ebd 498f b6be 9626 903d e3d8 31be
00000200: 617b 6fbc db0a 1fbe 9cb2 40bd be69 a4be
00000210: 7ed7 0b3c ceeb 2abe 1108 5fbd ab43 5bbe
00000220: 62fc 6a3d 3082 31be 0be0 84bc 53e9 79be
00000230: 306b 0ebe 7b4e 8bbe e7af 41be a868 b3bd
00000240: fecc 15be c8a7 35be f927 bbbc 18b3 ac3d
00000250: f668 a5be deaf 32be b4c1 b7be 2b07 07be
00000260: 2099 febd 5048 8cbd 97d0 13be 67f3 7bbe
00000270: 7454 1cbe ca1e 3dbe e2c4 24be d807 54be
00000280: 8326 a8be a00b fcbd 8585 9cbd 3861 9bbc
00000290: ec4d 31be 66ee 4abd 1559 85be 8e5e 78be
000002a0: 8a38 febd 86fc 9abe 12fd 54bd bd14 a2bb
000002b0: 257f 6bbe adc3 19be e2c8 92be ac94 84be
000002c0: 55a3 a9be 5139 a9bd 70d2 bfbd 92f3 0cbe
000002d0: efcd b23c d36c 483b b527 bcbe 4200 55be
000002e0: 53d1 ebb9 dd71 c6bb b9c4 07bd d10d 1dbe
000002f0: c79b 0ebe d741 8cbe b0ec fcbd f753 ddbd
00000300: 9871 02bc c8e6 553d 01dc 7fbe 3a1f 1dbe
00000310: 1ada 1bbe 28b2 98be 9191 00be 1a51 02be
00000320: 7ab6 92bc 5f12 08bc 01a3 8abe d6b8 8dbd
00000330: fd30 35be 84c8 b9be 8e09 cdbe 9b56 5cbd
00000340: 7ddb 54bd 26fb 10bd ff9b 30be ae6f 49be
00000350: e3a1 aabe 786b a2be 9c09 c9bd b8fa bbbd
00000360: 78a4 85be 1523 9bbe d03f 403d 5c2e 7ebe
00000370: 6b42 a3be 9b0a bfbd 536e f6bd a8b0 31be
00000380: 0384 c9be 29c1 c7bd b0ea ccbc 291c babd
00000390: ff75 86be 45d5 a6be 3a28 61be 94c1 92be
000003a0: dda5 62be f6f5 8fbe 8c0d 9abe ff74 f7bd
000003b0: ace9 c5bc e0c3 a2bd 2575 92be eba9 c1be
000003c0: 37f8 80be ecd1 b6be e9bd 87be 16cb 9b3d
000003d0: 3f97 8abe d8d6 1abe a17d 82be f4c0 78bd
000003e0: 39b2 a6be 5263 cfbd 1547 a9bc c3f6 c8bd
000003f0: e08f caba d8f2 11bd ba70 7cbe 9697 9a3b
-0.013910975 -0.08863919 -0.30767536 -0.25978824 -0.2424943 -0.14903748 -0.09738846 -0.22821487
-0.26306358 -0.05791965 0.065108374 -0.105421335 0.0049624164 -0.37344205 -0.22203998 -0.19699231
0.002604729 -0.03765254 -0.21342109 -0.26195684 -0.13971317 -0.21260838 0.0001307957 -0.19429737
-0.14035678 -0.15837258 -0.05796933 -0.24565972 -0.03737931 -0.08598676 -0.11831178 0.00053042936
-0.2376322 -0.0036507966 -0.19919777 -0.13753876 -0.05701258 -0.089857906 -0.24701257 0.044333138
-0.28690514 -0.25829476 -0.23010933 -0.26725137 -0.25264546 -0.18394586 -0.15778828 0.03733508
-0.1661739 -0.33646053 -0.24624006 -0.17351538 -0.13697053 -0.07179077 -0.12941962 -0.04493241
-0.3598732 -0.04978503 -0.17884672 -0.1780948 -0.40605414 -0.26994464 -0.16078168 -0.3461155
-0.08777107 -0.05945184 -0.29762253 -0.4330289 -0.34615025 -0.24204566 -0.329196 0.06990285
-0.148053 -0.27574286 -0.20630188 -0.14499886 -0.2969209 -0.29500324 -0.13408677 -0.026284488
-0.034852028 -0.20509852 -0.05427399 -0.20285244 -0.29802227 -0.27277103 -0.13861756 0.08712065
-0.17720863 -0.04067028 -0.30146265 -0.043405607 -0.2394667 -0.073199674 -0.32462424 -0.23432724
-0.3349625 -0.23241983 -0.39050943 -0.3111289 -0.17083782 -0.22948724 -0.09635112 -0.27544123
-0.23500223 -0.3321205 -0.25753883 -0.26823097 -0.011173055 -0.32665193 -0.37273902 -0.0074501564
-0.2012463 -0.17124869 -0.2753916 -0.06729728 0.027502019 -0.16199595 -0.118420064 -0.19067028
-0.23742807 -0.20365179 -0.27753934 -0.22212341 -0.0773303 -0.35656193 0.0703861 -0.17367892
-0.014616818 -0.15531485 -0.047045335 -0.32111925 0.008535264 -0.16691515 -0.054451052 -0.21412532
0.057369597 -0.17334819 -0.016220113 -0.24405412 -0.13908076 -0.27208313 -0.18914758 -0.08760196
-0.1462898 -0.17739785 -0.022846209 0.08432597 -0.3230664 -0.174499 -0.3588997 -0.13186328
-0.1243155 -0.0684973 -0.1443504 -0.2460457 -0.15266591 -0.18468776 -0.1609073 -0.20706117
-0.32841882 -0.12306905 -0.07642654 -0.018967256 -0.17314881 -0.04954376 -0.26044527 -0.2425482
-0.12413128 -0.30270785 -0.05199916 -0.00494632 -0.2299772 -0.1501605 -0.28668886 -0.25894678
-0.33132425 -0.08262885 -0.0936631 -0.1376479 0.021826712 0.0030582442 -0.36749044 -0.2080088
-0.00044978652 -0.006056054 -0.033146594 -0.15337302 -0.13926612 -0.27393982 -0.12349832 -0.10807031
-0.007961653 0.052222043 -0.24986269 -0.15343943 -0.15219918 -0.29823422 -0.12555529 -0.1272625
-0.017909277 -0.008305161 -0.27077487 -0.0692002 -0.17694469 -0.36285794 -0.40046352 -0.05379353
-0.051967133 -0.035395764 -0.17247008 -0.19671509 -0.33326635 -0.31722617 -0.09816286 -0.0917868
-0.26102042 -0.30300203 0.046935856 -0.24822372 -0.3188661 -0.09328195 -0.120327614 -0.17352545
-0.3935853 -0.09753639 -0.025014251 -0.090874024 -0.262619 -0.32584587 -0.21988001 -0.28663313
-0.22133584 -0.2811734 -0.3008846 -0.12082862 -0.024159275 -0.079475164 -0.28605 -0.3782495
-0.25189373 -0.35707033 -0.26512077 0.07607095 -0.27068517 -0.15121019 -0.25486472 -0.06073089
-0.32557848 -0.10126366 -0.020663777 -0.09812691 -0.0015454255 -0.035631984 -0.24652377 0.0047177775

layers.3.weight f4 [80, 256]
00000000: 11c5 32bd 5782 5e3d 6d5d 373d a3bb 91bc
00000010: a2e6 81bd c8b0 64bd 2c89 603d 4f8e 973d
00000020: 9c1f e43d d302 17be ec48 fabc 270c 7fbd
00000030: f993 5abc 9d6e 163e 1669 e23c 2ff7 8b3d
00000040: 3897 bbbd abf6 a2bd b8e1 9e3d 374c a83d
00000050: d5c3 b13d 6a7f 1e3d e267 d33c 0832 1b3d
00000060: 56bd b43d 550a 30bc dc48 a5bc d412 f93d
00000070: 560d e3bd 08a6 d4bc 4fb2 903d fd3d 013c
00000080: 3e65 1d3e 038c b3bd 4536 963d c058 ae3d
00000090: 177e 05be 6f34 143c d750 c23d cf54 0bbe
000000a0: 0359 8f3c 86eb c3bd 3260 f1bd 7071 f23d
000000b0: c58b 013e f86d 10bd 9668 5d3d 62b3 673c
000000c0: b14f 57bd e088 a03d f04d ce3d 9a7d fdbc
000000d0: 20bd fdbc 1473 a1bd 88ad 9abd 68f8 22bd
000000e0: 02b9 c83d 6782 2d3d e652 003d 04ae 01be
000000f0: 2c20 6c3e 3eec b0bc 96ce c83d 6bc8 673e
00000100: 7c35 3dbd 8bbd 04bd a990 9c3d 676c b23d
00000110: 2929 373e ba1c ef3c d1bd 723d 8624 52be
00000120: b81c 7f3d b29a dabc 7b98 2ebd 7817 d23d
00000130: 51de 0bbe 048d b23d f45a 363d b793 d6bd
00000140: 0bf3 50bd 068a 2e3c d709 ad3c 584e d33d
00000150: 56de 7abd 0ee4 f23d 4979 313e 7be6 0bbd
00000160: c4ec d43b f0ac 6cba 8cd3 073d 08be 053d
00000170: 1224 8bbd 6590 a1bd ba95 6a3d 4844 943c
00000180: b1b2 ed3c e5f5 b93b 0d28 b03d 8033 6c3d
00000190: 7c61 cdbd 7851 0939 4014 823d e4d5 2bbd
000001a0: 459b 81bd 6864 a63d c941 2e3e 7c43 973d
000001b0: 5879 edbd d1e9 063e ae8b b23d 1cd0 2f3c
000001c0: dea8 433d 8d99 7d3d 632e a9bd b2ae 51bd
000001d0: 8e1d babd b294 2f3d 4f11 3f3d c96e 80bd
000001e0: 2c9f 413c bbda a83d ada0 af3d 19ac 023d
000001f0: 7ef5 253d d74f 903d 2c51 2abd 8ca4 e73d
00000200: 97ab 5cbd 5386 353c f80f 2abc 1680 423e
00000210: dc1c 18be a251 10be dee0 6cbd e3ca ecba
00000220: dae7 efbd 5297 ad3d 4e7a 0ebc 9e25 aa3d
00000230: 45e0 b9bd 7931 603d 5301 96bc f124 7d3d
00000240: 78e9 013d 0758 a8bc 00c9 08be 5498 4bbd
00000250: db6c 4b3e bbf7 e03d f028 8c3d b3e4 b73b
00000260: 112d c53c 90c1 363c effa d73c 9f25 9a3d
00000270: de7f 9dbc bf23 57bc 33f6 1d3d 7fa8 243c
00000280: 1937 523e b43b e93d e38d ed3c 410b a33b
00000290: 1a5e cebc 9ad0 08bd eefa 093d 5ac4 d33b
000002a0: 1002 e23d 4eb3 fc3d f43d 53bb a7cf 10bd
000002b0: 803b f23d c07e 1fba 055f 043e f54b 60bd
000002c0: 158e 85bd 04eb 84bb c6b0 043e db39 83bd
000002d0: a02a 91bd ac6f 293d 8f66 5c3d f9f7 c33d
000002e0: ac3c 46bc 777f 073c 958c 04be e008 bb3d
000002f0: 38d0 b2bc 23d5 703c 2a5b 423c 6b02 e1bd
00000300: 7031 a3bc e2b9 bdbd c638 b43d 39a3 a63d
00000310: dc12 c33d c91c 1d3d 6671 1c3d 6400 63bc
00000320: 1641 97bd 6b87 ec3d c897 27bc e29a 52bd
00000330: 4bf4 1a3d cc1f 613d 6aee fb3d 7d30 fbbb
00000340: 7877 cdbc 6031 10bb 4007 e1bd f303 f63b
00000350: 9b1b 9c3d e297 213e 733f d23d 113c ecbb
00000360: 8df6 973d 05ea 1d3e 3f1f 35bd e170 b53d
00000370: 706e a23b 1a04 7abd 9c8f 78bd f389 743d
00000380: 47a3 c83d d875 21bd 9319 89bd 9311 9e3d
00000390: 5241 913d e094 0f3e 1182 183d 78e3 993d
000003a0: 60bc af3d a5e4 453e 494c 593d e709 a3bc
000003b0: 7e67 c3bc 24a9 7d3c c580 afbb 5db0 b83d
000003c0: f789 653d ffaf 4abd 444e 0dbd 1b13 d4bc
000003d0: f297 1f3e 20c9 083e 13a9 c73d ace3 213d
000003e0: 5aad 813e dcd8 2cbd a43e 29bd 0761 0bbd
000003f0: 2924 8dbd 3dc2 00bd 0af4 023e 4397 8cbd
-0.04364497 0.05432352 0.044766832 -0.017789667 -0.06342818 -0.055832654 0.054818317 0.0740019
0.111388415 -0.14747171 -0.03055235 -0.06226745 -0.0133409435 0.14690633 0.027638 0.06834256
-0.09159702 -0.079572044 0.07757896 0.08217662 0.0867993 0.03869573 0.025806371 0.03788951
0.088251755 -0.010744651 -0.020176344 0.12161794 -0.11086528 -0.025958076 0.0706526 0.007888314
0.15370652 -0.087669395 0.0733457 0.085130215 -0.1303638 0.009045704 0.09488075 -0.1360657
0.017498499 -0.09566407 -0.11785926 0.11838043 0.12650974 -0.035261124 0.05405482 0.014141889
-0.052566234 0.07838607 0.10073459 -0.03094368 -0.03097397 -0.078832775 -0.0755263 -0.03978768
0.098009124 0.04236069 0.031329058 -0.12664038 0.23059148 -0.021597024 0.09805028 0.22635047
-0.046193585 -0.032407325 0.07644779 0.08712082 0.17886795 0.029188503 0.059263054 -0.20521745
0.062283248 -0.026685093 -0.042625885 0.102583826 -0.13659026 0.08718303 0.044520333 -0.10477393
-0.051013034 0.010653025 0.021122856 0.10317677 -0.061247192 0.11859904 0.17331423 -0.03415535
0.006497951 -0.0009028455 0.03316073 0.03265193 -0.06793989 -0.07888869 0.057271697 0.018098965
0.02901587 0.005675065 0.08601389 0.0576663 -0.10028359 0.00013095688 0.06351519 -0.04195203
-0.063284434 0.0812462 0.17017283 0.073859185 -0.1159541 0.13175131 0.08718048 0.0107307695
0.047768466 0.061914016 -0.08260801 -0.051191993 -0.09087668 0.042866416 0.046647366 -0.062711306
0.011817735 0.082448445 0.08575568 0.031902406 0.040517323 0.07046478 -0.041581318 0.11310682
-0.05387458 0.011079389 -0.010379784 0.18994173 -0.14854759 -0.1409364 -0.057831638 -0.0018065836
-0.11714144 0.08476128 -0.008696152 0.08307956 -0.09075979 0.05473468 -0.018311178 0.06180281
0.031716794 -0.020549787 -0.13357925 -0.04970582 0.19865744 0.10984751 0.06843746 0.00561198
0.02406934 0.011154547 0.026364772 0.07526707 -0.01922601 -0.013131081 0.038564872 0.010049938
0.2052883 0.113883406 0.02899832 0.004975707 -0.025191355 -0.033402063 0.03368657 0.006462616
0.1103555 0.12338887 -0.0032232972 -0.035354283 0.11827755 -0.0006084256 0.12926872 -0.05475994
-0.065212406 -0.0040563364 0.12958059 -0.064075194 -0.07088208 0.041366264 0.053808745 0.095687814
-0.012099426 0.008270136 -0.12944253 0.09132552 -0.021827802 0.014699253 0.0118625555 -0.10986789
-0.019921035 -0.0926397 0.08799891 0.08136601 0.095250815 0.03835753 0.038194083 -0.013855074
-0.07385461 0.115492664 -0.010229059 -0.05141724 0.037830632 0.054961964 0.12301333 -0.0076656924
-0.025081381 -0.0022002086 -0.10987711 0.007507795 0.07622453 0.15780595 0.10266008 -0.007209309
0.07420073 0.15421303 -0.04421925 0.088594206 0.004957013 -0.061039068 -0.06068383 0.05970187
0.09796768 -0.039419025 -0.06694331 0.07718196 0.07092537 0.14021635 0.037233416 0.07514089
0.085808516 0.19325502 0.053051267 -0.019902183 -0.02385306 0.015482221 -0.0053559267 0.090180136
0.056039777 -0.04948425 -0.034498468 -0.025888016 0.15585306 0.13357973 0.09749045 0.039523765
0.2532757 -0.042199 -0.041319504 -0.03402808 -0.068916626 -0.03143524 0.12788406 -0.068647884

layers.3.bias f4 [80]
00000000: 1e20 09be 773b 883d ad9d 07be bb94 73bd
00000010: 0611 ecbd 866d 4fbe f479 0fbe 405a c5bd
00000020: 221a 45bb ea7d efbd a3fd 74bd de56 ebbc
00000030: ecff 3cbd 19c6 f43b 0b44 e0bc 8873 a23d
00000040: 06fd ce3b 5d43 1e3d 178b 8cbd fbc3 e8bc
00000050: c390 23be bb5e cbbd c9e7 ca3c 032e 6bbc
00000060: 2b53 b6bc c55b 04be 5db5 a3bd 2ea5 a33c
00000070: 8870 453d c666 ddbc 27a4 43be d490 7fbd
00000080: 52fd 3f3c cba4 4d3d c8d1 25be 541c 51be
00000090: 6240 59bb 08f9 613d f7ea c33b a4f7 9fbd
000000a0: 076b b5bd 7899 dbbc 0c61 cebd 5292 023d
000000b0: 7834 64bc 2eab dabd 18ef 6ebd c8bf 23be
000000c0: e1b3 c5bd 752c 713d 520e 05be fb7d 9e3b
000000d0: 010f 33be 8f33 923c e1c6 14bd 8d93 89b9
000000e0: 32c5 83bd 3453 2fbe bc35 febc b39e 9c3d
000000f0: 75a6 803d 62ef 1dbe 0a42 283d 7635 a13c
00000100: be93 91bd 5dba 583c 15e8 f2bc 18c8 c0bd
00000110: 9f1b b5bb 9095 08be 977c fa3c b9f6 14be
00000120: a46a c73a af6f 41bd be1e 4bbe dca5 c7bd
00000130: c1f5 40be 2126 3bbd b9d6 e3bd 31b4 53be
-0.13391158 0.06651967 -0.13243742 -0.059468012 -0.115266845 -0.20256624 -0.14011365 -0.096363544
-0.003007539 -0.11693938 -0.0598122 -0.028727945 -0.046142504 0.007469904 -0.027376195 0.07932192
0.006316784 0.03863846 -0.06862467 -0.028413763 -0.15973191 -0.09930178 0.024768727 -0.014354232
-0.022256454 -0.12925632 -0.07993577 0.019976225 0.04820302 -0.027026545 -0.19105588 -0.06239398
0.011718111 0.050205987 -0.16193306 -0.20420963 -0.0033149947 0.055169135 0.0059789377 -0.078109056
-0.088583045 -0.026806578 -0.10077104 0.031877823 -0.013928525 -0.10677181 -0.058333486 -0.15991127
-0.0965345 0.05888029 -0.12993744 0.0048367954 -0.17486192 0.01784685 -0.03632248 -0.0002624061
-0.064340964 -0.17121583 -0.031031482 0.07647457 0.06281749 -0.15423349 0.041078605 0.019678812
-0.07108258 0.013228026 -0.029651681 -0.09413165 -0.0055269743 -0.13338304 0.030576987 -0.14547242
0.0015214277 -0.04722565 -0.19835946 -0.09748432 -0.18843748 -0.04569066 -0.111249395 -0.20674206

layers.6.weight f4 [64, 80]
00000000: bf01 fb3d 94ca 21be c36e 05bd c6a0 6ebd
00000010: 148b d43d 35ee c2bd 4855 893b 1cfe 333d
00000020: 8475 64bd 8e5b 9abc 330f 263e d28c 56bd
00000030: 8b24 893d 81fe b4bd c2cb 303e 5d5f 60be
00000040: 1108 5d3d 1ee8 2fbe a302 813d ccec 473e
00000050: 911c d4ba 8175 9fbd 3211 ddbd 761f b0bd
00000060: 5995 9e3c f279 bbbd a673 a53c b6c6 8dbd
00000070: b9c0 d63c fc37 20be 5118 3b3e 4b8d 363e
00000080: 41f6 46be c391 43be f3f2 0a3c 8f0d 26bd
00000090: a583 943d 901b 3dbe b95a db3d 7013 903c
000000a0: 4123 5f3d 7893 a9bd fbbb 393e 0252 7abd
000000b0: 94e5 31be bf80 02be e1b6 05be 3dd3 ec3d
000000c0: 55bd e53d c8c0 36be c370 ed3c 9f15 18be
000000d0: 490e 893d 698e a1bd 05ee 52bd 7e7a 43be
000000e0: 7738 af3d 26ac f53d 0306 d2bd e053 eabd
000000f0: 670f 16be 1c8d 013e 50e8 54bd 7f4f 073e
00000100: 2d9a 9d3d 4d59 3cbe 690c b0bc 1c7e 163e
00000110: 4526 4cbd cc79 143e 2bd5 2f3d f397 e23d
00000120: 6dc0 4bbe 8bc3 6bbd 9852 233e cb7e cd3d
00000130: 60ba 153e d59d d53d fc9a 663d c806 3abd
00000140: 998e 243e 3205 85be 7981 a2bd da0d 09be
00000150: ab2f 323e 0a8e 8dbd a7f6 22bd 3888 4a3e
00000160: 8342 c1bd eb54 823d e329 393d 392d 7cbb
00000170: 8c05 07bd 4e0c 13be 6b13 883c 35f8 6ebe
00000180: 3ed4 5a3d a42f 27be c6d6 0d3e 3260 7b3c
00000190: c93b 40bd 0c82 9c3d 5cac 01be 9e43 debd
000001a0: 4dbe d33d 910c ccbd f26c 173e ad68 09be
000001b0: ba2f 0f3e 6b82 71be 2022 723d dfe6 f23c
000001c0: 7f4f d4bd d6e6 f5bd 05cc b83b 1119 fe3d
000001d0: 5a0d 943b 4b6d 2abe f944 7a3d cadf 613d
000001e0: fc55 43bc dea7 91bd ad2d 7b3e 96f0 56be
000001f0: 72b7 5fbe c1c3 46be 6466 45be 8dc9 d63d
00000200: bb0d 173e 694f ffbd e2ff 1dbd cd0d 4cbe
00000210: fbac 8abd 5d17 35be 8a76 ffbc bb44 5cbe
00000220: 8179 fb3d 0a4d 473d d49e e7bd 99a9 2ebe
00000230: 5772 31be a75b fc3c a253 2dbd a2e2 3c3e
00000240: bb7c c6bc 893c 50be 8b1c 2d3d 429d 943d
00000250: 0406 3dbe fdf1 fb3d d899 a13c 23e8 e33d
00000260: b5c4 1cbe feb9 5fbc e7e4 403e a731 98bc
00000270: 5c6e 033e 4bd5 1d3d 2c84 d63d a4d7 0ebd
00000280: b1cf e3bc 9ef6 323c dd12 c0bd fc8f 8fbd
00000290: 4940 1b3d 4f99 a73a 39c3 1d3d ebc2 85bc
000002a0: edde 25bd ee3a 47bd 28fc 893d b254 b23d
000002b0: 9ec7 8b3d 3fc5 bb3d 6df8 96bd 477e 6bbc
000002c0: 0af1 723c 912c 53bd 38a3 4d3d 2f8c a3bd
000002d0: 1ce8 b13d 5bcc c3bd 7d9c 8bbd e8da 013b
000002e0: bb22 663d 0714 cb3d 5b35 633d 1102 053e
000002f0: 908a fe3d 438f d3bc 3be8 1abd dcfe 8bbd
00000300: 56ca d1bd 7a00 5abd e31b 353d 2ba3 bf3b
00000310: 2634 b23d aeee 883a 6ef3 c33d a15f b9bd
00000320: 3afc 17bd 88a9 6bbd fb8e 643c 029f 85bd
00000330: 01c9 6fbd 5c59 e93c 34aa c3bd 91c8 cf3c
00000340: d3a8 953d abeb 4c3d f86e 153d 59ed dbbd
00000350: fc5c febc fd85 7dbc e1d7 acbd 4793 dcbd
00000360: a2ba 793d c01a 3f3e 18a6 3b3d aae1 8e3d
00000370: 9582 08be 1b99 633d cac7 263c d333 a5bd
00000380: 9a47 d9bc bff7 99bc 2e69 6b3d 806b d23c
00000390: 8fdb 283c a14d 183c f288 5d3d fdb5 253d
000003a0: 6bfd bcbd 8317 1a3d 065a 2d3d e136 b5bc
000003b0: 4ddd 813c 80e4 c9bc 9e08 043e 9cbd 9a3d
000003c0: 2b7f a63d 8906 40be f32f 573d 1618 cdbd
000003d0: 8c5e 28bc 681f 0bbe b841 4fbc 98a8 113e
000003e0: cdef 09bd 718c 953d 329c be3c 3ba2 683d
000003f0: 61de 70bc 69c9 f8bd 0fb6 323e bcc2 3dbe
0.122561924 -0.15799934 -0.032576334 -0.058258794 0.103780895 -0.09518091 0.0041910745 0.04394351
-0.055776134 -0.018842485 0.16216736 -0.05238039 0.06696423 -0.08837605 0.17265227 -0.21911378
0.05396277 -0.1717839 0.06299331 0.19523925 -0.001618283 -0.07786084 -0.10794295 -0.08599751
0.019358324 -0.091541186 0.020196747 -0.06922667 0.026214944 -0.15646356 0.18270995 0.17827336
-0.19429876 -0.19098572 0.008480775 -0.040540274 0.07251672 -0.18467546 0.10710663 0.017587394
0.05447698 -0.082800806 0.18138115 -0.061113365 -0.17372733 -0.12744425 -0.13058044 0.11563728
0.11217753 -0.17846978 0.028984433 -0.14851998 0.06692178 -0.07888491 -0.051496524 -0.19089696
0.08555692 0.11995725 -0.10255053 -0.11441779 -0.14654313 0.12651485 -0.051979363 0.13213919
0.07695422 -0.1839344 -0.021490293 0.14696544 -0.049841184 0.14499587 0.042927902 0.11064138
-0.19897623 -0.05755953 0.15949476 0.100339495 0.14621878 0.10430495 0.05630015 -0.045416623
0.16070022 -0.25980526 -0.07934851 -0.1338419 0.17400996 -0.069118574 -0.039786007 0.19778526
-0.09436514 0.06363853 0.045205962 -0.0038479103 -0.032964274 -0.14360163 0.016610822 -0.23336871
0.053425066 -0.16326767 0.13851461 0.015342759 -0.046932016 0.07641992 -0.12663406 -0.10852741
0.10339031 -0.09963334 0.14787653 -0.13418837 0.1398305 -0.23584907 0.059114575 0.029651104
-0.10366725 -0.12006919 0.0056395554 0.12407125 0.004518193 -0.16643254 0.061100934 0.055145063
-0.011922356 -0.07112096 0.24529143 -0.20990214 -0.21847323 -0.19410612 -0.1927734 0.104876615
0.14751332 -0.12466318 -0.038574107 -0.1992714 -0.06771275 -0.17684694 -0.031184454 -0.21510594
0.122790344 0.048657455 -0.11309591 -0.17056884 -0.17328773 0.030805422 -0.042316087 0.18445829
-0.024229398 -0.20335592 0.04226355 0.07256557 -0.18459326 0.12302015 0.019726679 0.11128261
-0.15309413 -0.013655184 0.1883732 -0.018578364 0.12835068 0.03853349 0.104744285 -0.03487362
-0.027808996 0.010923056 -0.09378598 -0.07009885 0.037903104 0.0012786778 0.038516257 -0.016328296
-0.0404958 -0.048640184 0.06737548 0.087075606 0.06825183 0.09168481 -0.07371602 -0.014373369
0.014827976 -0.051556174 0.050204486 -0.07985722 0.086868495 -0.09560462 -0.06816957 0.0019814316
0.056185465 0.09915929 0.055470806 0.1298907 0.124287724 -0.025825148 -0.03781913 -0.0683572
-0.10243671 -0.05322311 0.044216048 0.0058483086 0.08701353 0.0010447109 0.09567915 -0.09051443
-0.037105776 -0.057534724 0.013950105 -0.06524469 -0.0585413 0.028484993 -0.09553948 0.025364192
0.07307591 0.050029438 0.03648278 -0.1073863 -0.031050198 -0.01547384 -0.08439613 -0.107702784
0.060969003 0.18662548 0.045812696 0.06976636 -0.13331063 0.055565935 0.010179469 -0.08066525
-0.0265234 -0.018794892 0.057473354 0.025686026 0.010306253 0.009295852 0.05408568 0.04045676
-0.09228023 0.03762008 0.04232218 -0.022120895 0.015852595 -0.02464509 0.12893912 0.07555696
0.08129724 -0.18752493 0.052535962 -0.1001436 -0.010276448 -0.135862 -0.012649946 0.1422447
-0.033675957 0.07302178 0.02326784 0.05679534 -0.014701457 -0.12147791 0.17452262 -0.18531317

layers.6.bias f4 [64]
00000000: 28aa 0c3e 98a7 593e 2325 60be 7f30 073e
00000010: 0222 3fbe e8f9 90be 3743 ea3d 05bb 9d3d
00000020: 24e3 d73d dfcc 023e 1069 fb3d 83a6 ecbd
00000030: 4abf 543e 12d2 873d 414e 233e a067 f43d
00000040: 84d6 3f3d 9267 0ebd c914 583e 7fd8 adbc
00000050: 9fe1 153e 3bca f03d 0ec4 61be 7839 a53d
00000060: e158 073e afcd 2ebd 9e2d 453d a4d4 85be
00000070: 7538 143e c0d4 463e 820c 13be 7e6e 9dbe
00000080: f22d 653e a88d 703e e027 d03d 62eb 2fbc
00000090: 803d 823d ef8a 503e 5e0f d43d f52a 083e
000000a0: 1965 e43d 8240 3f3e 854d 2c3e 82e8 b4bd
000000b0: 5b96 033e 42e0 613e 4802 ca3d 18b7 85be
000000c0: 30fd c33d 4c8b 5bbe 5499 2d3e 4d28 55be
000000d0: 385d 023e 8b5f 15be 3fc4 8fbd 02cd 193e
000000e0: 9c23 a8bd f2ed 023e 7f79 4a3e 7017 03bd
000000f0: d98e 1d3e 72e8 1e3e a0d9 ac3c 2822 98be
0.13736784 0.21255338 -0.21889167 0.13202094 -0.18665317 -0.28315663 0.114386015 0.07701687
0.105413705 0.12773465 0.122758985 -0.11555197 0.20776096 0.066318646 0.1594782 0.119338274
0.046835437 -0.03476674 0.21101679 -0.021221397 0.14636849 0.117573224 -0.22047445 0.08067602
0.13217498 -0.042676624 0.048139207 -0.26138794 0.14474662 0.19417095 -0.1436024 -0.3074836
0.22380808 0.23491538 0.101638556 -0.010737272 0.063593864 0.20365499 0.103544936 0.13297637
0.11152095 0.18676952 0.16826446 -0.0883341 0.12850325 0.22058204 0.09863716 -0.26116252
0.09569776 -0.21439856 0.16953021 -0.20816155 0.12730873 -0.14587228 -0.07019853 0.1501961
-0.08209917 0.12786081 0.1977291 -0.032004774 0.15386523 0.15518358 0.021099865 -0.2971356

layers.8.weight f4 [1, 64]
00000000: 2ce7 babd 2649 10be b750 6dbc e2b6 fdbd
00000010: d5b7 1fbd 2a03 abbb 3e64 0d3e 80c3 f93d
00000020: 0adf 5a3e e03a 023e 42bb 6ebd 3b3d a1bb
00000030: 7234 2e3e bc17 9cbd 1aef 423e 3c7e 0a3e
00000040: 757d 243e db8b b73d 953a 04be 73dc 953d
00000050: 058c 15be c5c2 e33d 79b8 a7bc ae66 4f3d
00000060: e85c f63d f22e be3d 21f2 2a3e 3c7f 8fbc
00000070: ab6e 1dbe 008c c7bd 7904 7f3d f97b aebc
00000080: 54ab 20be 9ec9 22be 86ff 3a3e e8d8 b03d
00000090: e587 c1bd 3439 783e 1eee 4b3e 8d1c 02be
000000a0: 3b5a b4bd 0b89 3a3e b35b 693e 8262 b2bb
000000b0: 80bb 2c3e d701 6f3e e83c 4bbd e1a9 babc
000000c0: aac3 1f3e 0d67 43bc f94e e83d 9dc1 5bbb
000000d0: ce50 133e 41c0 dabb 7d00 81bc 3ab1 94bd
000000e0: c4b4 35bc 380a 293e 3965 1dbe 3a4c 5fbd
000000f0: 883f 05be 2446 b6bd a56e 2a3e 6ccc c9bc
-0.09126124 -0.14090404 -0.014484576 -0.12388398 -0.038993675 -0.005218883 0.1380777 0.12195492
0.21374145 0.12717772 -0.05828405 -0.0049206293 0.17012194 -0.076217145 0.19036523 0.13524717
0.16063483 0.08962222 -0.12912972 0.07317438 -0.14604194 0.11121134 -0.020473706 0.050635032
0.12029439 0.09286298 0.16693927 -0.017516725 -0.15374248 -0.097435 0.062260125 -0.02129935
-0.15690356 -0.15897223 0.18261537 0.086351216 -0.09449748 0.24240571 0.19915053 -0.12706204
-0.088062726 0.1821634 0.22788887 -0.005443872 0.168684 0.23340546 -0.04961863 -0.022786083
0.15601984 -0.011926425 0.11343188 -0.003353215 0.14386293 -0.0066757505 -0.015747303 -0.07260366
-0.011090461 0.16507804 -0.15370645 -0.054516055 -0.13012516 -0.08900097 0.1664377 -0.024633609
