flwr-mlp/models/checkpoints/round_005.pt (torch, 127593 bytes, 7 tensors)

layers.0.weight f4 [256, 19]
000000 1e 8d 92 bd f2 e0 19 be 0f 9d f1 3c b7 7d 11 be
       -0.07155822 -0.15027216 0.029493837 -0.14208113
000010 74 68 bd 3c db 17 e5 bd ef 0a 98 bd ef 43 3b be
       0.023121096 -0.11186191 -0.074239604 -0.18287633
000020 10 03 20 3e fd 30 06 be 50 fe 1b 3d 61 4e 29 3e
       0.15626168 -0.13104625 0.03808433 0.16533805
000030 09 80 26 bd 46 28 1a be 36 7d 37 3e 8f ff 3e bc
       -0.040649448 -0.15054426 0.17918858 -0.01165761
000040 f0 ca fe bd c8 d6 96 3d 44 1d 41 be 8e 7a 3d be
       -0.12441051 0.07365185 -0.1885882 -0.18503782
000050 36 3e 3e bd 58 e6 8d 3d d4 9d 55 bc ab f7 70 bd
       -0.046446048 0.069287 -0.013038117 -0.058829945
000060 f5 d0 06 bd bf 41 41 3e b2 b1 60 be 8d f6 07 3e
       -0.03291412 0.18872736 -0.21942785 0.13277645
000070 82 a6 40 3c 71 6d f2 3d 55 29 0b 3e ef be 0b be
       0.011758449 0.118372805 0.13589986 -0.13647054
000080 2f 64 80 bd cf 41 90 3d 3c 89 b5 bd 01 c1 e4 3d
       -0.062691085 0.07043802 -0.08864066 0.11169625
000090 fa ac 0f 3e fd ad 21 bd e1 fd e0 3d 8c 60 01 3e
       0.14030829 -0.03947257 0.109859236 0.12634486
0000a0 13 f4 53 bd 8d 46 0d be 34 70 5d 3d a7 e5 6c bd
       -0.05174644 -0.13796444 0.054062083 -0.0578362
0000b0 99 67 cc 3d bc fc 70 be b4 9e 8b 3d c2 2c 78 3e
       0.09980697 -0.2353391 0.068173796 0.24235824
0000c0 28 67 2c 3e ce 29 56 bd 20 e9 1e 3d ef a1 2d 3e
       0.16836226 -0.05228596 0.038796544 0.16956304
0000d0 2f bf 08 3e 87 12 3b 3c 66 cc 48 3d 00 95 16 3e
       0.13354181 0.0114179915 0.049023055 0.14705276
0000e0 f5 53 f6 bd 11 55 82 3e b8 0f 77 bd 04 f7 42 3d
       -0.12027732 0.25455526 -0.060317725 0.047598854
0000f0 ed 44 d5 3d fd 25 ae bd 99 b2 5d be 4e a5 4c be
       0.10413537 -0.085033394 -0.21650161 -0.19984934
000100 39 64 6a 3e c8 70 5b bd 2f c9 08 3d c7 91 33 3e
       0.22889794 -0.053574353 0.03339499 0.17536078
000110 f0 01 e1 bd c4 c7 e4 bd 6e 58 a9 3d a4 ab 1a be
       -0.10986698 -0.11170915 0.0826882 -0.15104538
000120 29 1f cf bd 68 b7 da bc 92 f8 73 3d c2 70 25 3e
       -0.10113365 -0.026698783 0.059563227 0.16156295
000130 3a 5d ae bd e5 44 8f bd f5 5e 31 3e 70 aa cb bc
       -0.08513875 -0.069955625 0.1732138 -0.024861544
000140 07 64 36 3e 67 d3 23 3e f4 21 26 3e 8b 28 2e 3e
       0.17811595 0.15998612 0.1622389 0.17007653
000150 71 f2 2f 3e a1 b8 39 3b df ee 05 be b2 0b d2 bd
       0.17182328 0.0028338807 -0.13079403 -0.10256137
000160 69 d5 59 be bd 6b 4a bd 09 9d 06 be cb b0 d6 3d
       -0.21272816 -0.049419153 -0.13145842 0.10482939
000170 12 2f 4c bd 8a b8 45 bd 70 d6 2b be d4 2d 65 3d
       -0.049849577 -0.048271693 -0.1678102 0.05595191
000180 01 89 24 3e bc d7 8a bd 94 99 49 3e 4c bb 13 3e
       0.16067888 -0.06779429 0.19687492 0.14426917
000190 89 aa 6c be 93 b1 dd 3d ad 76 68 3e 39 7b d9 bd
       -0.23111929 0.10824885 0.22701521 -0.10619206
0001a0 db b4 22 be 72 94 b7 3d af 18 82 be 3c b3 1e 3d
       -0.15889303 0.089638606 -0.25409457 0.03874515
0001b0 96 7f 28 3e aa ce 36 3e e7 83 b9 3b 09 b7 22 3e
       0.1645492 0.17852274 0.005661476 0.15890135
0001c0 21 56 06 bd 06 49 5d be 8f b1 bc 3d 62 65 3f 3e
       -0.032796983 -0.21609887 0.09213554 0.18691018
0001d0 2f 86 10 3e 96 8f c4 3c 02 96 1e be 25 55 aa bd
       0.14113687 0.023994248 -0.15486911 -0.08317021
0001e0 ef b3 24 be ce f9 37 be b4 98 0c be bf 83 60 3e
       -0.16084264 -0.17966387 -0.13730127 0.21925257
0001f0 62 6f 58 be 85 76 dc bd a6 62 86 3d b9 d5 1e be
       -0.21136239 -0.10764793 0.065617844 -0.15511216
000200 c8 aa f4 3d 99 82 0b be 27 bf e1 bb e0 97 7a bd
       0.119466364 -0.13624038 -0.006889242 -0.061179996
000210 93 4c c3 bc 5a 60 25 3e eb 40 33 be 34 dc 30 bd
       -0.023840224 0.16150036 -0.17505233 -0.043178752
000220 4d 86 01 be a1 cb 3b 3c 02 d1 ed bc 8b f1 33 be
       -0.12648888 0.011462123 -0.029030327 -0.1757261
000230 17 2f bb bd 1e 52 82 bd b7 86 f7 bd 98 27 1f 3d
       -0.09139841 -0.06363319 -0.12086242 0.03885612
000240 47 3b 59 3d 0b 98 51 3e f6 0f 17 3e 56 3e 43 bc
       0.053035047 0.20468156 0.14752182 -0.0119167175
000250 31 e8 82 bd 32 62 66 be 3e 1e 0e bd 17 1f 27 bd
       -0.06391943 -0.22498396 -0.03469681 -0.040801134
000260 12 4e 19 bd 92 e1 83 3d f6 7e 7e 3d 85 d3 86 bd
       -0.03742797 0.064395085 0.062132798 -0.06583313
000270 b0 06 f5 3d 74 2e 43 3e 14 9c 2e 3e 8a 7c 29 3e
       0.11964166 0.19060689 0.17051727 0.16551414
000280 45 6e 69 3e 50 9b 22 3d a0 2b dd bd 98 06 79 3e
       0.2279597 0.0396989 -0.107993364 0.24318922
000290 9e 32 63 be fc 8b 01 3e 95 c9 31 3d 2d 3a f3 3d
       -0.22187278 0.12651056 0.043405134 0.118763305
0002a0 32 b4 38 bb ec 29 18 be 82 0d 3a be 00 c6 70 3e
       -0.0028183577 -0.14859742 -0.18169215 0.23513031
0002b0 c9 36 ed ba 26 fc 14 bd f9 f9 75 bd ba 01 26 3e
       -0.0018097992 -0.03637328 -0.060052846 0.16211596
0002c0 d3 68 e6 bd 63 4d 40 bc ab 6d 68 3e dd 71 07 3e
       -0.112504624 -0.0117372 0.22698085 0.13227029
0002d0 2c 7c 2f bd 4b c2 f1 bc 08 50 68 bc 93 6d 21 3e
       -0.04284303 -0.029511591 -0.014179237 0.15764455
0002e0 29 84 3a 3d ae 07 00 3e 37 ad 03 3c 0e 94 ef 3d
       0.045536194 0.1250293 0.008036903 0.11698161
0002f0 c6 d1 d1 3d 60 02 08 39 83 5c 7e bd bd 8c f6 3c
       0.10245089 0.00012970855 -0.062099945 0.030096406
000300 19 4f 07 3e 87 da d5 3d e2 31 53 bd 4d b4 ef 3d
       0.13213767 0.104420714 -0.051561244 0.117043115
000310 44 f2 e1 bd 20 d0 32 3e a1 b0 01 3e 1c 85 77 be
       -0.110325366 0.17462206 0.12665035 -0.24171871
000320 bb 10 67 be bc 2c 9f bc 37 d7 ca bd 97 bc 29 be
       -0.22564976 -0.01943051 -0.0990433 -0.16575848
000330 55 b1 da bd 87 b7 2a 3e eb c1 32 3e 1f f3 01 3e
       -0.10678355 0.16671573 0.17456786 0.126904
000340 d6 9c c0 3c 49 9e 7d 3e ca 63 c6 bd b8 88 93 3c
       0.023512285 0.24767412 -0.09687002 0.018009529
000350 94 3b 3a 3e 67 58 4d be da 77 cf 3d 76 bb 5e be
       0.1818679 -0.20053254 0.10130282 -0.21751198
000360 70 b2 00 3e 81 60 3a 3e d4 94 22 3e e1 b1 24 3e
       0.12568069 0.18200876 0.15877086 0.1608348
000370 ed 7d 3b be 4f 37 27 3d ee c3 10 be 22 c6 b5 3c
       -0.18309756 0.04082423 -0.14137241 0.022189204
000380 13 04 c8 3c d6 b5 25 bd 05 65 3c 3e a0 06 a0 3d
       0.024416005 -0.040456615 0.18397911 0.078137636
000390 d7 9e eb bd 17 10 59 3e f5 9c 13 bd 25 4c 94 bb
       -0.11504906 0.21197544 -0.036038358 -0.0045256787
0003a0 64 67 c4 3d 8a 8c 2b 3d 62 88 54 be 3e 6c c6 bd
       0.09590033 0.041882075 -0.20755151 -0.09688614
0003b0 a9 25 49 be 5e a5 8d 3e a4 80 52 be d1 29 a5 bc
       -0.19643272 0.27665228 -0.20556885 -0.020161541
0003c0 c6 6b 3d 3e fd 00 4f 3c 31 78 66 3c aa 2b a4 3d
       0.18498144 0.012634513 0.014066742 0.08016141
0003d0 85 72 6c be c8 8b 10 3d eb 08 ff 3c 23 16 c0 bd
       -0.2309056 0.035289556 0.031132182 -0.09379222
0003e0 d1 00 c8 bd ea 04 47 3d 6a 5b dc 3c 7b b0 a4 3d
       -0.09765781 0.04858867 0.026899058 0.080414735
0003f0 49 36 07 be 96 f5 c4 3d 2f 78 00 3e ab ca 34 be
       -0.13204302 0.09617154 0.12545846 -0.17655437

layers.0.bias f4 [256]
000000 cf 71 fb 3d 45 0b bf 3c 0f fd 15 be 81 4b 4a be
       0.12277567 0.023320803 -0.14647315 -0.19755365
000010 32 aa 0e be 62 5d ac bd 66 d6 5c 3d 0c 79 5c bd
       -0.13932112 -0.08416249 0.053915404 -0.053826377
000020 b1 83 3c be 3b 07 93 bc 1d 4b a7 3d bb 2a b6 bc
       -0.18409611 -0.017947784 0.081686236 -0.022237172
000030 08 4e 3e 3e ba be 88 be db 83 b2 bd 85 9f 9f bd
       0.18584454 -0.26708013 -0.08716556 -0.07794098
000040 c9 97 14 3e cb 18 8a 3d 83 72 d3 bc 41 ea 89 bd
       0.14511026 0.0674301 -0.02581144 -0.067341335
000050 ae 36 03 3b 30 c7 4b bd ab 90 3f 3e 39 23 a1 bd
       0.0020021605 -0.049750507 0.1870753 -0.07868046
000060 b3 59 0d bd 1a ea 1e bd 5b ca 28 3d 1e 49 c0 bd
       -0.034509372 -0.038797475 0.041208606 -0.09388946
000070 1d 00 32 3d a5 2a 92 3d 7f 51 16 3d 3b d5 9d 3d
       0.04345714 0.0713704 0.036698814 0.07706686
000080 c7 27 d0 bd 88 09 e8 3d b2 3d 5c bd 40 67 9c 3c
       -0.10163837 0.11329943 -0.053769775 0.019092202
000090 d4 28 be b8 bb 8b e4 bc 23 d0 e1 bd fe 17 1f 3e
       -9.067511e-05 -0.02789866 -0.11026027 0.15536496
0000a0 e5 65 4c be 8a ff 26 be 15 71 3c be 50 5b 21 be
       -0.19960745 -0.16308418 -0.18402512 -0.15757489
0000b0 39 96 4d be 3d 09 2a be 61 3a d0 3c 6b bf 9c 3d
       -0.20076837 -0.16605087 0.025418462 0.076536976
0000c0 c6 fa bc bd 5b 5f 0a be ac ad 8a bd 4c 34 9e 39
       -0.09227519 -0.13512938 -0.067714065 0.00030175073
0000d0 bb 14 d9 bd 7a b4 ad 3c e3 0d ad bd f0 99 d6 3d
       -0.10599657 0.021204222 -0.08449914 0.1047858
0000e0 cd b2 51 be 00 7b 80 3d c2 ab 34 be b5 08 08 be
       -0.20478363 0.062734604 -0.17643645 -0.13284571
0000f0 19 8b 64 be e5 1c 0f be 3e 2c 52 bd b7 dc 68 be
       -0.22318687 -0.13975866 -0.051311724 -0.22740446
000100 2a db 77 bd b6 f4 6a 3d 88 23 21 be 4f 76 95 be
       -0.060511746 0.05736228 -0.1573621 -0.29191825
000110 a5 1c 48 be 66 b4 af bd 0c 0e 60 be 35 23 f4 3d
       -0.19542177 -0.0857933 -0.21880358 0.11920778
000120 4e 9d 93 bc 5e 83 54 be 84 6d 47 be be 6f fe bc
       -0.018019345 -0.20753238 -0.1947537 -0.031059142
000130 25 45 80 be df 97 f1 bd 30 46 48 3b 3f 7f 5e 3d
       -0.25052753 -0.11796545 0.0030559413 0.05432057
000140 08 85 d8 3d 82 e7 a7 bc 66 c3 18 3e d4 b8 ee bd
       0.10572249 -0.020496134 0.14918289 -0.11656347
000150 40 84 4c be 1a 1d 2a be 72 f2 e7 3b a2 9d 2e 3e
       -0.19972324 -0.16612664 0.0070784623 0.1705232
000160 46 26 1b bd 2d 04 f3 3d 13 a2 64 be bf 17 fe 3d
       -0.037878297 0.11866031 -0.22327451 0.12406873
000170 7a 91 2d be c6 c0 44 3d 61 46 44 be b4 73 e4 bd
       -0.16950026 0.048035406 -0.19167472 -0.11154881
000180 2a 38 60 be e6 8b d4 bd 12 3f 7b be 97 7e 61 be
       -0.21896425 -0.10378246 -0.24535778 -0.22020946
000190 77 c2 00 bc fa 59 c8 bc 11 8e 0f bc 39 a7 59 be
       -0.007858864 -0.024456967 -0.008761899 -0.21255197
0001a0 38 f1 79 be 70 d2 28 be 15 5a 3d be df 3f e2 bd
       -0.24408424 -0.16486526 -0.18491395 -0.11047339
0001b0 7b 86 ba 3d 49 b1 18 be 1a 6b 5e be 61 2e 84 3d
       0.09107681 -0.14911379 -0.21720544 0.064541586
0001c0 4a 3d 69 bd a3 5d df bc 32 db 4d be 04 f8 eb bb
       -0.056943215 -0.02726633 -0.20103148 -0.0072011966
0001d0 8c 9b c4 3d 1c 10 94 3c 14 10 92 3d fa 2e 0c be
       0.09599981 0.018074088 0.07131973 -0.13689795
0001e0 76 50 32 be 44 2b a1 bd 99 f1 08 be f3 26 54 bd
       -0.17413506 -0.078695804 -0.13373412 -0.051794957
0001f0 fd 46 9d 3d 00 d4 45 be 6d 51 28 3e be 0b 97 bd
       0.076795556 -0.19319153 0.16437311 -0.073752865
000200 5b 80 41 3d 7b 35 40 bc 5f a7 55 3d 56 47 06 be
       0.04724155 -0.011731501 0.05216157 -0.1311315
000210 b4 ef e2 3d 59 51 fd bd bf 2d 75 3d 00 61 31 be
       0.11080876 -0.123690315 0.05985808 -0.17322159
000220 d5 58 c1 3d ea b9 27 bd 56 b3 13 3e 86 f4 06 be
       0.094407715 -0.040948786 0.1442388 -0.13179216
000230 de 54 a2 bd da 04 cc bd c4 b4 1e bd 18 a9 fa 3d
       -0.079263434 -0.09961863 -0.03874661 0.12239283
000240 60 f7 25 3d 03 c5 15 bd c3 42 9b 3a 41 78 a8 3d
       0.04051912 -0.03656484 0.0011845458 0.082260616
000250 c1 82 55 be b8 18 7b bc c6 f4 59 be d4 a6 83 bc
       -0.2085066 -0.015325718 -0.2128478 -0.01607076
000260 e9 0c b2 3d 9a ab 2e 3e b3 24 02 3c 70 67 0f be
       0.08693869 0.17057648 0.00794332 -0.14004302
000270 4a 01 d5 bd 54 6f 79 bd d0 97 bb ba bd 3c cd bc
       -0.104006365 -0.060897186 -0.0014312211 -0.025053376
000280 c2 ea 4c be be 4c bc bc f9 0e 70 3d 67 29 7c 3d
       -0.20011428 -0.022985812 0.05860803 0.06156292
000290 d2 fe 08 bd 31 f9 da 3d 0b 5e 4e be 87 7c 5a be
       -0.03344614 0.10692061 -0.20153062 -0.21336566
0002a0 d6 e5 81 bc ef b0 42 be 49 4d f7 3d 6d 95 01 3e
       -0.015856665 -0.19012807 0.12075288 0.12654658
0002b0 91 44 34 be b4 0a fc bb 95 0f 1b be ad c2 4c be
       -0.17604281 -0.0076917056 -0.15142663 -0.19996138
0002c0 3a 31 7c be 01 18 42 bd 3f 84 78 3d 09 6e 3c bc
       -0.24628153 -0.047386173 0.060672995 -0.011500844
0002d0 f7 67 09 3e 10 42 3d 3e e6 77 64 be 97 8a 01 be
       0.13418566 0.18482232 -0.22311363 -0.12650524
0002e0 dc 67 c4 3d 1e 9b df 3d 5b 7b 5f 3d c0 11 14 bd
       0.09590122 0.10918258 0.054561 -0.03614974
0002f0 e7 84 c8 bd 3c 6a 3b be 0a c5 39 3d dd 02 81 bd
       -0.09790974 -0.18302244 0.045353927 -0.06299374
000300 9b 95 e1 3d 06 b1 28 3e 31 7e 11 be 40 b8 fe 3b
       0.11014863 0.16473779 -0.14208294 0.007773429
000310 8c cb b8 3c f7 17 59 be 0e a6 24 bd 23 f8 e3 3c
       0.022557996 -0.21200548 -0.040197425 0.027828282
000320 56 d5 1e 3e b9 18 22 3e 46 7d fb bd 92 94 26 3d
       0.15511069 0.15829743 -0.122797534 0.04066903
000330 14 f3 27 bc 29 ec 5d be 9d 8f 48 be 95 dd 90 3c
       -0.010250825 -0.21672119 -0.19586034 0.017683784
000340 70 8c f4 3d 1a a1 e1 3d a1 68 a9 bd 8b 07 d3 bd
       0.11940849 0.11017056 -0.082719095 -0.10304173
000350 6b 6d 89 be 0e 8f 3d be 35 ac 07 3d 74 dd 83 3d
       -0.26841292 -0.18511602 0.033123214 0.06438723
000360 47 d8 06 be c3 2c 5b be 1d 05 da 3d 3e 16 1d be
       -0.13168441 -0.21403794 0.106455065 -0.15340516
000370 f9 cc 80 be ee d3 89 3d 4c 01 91 bd 6d 55 95 3b
       -0.25156382 0.067298755 -0.070803255 0.0045573027
000380 d8 db 88 be 90 86 8a bc e0 a9 c3 3d 79 d5 89 3c
       -0.26730227 -0.016909868 0.095538855 0.016825425
000390 ee 46 9d bd 3c 64 26 be 31 7e 25 be f3 d5 d0 bd
       -0.076795444 -0.16249174 -0.1616142 -0.101970576
0003a0 12 aa d4 bd d6 df 1e be b8 bc e5 bd 1c 75 90 bd
       -0.10384001 -0.15515074 -0.11217636 -0.07053587
0003b0 99 11 d8 3d e8 b8 95 3c 20 81 43 be 82 6d 3c be
       0.105502315 0.018276647 -0.19092226 -0.18401149
0003c0 8f 04 21 be 5e 63 7c be 6a 1f 56 be 5f 5b 4b 3e
       -0.15724395 -0.2464728 -0.20910421 0.19859074
0003d0 6b 3a e7 bd 19 50 1c bc f7 81 0d be 82 46 d5 3d
       -0.11290439 -0.009540581 -0.13819109 0.10413839
0003e0 39 d7 57 be 4f 43 af 3d 05 17 8f 3d 65 fb 95 3d
       -0.21078195 0.0855776 0.069868125 0.0732334
0003f0 1d bd 09 3e 18 5f aa 3d 12 26 d6 bd ea 90 93 3d
       0.13451047 0.08318919 -0.1045648 0.072053745

layers.3.weight f4 [80, 256]
000000 9d 0f 48 bd 1c 0a 5b 3d 1c c7 4d bc 67 36 b7 bc
       -0.048843015 0.053476438 -0.012559678 -0.022364808
000010 72 8c 1f bd 7b 3f a3 bd dc 4b a7 3d 07 b9 70 3d
       -0.0389523 -0.07971092 0.08168766 0.058770206
000020 38 f6 d1 3c 77 b2 ae bd 95 2b 9b bc 44 55 7b 3c
       0.025630102 -0.08530133 -0.01894168 0.015340153
000030 99 6d 91 3c 0a 80 8a 3c 8c 17 f9 3c 81 70 0d 3d
       0.017752456 0.016906757 0.030406736 0.03453112
000040 9f 1a fd bc 63 63 2e bd b9 c6 1b 3c df 82 2b 3d
       -0.030896483 -0.04257525 0.009507828 0.041872855
000050 09 7a ab 3d 1c ea ef 3c bf aa 1c 3d 05 9d 53 3d
       0.08372886 0.029286437 0.038248774 0.051663417
000060 de a9 af 3d e1 e8 7c bd 06 84 c5 3c 59 d7 4f 3d
       0.085773215 -0.061745528 0.024110805 0.05074248
000070 11 f2 18 bd 6f 11 32 bc 8b 6c 4e 3c 94 13 f1 3b
       -0.037340228 -0.010868414 0.012599121 0.00735707
000080 cd 67 12 3d d9 49 87 bd 74 d2 5d 3d a9 3b 86 3d
       0.035743523 -0.06605882 0.054155782 0.06554348
000090 19 32 a9 bd ed 20 92 bb 5c 53 e7 3c 76 99 b1 bd
       -0.082615085 -0.0044594915 0.028237991 -0.086718485
0000a0 65 b0 b9 3c 7e cc 9d bd d1 05 97 bd 4a d9 ed 3c
       0.02266712 -0.077050194 -0.07374156 0.029034276
0000b0 6b cb 07 3d 2d f8 7c bd 70 95 71 bc ea 95 81 3d
       0.03315298 -0.061760116 -0.014745101 0.06327422
0000c0 7c 82 0c bd 12 05 9a 3c c6 45 96 3b da d5 86 3b
       -0.034304127 0.018801246 0.0045859544 0.0041148486
0000d0 ef fa ab bc e5 fe 8c bc eb 49 89 bc e8 02 d1 3a
       -0.020993678 -0.017211387 -0.01675888 0.0015946301
0000e0 07 86 93 3d e7 a2 a1 3c 14 a3 85 bc ba 2b bf bd
       0.07203298 0.019730998 -0.016313113 -0.09334512
0000f0 8a 72 c7 3d 3a ab 81 bc 98 2b 8e bb 37 15 3d bb
       0.097386435 -0.015828717 -0.004338693 -0.0028851756
000100 68 70 87 bd d1 b0 ab 3c 0a e8 9f 3d ee 9f 5f bc
       -0.06613237 0.020958336 0.0780793 -0.01364897
000110 79 1d c1 3b 71 9e 7e bd 83 9e ad bc 4d 05 dd bd
       0.005893406 -0.06216282 -0.021193748 -0.10792027
000120 eb 49 0b 3b 30 76 0b bd f8 dc e2 bc 9d ba 60 3c
       0.0021253775 -0.03404826 -0.027693257 0.013716367
000130 34 c1 b4 bd f5 4d 0c bd 65 1d 41 3d d6 16 95 bd
       -0.08825913 -0.034254033 0.047147173 -0.07279746
000140 e5 2f 2f bd fc 1c f0 3c 4d 58 9a bc 96 a9 85 3d
       -0.042770285 0.029310696 -0.018840933 0.065264866
000150 bc aa 9c bd 71 84 b2 bb 18 b7 88 3d 41 ab 69 3b
       -0.076497525 -0.005447917 0.06675547 0.0035655054
000160 4d 5b fb 3c 8c d4 0c 3c 6c 02 aa 3b 8e ac a7 3d
       0.030683184 0.008595597 0.005188277 0.08187209
000170 91 4b 81 bd 3a 17 db bc 6c 6e 43 bd a3 b5 05 bd
       -0.06313241 -0.026744474 -0.04771273 -0.032643925
000180 7d d3 82 ba 66 1e 82 bc 5a 10 80 bd 56 a1 b8 bb
       -0.0009981241 -0.015883636 -0.06253119 -0.005634467
000190 6e 55 8b bd e3 64 40 bd 58 83 15 3c 0d 16 96 bd
       -0.06803404 -0.046971213 0.009125553 -0.073284246
0001a0 55 2e 9b bd 6d 76 af bc 11 3b 84 3d b3 6b 81 bc
       -0.075771965 -0.021418775 0.064565785 -0.015798425
0001b0 a1 17 55 bc 7a fa 33 3d 9c ae a8 ba d4 38 62 bc
       -0.013006122 0.043940045 -0.001286942 -0.013807494
0001c0 f9 42 00 3c 91 0d 88 3d bc f7 b5 bd 89 9d c9 bc
       0.0078284675 0.066432126 -0.08885142 -0.024611251
0001d0 8c f1 82 bd 93 de 3a bc c7 62 36 bc d1 92 10 bd
       -0.06393728 -0.011405605 -0.011131949 -0.035296265
0001e0 86 9c 56 3d 8f 12 f7 3c 66 09 68 3d 87 20 7c 3b
       0.052395366 0.030160217 0.056649588 0.0038471536
0001f0 51 9f 5d 3c fe 91 00 bd 3f bf 75 bc f4 84 6f 3d
       0.0135267535 -0.03138923 -0.01499921 0.058476403
000200 71 39 ee bc 8b b4 bd 3c 0c af f1 bb c6 ce f4 3d
       -0.029080125 0.023157379 -0.0073756035 0.119535014
000210 67 cf 8e bd 87 77 9d bd 2d e5 54 bd 05 e8 ab bc
       -0.069731526 -0.07688814 -0.05197637 -0.020984659
000220 ff ec 3d bd 2e e9 68 3d f5 95 8f bc 4f 12 12 3c
       -0.046368595 0.056863002 -0.01752756 0.008915498
000230 84 86 37 bd 57 1f 71 3c f3 9d 7d bc 96 3e 36 3d
       -0.04480602 0.014716945 -0.015479553 0.04449328
000240 cf 06 2a 3b 62 e7 42 bd 04 33 bc bd fa 23 85 bc
       0.0025944 -0.047583945 -0.09189418 -0.016252507
000250 79 5f d3 3d 95 85 c0 3c 47 b4 91 bd a4 cc 2c bd
       0.10320944 0.023501197 -0.07114463 -0.042187348
000260 ab 23 f7 bc 2c a7 93 3c fb 13 c5 bc fc 74 30 3d
       -0.030168375 0.01802405 -0.024057379 0.043080315
000270 41 bc 20 bd 85 d2 9a bc 60 6e f0 bb ad 6c 66 bd
       -0.039242033 -0.018899212 -0.0073373765 -0.056255985
000280 98 f5 a3 3d e6 0f 83 3d 11 53 8d 3b 2f fb 06 3d
       0.08005828 0.06399517 0.004312881 0.03295439
000290 46 22 2b bd 48 8d 2c bd e0 af 91 bc ef 17 38 bb
       -0.041780733 -0.042126924 -0.017784059 -0.0028090437
0002a0 85 20 9a 3c e4 a4 8e 3c 2c f3 2f bc 2b 25 2c 3c
       0.018814335 0.01741261 -0.010739129 0.010506908
0002b0 70 2d 10 3d 9a a2 27 bc 98 2e 82 3d 08 c0 ac bc
       0.035199583 -0.010231638 0.06356543 -0.021087661
0002c0 0f dd 78 bd 12 80 65 3d 72 00 b6 3d 0e 0c 06 bd
       -0.060757693 0.05603034 0.08886804 -0.03272634
0002d0 f2 5f 4b bd a6 d8 d6 3c d6 5f 5d 3d 2d c6 6c bb
       -0.049652047 0.026226353 0.054046474 -0.0036128864
0002e0 41 ab 5f bc c4 97 08 3d f1 de 90 bd 13 cb 60 3d
       -0.01365167 0.03334786 -0.07073773 0.054881167
0002f0 71 88 15 3d 86 18 40 bd 83 8b 23 bc 91 70 2c bd
       0.036507074 -0.046898387 -0.009981993 -0.04209954
000300 a5 8f 0e 3d 97 10 45 bd f5 a6 84 3c af 53 c7 bc
       0.03480496 -0.048111524 0.016192893 -0.024331896
000310 1d f2 94 3d d2 45 0d bd 55 d9 15 3d 23 f8 98 bc
       0.07272742 -0.034490414 0.036584217 -0.018673008
000320 6c b6 5b bd 46 7d a8 3d 5c d3 79 bc 92 59 0b bd
       -0.053640768 0.08227019 -0.015248146 -0.034020968
000330 46 2e 99 3c 22 93 01 3b b0 c0 a5 3d e3 e9 ba 3b
       0.018698823 0.0019771536 0.08093393 0.005704151
000340 1e 88 8c bc 26 e2 92 bc e4 e3 50 bd f4 8d 4b 3c
       -0.01715475 -0.017930102 -0.050998583 0.012423981
000350 d3 fc d4 3b 0f dd 36 3c 25 de 6c 3d 09 db ba 3c
       0.0064998656 0.011161103 0.05782904 0.022809522
000360 b1 53 27 3c 85 55 fc 3b b7 a8 c6 3c 0a 2e 08 bd
       0.010212825 0.0077006244 0.024250371 -0.03324703
000370 73 94 a1 bd b7 8c 72 bd c2 cc 04 bd 85 45 09 3d
       -0.078896426 -0.059216227 -0.032421835 0.033513565
000380 71 95 b3 3d e6 53 3a bd b8 21 c7 bc 6a 20 59 3d
       0.08768738 -0.045490168 -0.02430807 0.053009428
000390 4f 45 83 3d 62 e1 86 bc bc c8 07 3c 1c 35 13 3d
       0.06409704 -0.016464893 0.008287605 0.03593932
0003a0 14 6f cb bb 86 df c1 3d 0e ee f5 3c f0 0a 80 bd
       -0.00620831 0.09466462 0.03002074 -0.06252086
0003b0 27 b3 f6 3c 38 44 b2 3c 9c 2f c4 bb 1a d3 98 3d
       0.030114723 0.021761045 -0.005987121 0.074621394
0003c0 5d 29 3f bd a6 62 94 bd 5c 25 85 bd 4b c4 ee 3c
       -0.046670306 -0.07245378 -0.06501266 0.029146334
0003d0 fb c6 ff 3a 70 03 26 3d ce c2 b4 3c 6f ba 66 3c
       0.0019514257 0.040530622 0.022065546 0.014082535
0003e0 34 6f 49 3d fe e7 0b 3c cd 47 06 bc 3e a1 b7 bb
       0.049178317 0.008539198 -0.00819583 -0.0056039384
0003f0 80 3a 59 bd 6e 2a 05 3d 88 45 aa 3d d4 f5 1b bb
       -0.053034306 0.032511167 0.08314043 -0.0023797648

layers.3.bias f4 [80]
000000 3c c4 0a bc 1c ce 78 3d a4 82 7c bc 60 f0 3e bd
       -0.0084696375 0.060743436 -0.0154120065 -0.04661596
000010 2b de f8 bb 13 f1 a6 bd 3e c4 8e bd 94 9b d2 bc
       -0.007594844 -0.0815145 -0.06971024 -0.025708951
000020 d5 a7 ac bb 78 0a 6a bd eb b6 c6 3c 11 09 70 bd
       -0.0052690306 -0.05713889 0.024257144 -0.058602396
000030 99 c2 1b 3d 93 36 44 bc 09 70 47 3d 8d f6 0a 3d
       0.03802738 -0.011975902 0.04869083 0.033926535
000040 07 90 03 bb 98 ae 42 3d d9 b2 93 3b 3e 90 c8 3c
       -0.002007486 0.047529787 0.0045074043 0.024482843
000050 11 95 8a bd 2b f2 31 bd 04 64 45 bb e0 bb 32 bc
       -0.067667134 -0.04344384 -0.0030119428 -0.010909051
000060 c3 2a 0c bd f7 3d bc bd 91 c0 00 bb 4c 70 1b 3d
       -0.03422047 -0.09191506 -0.0019646029 0.03794889
000070 fb b1 e3 39 f0 54 6e bd 75 40 95 bd be fa 9c 3c
       0.0004342942 -0.05818647 -0.07287685 0.019162532
000080 92 d0 80 3c 9d 54 1d 3d c0 da 5d bd dd b8 8f bd
       0.015724454 0.03841077 -0.054163694 -0.07017682
000090 d4 0b 1d bd 40 2e 15 3d f7 c0 49 3d c0 6b 91 bd
       -0.03834136 0.03642106 0.04925629 -0.0710063
0000a0 75 56 8b ba a9 4b d4 ba a5 3f 80 bb 4e bd 95 3c
       -0.0010630625 -0.0016196865 -0.003913837 0.018278744
0000b0 2c 4f 97 3a a3 04 87 bd 65 d9 8c bd fb e4 48 bd
       0.0011543981 -0.06592681 -0.06877402 -0.049046498
0000c0 fb 7b 2b 3b 41 80 72 3d 9e 1b c8 bc a3 d7 2a 3b
       0.0026166427 0.059204344 -0.024427231 0.002606847
0000d0 3e 99 a0 bd ff 57 9d 3b 1e 36 e1 bc 51 5c a8 bc
       -0.07841729 0.0048017497 -0.027491625 -0.020551832
0000e0 f4 6e 25 3b ac 1d 62 bd 23 20 9a bc d8 48 7a 3d
       0.0025243135 -0.05520408 -0.018814152 0.061104625
0000f0 7c 1b 85 3d 09 3a 7c bd f8 11 0a 3d a6 94 80 3d
       0.06499383 -0.061578784 0.033708543 0.062783524
000100 91 53 77 3c 4c d3 02 bc 7f 5b e2 bc 2c f7 15 3c
       0.015095607 -0.007984947 -0.02763152 0.009153169
000110 9e 1a cd bb fe 8d 88 bd c8 97 41 3d bc e9 47 bd
       -0.0062592765 -0.06667708 0.04726389 -0.04880689
000120 4e f4 48 bd f9 99 21 bd 12 fe 91 bd 02 55 d4 3b
       -0.049061112 -0.03945348 -0.07128538 0.0064798603
000130 33 07 8f bd 17 9b 69 3c 05 94 8d bd 6d cb 9a bd
       -0.06983795 0.014258168 -0.06912998 -0.07558332

layers.6.weight f4 [64, 80]
000000 81 26 bd 3d f2 fe a4 bd 3f 40 9d bc 12 34 89 37
       0.0923586 -0.080564395 -0.019195674 1.635592e-05
000010 0e 09 a9 3d 0b ca e5 bc 20 d2 dc 3a c7 a5 0c bc
       0.0825368 -0.028050443 0.001684729 -0.008584446
000020 56 f6 d4 3b 32 de 42 ba 86 2d 0b 3e f0 84 76 bd
       0.006499092 -0.00074336224 0.13591585 -0.060185373
000030 ba d0 33 3d 65 17 a5 3b 1f c0 0e 3e 5f 7b c8 bd
       0.04390023 0.0050381892 0.13940476 -0.09789156
000040 cc 8e 83 3d 9a 88 ed bd 55 24 ae bc d3 b5 19 3e
       0.06423721 -0.1159832 -0.021257559 0.15010767
000050 d2 59 e4 b9 3d a8 82 bd 8a 42 9b bc 39 76 bd bc
       -0.0004355447 -0.06379745 -0.018952627 -0.023127662
000060 17 d5 ac 3b 16 5b 2e bc 2e f5 2c bd 84 c8 76 bd
       0.0052744257 -0.010641834 -0.04222601 -0.06024982
000070 38 fd a5 bb e1 db 48 bd b5 51 1c 3e 4c cd 1a 3e
       -0.0050655864 -0.049037818 0.15265544 0.15117377
000080 b3 48 9e bd 29 84 a9 bd 6e a6 5d bc 79 03 04 bd
       -0.0772871 -0.08277161 -0.013528449 -0.032229874
000090 c3 16 74 3d ab b2 b8 bd a7 f1 89 3d 30 c3 2e 3c
       0.05959202 -0.09018453 0.06735545 0.0106666535
0000a0 25 14 23 3d 42 4d ab 3b 77 c8 85 3d b3 9c 3d 3d
       0.039814133 0.0052277157 0.06532376 0.04629202
0000b0 f8 73 50 bd be db 93 bc f4 ba 33 bd 4a de b9 3d
       -0.050891846 -0.018049117 -0.043879464 0.090756014
0000c0 b7 19 bd 3d bb 3e d4 bd 30 65 3a 3d 4f a7 13 3b
       0.0923342 -0.103635274 0.045506656 0.0022530144
0000d0 f0 2a 8d 3d 65 48 21 bc a6 36 7d bd cf 03 9f bd
       0.06892955 -0.00984392 -0.061819695 -0.07764398
0000e0 63 e4 9c 3c 53 22 8e 3c b5 51 88 bd 4b 37 81 bc
       0.019151872 0.017350351 -0.066562094 -0.015773436
0000f0 6d 96 e1 bd f7 f3 b0 3d 4e f8 22 bc 5e ba ca 3d
       -0.110150196 0.086402826 -0.009946896 0.09898828
000100 3a 02 4f 3d d1 4e 89 bd f3 fc 1d bd d7 fc 09 3e
       0.050539233 -0.06704486 -0.03857131 0.13475357
000110 bf 10 2d 3d b6 d2 01 3e ba c2 1c 3d 6d 40 b3 3d
       0.0422523 0.12678036 0.038271643 0.087525226
000120 ee dc 39 bd 8d 5f f0 bb 1d 37 b2 3d c5 20 c4 3d
       -0.04537671 -0.0073356093 0.08701918 0.09576563
000130 37 e6 25 3e 27 b0 98 3d f1 d3 29 3d 26 2e 3c bd
       0.16201101 0.074554734 0.04146189 -0.045942448
000140 d5 e2 fb 3d ae f1 23 be 15 9f 9c bd fd 97 cd bd
       0.12299124 -0.16010162 -0.0764753 -0.10038755
000150 e6 f2 13 3e 00 3b 46 bc a2 a7 3c bd e6 82 08 3e
       0.14448127 -0.012099028 -0.046058305 0.13331184
000160 c1 e4 c6 bb 53 de 96 3d da 74 c0 3b ef 54 95 3d
       -0.00606975 0.07366624 0.005873305 0.072915904
000170 29 13 8b bd 0e 21 c7 bc 51 6b f6 bc 6a 3e 56 bd
       -0.06790764 -0.024307754 -0.03008047 -0.052305616
000180 54 a3 4d 3d 2d 23 00 be a2 2b 3c 3d b1 43 37 bd
       0.05020459 -0.12513418 0.04594005 -0.04474229
000190 36 ac 70 bd 29 91 a3 3d e7 cb 96 3c b5 d4 06 bd
       -0.058757983 0.079866715 0.018407775 -0.032917697
0001a0 ac 92 b2 3d 80 b8 43 3b 65 71 9d 3d cb 24 e3 bd
       0.08719382 0.002986461 0.07687644 -0.11091002
0001b0 a8 75 ee 3d db 91 e2 bd 81 a6 98 3c 96 97 2f bc
       0.11643535 -0.11062976 0.018634083 -0.010717293
0001c0 71 6b ab 3c 50 a9 47 3c ef 23 e9 bc e5 77 00 3e
       0.020925255 0.012186363 -0.028459517 0.12545736
0001d0 aa 72 76 bc e2 9b 59 bd 5b 11 1f 3c 13 1b 47 3d
       -0.0150419865 -0.053127177 0.009708728 0.048609804
0001e0 2d 54 20 bd 5f 4c 46 3d bd f1 f3 3d 88 95 14 be
       -0.039142776 0.048412677 0.11911342 -0.14510167
0001f0 44 4a fa bd 51 d3 b7 bd 3f 8f b6 bd b6 75 8f 3d
       -0.12221196 -0.08975852 -0.08914041 0.070048735
000200 ce cc f0 3d 69 34 14 bd b1 29 04 bd 8d 1f 54 bd
       0.117578134 -0.036182795 -0.032266323 -0.0517879
000210 32 7e a0 bd ec ab 00 be 2a 80 29 bd bd 4a 98 bd
       -0.0783657 -0.12565583 -0.041381992 -0.0743613
000220 a2 57 38 3d 97 05 84 bd b6 07 27 bd ed 66 af bd
       0.04500545 -0.06446379 -0.040778838 -0.085645534
000230 fd 07 09 be 0c 30 b3 bc cd dd 47 3d 6c 95 0e 3e
       -0.13381954 -0.021873496 0.04879551 0.13924187
000240 4e 75 83 bd 25 25 7d bd cb c7 f6 3c e4 17 48 3d
       -0.064188585 -0.061803002 0.030124566 0.04885091
000250 db b1 d5 bd 01 b5 bc 3d 75 97 ee 3a ab 79 9f 3d
       -0.10434314 0.09214211 0.0018203097 0.07786878
000260 18 8b 1d 3c 7a 43 b3 3d 6b 6d df 3d 44 35 0f bd
       0.009615682 0.087531045 0.10909542 -0.034962907
000270 23 2c 09 3e c0 70 5d bb 51 ab b7 3d c1 a0 3b bd
       0.13395743 -0.0033789128 0.08968223 -0.045807604
000280 55 26 92 bc 8b 10 e3 3c 44 91 8d bd 75 14 d3 bd
       -0.017840544 0.02771785 -0.06912473 -0.10306636
000290 bd 1b 40 3d d9 02 46 3d 58 b3 b2 bc c5 70 55 bc
       0.046901453 0.04834256 -0.021814033 -0.013027375
0002a0 b7 dd 6a bd 94 89 5a bb 60 1b c8 3d 19 41 56 3c
       -0.05734035 -0.0033346163 0.09770846 0.013077044
0002b0 bc 4d cf 3d 17 b5 a3 3b e7 32 8c bd df b9 c3 3c
       0.101222485 0.004995953 -0.06845646 0.023892341
0002c0 14 d5 88 3d 3a dd 64 bd bf fb 0c 3d 3e f7 5f bd
       0.066812664 -0.05587504 0.03441977 -0.054679148
0002d0 70 fa f8 3d ed 5a 3c bd f9 47 8d bd 19 0a 4b 3d
       0.12157142 -0.04598515 -0.06898493 0.049570177
0002e0 2c a2 52 3d 86 df 81 3d 78 fe 33 3d e7 63 c4 3d
       0.05142419 0.06341462 0.043943852 0.09589367
0002f0 c5 89 71 3d f2 66 11 3d 55 5c 35 bd 84 db 50 bd
       0.058969278 0.035498567 -0.044277508 -0.050990596
000300 8b 98 85 bd 8c 06 cf bd 58 73 4b 3d 2b 0b 26 3d
       -0.06523236 -0.101086706 0.049670547 0.040537994
000310 59 e3 b3 bc dc d0 54 bc ee 74 f7 3d 12 9d c8 bd
       -0.021958994 -0.012989249 0.120828494 -0.09795584
000320 c5 d3 85 bb bd 9b e0 bd 7c d0 9e bc dd 47 bc bd
       -0.004084083 -0.10967205 -0.019386522 -0.09193394
000330 e7 c9 c2 bb a9 4f 94 3d 40 1b 92 bd da e7 0f 3d
       -0.005944479 0.072417565 -0.07134104 0.03513322
000340 8d 7e c0 3d a6 ba 08 3d d2 f4 b7 3d 6c 2e d0 bd
       0.09399138 0.033381127 0.08982243 -0.10165104
000350 20 7b e6 b9 7b 53 df bd e0 74 b9 bd 13 87 10 be
       -0.00043960754 -0.109045945 -0.09055495 -0.14114027
000360 76 7e 4d 3d 78 ce 0d 3e 05 87 e9 3c 4e 5e 2d 3d
       0.05016943 0.13848293 0.028506765 0.042326264
000370 22 35 fe bd e5 7c a2 3d 26 25 b7 bd 72 f7 28 bd
       -0.12412478 0.07933978 -0.089426324 -0.041251607
000380 5c f4 0c bc 2b 36 07 bd 2d 32 37 3d 26 1c 86 3d
       -0.008603182 -0.033010643 0.044725586 0.06548338
000390 cb 2f 87 3c 7b 89 29 3d 6a 17 d9 3d 5d a9 6c 3d
       0.016502282 0.041390877 0.10600169 0.057778705
0003a0 cd 14 b6 bd 40 3d 9e bc 96 5c 82 3c 9d 37 7d 3c
       -0.08890686 -0.019316316 0.015913289 0.015455154
0003b0 97 96 74 3d cb 59 c3 ba 08 60 e8 3d f3 f7 e0 3d
       0.059713926 -0.001490408 0.113464415 0.109847926
0003c0 5a bd 33 3d 30 56 a5 bd 8b 0f 6f 3d 9a 46 4d bd
       0.04388175 -0.080730796 0.058364432 -0.05011616
0003d0 56 17 2b bd 6b 06 9b bd ac 88 a4 bc 61 37 a6 3d
       -0.0417703 -0.075695835 -0.020084701 0.081160314
0003e0 f6 5d 7e 3d f6 ce ad 3d 7f ba 63 bc a6 3c dc 3d
       0.062101327 0.0848674 -0.013899445 0.10753755
0003f0 5c 1c 45 bd 57 83 a8 bd 90 c2 06 3e c2 18 92 bc
       -0.04812275 -0.08228176 0.13160157 -0.017834071

layers.6.bias f4 [64]
000000 80 80 74 3d 42 b8 fc 3d b3 9b a2 bd 08 82 40 3d
       0.05969286 0.12339832 -0.079398535 0.046999007
000010 76 b4 de bd 5b 9d e5 bd f2 ee c4 bc 9b 29 47 3c
       -0.10874264 -0.11211654 -0.02403972 0.012155916
000020 b8 df ec 3c 5e 2f 3e 3c a2 57 49 3d c0 37 09 3d
       0.028915271 0.011607973 0.04915584 0.033500433
000030 19 c1 f6 3d 47 37 64 bc e8 54 4b 3d 17 09 ae bc
       0.12048549 -0.013929195 0.04964152 -0.021244569
000040 98 b3 37 bd a1 39 e6 bd 6f 71 03 3e a6 aa 08 bd
       -0.04484901 -0.112414606 0.1283624 -0.033365868
000050 e6 58 58 3d 14 3c 80 3d b3 9c b6 bd 24 68 7d 3c
       0.052819155 0.06261459 -0.08916607 0.015466724
000060 46 7d e2 3c 56 89 dc bd 92 f4 c1 bd 8d c5 90 bd
       0.027647626 -0.10768382 -0.09470476 -0.0706893
000070 db f7 2d 3d 4a c2 f0 3d c4 31 0a be fc 74 eb bd
       0.0424727 0.11755808 -0.13495547 -0.114969224
000080 e1 05 09 3e a9 d2 16 3e d4 5a 71 bd 7c 7a 98 bc
       0.13381149 0.14728798 -0.05892451 -0.018613093
000090 81 3a 7f ba 98 ee c3 3d 71 81 42 bd b1 cc 28 3d
       -0.0009736196 0.095669925 -0.047486726 0.041210834
0000a0 2a 06 16 3d 8e 1e bd 3d cc 1c 49 3d 93 c6 eb 3c
       0.036626972 0.092343435 0.04909973 0.028781211
0000b0 6a 81 87 bb bf 14 04 3e bd 76 1d 3d 0d 29 b4 bd
       -0.0041353004 0.12898539 0.038443316 -0.08796892
0000c0 1b 45 86 bd d7 1e 99 bd f9 99 9e 3d ec 41 5f bd
       -0.065561496 -0.07476585 0.07744212 -0.054506227
0000d0 51 d5 94 bc dd 69 1d 3c 13 a7 19 bd ca a2 9f 3d
       -0.018168123 0.009607759 -0.03751285 0.077947214
0000e0 04 cc 7d 3d ac e4 1a 3a c3 0c da 3d 63 1e 8c 3b
       0.061962143 0.00059087086 0.10646965 0.0042760833
0000f0 f3 02 7a 3d 79 eb 8f 3d 81 b4 dd bd 6c b9 c7 bd
       0.06103797 0.07027335 -0.10825444 -0.09752163

layers.8.weight f4 [1, 64]
000000 fe 00 9a bd 46 f1 da bd 78 c5 99 bd 3a 30 dd bd
       -0.075197205 -0.106905505 -0.07508367 -0.10800214
000010 92 bc cb bd ed 53 2c bd 1d 2f cd 3d c4 ee c1 3c
       -0.09948076 -0.042072225 0.10018752 0.023673423
000020 77 9f ef 3c 92 27 a3 3d 66 fd 6a bd 7d 7e 2c bd
       0.029250843 0.07966532 -0.057370566 -0.042112816
000030 44 84 bb 3d 96 80 c6 bd 93 11 ee 3d 0c 31 d0 3d
       0.09156087 -0.096924946 0.11624446 0.10165605
000040 dc d0 ae 3d 63 4f d3 3c e9 8e ef bd 22 48 8d 3c
       0.085359305 0.02579469 -0.1169718 0.01724631
000050 a1 4e 14 be 2c 6d e3 3c bd de 45 bd 1c 8d 25 3d
       -0.1448312 0.027762018 -0.048308123 0.040417776
000060 24 6d 68 3d 88 8f d8 3c 13 d8 f6 3d e3 1b 96 bd
       0.05674471 0.026435629 0.12052932 -0.07329538
000070 78 5b 12 be 71 5a a9 bd 7f 0e 11 3d 3e 80 56 bd
       -0.14292705 -0.082692035 0.035414215 -0.052368395
000080 39 48 00 be f2 eb 09 be a2 e9 f5 3d 54 66 9c 3c
       -0.12527551 -0.13468912 0.120074525 0.019091763
000090 9d bd f3 bd f2 51 2a 3e c9 d7 ee 3d 97 d5 fa bd
       -0.119014 0.16632822 0.116622515 -0.1224777
0000a0 db 4f bf bd 4a e4 da 3d df 48 1c 3e 3e 26 f7 3b
       -0.09341403 0.10688074 0.15262173 0.0075424006
0000b0 8a f1 a2 3d ba 80 13 3e ad ee 61 bd 8a 51 11 bd
       0.07956226 0.14404574 -0.05515926 -0.035478152
0000c0 ac 6f a4 3d c2 8a 63 bd aa 84 a0 3d 01 b3 50 bd
       0.08029112 -0.05555225 0.07837804 -0.05095196
0000d0 98 7e cf 3d 70 6a 0b bd 56 9f a7 bd 94 4f 50 bd
       0.10131568 -0.034037054 -0.08184688 -0.05085714
0000e0 30 45 1d bd 46 20 f0 3d ca b2 04 be ea b8 b1 bd
       -0.03839606 0.11724906 -0.12958828 -0.08677848
0000f0 d5 19 ed bd 31 d4 a2 bd ca e2 ec 3c 0a d0 d8 bc
       -0.11577193 -0.079506285 0.028916735 -0.026466388
