flwr-mlp/models/checkpoints/round_024.pt (torch, 127593 bytes, 7 tensors)

layers.0.weight f4 [256, 19]
-0.050536025 -0.14638823 -0.020351326 -0.28533944 -0.03308984 -0.14241502 -0.09986921 -0.20402224
0.18282633 -0.1067585 0.05012612 0.13941324 -0.029316837 -0.14345603 0.19816601 -0.05074571
-0.14998707 0.041991167 -0.21703546 -0.1700592 -0.05705705 0.13786457 -0.006899775 -0.090052545
-0.017322116 0.19577813 -0.20036362 0.085104875 -0.038265385 0.16579084 0.12055165 -0.1207351
-0.06459274 0.0617335 -0.067514546 0.09561967 0.22169146 -0.013839723 0.07101494 0.111470446
0.020832729 -0.11556177 0.06705736 -0.049802393 0.120611176 -0.23279688 -0.01896911 0.22979146
0.09455884 -0.0920441 0.08635464 0.14274251 0.106565185 -0.012528706 0.06486791 0.11817657
-0.07324706 0.28980082 -0.049941357 0.05270073 0.11145898 -0.07326477 -0.21574393 -0.20273119
0.22192335 -0.045002293 -0.029901586 0.21144372 -0.12191413 -0.082573846 0.0375826 -0.12851895
-0.06926109 -0.07206036 0.055030018 0.13535951 -0.07791353 -0.09758772 0.17242151 0.014077092
0.20793131 0.17337489 0.20759816 0.1202039 0.17663383 -0.02469365 -0.1435261 -0.10657891
-0.20248532 -0.047446396 -0.095863014 0.08008529 -0.035205364 -0.04841766 -0.15226556 0.051525924
0.13060984 -0.12671424 0.20865032 0.09060941 -0.20767139 0.17118077 0.2275559 -0.12609507
-0.23196748 0.08035505 -0.31624302 -0.0089679025 0.17046657 0.1316667 -0.011059868 0.091789775
-0.013990934 -0.270855 0.113184504 0.16415447 0.061995618 -0.020894438 -0.060039587 -0.09740931
-0.14269243 -0.18289134 -0.19850412 0.28070614 -0.23434888 -0.091150835 0.035414796 -0.10868877
0.14425124 -0.089869596 0.033655893 -0.028292663 0.046176054 0.14883372 -0.1834964 -0.023915568
-0.11695024 0.02817773 -0.0029410485 -0.15616824 -0.10797391 -0.04392735 -0.02477119 0.00791726
0.057274383 0.17695974 0.11985606 -0.038550258 -0.10113392 -0.23727919 0.015419206 -0.050149776
-0.024495808 0.09519844 0.09434401 -0.058017924 0.10375542 0.23929225 0.093234286 0.13161471
0.24501814 0.087768175 -0.08178914 0.2794228 -0.26288354 0.18456493 0.048229042 0.07999813
0.027938463 -0.1754901 -0.18573144 0.20834798 -0.04690072 -0.07488194 -0.06692906 0.23298459
-0.118673146 -0.019998828 0.1668904 0.21427259 -0.06006648 -0.03520887 -0.029537976 0.13644858
0.030111723 0.1293394 -0.030887054 0.11376906 0.11008882 0.009137503 -0.101461045 0.014307245
0.10765306 0.046418775 -0.054416332 0.08636828 -0.11296739 0.14720994 0.14608853 -0.36725062
-0.24532655 -0.03849165 -0.10531594 -0.14271885 -0.102524206 0.12471943 0.15288 0.107775405
0.02341537 0.20938756 -0.10433288 -0.0399752 0.19095995 -0.22499442 0.06628136 -0.27386197
0.09635284 0.22157124 0.15250754 0.17713109 -0.20864871 0.032466613 -0.21750854 -0.04100131
0.0021264309 -0.061787073 0.17137308 0.011995889 -0.09209367 0.23039943 -0.045089643 -0.01860038
0.107027546 -0.029732857 -0.15420389 -0.082599275 -0.27922392 0.31216308 -0.22408096 -0.004584585
0.12923366 0.024700083 0.0032838273 0.09562678 -0.18366626 0.01155542 0.033942893 -0.10749094
-0.07782066 0.0010981894 -0.047154848 0.13314731 -0.19873558 0.031278484 0.07713755 -0.15419129
00000000: ddfe 4ebd cce6 15be d3b7 a6bc 0318 92be
00000010: 3689 07bd 3ed5 11be 3a88 ccbd 35eb 50be
00000020: d336 3b3e 33a4 dabd 0c51 4d3d 58c2 0e3e
00000030: dd29 f0bc 23e6 12be 08ec 4a3e bcda 4fbd
00000040: 3696 19be eefe 2b3d 8b3e 5ebe 0024 2ebe
00000050: a7b4 69bd 5f2c 0d3e 8217 e2bb 786d b8bd
00000060: 1ce7 8dbc 107a 483e 1f2c 4dbe 774b ae3d
00000070: 2abc 1cbd 13c5 293e c9e3 f63d f743 f7bd
00000080: 3349 84bd 44dc 7c3d 1145 8abd 3fd4 c33d
00000090: 1603 633e 01c0 62bc 4870 913d 9e4a e43d
000000a0: 66a9 aa3c a6ab ecbd 5f55 893d 98fd 4bbd
000000b0: fe02 f73d 4e62 6ebe 1b65 9bbc 744e 6b3e
000000c0: 11a8 c13d 9e81 bcbd b4da b03d 182b 123e
000000d0: d93e da3d 3445 4dbc 78d9 843d 8f06 f23d
000000e0: 8e02 96bd c660 943e 4f8f 4cbd b8dc 573d
000000f0: 9b44 e43d d70b 96bd faeb 5cbe c498 4fbe
00000100: e03f 633e 5354 38bd 2cf4 f4bc b484 583e
00000110: 1eae f9bd 7a1c a9bd 36f0 193d 799a 03be
00000120: c2d8 8dbd 6294 93bd 2867 613d af9b 0a3e
00000130: 2191 9fbd 12dc c7bd 448f 303e 9aa3 663c
00000140: f2eb 543e 3089 313e 9d94 543e 762d f63d
00000150: 80df 343e 564a cabc 82f8 12be 0b46 dabd
00000160: 5058 4fbe 2757 42bd d453 c4bd c203 a43d
00000170: 8033 10bd 9951 46bd 81eb 1bbe d90c 533d
00000180: 96be 053e 61c1 01be 6ea8 553e 6d91 b93d
00000190: cfa7 54be 034a 2f3e 6a04 693e 111f 01be
000001a0: e288 6dbe 3091 a43d 9bea a1be 1cee 12bc
000001b0: ca8e 2e3e a3d3 063e 7334 35bc 47fc bb3d
000001c0: 3b3a 65bc 82ad 8abe 47cd e73d 1c18 283e
000001d0: 1eef 7d3d d02a abbc 12ec 75bd 887e c7bd
000001e0: f71d 12be de47 3bbe aa44 4bbe b7b8 8f3e
000001f0: 27f9 6fbe 4aad babd 1b0f 113d 3898 debd
00000200: 99b6 133e 8d0d b8bd c3da 093d 04c6 e7bc
00000210: 1a23 3d3d de67 183e 7be6 3bbe 95ea c3bc
00000220: 9c83 efbd fcd4 e63c 9bbe 40bb 91ea 1fbe
00000230: 6d21 ddbd 2aed 33bd f3ec cabc 65b7 013c
00000240: 8b98 6a3d ef34 353e 1877 f53d e0e6 1dbd
00000250: 4d1f cfbd 51f9 72be d6a0 7c3c da69 4dbd
00000260: 6fab c8bc 66f7 c23d 6f37 c13d 34a4 6dbd
00000270: b97d d43d 0709 753e 9ef1 be3d 02c6 063e
00000280: 09e6 7a3e cdbf b33d 1181 a7bd 8110 8f3e
00000290: ac98 86be 97fe 3c3e d18b 453d 0fd6 a33d
000002a0: 34df e43c adb3 33be 6230 3ebe 2c59 553e
000002b0: f81a 40bd b45b 99bd 1a12 89bd 8393 6e3e
000002c0: e80a f3bd 95d4 a3bc 51e5 2a3e 466a 5b3e
000002d0: 4508 76bd 2d37 10bd a0f9 f1bc 2db9 0b3e
000002e0: dcac f63c 8c71 043e d906 fdbc c1ff e83d
000002f0: 3f76 e13d 77b5 153c cfca cfbd ef68 6a3c
00000300: 3579 dc3d 9d21 3e3d a9e3 5ebd dae1 b03d
00000310: 725b e7bd 34be 163e 3b98 153e 4608 bcbe
00000320: e236 7bbe 6ca9 1dbd e2af d7bd e424 12be
00000330: 36f8 d1bd e76c ff3d 938c 1c3e 5ab9 dc3d
00000340: 97d1 bf3c b169 563e 7aac d5bd 09bd 23bd
00000350: 018b 433e f064 66be 86be 873d a337 8cbe
00000360: a354 c53d 92e3 623e f02a 1c3e da61 353e
00000370: 02a8 55be b6fb 043d 8fba 5ebe fdf0 27bd
00000380: 975b 0b3b 7114 7dbd 6d7c 2f3e 688a 443c
00000390: 9b9b bcbd d4ed 6b3e ebaf 38bd d35f 98bc
000003a0: 4231 db3d 5292 f3bc a0e7 1dbe cf29 a9bd
000003b0: 70f6 8ebe d7d3 9f3e 7b75 65be 493a 96bb
000003c0: d455 043e d457 ca3c 7b35 573b f9d7 c33d
000003d0: 0213 3cbe f252 3d3c b407 0b3d 3624 dcbd
000003e0: 7060 9fbd 1ff1 8f3a 7125 41bd c557 083e
000003f0: 5781 4bbe de1d 003d 4bfa 9d3d 52e4 1dbe

layers.0.bias f4 [256]
-0.018057428 -0.09340658 -0.31346455 -0.25877678 -0.24332142 -0.15021607 -0.1049919 -0.23680851
-0.26752755 -0.05512212 0.06336059 -0.10543986 0.0013646589 -0.38022232 -0.22646728 -0.2032343
0.000656778 -0.040580563 -0.22134809 -0.2722142 -0.1454802 -0.22051394 -0.009799027 -0.19949119
-0.144994 -0.16453858 -0.06065696 -0.25262496 -0.035312362 -0.0895016 -0.12279654 0.0008378674
-0.24580298 -0.005316342 -0.20414808 -0.14744934 -0.05964603 -0.09217991 -0.25397792 0.040902168
-0.28628084 -0.26153085 -0.2307611 -0.27469346 -0.2549495 -0.18530414 -0.16333558 0.04076908
-0.16703993 -0.3470268 -0.25028247 -0.18282013 -0.13725556 -0.07294503 -0.13008966 -0.052720476
-0.36620426 -0.054005016 -0.17557938 -0.18054092 -0.41189587 -0.273472 -0.16269669 -0.35321218
-0.0915989 -0.06087024 -0.30344954 -0.43819427 -0.35125607 -0.2513251 -0.3360951 0.06859842
-0.15655094 -0.2778846 -0.21028803 -0.14876379 -0.29928917 -0.3015554 -0.14077625 -0.025803361
-0.038702395 -0.21224359 -0.060514685 -0.20643558 -0.29801372 -0.28041154 -0.14353175 0.08530057
-0.17932244 -0.0480285 -0.31026042 -0.041743882 -0.2420299 -0.08085536 -0.33203495 -0.23712859
-0.34007058 -0.24048553 -0.39490294 -0.3143934 -0.17525321 -0.23862872 -0.10139482 -0.2843982
-0.23650627 -0.34036294 -0.261428 -0.2762093 -0.010390958 -0.33521312 -0.38298315 -0.012956859
-0.20770702 -0.17735997 -0.278324 -0.07125662 0.021952853 -0.16991332 -0.13046455 -0.19137971
-0.23887113 -0.20755433 -0.28050378 -0.22499418 -0.08347514 -0.36316958 0.0696121 -0.17703652
-0.015395932 -0.16201556 -0.052798804 -0.33033255 0.010942329 -0.16705857 -0.059764087 -0.21726713
0.05663704 -0.18092231 -0.019065315 -0.2537725 -0.13889179 -0.2785808 -0.19341739 -0.09481059
-0.15270214 -0.17979631 -0.024150359 0.086466506 -0.3277208 -0.18118761 -0.36976248 -0.13705924
-0.1358144 -0.07488862 -0.14832368 -0.25396124 -0.15091528 -0.1879822 -0.16739218 -0.21119101
-0.33584026 -0.1297014 -0.08304685 -0.018285526 -0.18006404 -0.04992962 -0.2612756 -0.24438985
-0.13158967 -0.30963463 -0.057136625 -0.009290095 -0.23402956 -0.15644632 -0.29424053 -0.26143518
-0.33440188 -0.08291852 -0.09775402 -0.14330761 0.017440945 -0.004818643 -0.37287286 -0.21007755
-0.005855256 -0.00488692 -0.036065336 -0.15859188 -0.1389703 -0.2775492 -0.13267371 -0.106787704
-0.0051393504 0.05077702 -0.25609276 -0.15989566 -0.1617303 -0.30344367 -0.12467357 -0.13579029
-0.024349257 -0.012496491 -0.27330545 -0.070635706 -0.18634757 -0.36958164 -0.4108513 -0.057702072
-0.057252977 -0.040217068 -0.17397957 -0.20322686 -0.33902377 -0.32839656 -0.10681152 -0.09985826
-0.26844907 -0.30547678 0.0454421 -0.24897157 -0.32774103 -0.09856142 -0.119945414 -0.18087727
-0.4001934 -0.09847151 -0.028995415 -0.09772122 -0.273873 -0.33152494 -0.22336939 -0.29398942
-0.22981746 -0.2904732 -0.30807635 -0.12338864 -0.027115557 -0.07663101 -0.2862739 -0.39100146
-0.2645571 -0.36178237 -0.26924005 0.07263747 -0.27657664 -0.15739588 -0.26033616 -0.06360487
-0.33048394 -0.106424056 -0.022630434 -0.104044706 -0.009357779 -0.039240807 -0.25206175 0.00015525636
00000000: 2ced 93bc f34b bfbd 6d7e a0be 647e 84be
00000010: 4029 79be 3ed2 19be fe05 d7bd ee7d 72be
00000020: 5ff9 88be bbc7 61bd 32c3 813d daf0 d7bd
00000030: 5bde b23a 80ac c2be 0ae7 67be a71c 50be
00000040: a02b 2c3a ce37 26bd 13a9 62be a95f 8bbe
00000050: c3f8 14be 68ce 61be 198c 20bc 6b47 4cbe
00000060: 4f79 14be cd7c 28be 6f73 78bd 0f58 81be
00000070: b2a3 10bd 9d4c b7bd c17c fbbd 54a4 5b3a
00000080: c7b3 7bbe b634 aebb 320c 51be f6fc 16be
00000090: 654f 74bd d2c8 bcbd 6509 82be 0889 273d
000000a0: 6793 92be 5fe7 85be a34c 6cbe 9fa4 8cbe
000000b0: be88 82be 5ec0 3dbe 7141 27be 7bfd 263d
000000c0: 840c 2bbe 7fad b1be 0625 80be 3335 3bbe
000000d0: b98c 0cbe 3464 95bd 3936 05be 6df1 57bd
000000e0: 207f bbbe 5d34 5dbd 15cb 33be b8df 38be
000000f0: 04e4 d2be 8604 8cbe f699 26be 3ad8 b4be
00000100: 3498 bbbd 1353 79bd bd5d 9bbe 005b e0be
00000110: d6d7 b3be afad 80be a814 acbe 547d 8c3d
00000120: e44e 20be e446 8ebe bf55 57be 8955 18be
00000130: 6e3c 99be 7865 9abe a627 10be 9261 d3bc
00000140: 6786 1ebd 6256 59be 3fde 77bd d963 53be
00000150: 4195 98be 1a92 8fbe fdf9 12be 11b2 ae3d
00000160: 4da0 37be 88b9 44bd 74da 9ebe a2fb 2abd
00000170: b0d6 77be 7f97 a5bd 7c00 aabe d6d1 72be
00000180: bb1d aebe d741 76be b830 cabe 2cf8 a0be
00000190: 9475 33be 165b 74be 16a8 cfbd a49c 91be
000001a0: b32e 72be 0d44 aebe e4d9 85be 4e6b 8dbe
000001b0: d63e 2abc 0ea1 abbe 5e16 c4be 0149 54bc
000001c0: 26b1 54be da9d 35be 7c80 8ebe feee 91bd
000001d0: 78d6 b33c c2fd 2dbe 8098 05be 0bf9 43be
000001e0: a29a 74be 1f89 54be 319e 8fbe e064 66be
000001f0: 04f5 aabd 5df1 b9be ca90 8e3d 1049 35be
00000200: 383f 7cbc 68e7 25be 8f43 58bd 5921 a9be
00000210: 7447 333c 6711 2bbe 30cb 74bd 467b 5ebe
00000220: 3efc 673d b343 39be dd2e 9cbc 78ee 81be
00000230: a639 0ebe 25a2 8ebe 350f 46be 0e2c c2bd
00000240: f35d 1cbe 861c 38be f9d6 c5bc 5a15 b13d
00000250: 05cb a7be 3f89 39be 8251 bdbe 4259 0cbe
00000260: ee12 0bbe 345f 99bd 2ae2 17be 3507 82be
00000270: 8989 1abe 687e 40be db68 2bbe 7542 58be
00000280: 41f3 abbe 72d0 04be 7814 aabd 87cb 95bc
00000290: b562 38be 0083 4cbd eac5 85be 5541 7abe
000002a0: 71bf 06be 6e88 9ebe 1808 6abd 7c35 18bc
000002b0: 72a5 6fbe 7733 20be b2a6 96be d5da 85be
000002c0: b936 abbe 2fd1 a9bd 4233 c8bd 3bbf 12be
000002d0: 50e0 8e3c b5e5 9dbb 31e9 bebe 921e 57be
000002e0: 73dd bfbb 7522 a0bb 3fb9 13bd e965 22be
000002f0: 3b4e 0ebe ee1a 8ebe 9edb 07be 83b3 dabd
00000300: ff67 a8bb 91fb 4f3d 971e 83be b0bb 23be
00000310: a19c 25be f85c 9bbe db54 ffbd 9c0c 0bbe
00000320: 1878 c7bc 15be 4cbc b1ee 8bbe 74a9 90bd
00000330: e6d1 3ebe ce39 bdbe 1a5b d2be 0259 6cbd
00000340: 1982 6abd a7ba 24bd b327 32be b41a 50be
00000350: 8694 adbe 9823 a8be 00c0 dabd 7d82 ccbd
00000360: 2872 89be 7467 9cbe 7f21 3a3d 67f2 7ebe
00000370: accd a7be 92da c9bd f1a5 f5bd e437 39be
00000380: 26e6 ccbe 6eab c9bd cb87 edbc 1022 c8bd
00000390: 1539 8cbe a3bd a9be f2ba 64be c885 96be
000003a0: 4555 6bbe e7b8 94be 2fbc 9dbe 2fb3 fcbd
000003b0: 7221 debc b8f0 9cbd 7e92 92be 5831 c8be
000003c0: 0774 87be 8a3b b9be d5d9 89be f4c2 943d
000003d0: 749b 8dbe 632c 21be c84a 85be 4543 82bd
000003e0: 3135 a9be dbf4 d9bd 7663 b9bc 6415 d5bd
000003f0: 5f51 19bc f8ba 20bd 3d0e 81be 50cc 2239

layers.3.weight f4 [80, 256]
-0.043597862 0.050801422 0.048338424 -0.021002054 -0.0630197 -0.058227465 0.055104066 0.07761349
0.1200328 -0.14909534 -0.030553551 -0.06609613 -0.008945153 0.15525228 0.025942633 0.0663876
-0.09619059 -0.08473531 0.08486718 0.08645726 0.09079424 0.041852653 0.02702974 0.03747642
0.0885706 -0.0035161576 -0.017638724 0.12658064 -0.112289034 -0.017377246 0.07205848 0.008449301
0.16195254 -0.08703735 0.07575949 0.087805614 -0.13080636 0.01132448 0.09879778 -0.14022428
0.02415218 -0.103674576 -0.120733954 0.11702142 0.13144653 -0.028468106 0.057564687 0.0151154455
-0.050020743 0.08740675 0.117177136 -0.028795354 -0.029831514 -0.08124778 -0.07414482 -0.040358018
0.106615834 0.04241366 0.035005048 -0.12910233 0.2383983 -0.022623137 0.10844 0.24338172
-0.04478652 -0.034082633 0.08073053 0.097530715 0.1962082 0.03755466 0.06054141 -0.20757945
0.06615245 -0.023480328 -0.0400289 0.106106386 -0.14409585 0.099168405 0.0468368 -0.10572853
-0.056655377 0.008793224 0.030872492 0.10621146 -0.055983745 0.13175057 0.18366042 -0.03744916
0.0031416211 0.00032358157 0.031640194 0.030105334 -0.06381172 -0.07382302 0.061803572 0.02328575
0.035144523 0.0056851543 0.10333492 0.06406891 -0.102551416 0.0057428777 0.06781733 -0.036947295
-0.059233952 0.08715088 0.17773762 0.07632939 -0.11700518 0.13481452 0.09953347 0.009722191
0.055007827 0.064094685 -0.0815501 -0.052332617 -0.09164758 0.050867885 0.053319827 -0.05678083
0.011020077 0.08672796 0.090061806 0.03299658 0.054003466 0.07766866 -0.04425557 0.117011316
-0.05754814 0.018394684 -0.0068093096 0.19161366 -0.15556316 -0.13751163 -0.056827348 -9.996093e-05
-0.122532 0.08271062 -0.007644342 0.08474149 -0.09188376 0.062892854 -0.014211441 0.06708732
0.035108972 -0.025999246 -0.13173118 -0.05421213 0.20168622 0.115596 0.084467456 0.007978667
0.025382759 0.014753177 0.031563528 0.08063162 -0.016814105 -0.015402277 0.045111824 0.016077016
0.21687487 0.11075415 0.033944774 0.007261545 -0.020423615 -0.030249823 0.033121526 0.0065093217
0.11879968 0.13199401 -0.0039630365 -0.03673552 0.1215365 0.0041079274 0.13169661 -0.056570657
-0.06747712 -0.0032534532 0.13696164 -0.063044816 -0.07025844 0.041869886 0.05417848 0.1063227
-0.007429175 0.0075640185 -0.13314869 0.0929728 -0.023089811 0.01856755 0.01680297 -0.10954281
-0.01902654 -0.09635236 0.08924138 0.086354285 0.098704845 0.04163341 0.03628232 -0.010527447
-0.06981513 0.120047405 -0.0041361344 -0.05236156 0.04550945 0.055901315 0.12939833 -0.007663795
-0.027647084 -0.0013065655 -0.11393613 0.010076576 0.07902848 0.1651696 0.10456092 -0.008173466
0.07684733 0.16228041 -0.04594456 0.09471628 0.010350533 -0.063821495 -0.060725022 0.06071367
0.09984252 -0.036968768 -0.065544136 0.07667885 0.07615772 0.15460807 0.03933215 0.083172046
0.08855653 0.20176862 0.056695778 -0.015507106 -0.02660288 0.014686056 -0.008913565 0.08971773
0.06403962 -0.039139815 -0.03393323 -0.02284701 0.17418335 0.1438716 0.10997002 0.043305054
0.27610183 -0.0448829 -0.043668214 -0.033524875 -0.070049495 -0.037186563 0.13216785 -0.06862004
00000000: ac93 32bd 2715 503d 83fe 453d 800c acbc
00000010: 7910 81bd ec7f 6ebd cdb4 613d d2f3 9e3d
00000020: c2d3 f53d 73ac 18be 714b fabc 685d 87bd
00000030: b18e 12bc 74fa 1e3e a585 d43c 39f6 873d
00000040: 92ff c4bd b589 adbd d8ce ad3d 8110 b13d
00000050: 55f2 b93d b06d 2b3d 796d dd3c e080 193d
00000060: 8164 b53d 566f 66bb 167f 90bc 5b9e 013e
00000070: cbf7 e5bd ba5a 8ebc 6593 933d f06e 0a3c
00000080: e3d6 253e a340 b2bd cb27 9b3d 6ed3 b33d
00000090: 1af2 05be 508a 393c 7e56 ca3d f496 0fbe
000000a0: cbda c53c 5653 d4bd 5d43 f7bd eda8 ef3d
000000b0: eb99 063e f235 e9bc f3c8 6b3d c6a6 773c
000000c0: 8de2 4cbd 4f02 b33d 91fa ef3d 3ce4 ebbc
000000d0: 3861 f4bc 3c65 a6bd 3dd9 97bd 734e 25bd
000000e0: 6759 da3d f2b9 2d3d 7461 0f3d 6733 04be
000000f0: af1e 743e 2854 b9bc ca15 de3d 0f39 793e
00000100: 1272 37bd 3b9a 0bbd 0c56 a53d 2fbe c73d
00000110: cdea 483e ead2 193d 45fa 773d b58f 54be
00000120: f07a 873d d159 c0bc 58f5 23bd 4e4e d93d
00000130: dd8d 13be ce18 cb3d f2d7 3f3d 3388 d8bd
00000140: 780f 68bd 7411 103c 4fe8 fc3c 6585 d93d
00000150: 364f 65bd 9fe9 063e 7a11 3c3e 4a64 19bd
00000160: a8e3 4d3b 62a6 a939 2699 013d 769f f63c
00000170: b8af 82bd 8630 97bd be25 7d3d c2c1 be3c
00000180: b4f3 0f3d 884a ba3b 42a1 d33d 9036 833d
00000190: 7a06 d2bd c02e bc3b d0e3 8a3d 0c56 17bd
000001a0: 4d9f 72bd 297c b23d da00 363e 9552 9c3d
000001b0: 69a0 efbd d10c 0a3e 34d8 cb3d d349 1f3c
000001c0: e34f 613d 1344 833d bd03 a7bd ba5a 56bd
000001d0: bab1 bbbd d85a 503d e465 5a3d 0493 68bd
000001e0: 8e8d 343c 6e9e b13d 5372 b83d 6c27 073d
000001f0: bd32 5d3d bf10 9f3d 5445 35bd a1a3 ef3d
00000200: 99b7 6bbd 73b0 963c a120 dfbb 5f36 443e
00000210: f34b 1fbe d9cf 0cbe cbc3 68bd 1ea2 d1b8
00000220: 0ff2 fabd 2f64 a93d 637d fabb f28c ad3d
00000230: 8e2d bcbd f8cd 803d 1bd7 68bc 1465 893d
00000240: 6dce 0f3d 5ffc d4bc 8ae4 06be 8a0d 5ebd
00000250: d586 4e3e 98bd ec3d 46fd ac3d f4b8 023c
00000260: 81ef cf3c 4fb7 713c c248 013d 3122 a53d
00000270: bcbd 89bc d559 7cbc 2dc7 383d f2b3 833c
00000280: 7214 5e3e 12d3 e23d ad09 0b3d 41f2 ed3b
00000290: 6d4f a7bc 7ace f7bc 70aa 073d 264c d53b
000002a0: 3f4d f33d 7029 073e 5cdc 81bb fc77 16bd
000002b0: 21e8 f83d cb9b 863b 7adb 063e a2b6 67bd
000002c0: 7231 8abd e337 55bb ac3f 0c3e a41d 81bd
000002d0: a8e3 8fbd c27f 2b3d 41ea 5d3d b7bf d93d
000002e0: 7070 f3bb 96db f73b 2158 08be 8668 be3d
000002f0: d826 bdbc fa1a 983c 62a6 893c fb57 e0bd
00000300: 8cdd 9bbc 6354 c5bd 2fc4 b63d 84da b03d
00000310: c425 ca3d cb87 2a3d c59c 143d 507b 2cbc
00000320: 3cfb 8ebd 6adb f53d 6988 87bb 1379 56bd
00000330: 1e68 3a3d c7f8 643d ff80 043e 9220 fbbb
00000340: 237c e2bc 1041 abba 5957 e9bd 3918 253c
00000350: afd9 a13d 3822 293e 0924 d63d 00ea 05bc
00000360: 2262 9d3d d62c 263e 5d30 3cbd 9cfa c13d
00000370: 4895 293c d8b4 82bd cdba 78bd e6ae 783d
00000380: 3c7a cc3d 906c 17bd 013c 86bd cd09 9d3d
00000390: 94f8 9b3d 9451 1e3e c01a 213d 1b56 aa3d
000003a0: 205d b53d 6f9c 4e3e d539 683d 8411 7ebc
000003b0: 48ee d9bc c99d 703c 340a 12bc eebd b73d
000003c0: 3427 833d 1251 20bd 92fd 0abd a729 bbbc
000003d0: 1f5d 323e 1453 133e f637 e13d a460 313d
000003e0: 385d 8d3e 22d7 37bd 71dd 32bd 6151 09bd
000003f0: 1c76 8fbd f050 18bd 0257 073e aa88 8cbd

layers.3.bias f4 [80]
-0.1419102 0.06630736 -0.13855541 -0.058949683 -0.1224704 -0.20477831 -0.14213176 -0.09630116
-0.00545255 -0.1179356 -0.065529086 -0.029313516 -0.051264044 0.007446798 -0.032060817 0.079229355
0.007808857 0.036118183 -0.071353614 -0.030140143 -0.16214848 -0.101230495 0.029654162 -0.0158323
-0.0172831 -0.13296911 -0.082329124 0.01841354 0.05210036 -0.026211184 -0.19937684 -0.06773151
0.00800049 0.049120408 -0.1687543 -0.21431267 -0.003681389 0.059274826 0.00536348 -0.0789774
-0.096822016 -0.03139133 -0.10730515 0.03167194 -0.015375286 -0.10731988 -0.059315555 -0.1670946
-0.103142366 0.056897584 -0.13912152 0.0034143524 -0.18191768 0.017816402 -0.036083 0.00010445807
-0.06577701 -0.18117727 -0.029147513 0.075563416 0.0610335 -0.1600204 0.041492343 0.017020483
-0.0745744 0.013002924 -0.030288264 -0.0981301 -0.007656494 -0.1321927 0.031239571 -0.14872126
0.0054813507 -0.04910279 -0.20767611 -0.103815235 -0.20110756 -0.047907785 -0.10998227 -0.21785589
00000000: e850 11be 27cc 873d 78e1 0dbe 3975 71bd
00000010: c3d1 fabd 68b1 51be fd8a 11be 8b39 c5bd
00000020: 4eab b2bb 3888 f1bd 1d34 86bd e622 f0bc
00000030: 3ffa 51bd 4504 f43b 3452 03bd 0043 a23d
00000040: 71e1 ff3b a9f0 133d d821 92bd 76e8 f6bc
00000050: 400a 26be ef51 cfbd 49ed f23c bdb2 81bc
00000060: 4a95 8dbc 0e29 08be 2c9c a8bd fed7 963c
00000070: 3067 553d d6b8 d6bc 7129 4cbe d1b6 8abd
00000080: 7d14 033c 7b32 493d edcd 2cbe c874 5bbe
00000090: 7543 71bb 29ca 723d 22c0 af3b e7be a1bd
000000a0: 9f4a c6bd 3294 00bd cdc2 dbbd 70ba 013d
000000b0: a0e8 7bbc 86ca dbbd def4 72bd d91a 2bbe
000000c0: 4e3c d3bd 710d 693d df75 0ebe 54c3 5f3b
000000d0: a148 3abe b4f3 913c c5cb 13bd 8010 db38
000000e0: 19b6 86bd 8986 39be c4c6 eebc fec0 9a3d
000000f0: 43fe 793d 63dc 23be e0f3 293d 8a6e 8b3c
00000100: 77ba 98bd 370a 553c 181f f8bc 6ff8 c8bd
00000110: 54e3 fabb 865d 07be 21ea ff3c 634a 18be
00000120: e79c b33b 0220 49bd 0ca9 54be 159d d4bd
00000130: 24ef 4dbe f43a 44bd 623e e1bd 9d15 5fbe

layers.6.weight f4 [64, 80]
0.12536973 -0.16410138 -0.0314685 -0.06578822 0.10290887 -0.105258025 0.006213327 0.04865199
-0.058732517 -0.02786972 0.16129762 -0.055720236 0.06682575 -0.091571204 0.17188102 -0.22213997
0.053920105 -0.17474937 0.06610767 0.19678962 -0.00811601 -0.07911657 -0.115050964 -0.0889527
0.021568445 -0.09951801 0.025215758 -0.06949938 0.038342126 -0.15619735 0.17870003 0.17848814
-0.20007288 -0.1994323 0.00784829 -0.044843603 0.07180746 -0.19721106 0.10533521 0.018445605
0.052739095 -0.088045955 0.1880166 -0.07185373 -0.17745742 -0.13842873 -0.1355049 0.11081334
0.11294451 -0.17762424 0.024849245 -0.15538244 0.066117056 -0.09011412 -0.049511384 -0.2005877
0.0858498 0.11971588 -0.110953316 -0.12428732 -0.1466496 0.12827563 -0.054803394 0.13377246
0.07589354 -0.19075242 -0.02026008 0.14720461 -0.06032256 0.145274 0.04389697 0.11142501
-0.21132043 -0.061083436 0.15810898 0.09886259 0.14286949 0.10502229 0.052128997 -0.048093174
0.16366668 -0.26478478 -0.07762111 -0.14128385 0.17347337 -0.07871934 -0.037636697 0.20297033
-0.09962203 0.054557018 0.044929843 -0.009134087 -0.032383613 -0.1513927 0.016525313 -0.24097262
0.05395623 -0.1709865 0.14143251 0.01796329 -0.05367893 0.07523591 -0.13692892 -0.11561132
0.10601851 -0.11111968 0.15338503 -0.13538244 0.15179542 -0.23946916 0.05525933 0.030530442
-0.11070749 -0.12984502 0.005542798 0.12021837 0.004207045 -0.18311831 0.059923913 0.056007396
-0.013061838 -0.07314428 0.25179538 -0.22098808 -0.22209904 -0.20608693 -0.20193243 0.1005652
0.1489293 -0.13009326 -0.042258475 -0.20791805 -0.06792198 -0.18974997 -0.029141573 -0.22622979
0.123702005 0.04870842 -0.12136395 -0.18371972 -0.17396429 0.03292085 -0.05139363 0.18688956
-0.02475816 -0.20957369 0.042516835 0.073190816 -0.19481623 0.123932384 0.021006936 0.11254155
-0.16804989 -0.023706203 0.18739188 -0.019657077 0.12558356 0.040175002 0.09974409 -0.037134707
-0.023450313 0.01527585 -0.09123108 -0.073475406 0.037200518 0.0011297474 0.05575219 -0.016217552
-0.037172187 -0.052190498 0.06522674 0.09916774 0.06388789 0.104759686 -0.075135894 -0.011042438
0.013258506 -0.051804665 0.05294875 -0.08409605 0.08300063 -0.09389165 -0.06819293 0.0034387857
0.06058326 0.11357713 0.05029365 0.1344646 0.14071259 -0.025258431 -0.03518487 -0.06848181
-0.099365376 -0.046133902 0.043005463 0.0024056444 0.09575269 0.006921315 0.09176494 -0.090754084
-0.039597504 -0.0492 0.016318822 -0.060663667 -0.04771003 0.033355266 -0.092824034 0.023572257
0.072887555 0.056900464 0.033270508 -0.09930392 -0.030796112 -0.011823133 -0.07963176 -0.10159786
0.058960088 0.18735282 0.052542016 0.06833769 -0.1334582 0.053945117 0.010325842 -0.082311444
-0.027675271 -0.0150261065 0.06447718 0.023683716 0.013955646 0.008409376 0.054489248 0.03748431
-0.08803492 0.04334217 0.0407191 -0.020570215 0.014906432 -0.026778124 0.13164753 0.07370901
0.08454086 -0.19369645 0.05408231 -0.10437977 -0.010705598 -0.14506273 -0.00935053 0.14737098
-0.03639423 0.06425469 0.022777114 0.052551467 -0.01427798 -0.1237469 0.17414308 -0.19126883
00000000: ec60 003e 310a 28be 1de5 00bd f9bb 86bd
00000010: e3c1 d23d 8591 d7bd 2a99 cb3b 4f47 473d
00000020: 8291 70bd 0a4f e4bc 342b 253e e73a 64bd
00000030: f0db 883d af89 bbbd 9401 303e a978 63be
00000040: 54db 5c3d 80f1 32be 7563 873d 3883 493e
00000050: 03f9 04bc de07 a2bd d79f ebbd d52c b6bd
00000060: 4fb0 b03c 19d0 cbbd 4791 ce3c b155 8ebd
00000070: a20c 1d3d 33f2 1fbe 24fd 363e 98c5 363e
00000080: e8df 4cbe fb37 4cbe 1d96 003c edad 37bd
00000090: ca0f 933d b2f1 49be fdb9 d73d 3d1b 973c
000000a0: f304 583d 7051 b4bd 6c87 403e 0c28 93bd
000000b0: 66b7 35be 43c0 0dbe ccc1 0abe 1bf2 e23d
000000c0: 744f e73d 21e3 35be a590 cb3c 931c 1fbe
000000d0: 6168 873d c08d b8bd 73cc 4abd dd66 4dbe
000000e0: 05d2 af3d 992d f53d 7e3b e3bd 5a8a febd
000000f0: 502b 16be b05a 033e 8679 60bd a6fb 083e
00000100: 136e 9b3d 9a54 43be 78f8 a5bc cebc 163e
00000110: ca14 77bd b5c2 143e 4fcd 333d cc32 e43d
00000120: 6264 58be a032 7abd 52e7 213e 7878 ca3d
00000130: 614c 123e ed15 d73d 3785 553d 59fd 44bd
00000140: 3d98 273e df91 87be d1f7 9ebd b7ac 10be
00000150: 01a3 313e 9b37 a1bd f028 1abd 74d7 4f3e
00000160: a306 ccbd 2e77 5f3d 5b08 383d 23a7 15bc
00000170: aea4 04bd b006 1bbe 1860 873c 87c1 76be
00000180: 3501 5d3d 1617 2fbe afd3 103e c027 933c
00000190: 70de 5bbd 4915 9a3d 1837 0cbe a1c5 ecbd
000001a0: 3c20 d93d b792 e3bd f710 1d3e b2a1 0abe
000001b0: 4270 1b3e 6737 75be 9b57 623d fa1a fa3c
000001c0: 9cba e2bd 18f6 04be 5ca0 b53b 0c35 f63d
000001d0: 40db 893b 5e83 3bbe c772 753d 0368 653d
000001e0: 5201 56bc abcc 95bd 53eb 803e b34a 62be
000001f0: ee6d 63be 7408 53be 60c7 4ebe 21f5 cd3d
00000200: ec80 183e 2b37 05be 3917 2dbd 78e8 54be
00000210: ae1a 8bbd d14d 42be 4fba eebc c8a8 67be
00000220: 7a57 fd3d 7b82 473d aa8d f8bd 0621 3cbe
00000230: b223 32be 03d8 063d 2182 52bd fa5f 3f3e
00000240: a0d1 cabc 7c9a 56be 2226 2e3d 11e5 953d
00000250: e87d 47be 43d0 fd3d bd16 ac3c 2f7c e63d
00000260: 4515 2cbe 8333 c2bc a8e3 3f3e e107 a1bc
00000270: fa98 003e 8b8e 243d a146 cc3d 901a 18bd
00000280: df1a c0bc 8f47 7a3c 5cd7 babd 467a 96bd
00000290: 925f 183d 0814 943a 695c 643d acda 84bc
000002a0: dd41 18bd b4c5 55bd 9995 853d 7518 cb3d
000002b0: a7d7 823d 3f8c d63d d9e0 99bd 58eb 34bc
000002c0: 343a 593c 2131 54bd cae0 583d 8d3a acbd
000002d0: 3cfc a93d 444a c0bd bca8 8bbd 405d 613b
000002e0: 2726 783d 209b e83d b700 4e3d 17b1 093e
000002f0: f616 103e c5ea cebc 031e 10bd 3140 8cbd
00000300: 1380 cbbd e7f6 3cbd 7f26 303d 04a8 1d3b
00000310: fd19 c43d 33cc e23b 42ef bb3d 47dd b9bd
00000320: fe30 22bd f085 49bd 0daf 853c 777a 78bd
00000330: 986b 43bd 889f 083d 871a bebd 9b1a c13c
00000340: 1246 953d 7610 693d a846 083d db5f cbbd
00000350: 2148 fcbc d0b5 41bc fa15 a3bd 8a12 d0bd
00000360: 2280 713d 6bd9 3f3e 4c36 573d a1f4 8b3d
00000370: 44a9 08be 8ef5 5c3d b82d 293c e792 a8bd
00000380: 40b7 e2bc 0f30 76bc 9d0c 843d 5a04 c23c
00000390: 39a6 643c 7bc7 093c 1e30 5f3d 2689 193d
000003a0: a74b b4bd 8f87 313d 12c9 263d de82 a8bc
000003b0: 1b3a 743c cc5d dbbc 9cce 063e c0f4 963d
000003c0: c223 ad3d 5d58 46be 6a85 5d3d 10c5 d5bd
000003d0: 8866 2fbc 538b 14be f732 19bc 6be8 163e
000003e0: 1e12 15bd f797 833d 1297 ba3c 3540 573d
000003f0: 30ee 69bc 046f fdbd 9052 323e fadb 43be

layers.6.bias f4 [64]
0.1442914 0.21879566 -0.22994108 0.13981895 -0.19547287 -0.2893398 0.11752291 0.07927709
0.10653396 0.13037696 0.1295392 -0.12714908 0.2087864 0.07348282 0.16360874 0.12368747
0.050694577 -0.02226251 0.21745893 -0.01423929 0.15379365 0.118292004 -0.2284583 0.08165475
0.13445789 -0.039101195 0.054652546 -0.27195308 0.15183964 0.200371 -0.14750879 -0.31827113
0.23009992 0.24128902 0.10602542 -0.003012898 0.07178227 0.20690559 0.108055025 0.14020967
0.11884534 0.18838304 0.1715662 -0.099717766 0.1328024 0.2222806 0.10450239 -0.26846993
0.10082657 -0.22354329 0.17010517 -0.2118447 0.13119528 -0.15734906 -0.08898512 0.1565765
-0.09224232 0.12980464 0.20476128 -0.037649326 0.16217633 0.16184446 0.026883569 -0.30555603
00000000: 20c1 133e f80b 603e ad75 6bbe b32c 0f3e
00000010: 0a2a 48be 5924 94be daaf f03d 075c a23d
00000020: 7a2e da3d 8a81 053e eda5 043e 5e33 02be
00000030: 1acc 553e 297e 963d 0d89 273e db4f fd3d
00000040: 1ea5 4f3d de5f b6bc 8ead 5e3e e94b 69bc
00000050: 157c 1d3e 1443 f23d f9f0 69be 9b3a a73d
00000060: 54af 093e 9328 20bd 59db 5f3d 6f3d 8bbe
00000070: da7b 1b3e 0e2e 4d3e 8b0c 17be 6ff4 a2be
00000080: 509f 6b3e 7814 773e db23 d93d 0a74 45bb
00000090: 9502 933d 0fdf 533e f44b dd3d 2093 0f3e
000000a0: 3065 f33d 7ce7 403e 0daf 2f3e d438 ccbd
000000b0: 5afd 073e 879d 633e 5905 d63d e474 89be
000000c0: 297e ce3d 88e8 64be 0d30 2e3e d1ed 58be
000000d0: 0e58 063e 1d20 21be d53d b6bd 9755 203e
000000e0: 8be9 bcbd 82eb 043e f1ac 513e 2e36 1abd
000000f0: 8d11 263e 8eba 253e ee3a dc3c d771 9cbe

layers.8.weight f4 [1, 64]
-0.09198237 -0.14435779 -0.014949452 -0.12539934 -0.03423969 -0.0012775152 0.13908511 0.12897074
0.2211259 0.12768428 -0.05811357 -0.0045487583 0.17291486 -0.07511071 0.19313198 0.13725725
0.16949649 0.09553528 -0.13016096 0.08140855 -0.1459437 0.115409255 -0.024920173 0.049448956
0.1229965 0.093038656 0.17083082 -0.019591277 -0.1536769 -0.09886203 0.061966572 -0.0209947
-0.15919311 -0.16016985 0.18600452 0.09920638 -0.09303059 0.24554016 0.20165521 -0.12745024
-0.088797905 0.18509923 0.23129703 -0.005668444 0.17318287 0.23715648 -0.04983421 -0.024971776
0.16001861 -0.016227007 0.1141896 -0.004498334 0.1459811 -0.010773591 -0.009981377 -0.074237145
-0.009513633 0.16787991 -0.1552316 -0.051889833 -0.13105525 -0.089669034 0.17595854 -0.027198499
00000000: 4161 bcbd 87d2 13be 8cee 74bc af68 00be
00000010: eb3e 0cbd 4c72 a7ba 546c 0e3e e810 043e
00000020: d46e 623e abbf 023e 7f08 6ebd c00d 95bb
00000030: 9810 313e a5d3 99bd 64c4 453e 2a8d 0c3e
00000040: 7d90 2d3e 00a8 c33d ea48 05be 87b9 a63d
00000050: 4472 15be b05b ec3d 6425 ccbc fd8a 4a3d
00000060: 97e5 fb3d 0d8b be3d 46ee 2e3e e37d a0bc
00000070: 7a5d 1dbe 2d78 cabd a9d0 7d3d 14fd abbc
00000080: 8503 23be 9103 24be f877 3e3e b72c cb3d
00000090: d286 bebd e16e 7b3e b47e 4e3e 5182 02be
000000a0: addb b5bd a78a 3d3e 21d9 6c3e 5bbe b9bb
000000b0: da56 313e 26d9 723e f51e 4cbd 9c91 ccbc
000000c0: ebdb 233e 80ee 84bc 3ddc e93d c366 93bb
000000d0: 127c 153e b783 30bc ee88 23bc a509 98bd
000000e0: 12df 1bbc b6e8 2b3e 08f5 1ebe 6f8a 54bd
000000f0: 5933 06be 66a4 b7bd 7a2e 343e 63cf debc
