flwr-mlp/models/checkpoints/round_017.pt (torch, 127593 bytes, 7 tensors)

layers.0.weight f4 [256, 19]
00000000: 7720 72bd a689 17be c771 bcbb 6a90 86be
00000010: 34c0 61bc 9b8c 0fbe 4bb1 aebd a3c9 49be
00000020: 6cde 353e 4640 f9bd 3375 3a3d bb7b 1e3e
00000030: 2471 fabc 2f1b 0fbe cfb5 4b3e 95f5 56bd
00000040: e9f0 08be b3f8 1b3d eaad 50be df52 30be
00000050: 64ec 0dbd 762d 013e 115a 823b 1d04 babd
00000060: 838b b7bc 5a9b 4a3e 862d 54be ca16 a53d
00000070: 1b11 1dbd a80c 253e 8736 133e bb4b e1bd
00000080: 83ad 83bd 2922 883d 1767 97bd 18ab e83d
00000090: 13a9 433e 942f cfbc 6ca2 933d fb9d db3d
000000a0: b370 f73b 5c7b 08be 8e8f 913d 6d62 80bd
000000b0: 894d e73d be3d 6cbe 7af8 903b fa2a 753e
000000c0: 1c43 f23d bfc6 a8bd 0fe7 a13d 93b4 1a3e
000000d0: fbfd db3d 781b 0dbc 177c 473d 36a6 073e
000000e0: 1aca b2bd f507 8c3e 3362 48bd d6db 6d3d
000000f0: e88f c43d 7e72 95bd a7fb 59be a96c 55be
00000100: bd18 613e d16e 31bd 6fc7 5fbc de86 4a3e
00000110: 6b62 edbd fec4 98bd 3191 663d 4164 05be
00000120: fbdc a1bd f8af 8ebd 3a21 4c3d 18de 0b3e
00000130: 2f78 bcbd 70c6 bebd d301 2e3e d012 9c3b
00000140: 3f66 4c3e 403a 2d3e f964 463e 620e 043e
00000150: 6b18 383e be53 a7bc 0d43 14be 6d65 d9bd
00000160: 4819 4fbe 0439 35bd 8f0a d4bd 30fa b93d
00000170: 833e 3abd f06f 50bd 6b0c 27be f8b0 843d
00000180: 2c49 0f3e 1404 f0bd c7af 483e 696f e13d
00000190: e3fb 5dbe 3b43 1c3e 1d4f 643e 3327 d9bd
000001a0: f8ff 5cbe c7b0 b33d 2da9 94be 94a4 9d3c
000001b0: f520 323e af43 163e bf56 8fba b1ea d53d
000001c0: 9af4 c6bc 85bf 82be e7e0 e73d b3c0 303e
000001d0: b477 b63d d60a 17bc e568 a0bd 98c4 bfbd
000001e0: 4d2e 19be df51 32be 4287 44be acc9 853e
000001f0: 321c 61be 8f12 c1bd 3912 2a3d 0f5c fcbd
00000200: 1009 133e d40a d3bd 4a02 043d 4fe2 2cbd
00000210: a051 ec3c 35f8 223e 3ba7 3bbe 734a 18bd
00000220: ea30 00be 05d8 0e3d bc17 10bc 099c 25be
00000230: 5ebf d9bd a4cc 41bd c357 1ebd ec72 9b3c
00000240: d293 633d f66a 443e 897e 0c3e 07b0 fbbc
00000250: c24a a9bd ce76 76be ba7f 9f3b 7a71 23bd
00000260: 6f28 1dbd 7d20 c53d c964 b53d b9a0 5cbd
00000270: 39eb e03d 15c4 733e dc3c ef3d b2b5 0c3e
00000280: 1aed 723e 5445 963d 32a3 adbd 0d02 903e
00000290: 67d0 87be df26 283e 46b0 353d 267e ab3d
000002a0: 9dee df3c 625b 3cbe 0486 3abe f600 653e
000002b0: 4937 d4bc 3a74 55bd 5d52 72bd 668f 593e
000002c0: 1ffd dfbd 343e a9bc 7205 393e c3dd 403e
000002d0: 9c4f 8abd 303d cdbc e070 a3bc eeac 183e
000002e0: 5f36 1d3d 4392 ff3d a92f c1bc abcb de3d
000002f0: 38e3 da3d 11c7 903b 03b7 adbd 45be b23c
00000300: f526 e73d 7b53 823d e73e 7abd 8795 c43d
00000310: ee48 e1bd 94bf 0f3e 9acc 183e 083c aabe
00000320: d331 6ebe a645 02bd 706d d1bd b8e4 16be
00000330: 6df9 ccbd b0af 0d3e 7601 223e e04c e93d
00000340: 1f8d 1f3c 9caf 5d3e ecf2 dabd a7cb 96bc
00000350: 54fa 3f3e 994f 5abe 50b5 9d3d 035e 85be
00000360: 37bc c93d 2b2e 5d3e 7716 1b3e a958 2c3e
00000370: 34a2 53be a747 e93c 1655 46be 44a9 acbc
00000380: faae d6ba 53fc 89bd 0a1e 2c3e 8cce b53c
00000390: 26e7 c8bd 92de 623e 2df7 51bd 82c1 acbc
000003a0: 8ecb c93d 3c61 a3bc 0c2d 2bbe 9182 92bd
000003b0: f893 86be 2f98 9d3e af88 65be c165 1ebc
000003c0: 6cc9 0a3e 6895 f63c 0a98 2e3c bf34 d13d
000003d0: 8f25 51be 91b1 d03c 3a96 2c3d 4b64 cbbd
000003e0: 7a84 b3bd a96f 183c 9d9a edbc c191 e83d
000003f0: 9641 4fbe 6731 6e3d 6ebc cf3d a0a3 1dbe
-0.059112992 -0.14798602 -0.005750868 -0.26282054 -0.013778735 -0.1401848 -0.0852991 -0.19705825
0.17760628 -0.12170462 0.045521926 0.15476887 -0.030571528 -0.13975213 0.19893573 -0.0524803
-0.1337315 0.038078975 -0.20378843 -0.17219113 -0.034649268 0.12614998 0.003978022 -0.09082816
-0.022405392 0.19785824 -0.20720491 0.08060987 -0.03834639 0.16118109 0.1437627 -0.110007726
-0.06429579 0.066471405 -0.0739271 0.113607585 0.19107465 -0.025291242 0.07208714 0.10723492
0.0075512766 -0.13328308 0.07107459 -0.06268773 0.112940855 -0.23070428 0.004424152 0.23942176
0.11829206 -0.08241033 0.07905399 0.15107946 0.10741802 -0.008612506 0.048702326 0.13246998
-0.08729954 0.2734982 -0.048921775 0.05807098 0.095977604 -0.07297228 -0.21287404 -0.20842232
0.21982093 -0.043318573 -0.0136583885 0.1977801 -0.11591037 -0.07459448 0.05629081 -0.13026525
-0.07903477 -0.06967157 0.049836375 0.13658941 -0.09202611 -0.09315193 0.16992883 0.004762985
0.19960879 0.16916752 0.19374456 0.12896112 0.17978065 -0.020425674 -0.14478703 -0.106150486
-0.20224488 -0.044243827 -0.103535764 0.090809226 -0.045469772 -0.050888002 -0.16313331 0.064790666
0.13992757 -0.11719528 0.19598304 0.11007578 -0.21678118 0.15260021 0.22295804 -0.1060318
-0.2158202 0.08773952 -0.2903532 0.019243516 0.17395385 0.14674257 -0.0010935887 0.104451545
-0.024286557 -0.25536743 0.113221936 0.17261009 0.0890955 -0.009218892 -0.07832507 -0.09363669
-0.14959069 -0.17414044 -0.19192222 0.26130426 -0.21983412 -0.09427368 0.041521285 -0.12322246
0.14358926 -0.103048 0.032228746 -0.042208012 0.028847516 0.15914996 -0.18325512 -0.037180375
-0.12518659 0.03487398 -0.008794721 -0.16172804 -0.106322035 -0.0473143 -0.038657915 0.018975697
0.055560894 0.19181427 0.13720144 -0.030723585 -0.08266212 -0.24068758 0.004867521 -0.03990314
-0.03836864 0.09625337 0.08857114 -0.053864215 0.10982365 0.23805268 0.1168153 0.13741186
0.2372326 0.07337442 -0.08478393 0.28126565 -0.26526186 0.16421078 0.04435756 0.0837367
0.02733546 -0.18394235 -0.18215185 0.22363648 -0.025905268 -0.052112795 -0.05916058 0.21246108
-0.10936951 -0.020659544 0.18068483 0.18834595 -0.067534655 -0.02505359 -0.019951284 0.14909717
0.03838193 0.12479069 -0.023582296 0.1087869 0.1068787 0.004418262 -0.08482172 0.021819243
0.11286727 0.06363579 -0.061095145 0.095988326 -0.11000238 0.14037925 0.149218 -0.33248925
-0.23261194 -0.031804703 -0.10225952 -0.14735687 -0.10008512 0.1383655 0.1582087 0.11391616
0.009738236 0.21649021 -0.10690865 -0.018407656 0.18747836 -0.21319427 0.07700598 -0.26048288
0.09850352 0.21599643 0.15145288 0.16830696 -0.20667344 0.02847655 -0.19368395 -0.021076806
-0.0016379051 -0.0673758 0.16808334 0.022193216 -0.09809713 0.22155216 -0.051261116 -0.021088365
0.09853278 -0.019943826 -0.16716403 -0.0715381 -0.26284766 0.3078017 -0.22415422 -0.009667815
0.13553399 0.03010054 0.010656366 0.10215139 -0.20424484 0.025475295 0.042135455 -0.09931239
-0.08765502 0.009303966 -0.02900439 0.11355925 -0.20239863 0.058152582 0.10143362 -0.15394449

layers.0.bias f4 [256]
00000000: c09b 983c 029e 7cbd 149d 85be 3461 80be
00000010: 4f22 5bbe 73cc ffbd a6fb 4ebd fb04 32be
00000020: 8c14 63be 149e 61bd dbee 913d 7dde abbd
00000030: 6186 4c3d e5a6 aabe 5334 48be 9fb9 28be
00000040: 5bcb 103d 6964 3fbc c288 20be af07 4fbe
00000050: 6be2 c2bd e725 24be 0a3f 753d 6b52 2dbe
00000060: 3d18 d2bd ffc4 06be c883 1cbd c02a 51be
00000070: 3a87 b7bc 689b 80bd 76eb 91bd 85f9 ac3c
00000080: ed30 45be b003 ae3b 1747 2dbe 4063 b5bd
00000090: f73d 13bd 8827 a9bd 24dd 4abe b709 913d
000000a0: 5370 88be fa74 6fbe 82cd 62be 2d04 6ebe
000000b0: bc14 64be 8786 38be 00ae d1bd a3c2 ed3c
000000c0: ba82 1abe ad94 8abe 7c9d 52be 0542 eabd
000000d0: 8dc1 06be f60e 6ebd 418f 07be 7cad 06bc
000000e0: f579 9ebe 7ad3 8bbc f924 35be d658 2bbe
000000f0: a284 b4be e5f6 64be a648 0bbe c11b 9ebe
00000100: 1768 89bd f323 1ebd 602a 76be 820b c5be
00000110: 905e 9cbe 2b48 46be 48b2 96be 3d70 a43d
00000120: 1361 d7bd 1732 87be a229 50be f7f9 ddbd
00000130: 9fc5 91be a016 7ebe 9de4 b4bd 6832 8dbc
00000140: ef30 9cbb 9e28 29be be08 7eba a88c 33be
00000150: 759f 8fbe 277b 74be 8e3a c1bd 59e4 de3d
00000160: 8d53 1fbe 5aef 1fbb bca3 8cbe 69ff f4bc
00000170: b319 6bbe 817d 60bd aed7 8ebe 691b 4bbe
00000180: 1b60 99be d00c 49be 73aa b6be daf2 93be
00000190: 8427 15be fabe 34be 011e 90bd a8f6 80be
000001a0: d4a0 74be c386 8cbe c715 66be b46f 63be
000001b0: 455f 50bb cff1 8dbe 80de a9be d0a2 e33b
000001c0: cd94 18be c249 08be 684e 80be 202c 6dbd
000001d0: d6fd 1c3d 12b8 d7bd d58f 73bd 30a6 3fbe
000001e0: e30d 6dbe fb62 2cbe ff1c 7abe 2ac0 32be
000001f0: 67ae 0abd c7f2 a1be 92ee b13d 2153 0ebe
00000200: f8b9 c5ba da1b e5bd e29e dbbc b3f2 8dbe
00000210: 875c d33c 8c75 1abe 480f 73bc c771 50be
00000220: 7ccc 6f3d c494 fcbd 3e57 a73c 4811 4bbe
00000230: 27d3 14be 916d 63be 634e 1dbe 33e3 f9bc
00000240: 6991 cabd cb1a 15be 323a d7bc 4164 af3d
00000250: 3cb0 93be 1a9e 01be f4b7 9dbe f1eb d0bd
00000260: 1232 8ebd 3677 bfbb 2c50 fbbd 9fd0 4cbe
00000270: 693b 0abe 20e2 12be d4ca f1bd 237a 1ebe
00000280: 4348 97be 2957 cabd b542 0abd 1d4a 9dbc
00000290: 8326 06be 5ef6 09bd 9c27 80be 3a93 6fbe
000002a0: 93ab c2bd fd97 83be 3421 f7ba f671 a63c
000002b0: 14e5 54be 2678 ecbd 0d0e 7dbe 6d01 7dbe
000002c0: ab0d 9abe 5df3 9abd f33b 3dbd bd06 ccbd
000002d0: d403 6e3d aa28 823d 20e0 a5be 723c 38be
000002e0: 2c59 b13c aa2a c53b 4354 90bc 27cc ffbd
000002f0: fd73 0bbe 0b6d 7cbe c3d4 8cbd 1561 d3bd
00000300: 8494 e2b9 32eb 8b3d c627 67be 5755 e7bd
00000310: 2e50 b5bd a448 88be b58b efbd 931f b4bd
00000320: 8956 db3c 3e4d 033d 8482 68be e02f 69bd
00000330: 5c2b efbd 0887 a3be ee93 a9be 490d 1ebd
00000340: 9c03 41bc 99e2 613c e419 22be b6f5 37be
00000350: 2ae3 9bbe 0aec 8bbe 9bd7 76bd 4107 45bd
00000360: 891e 58be ec66 8bbe 7b6f 8d3d 4d07 6dbe
00000370: 7d93 9bbe 7ed6 44bd 9e09 e3bd 6ab5 f2bd
00000380: 921f b2be f17f 84bd 2be4 a8bb 3b16 5dbd
00000390: 827d 4abe b795 8ebe b707 51be 0c1a 6ebe
000003a0: a7d2 34be 3513 70be 2009 7bbe 7546 d3bd
000003b0: b36e b53b eec4 8ebd 54c7 85be 3083 a5be
000003c0: 5cdb 5abe 01c5 a6be e8af 76be 6f1b c23d
000003d0: aa1a 5fbe 2594 bcbd 58ad 55be cba2 92bc
000003e0: 37f9 92be e16f 44bd 9310 82bb 1078 7cbd
000003f0: 1772 283d 4ea7 a5bc 5568 53be cbdc 823c
0.018628955 -0.061674125 -0.26096404 -0.2507416 -0.21399806 -0.124901675 -0.05053296 -0.17384712
-0.22175807 -0.055082396 0.07125636 -0.08392046 0.04993284 -0.33330455 -0.1955121 -0.16477059
0.035350185 -0.0116816545 -0.15677169 -0.20217775 -0.09515842 -0.16030084 0.05987457 -0.16925971
-0.10258529 -0.13161086 -0.038211614 -0.20426464 -0.022403348 -0.062796414 -0.07124989 0.021115074
-0.19256945 0.005310498 -0.1692165 -0.08856821 -0.035947766 -0.08259493 -0.19810921 0.07081931
-0.26648197 -0.23384467 -0.22148708 -0.2324378 -0.22273535 -0.18020068 -0.10238266 0.029023474
-0.1508893 -0.27066556 -0.20567888 -0.114383735 -0.13159771 -0.058119737 -0.13238241 -0.008220073
-0.3095242 -0.017068613 -0.17689885 -0.16733107 -0.3525744 -0.22359808 -0.13601932 -0.3088055
-0.06709307 -0.038608503 -0.24039602 -0.38485342 -0.30540895 -0.19363467 -0.29432893 0.0802922
-0.10516562 -0.26405403 -0.20328382 -0.10838693 -0.28471085 -0.24813318 -0.08832667 -0.01723595
-0.0047665755 -0.165194 -0.0009690634 -0.17534125 -0.28051344 -0.23875104 -0.094349965 0.108833976
-0.15559216 -0.002440414 -0.2746867 -0.029906945 -0.22959022 -0.05480719 -0.27898926 -0.19834675
-0.29956135 -0.19633794 -0.35676917 -0.2889622 -0.14565855 -0.17650977 -0.07036973 -0.25188184
-0.23889476 -0.27446565 -0.22469245 -0.2221058 -0.0031795066 -0.27723548 -0.33177567 0.006946899
-0.14900513 -0.13309386 -0.2505982 -0.05790341 0.038328014 -0.105331555 -0.05946334 -0.18715739
-0.23149829 -0.16834633 -0.24425124 -0.17456117 -0.03385773 -0.31630537 0.08688082 -0.13898899
-0.001508533 -0.11186953 -0.02680916 -0.27724227 0.025800956 -0.15083903 -0.014835186 -0.20355903
0.05854462 -0.12333062 0.020427343 -0.19830811 -0.14533673 -0.22209765 -0.15361933 -0.030503845
-0.09891016 -0.14561002 -0.026272867 0.08564044 -0.28845394 -0.12657967 -0.30804408 -0.10201252
-0.06943144 -0.0058430685 -0.12271151 -0.20001458 -0.13499226 -0.14344072 -0.118062645 -0.15476279
-0.2954732 -0.09879906 -0.033755023 -0.019200379 -0.13100629 -0.03368222 -0.2503022 -0.23396006
-0.095053814 -0.25701895 -0.00188545 0.020318013 -0.20790511 -0.11546354 -0.24712391 -0.24707575
-0.30088553 -0.07565949 -0.04619975 -0.09962223 0.05810912 0.06355412 -0.32397556 -0.17991808
0.021648966 0.006017049 -0.017618304 -0.12490111 -0.13618465 -0.24650972 -0.068765186 -0.10321251
-0.00043216732 0.06831969 -0.22573766 -0.11295574 -0.08853184 -0.2661792 -0.11696569 -0.08795085
0.026774662 0.032056086 -0.22706038 -0.056930423 -0.11678192 -0.31938958 -0.33120674 -0.03858689
-0.011780646 0.013786935 -0.15830189 -0.17964825 -0.3044675 -0.2732852 -0.06026421 -0.04810262
-0.21105398 -0.2722696 0.06906029 -0.23147316 -0.30385962 -0.04805612 -0.11085819 -0.11851008
-0.3478971 -0.064697154 -0.005154153 -0.05397628 -0.1977444 -0.27848598 -0.20413099 -0.23252124
-0.17658482 -0.23444827 -0.245152 -0.10316173 0.005536878 -0.06971155 -0.26128638 -0.3232665
-0.21372741 -0.32572177 -0.2409054 0.09477889 -0.21787515 -0.09207944 -0.20866907 -0.017899891
-0.2870576 -0.04795826 -0.003969261 -0.061637938 0.04112443 -0.020221379 -0.20645268 0.015974423

layers.3.weight f4 [80, 256]
00000000: c3db 24bd 924c 683d 72dd 953c 268f 9abc
00000010: 536d 85bd f549 87bd 8db2 633d e2c1 943d
00000020: 4f80 ae3d a67e 06be baaf c6bc 0bce 37bd
00000030: 984c 1c3b 1784 c63d 8d3d f83c 01e1 5d3d
00000040: 7725 8ebd 4d07 90bd 4d1f 2a3d e83b 833d
00000050: 2b16 b33d 8606 0e3d 9e6f 2d3d 78f1 1e3d
00000060: cfd3 c33d 10ab 0fbd eb1f ffba 86a4 9d3d
00000070: 4ae2 b6bd 1933 ffbc e654 6f3d d523 a83b
00000080: 8c7b e93d e5bc c5bd 8472 8e3d d2da 873d
00000090: 63e6 00be ec01 393b fde6 8d3d 7af4 fcbd
000000a0: b243 fe3b ca18 b8bd ae1d cbbd 1522 a33d
000000b0: d2ac c73d 1920 6dbd b10a ec3c b6ca 293d
000000c0: af6d 6ebd 68d9 443d 0d61 653d 99e9 3ebc
000000d0: 4a87 dabc 6a80 85bd e687 88bd 7789 cbbc
000000e0: 6476 ac3d 7cf7 123d 9d26 103c 4dc6 0bbe
000000f0: c925 2c3e 48a9 56bc 85d3 523d f0b3 113e
00000100: abf6 57bd acf6 bbbc 43fd a63d 5a3d 433d
00000110: 4076 c83d f163 66bb 320e 073d 19db 33be
00000120: 6a29 463d 4009 efbc 7594 4cbd 41f3 9a3d
00000130: 51d2 f7bd f8ca 1a3d 818b 533d e4e8 c1bd
00000140: fc3f 60bd aab9 943c d735 5e3a 9c6a bb3d
00000150: 7f86 aabd 85d5 823d 3953 0c3e ada6 90bc
00000160: 85d4 793c 959d 863b 6c87 f73c b621 533d
00000170: cda6 77bd 2764 70bd 2342 003d 2a94 daba
00000180: 5f67 2b3c e2a8 2f3b 10ce 8f3c d87f ed3c
00000190: 481e c5bd 098a a8bc 30d5 4f3d 225a 5fbd
000001a0: 12bf acbd d69c 493d 1c6a 0d3e 7786 443d
000001b0: a810 a5bd a9fe ca3d e466 2f3d e04e 1dba
000001c0: 964b 2c3d 5db9 6a3d 6a65 a7bd 8ec5 3cbd
000001d0: 714d 9dbd 39ee d63c 578f e13c 0125 7dbd
000001e0: c007 e43c bd2a 7a3d 395d 983d 5d3c b03c
000001f0: 98c8 a23c 32d5 293d a30a 0bbd 2b87 ca3d
00000200: 3463 3dbd 3e25 473c 155c 8ebc 6b04 253e
00000210: dbfc edbd 0281 02be c5c4 72bd 3f50 c5bb
00000220: 4e50 c9bd dc27 9a3d d057 30bc 3ef5 463d
00000230: a847 9fbd cfb7 ee3c 3085 b1bc f8c8 2f3d
00000240: b79e b03c 68be c8bc fe58 02be 4479 1fbd
00000250: bad6 2d3e 510a a13d ca49 073c 034a 2abc
00000260: 1399 e5ba 4616 0b3c fa3e b53b dd50 8f3d
00000270: 2aba febc a3fe 72bc a14b 863c 772f 99bc
00000280: 6a63 353e 6a4b e33d fe5f 993c a2d1 4e3c
00000290: 3321 10bd 2895 24bd c9bb 863c 6174 b33b
000002a0: 07d2 a13d 3d56 d03d f566 d8bb d2cf babc
000002b0: b71c e13d 0c3b 38bb f548 e13d aac9 4ebd
000002c0: d5e6 78bd 95f5 293c e7a2 d33d 4e65 78bd
000002d0: 57f2 95bd 1b96 2b3d b679 2b3d 664b 7c3d
000002e0: 7123 92bc 8a2d c13c f0f3 d1bd 108c ad3d
000002f0: eac3 29bc a5ba 9dbc 14c4 623b f1b6 d0bd
00000300: 480d 843b 0c72 a4bd 4c33 803d c73f 413d
00000310: f5f3 b03d b6ac a53c b7da 3f3d 85d5 83bc
00000320: 1dba 94bd f6f9 cd3d 3a95 32bc 6d86 32bd
00000330: a634 063d 0e98 0c3d a9fe cd3d 9dfc 28bc
00000340: ffc5 8ebc 9419 31bc 2569 c8bd 9329 e63a
00000350: 3c61 2f3d 5c24 b93d 1092 c13d 9f47 19bb
00000360: f813 6e3d 3e74 db3d 4407 f3bc f256 3b3d
00000370: 6276 12bd ad59 4cbd d51a 80bd 3bf8 333d
00000380: 2351 c53d 149f 45bd f16b 5ebd 3ad9 8b3d
00000390: b310 9d3d 7fef 693d a712 103d fea0 8b3d
000003a0: af8b 6c3d 7315 263e d606 313d 0050 39bd
000003b0: 9826 f9bb 1e0a 183c 8b05 7ebc 35dd bd3d
000003c0: ec81 e63c f82d 95bd 8c47 1dbd 1c5b 63bc
000003d0: 5d23 bb3d 06d0 d03d 1d2e a23d 6d9a 393d
000003e0: bfc7 283e 0a15 efbc 45a5 08bd cc9c e0bc
000003f0: 4d84 84bd 37a8 bbbb 7c06 d43d fbff 78bd
-0.040248644 0.05671365 0.01829407 -0.018867087 -0.065149926 -0.06605903 0.0555902 0.07263543
0.08520567 -0.1313425 -0.024253715 -0.044874232 0.0023849364 0.09693163 0.030302787 0.05416966
-0.069407396 -0.070326425 0.041533757 0.064079106 0.087444626 0.03467419 0.042342775 0.0388045
0.09561884 -0.035075247 -0.0019464468 0.07697396 -0.0892988 -0.031152295 0.058430575 0.0051312246
0.11400518 -0.096551694 0.06955436 0.066335335 -0.12587886 0.0028229905 0.06928823 -0.12351318
0.0077595348 -0.08989103 -0.0991777 0.07965485 0.0974976 -0.05789194 0.028813692 0.041453086
-0.05821007 0.048058897 0.056000758 -0.011652374 -0.026675839 -0.06518634 -0.066665456 -0.024845822
0.08421019 0.03588055 0.008798269 -0.13649864 0.16811289 -0.013101883 0.051471252 0.14228797
-0.052725475 -0.02294477 0.081537746 0.04766593 0.097881794 -0.0035154785 0.032972522 -0.17564048
0.04837934 -0.029179215 -0.049946267 0.07565928 -0.121006615 0.037791222 0.051646713 -0.094682485
-0.05474852 0.018154938 0.00084766507 0.091511935 -0.08326434 0.06388382 0.13703622 -0.017657602
0.0152484225 0.0041081407 0.030215941 0.05154582 -0.060461808 -0.058689263 0.031313073 -0.0016676236
0.010461657 0.0026803543 0.017554313 0.028991625 -0.09624916 -0.020573633 0.05074042 -0.054529317
-0.08434881 0.049221836 0.13810009 0.0479798 -0.080598176 0.09911854 0.042822734 -0.0006000828
0.042064272 0.057305682 -0.0817364 -0.04608684 -0.076807864 0.02623664 0.02753417 -0.061802868
0.027835727 0.061075915 0.07439656 0.021513158 0.019871041 0.041463085 -0.03394569 0.098890625
-0.046237186 0.012154875 -0.017377893 0.16114967 -0.11620494 -0.12744525 -0.059269685 -0.006021529
-0.0982977 0.07527134 -0.010763124 0.048573725 -0.07777339 0.029140381 -0.021669954 0.042916268
0.021560056 -0.024504855 -0.1272926 -0.038934007 0.16976443 0.07863296 0.008257339 -0.010393622
-0.0017516933 0.008489197 0.005531189 0.06997845 -0.03109463 -0.014831218 0.016393485 -0.01869939
0.17713705 0.110983685 0.01872253 0.012623223 -0.03518791 -0.04018131 0.016446965 0.00547652
0.07901388 0.10172699 -0.0066040703 -0.022804175 0.10991805 -0.0028111367 0.110002436 -0.05048529
-0.060767014 0.010373493 0.103338055 -0.060643487 -0.07321613 0.0418912 0.04186412 0.061595343
-0.017839165 0.023581285 -0.102516055 0.084739804 -0.010361651 -0.019254038 0.0034601735 -0.10191143
0.0040299036 -0.08029565 0.06259784 0.047179963 0.08640281 0.020223957 0.046839442 -0.016093025
-0.07262061 0.10057442 -0.010899836 -0.04358523 0.032765053 0.0343247 0.10058338 -0.010314134
-0.017428396 -0.010809321 -0.0978568 0.0017559998 0.04281734 0.09040138 0.09451687 -0.0023388637
0.058124512 0.10715531 -0.02966655 0.045737214 -0.03575743 -0.04989021 -0.06255118 0.043937903
0.09634616 -0.04824741 -0.05430216 0.06828542 0.07669201 0.057113167 0.03517404 0.06817816
0.0577504 0.1621912 0.04321941 -0.04524231 -0.0076034777 0.009279756 -0.015504251 0.092707075
0.028138123 -0.072841585 -0.03839831 -0.013876703 0.091376044 0.10195927 0.07918952 0.045313288
0.16482447 -0.029184837 -0.03336074 -0.027418517 -0.06470547 -0.00572684 0.10352799 -0.060790997

layers.3.bias f4 [80]
00000000: 2fe4 abbd d323 8e3d 8762 a7bd 6d44 5abd
00000010: a3c6 a7bd 8f9f 28be 20e0 e4bd 7e8d 96bd
00000020: c05a 89bb 7849 e3bd f7c8 f4bc c727 06bd
00000030: 9a53 a9bc dc21 9e3b a87d 97bb ccf4 963d
00000040: 88a7 73bc acbb 1f3d d672 27bd 009e 44bc
00000050: b3cc 0ebe aaf2 a3bd 2a41 a83c e80f 96b9
00000060: 2dfa 15bd ceea 02be ad2e 5cbd ad6b ba3c
00000070: 63d3 2a3d 7c8b fcbc 5e1b 19be 5ab7 0dbd
00000080: 4a03 c03c 4ac4 533d ee93 f8bd 43b3 1ebe
00000090: af05 8fbc 9d0f 5a3d f7d3 7a3c a654 9cbd
000000a0: 999f 5ebd a46d 7cbc 8004 81bd d4dc 053d
000000b0: c197 d5bb 80c5 bfbd 8463 6dbd ecd4 f3bd
000000c0: eedd 65bd a1e4 7d3d afc9 b3bd 1c90 853b
000000d0: 08cd 0fbe b2c1 a93c d49d 12bd 0606 2bbb
000000e0: c3cf 33bd 792c 02be dffd e5bc 7bf5 a93d
000000f0: 7fd8 9f3d 1217 ebbd 0d58 393d ce3d ca3c
00000100: 629e 37bd 69d1 3b3c 489e 12bd bbd5 63bd
00000110: 41f0 ee39 da97 f1bd 015d c73c 1fc7 cfbd
00000120: a1c9 00bc 6668 35bd cec9 1bbe ba6c 81bd
00000130: ede4 14be 42ef abbc be57 debd 30aa 17be
-0.08393132 0.06940427 -0.081730895 -0.053287912 -0.08192184 -0.16467117 -0.11175561 -0.07351206
-0.0041917264 -0.110979974 -0.029880984 -0.03275278 -0.020669747 0.0048258137 -0.0046231337 0.0737091
-0.0148714855 0.038997337 -0.040881 -0.012000561 -0.13945274 -0.08005269 0.020538885 -0.0002862208
-0.03661554 -0.12784883 -0.05375545 0.022756422 0.0417055 -0.03082823 -0.14951846 -0.034598686
0.023439068 0.051700868 -0.1213759 -0.1549807 -0.017458765 0.053237546 0.015309325 -0.07633333
-0.054351423 -0.015407 -0.062996864 0.0326813 -0.0065183346 -0.09363842 -0.057956234 -0.11905846
-0.05611985 0.061985616 -0.087787025 0.004076017 -0.14043057 0.020722244 -0.035795048 -0.002609612
-0.04389931 -0.12712277 -0.028075157 0.08298775 0.07804965 -0.1147901 0.045249987 0.024687674
-0.04482878 0.0114635015 -0.03579548 -0.05562375 0.000455739 -0.117965415 0.02433634 -0.10145401
-0.007860572 -0.044289015 -0.15213701 -0.06319566 -0.14540453 -0.02098811 -0.10856579 -0.14811015

layers.6.weight f4 [64, 80]
00000000: 5026 ff3d c1d1 fcbd ae8c 91bc 95e1 16bd
00000010: 37a2 dd3d 2acf 1fbd fcb7 d73c 8a81 0b3d
00000020: 0a2a 99bc f2f9 123c 681b 243e b84f 28bd
00000030: e1db 863d ae00 48bd 673e 313e e1d3 44be
00000040: 4880 663d cba6 1abe ddd7 113d 472d 403e
00000050: 0751 983c 6349 8ebd 9d1c 93bd 8a92 77bd
00000060: 0506 9f3c eaf9 07bd 2592 233c 572b 77bd
00000070: 7654 1ebc ac8d 0bbe 72e7 3d3e 42bd 363e
00000080: 78d7 24be 9214 23be d8ac 7a3c 0c79 d3bc
00000090: 147f 653d f6d3 22be ec5b c73d d299 8b3c
000000a0: ec49 633d aceb 83bd 9bcb 153e 0cbd b9bc
000000b0: 4624 0ebe a3df a1bd 1799 bfbd d8f3 f43d
000000c0: be64 dc3d d8ec 21be e805 3e3d 1021 c1bd
000000d0: ae34 a03d fb76 46bd e232 57bd c0e0 1abe
000000e0: 850e 913d 2098 be3d 63ed 9cbd d279 9cbd
000000f0: af35 0ebe 910b e83d f89c 24bd 52af f93d
00000100: b2a5 973d 72a7 19be 25b0 bbbc 908b 1d3e
00000110: 9693 9abc be54 173e 2287 193d 48f8 e33d
00000120: 2542 20be 2b32 92bc d6ba 163e 3cc4 da3d
00000130: 6a68 213e 9f9a ca3d 5d30 413d a613 ffbc
00000140: 940e 243e 2ea1 65be 5e75 8abd 4dc4 f3bd
00000150: 5729 343e f2d9 8bbc 916e a5bc 8735 3c3e
00000160: a97d 68bd f560 b63d 9971 1f3d fb84 ef3c
00000170: 1224 1abd e6bb b6bd dc6f 553c 48fc 44be
00000180: a453 553d d01e 15be cae1 dd3d 66e8 183b
00000190: afa7 edbc 7286 a63d a63b a0bd bfe9 97bd
000001a0: 48e9 ce3d 42c4 01bd 90c1 093e 8e16 f9bd
000001b0: 372f d63d b6ab 5bbe 5f5e 703d 9b1b d23c
000001c0: 1c81 67bd 1e2f 9dbd 7c7c 0b3c 59d2 0a3e
000001d0: f73f 54bc 8ee7 03be c1b4 3b3d b7a1 623d
000001e0: cd98 75bc 2e65 25bd df85 553e 05b0 33be
000001f0: 8aa9 39be cf6c 14be 75f6 1bbe 8bb5 d83d
00000200: 6636 0f3e 2106 c0bd 09b6 c7bc 1faa 18be
00000210: 7f80 77bd f7b3 19be 2caf 04bd 413c 2dbe
00000220: 5930 d63d f835 9e3c 6333 a2bd b470 07be
00000230: 6431 22be 29de 603c 1ee6 8dbc be4e 2e3e
00000240: 0dcf 01bd d085 22be df1b 1f3d 693e 9c3d
00000250: 839c 22be f33c f83d b2dd 2c3c 3028 df3d
00000260: 6f24 cfbd 0326 1b3d 3aea 313e 16f2 85bc
00000270: 98b9 0b3e ae61 f13c 5b86 c43d c418 c2bc
00000280: 9f7d 66bc 6e65 9f3c 159a b5bd e7e7 aabd
00000290: 1082 4b3d e3ca 853c 6a3f fdba 8563 e3bb
000002a0: 2c92 4dbd 52ae 55bc a0ca b33d 3db8 543d
000002b0: bd15 c03d ffe7 393d 4a81 89bd 7a4c e0bc
000002c0: 43bd 0e3d f30f 5abd 5597 473d d4e0 7cbd
000002d0: c194 f63d 8222 bcbd d676 8dbd 0d22 a03c
000002e0: 4777 6c3d c0b5 893d 552c 7c3d c109 e63d
000002f0: 6cf9 9f3d b8e0 01bd 4ea7 2bbd 400b 5ebd
00000300: 0808 cbbd e1d1 99bd f190 433d 8203 ee3c
00000310: 72a3 2e3c fdf6 ebbc d3d6 db3d db84 bcbd
00000320: 15d0 7fbc a5c1 96bd 4e0d 8b3c 5550 d0bd
00000330: dfce 69bd 33c2 323d 4c07 c8bd 4511 293d
00000340: 14d6 aa3d 6491 053d 844d 693d ebb1 0ebe
00000350: 5934 94bc 942f 33bd 51d1 abbd b286 0bbe
00000360: 15fd 833d b3c2 3d3e dc23 a43c bf12 583d
00000370: 2e7a 0dbe 326f 933d 9f9b 83bc c60f 88bd
00000380: 11a3 49bc 8fc8 03bd 01ab 523d 77ec 5e3d
00000390: 998c 57bc 3101 d93c 28a4 9a3d 15b0 573d
000003a0: bf98 d3bd e76d ef3c 1ddc 273d 33fa dbbb
000003b0: 850b 053d cdee 51bc 37c6 e83d 1a94 ca3d
000003c0: 2edf a63d 5ab7 16be d938 863d dcbe 9cbd
000003d0: 5ce3 11bc 49ed a9bd 6e75 c03b 3611 053e
000003e0: fa9d 523c e0d8 cb3d 48d5 983c ca35 a73d
000003f0: c59d 9bbc bc57 cabd 4223 303e 1e25 19be
0.124584794 -0.12344695 -0.017767277 -0.036836226 0.10821956 -0.039015926 0.026332848 0.034059085
-0.018696804 0.008970724 0.1602608 -0.04109165 0.06584907 -0.048828773 0.17308961 -0.1922145
0.056274682 -0.15102689 0.035606254 0.18767272 0.018593324 -0.06947591 -0.07183192 -0.060442485
0.01941205 -0.03319732 0.009983574 -0.060344066 -0.009663692 -0.13628262 0.1854532 0.17845634
-0.1609782 -0.15925816 0.015299998 -0.025814556 0.056029394 -0.15901169 0.097343296 0.01704112
0.05549042 -0.06441435 0.1462845 -0.022673152 -0.13881025 -0.079039834 -0.093553714 0.11960572
0.107614025 -0.15813005 0.04639235 -0.09430134 0.07822548 -0.048453312 -0.05253876 -0.15124798
0.070828475 0.09306359 -0.076624654 -0.07640423 -0.13887666 0.11330331 -0.04018876 0.12191643
0.07404651 -0.15005282 -0.02291114 0.1538527 -0.018869203 0.1477842 0.03748239 0.1113134
-0.15650232 -0.017846188 0.1471971 0.1068196 0.15762487 0.09892773 0.047165263 -0.031137299
0.16021186 -0.22424766 -0.06760667 -0.11902676 0.17593895 -0.017071698 -0.020194324 0.18379794
-0.056760464 0.08905212 0.038926695 0.029238215 -0.037632056 -0.089225575 0.013027158 -0.19236863
0.05208172 -0.14562535 0.108340815 0.002333188 -0.029010622 0.08131112 -0.07823877 -0.074176304
0.101030886 -0.031681307 0.13452744 -0.12162505 0.10458224 -0.21452221 0.05868375 0.025647929
-0.056519613 -0.076750025 0.008513566 0.13556804 -0.0129547035 -0.128813 0.045826677 0.055330005
-0.014990044 -0.040379696 0.20851849 -0.17547615 -0.1813108 -0.14494632 -0.15230735 0.105815016
0.13985595 -0.09376169 -0.024378793 -0.14908646 -0.060425278 -0.15010057 -0.03239362 -0.16917516
0.1045844 0.019312844 -0.079199575 -0.13226587 -0.15839154 0.013724842 -0.017321642 0.17022225
-0.0316916 -0.15871358 0.03884494 0.07629091 -0.15880017 0.12121 0.010550903 0.10896337
-0.10114371 0.037878048 0.17374507 -0.016350787 0.13645017 0.029465523 0.09595939 -0.02369345
-0.014068036 0.019457545 -0.088672794 -0.08345013 0.049684584 0.016332095 -0.0019321267 -0.006939354
-0.05018823 -0.0130420495 0.08778882 0.051933516 0.09379146 0.045387264 -0.06714113 -0.027380217
0.034848463 -0.053237867 0.048728306 -0.06173785 0.12040091 -0.09186269 -0.06907432 0.019547487
0.05773094 0.06724119 0.061565716 0.11232329 0.07811245 -0.03170845 -0.0419076 -0.054209948
-0.09913641 -0.07510734 0.04774565 0.029054407 0.010659086 -0.028804297 0.10734334 -0.09205028
-0.0156135755 -0.073611535 0.016974118 -0.10171572 -0.057082053 0.043642234 -0.09767017 0.041276235
0.083416134 0.03260936 0.05695869 -0.13935058 -0.018091368 -0.043746546 -0.08389533 -0.13625601
0.06444756 0.18531303 0.02003663 0.052752253 -0.13816139 0.07198943 -0.016065417 -0.066436335
-0.0123069445 -0.03217369 0.051432613 0.05442473 -0.01315608 0.026489826 0.075508416 0.05265816
-0.103318684 0.02922721 0.0409814 -0.0067131757 0.03248169 -0.012813282 0.113659315 0.098915294
0.08148037 -0.1471838 0.065538116 -0.07653591 -0.008904304 -0.08297212 0.0058733737 0.12994847
0.012855047 0.09953475 0.018656388 0.08164556 -0.018996129 -0.09880015 0.1720095 -0.14955565

layers.6.bias f4 [64]
00000000: 1982 d03d 3435 313e 27b8 12be 8f49 c13d
00000010: 7523 12be 2a49 6fbe 8957 bf3d 67db 893d
00000020: 00d1 c03d 4d1f ee3d c50e b83d 7f3a 58bd
00000030: f9a7 4b3e 069f ff3c 8cb1 133e 9c3a c63d
00000040: 6baa fe3c a4f6 93bd d2d9 323e 9285 51bd
00000050: 7300 d93d 73c6 e73d b1ad 20be 0469 a63d
00000060: 93f5 f43d 7bab 94bd 913e 5f3c 9fc9 4abe
00000070: 999f d63d c71a 233e 3a32 01be fd50 7bbe
00000080: f658 3f3e 493c 4b3e a681 953d d004 0ebd
00000090: 757f d73c 7caf 413e 698b 9e3d 63ca c33d
000000a0: 3386 983d 4ce2 333e 0bf4 1a3e e944 ecbc
000000b0: 558a d33d 5e03 573e 7e1e 873d 6b55 52be
000000c0: 31de 893d 6e8b 12be 9588 283e c17d 17be
000000d0: 026e e03d 449a bebd 35a0 12bd 3226 ee3d
000000e0: e5ad 1dbd 35aa e33d 48b1 233e 4541 39bc
000000f0: 158e eb3d e198 f63d 6a66 66bc cbc1 72be
0.10181064 0.17305452 -0.14328061 0.09437858 -0.14271338 -0.23367754 0.09342868 0.06731301
0.094148636 0.11627064 0.08987192 -0.05279016 0.19888295 0.031203758 0.14423198 0.096791476
0.031087121 -0.07224777 0.17465904 -0.051152773 0.10595789 0.11317148 -0.15691258 0.08125499
0.11960902 -0.0725927 0.013625757 -0.19803475 0.104796596 0.15928183 -0.12616816 -0.24542613
0.1868628 0.19847216 0.07300119 -0.03467256 0.026305893 0.18914598 0.07741434 0.095600866
0.074474715 0.17566794 0.15132158 -0.028841453 0.10329119 0.20997378 0.06597613 -0.20540397
0.06731833 -0.14311 0.16458352 -0.14794065 0.10958482 -0.093067676 -0.035797317 0.11628379
-0.038495917 0.11116449 0.15985596 -0.011307065 0.11501709 0.12040878 -0.014062503 -0.23706739

layers.8.weight f4 [1, 64]
00000000: 9461 b2bd 5e42 febd 3053 aabc fec7 f4bd
00000010: e6cc 8abd 5e25 b0bb 5f89 043e 1b6e ba3d
00000020: b5fb 223e 71fe fc3d 82e4 7cbd f7ce 59bc
00000030: 5a1c 1e3e d1a2 aabd 797e 2d3e 8d7a f73d
00000040: 4eb1 053e 552d 9c3d dc8f 01be f3ab 313d
00000050: d8aa 19be c05c a83d 4e9f b0bc fbd1 653d
00000060: 7f1d d33d 4e84 933d 8177 183e 2676 aabc
00000070: 9c6e 1ebe cddc bdbd 28f9 963d 147f 9dbc
00000080: 9f8f 15be 2eb6 1cbe 6c6b 263e e4b5 553d
00000090: 2cfa d8bd b9e9 643e 8572 363e efe7 03be
000000a0: a2d8 b5bd 0bb0 273e 3848 543e 4e72 0e3b
000000b0: e479 0e3e bc32 5a3e 3d78 54bd 8b4f 6cbc
000000c0: 5c6c 043e 6b41 75bc 4edb e33d 6f5f dbba
000000d0: 1bbf 013e bcd3 8b3b 435a 53bd f988 85bd
000000e0: bfbc 48bb 6bd3 173e 0f2b 16be d412 85bd
000000f0: af19 04be d15a b0bd d2d5 013e f558 aebc
-0.08710018 -0.12415002 -0.02079162 -0.11952208 -0.067773625 -0.0053755483 0.12943028 0.09103032
0.15916331 0.12353218 -0.06174136 -0.013293973 0.15440503 -0.08331836 0.16942777 0.120839216
0.13055918 0.07625834 -0.12652534 0.043376874 -0.15006578 0.08220816 -0.021560337 0.056108456
0.1030836 0.072029695 0.14889337 -0.02080829 -0.15471882 -0.0927063 0.073717415 -0.019225635
-0.14605568 -0.15303871 0.16251916 0.052175418 -0.105945915 0.22354783 0.17817123 -0.12881444
-0.0887921 0.16375749 0.20730674 0.0021735611 0.13913685 0.21308416 -0.05187248 -0.014423261
0.12931961 -0.01496921 0.111258134 -0.0016736815 0.12670557 0.004267184 -0.051599752 -0.06520266
-0.003063008 0.14826743 -0.14664863 -0.06497732 -0.12900423 -0.08611072 0.12679222 -0.021282652
