flwr-mlp/models/checkpoints/round_019.pt (torch, 127593 bytes, 7 tensors)

layers.0.weight f4 [256, 19]
00000000: 3112 72bd ff23 19be 926a 12bc c339 8abe
00000010: 4839 b7bc f61a 13be 95d9 b3bd caff 49be
00000020: 5d14 383e 175b f0bd 5187 303d f76b 173e
00000030: cc2a 04bd fc66 15be cad3 4c3e 7044 52bd
00000040: a500 11be 683f 0d3d 80a7 55be 7c6c 2fbe
00000050: 20eb 23bd f90f 053e 56cf 4bba bebf babd
00000060: 9d0f b4bc 4d4d 4b3e 8f35 50be e260 a43d
00000070: e1ca 1bbd 68f6 283e 011d 0c3e c43c ecbd
00000080: 8ab7 8abd 31ae 863d b17f a1bd 5af0 df3d
00000090: 38b4 4b3e e9af c3bc c842 933d 79f9 d83d
000000a0: 282c 373c 6ed7 05be 183e 8d3d edc3 70bd
000000b0: 9788 f03d aeb0 6abe 0726 8ebb efb0 723e
000000c0: 42f8 e33d 98b0 b1bd 1037 a83d 7b70 153e
000000d0: b103 da3d a1d8 06bc 00a2 3d3d 9522 043e
000000e0: a7a5 aebd 4b0b 8e3e 72f7 48bd 863c 6f3d
000000f0: b146 cf3d c5e4 8dbd a2f9 5bbe 47b7 51be
00000100: f76a 613e 8074 44bd 0e2b bbbc 19f7 4e3e
00000110: 0d74 f1bd 6ead 9cbd dd01 4f3d d98d 0bbe
00000120: 6d86 98bd 6b93 94bd 9967 593d 6beb 0a3e
00000130: fe00 b6bd 3038 c0bd 6a13 313e 7c51 013c
00000140: 02a8 513e ed92 323e e1f2 4b3e 3d35 fd3d
00000150: e9ab 333e 7a49 d6bc 2ad8 13be ac6a d9bd
00000160: 9298 4ebe 9147 34bd ce19 c7bd a19d b13d
00000170: b825 1bbd b05d 54bd 8f17 23be 1644 743d
00000180: fe35 0b3e f279 f9bd 03c2 4e3e a451 dc3d
00000190: d1bf 59be 5339 213e 2e17 623e 460d dbbd
000001a0: 4925 5cbe 1c2e ad3d 8344 99be 5389 3f3c
000001b0: d88f 2f3e 4119 113e 0da9 b6bb a3ee cf3d
000001c0: d14f a9bc 0a1f 86be b94b e53d 416b 2f3e
000001d0: 3f0d a83d 2bf7 49bc 5b99 92bd d24c c5bd
000001e0: 3f29 19be 549e 34be 4c4d 40be a698 8c3e
000001f0: 8169 65be 342a bdbd ffcb 1d3d a102 f0bd
00000200: bbe3 113e acbe c7bd 9640 013d d817 14bd
00000210: 0923 073d ab90 213e fb27 3abe 045a 16bd
00000220: 8a7a fdbd 6556 103d 0ce5 c8bb 83b3 22be
00000230: d95f dcbd 3cf4 3dbd 9c84 08bd 1945 8e3c
00000240: fd26 703d b0b2 3d3e ba34 093e fe7d 0ebd
00000250: 178c b8bd 4598 76be 01f7 2a3c f2b0 27bd
00000260: a292 06bd 7970 cb3d 5056 b73d d940 54bd
00000270: dd78 de3d 5652 743e 439e e13d aaa9 083e
00000280: 23fd 743e 601e 9e3d 3e2f aabd a66f 913e
00000290: cb16 88be 0957 2e3e 53b0 3e3d 4d1b ab3d
000002a0: 9120 e33c 3964 39be 5694 3abe 0bf8 5f3e
000002b0: 57c9 0ebd 108e 6ebd 257d 81bd 58ad 613e
000002c0: f7bd e3bd fc8a 97bc 81ef 383e 6099 463e
000002d0: 4573 8ebd 22bb efbc 16e5 d8bc 3545 133e
000002e0: 2c68 163d e89f 013e 6ee0 debc 57ea e33d
000002f0: eea5 e03d ce17 923b 4ee5 b4bd 5c5b bf3c
00000300: cb11 e23d 36d8 733d 1472 7abd 9e4b c23d
00000310: 1865 e0bd 5b1a 0f3e 0b56 193e 09f5 aebe
00000320: 243d 70be e21a 02bd 1a1a d6bd 908a 12be
00000330: 7310 cebd df75 0d3e 437f 1e3e 9477 e83d
00000340: 720d 863c 1b67 5c3e ce72 d9bd a19e f7bc
00000350: 8358 403e 7d76 5ebe a15f 993d 1420 88be
00000360: 9bd3 bf3d ef61 5f3e f7ab 193e 9a60 2f3e
00000370: c983 52be b30d df3c bb19 4dbe 9fbb d3bc
00000380: f99f 96ba 63f4 8ebd e30c 2d3e 8528 ad3c
00000390: 3e5e cabd 2de4 623e 3a70 45bd c6c5 afbc
000003a0: a7f3 d03d 1205 e0bc 4ffb 26be eb18 95bd
000003b0: 33b4 8abe f560 9d3e 40f8 69be c606 37bc
000003c0: 6682 073e 0874 f23c 0329 0a3c fafb cc3d
000003d0: ac52 4cbe 8a55 ba3c 4a62 2f3d a293 d0bd
000003e0: 8e46 acbd f9cf e03b e18d 17bd f4d4 f63d
000003f0: d348 51be 2a95 443d 1b43 ba3d cf3f 1fbe
-0.05909938 -0.14955138 -0.008936541 -0.26997194 -0.022366181 -0.14365754 -0.08781735 -0.19726482
0.17976518 -0.11736124 0.043097798 0.14787279 -0.032267377 -0.14590067 0.20002666 -0.0513348
-0.14160402 0.034484297 -0.20864677 -0.17131227 -0.040019155 0.12994374 -0.0007774731 -0.09118603
-0.021980101 0.19853707 -0.20332931 0.080262914 -0.038035277 0.16500247 0.13682939 -0.115350276
-0.067732885 0.06576193 -0.07885683 0.10934515 0.19892967 -0.023887591 0.07190472 0.10594458
0.011179961 -0.13070461 0.06896609 -0.0587806 0.117448024 -0.2291896 -0.0043380293 0.23700307
0.11131336 -0.08676261 0.08213627 0.14593689 0.10645235 -0.008230359 0.046297073 0.12903817
-0.085276894 0.2774299 -0.049064107 0.05840733 0.10120905 -0.069284 -0.21481946 -0.20480071
0.2201346 -0.047962666 -0.022847679 0.20211448 -0.11789713 -0.076502666 0.050538886 -0.1362833
-0.07447515 -0.0725468 0.053077314 0.13566367 -0.08886908 -0.09385717 0.17292562 0.007892963
0.20474246 0.1743886 0.1991687 0.1236367 0.17546047 -0.026158083 -0.14437929 -0.10616049
-0.20175388 -0.044013564 -0.09721719 0.086726435 -0.03787777 -0.05184716 -0.15926956 0.059635244
0.13594815 -0.12181462 0.20191197 0.10757759 -0.21264578 0.15744524 0.22079155 -0.10695891
-0.21498598 0.0845606 -0.29935083 0.0116904555 0.17144716 0.1416979 -0.0055743516 0.10152938
-0.020667942 -0.26195556 0.111960836 0.17130758 0.082056515 -0.012326996 -0.071581565 -0.09633793
-0.1495714 -0.17638522 -0.18779486 0.27460212 -0.22403528 -0.09236565 0.038524624 -0.117192514
0.14247029 -0.09753165 0.031555735 -0.03615555 0.032992397 0.15777843 -0.18179314 -0.03670694
-0.12376888 0.035238642 -0.00613082 -0.15888791 -0.10760469 -0.0463755 -0.03332959 0.017366933
0.058630932 0.18525195 0.1339902 -0.034788124 -0.09011095 -0.24081524 0.010434867 -0.040940233
-0.032854684 0.09933562 0.0895201 -0.051819656 0.108628966 0.23859534 0.11016514 0.13345972
0.23924689 0.07720637 -0.08309792 0.28405493 -0.2657989 0.17025389 0.046554875 0.083548166
0.02772549 -0.18104638 -0.18220648 0.21871965 -0.03485998 -0.05824095 -0.063226976 0.22038782
-0.11120217 -0.01849889 0.18060113 0.19394445 -0.0695558 -0.029264037 -0.026476424 0.14381869
0.03672044 0.12658656 -0.027206626 0.11128681 0.109691486 0.004458404 -0.08832799 0.023358993
0.1103855 0.059532367 -0.06114395 0.09487079 -0.10956782 0.13974898 0.14974229 -0.34171322
-0.23460823 -0.03176392 -0.10454197 -0.1431067 -0.10061731 0.13814496 0.15478234 0.11350933
0.016363833 0.21523707 -0.106176004 -0.030227007 0.18783765 -0.21724887 0.07488943 -0.26586974
0.093665324 0.21814702 0.15007006 0.17126694 -0.20558085 0.027228212 -0.20029347 -0.0258463
-0.0011491767 -0.06980207 0.16899447 0.021137485 -0.098812565 0.22157355 -0.04820273 -0.02145661
0.10202723 -0.027346168 -0.16306804 -0.07280143 -0.27090606 0.30738035 -0.22848606 -0.0111710485
0.13233337 0.029596344 0.0084326295 0.10008998 -0.19953412 0.022745866 0.042818345 -0.10184409
-0.08411895 0.00686073 -0.03700054 0.12052336 -0.20437936 0.047993816 0.090948306 -0.15551685

layers.0.bias f4 [256]
00000000: f8bb f63b 42bb 94bd 2b5b 8dbe 1e7f 81be
00000010: 8883 65be eab2 07be 3781 8fbd 4328 44be
00000020: df6e 6ebe a0d1 59bd c07b 903d 8623 b2bd
00000030: 855b 1a3d 1bce b1be 7a58 50be 7f04 36be
00000040: cd46 af3c 76f8 bfbc 75fa 36be cdb3 65be
00000050: 52e4 e3bd 2f59 36be 4c0e 143d c51a 37be
00000060: 7cb3 efbd 2f92 0fbe 495c 33bd e26a 61be
00000070: fd3c c7bc 9c1d 92bd c80a babd c007 663c
00000080: b362 50be c362 9a3b 3283 39be 1adf d3bd
00000090: 965d 26bd 563e a7bd 387a 58be 7e03 843d
000000a0: 87ba 8cbe a064 74be a4c7 62be 8ef3 7cbe
000000b0: 244c 6ebe d385 38be 4d96 fcbd 2a87 f63c
000000c0: 9072 22be d48c 97be 5237 5fbe 05be 08be
000000d0: d0f3 0abe c1b8 7abd 76a5 06be c72c a0bc
000000e0: a337 a7be de8c e7bc 0ef2 35be b79e 30be
000000f0: 0d0a bebe 35fe 73be 0f51 16be 48d7 a3be
00000100: eb30 8abd 3af6 45bd 5ae4 85be cc6a cebe
00000110: e1b7 a3be 583f 5bbe e128 9dbe 75e8 a03d
00000120: 6e02 f3bd ccef 89be 4095 50be f9af fabd
00000130: 65cd 93be e09f 87be 7e03 d6bd b5fe 92bc
00000140: e2a7 6ebc d1fb 35be 0ea5 bfbc 4085 3dbe
00000150: 80e5 94be 284a 80be a3b5 dfbd 3461 cb3d
00000160: 83e1 2abe fabe 8abc d1c3 8fbe 733c 19bd
00000170: 2713 6dbe 9e77 7cbd bf88 96be e88e 5abe
00000180: 0e84 9fbe 2684 55be 1f7b bebe 85ec 97be
00000190: 81a1 1fbe 91d2 47be 8025 a7bd 748a 86be
000001a0: f794 71be ed20 95be 0996 71be 0dde 71be
000001b0: b4be f7bb 82b0 96be 74ea b0be b2cd 453b
000001c0: 5e16 27be 806d 14be 114e 84be e960 6abd
000001d0: bd34 073d d1ad f7bd 3f1e a4bd aec5 41be
000001e0: 1b17 6dbe 84e6 36be 1f1a 81be be9e 45be
000001f0: 62e2 49bd 4a68 aabe f575 a93d 3c1c 1cbe
00000200: c661 fbbb 22ea 00be 5a4c 02bd d867 97be
00000210: 2ab3 833c 751b 20be 02bd eebc 5e1a 54be
00000220: 1258 573d 00a7 12be 1e37 3d3b 64bc 5ebe
00000230: edca 12be 39cf 74be 7741 2abe d5d2 59bd
00000240: 2713 f3bd 4558 22be 57eb c5bc 809d ac3d
00000250: 2936 9abe 8b10 11be b576 a5be 6517 e6bd
00000260: 64f3 afbd 4e8e e4bc d46f 09be 5960 60be
00000270: e7cf 0fbe 0338 1fbe 7144 05be 0c8c 34be
00000280: c514 9dbe a4e9 debd 88dc 48bd be46 95bc
00000290: 5b4e 1abe f52c 27bd b5e6 81be cada 71be
000002a0: fd5d d3bd c46d 8cbe d1da 9dbc 04c2 263c
000002b0: 248a 5dbe ae76 02be a0a5 87be 844a 81be
000002c0: 9af5 9fbe 16a3 9dbd 279c 85bd 5217 e1bd
000002d0: f108 413d e559 2f3d 6245 afbe f0ac 3fbe
000002e0: 4a21 613c dc7a da3a a9d5 d1bc 8ffc 0cbe
000002f0: 3100 11be 4efd 84be 159a b3bd c9fd d6bd
00000300: da46 e4bb a14d 7c3d 3980 6fbe d5a1 02be
00000310: e5ac e5bd 1423 8ebe 62a4 f5bd b9ae cdbd
00000320: f3b6 273c 8132 9c3c e4be 79be d2e7 7bbd
00000330: 30c4 0ebe 8644 abbe 2ffe b6be 54bf 20bd
00000340: 9dea ecbc 064f bfbb 9f26 27be 6c14 3fbe
00000350: 3da2 a1be 26f6 92be 7b5d 94bd 43af 86bd
00000360: d44d 69be b37e 91be e17d 733d c07f 75be
00000370: 0165 9dbe cdf0 8ebd c967 e2bd 83ee 0bbe
00000380: 3ec6 bbbe fb9e 97bd 2a76 5dbc 2609 84bd
00000390: 50b6 5ebe 51b1 97be 3d93 54be e1e1 7fbe
000003a0: ebeb 43be e2a7 7bbe bfb8 86be 7c36 debd
000003b0: a471 c4bb a062 97bd d1ae 8bbe 2cd1 adbe
000003c0: 0960 6cbe e7d5 adbe de53 80be ec82 ba3d
000003d0: e237 74be 3186 e7bd d694 64be e8d7 03bd
000003e0: 05a4 97be 692b 83bd 6a8e 2fbc 6517 a0bd
000003f0: 6673 d93c e90d c1bc 7f5e 61be be80 123c
0.007529732 -0.07262279 -0.27608618 -0.25292295 -0.22413456 -0.13251844 -0.07007068 -0.19155984
-0.23284481 -0.05317843 0.070548534 -0.08698182 0.037684936 -0.34727558 -0.20346251 -0.17775153
0.021396065 -0.023433905 -0.1786898 -0.2243187 -0.11127533 -0.17807458 0.036146447 -0.17881306
-0.11704156 -0.14020608 -0.04378918 -0.22013429 -0.024321074 -0.07134554 -0.090840876 0.014039934
-0.20350151 0.0047114803 -0.18116453 -0.103452876 -0.040616594 -0.081661865 -0.21140373 0.064459786
-0.2748606 -0.2386651 -0.2214647 -0.24702284 -0.23271233 -0.180198 -0.12333355 0.030093748
-0.15864015 -0.2959963 -0.21798447 -0.13353737 -0.1356957 -0.06121135 -0.13149056 -0.019552602
-0.32659635 -0.028265413 -0.17768118 -0.17248045 -0.37117043 -0.23827441 -0.14679359 -0.32000184
-0.067476116 -0.048330523 -0.2615078 -0.40315855 -0.31976226 -0.21410882 -0.3069525 0.07856838
-0.11865698 -0.26940763 -0.20369434 -0.12240595 -0.2886764 -0.26489162 -0.10449885 -0.01794372
-0.014566394 -0.17771842 -0.023394134 -0.18507862 -0.29081345 -0.25056577 -0.10923316 0.099306494
-0.16687588 -0.016936768 -0.28079084 -0.037411164 -0.23151837 -0.061637513 -0.29401204 -0.21343577
-0.31155437 -0.20851192 -0.3720331 -0.29672638 -0.15588953 -0.19513918 -0.081614494 -0.26277506
-0.23591982 -0.29126683 -0.2359239 -0.23619862 -0.0075605754 -0.2943154 -0.34553874 0.0030182418
-0.16317126 -0.14494896 -0.2584081 -0.057221327 0.03300928 -0.120937 -0.080135815 -0.18923065
-0.23153345 -0.17861372 -0.2521524 -0.19298837 -0.04928816 -0.3328269 0.08274452 -0.15245146
-0.0076715676 -0.12589315 -0.031811096 -0.29571414 0.016076643 -0.15635474 -0.02914286 -0.20713183
0.052574225 -0.14321518 0.0028871964 -0.21751553 -0.14335223 -0.23907174 -0.16626535 -0.05317958
-0.118688874 -0.15853985 -0.02416007 0.08428478 -0.30119446 -0.14166467 -0.3231713 -0.11234931
-0.08591345 -0.027899887 -0.13421565 -0.21911754 -0.14044152 -0.1554871 -0.1301439 -0.17631549
-0.30679908 -0.10884407 -0.04903844 -0.018222209 -0.15068953 -0.04081436 -0.25371328 -0.23618618
-0.10320661 -0.27427495 -0.019269379 0.010178093 -0.21634728 -0.12740585 -0.2649355 -0.25252163
-0.31242067 -0.07697122 -0.06523924 -0.10990776 0.047127668 0.04281034 -0.34232622 -0.18718314
0.013740847 0.0016668695 -0.025614576 -0.13768218 -0.1416023 -0.25974506 -0.08769623 -0.104976244
-0.006966454 0.06159747 -0.23388757 -0.12757047 -0.11214618 -0.27761137 -0.11994244 -0.10043091
0.01023649 0.01906705 -0.24389225 -0.061500378 -0.13942027 -0.33450717 -0.35740802 -0.039244965
-0.028920466 -0.0058382777 -0.16323327 -0.18660134 -0.3156909 -0.2870342 -0.072443925 -0.06576397
-0.22783595 -0.28416976 0.05944622 -0.23974514 -0.30741122 -0.06979523 -0.11054952 -0.13665204
-0.36674684 -0.0740337 -0.013516942 -0.064470574 -0.21749234 -0.2962747 -0.20759292 -0.2498851
-0.19132964 -0.24575761 -0.26312825 -0.10850236 -0.0059949923 -0.07391858 -0.27281812 -0.33948648
-0.2308351 -0.33952257 -0.25063986 0.091070026 -0.23849443 -0.11304892 -0.22322401 -0.032188326
-0.29617324 -0.06404764 -0.0107151065 -0.07816962 0.026544284 -0.023566203 -0.22008704 0.008941827

layers.3.weight f4 [80, 256]
00000000: 1737 32bd 6ecc 683d 653b c73c ddbc 87bc
00000010: 457e 8dbd 40d4 6dbd c395 503d 9a84 903d
00000020: 73e7 c83d 678a 0bbe 9b10 c4bc 68f9 61bd
00000030: f35d 12bb 6213 e63d 16db f73c 4452 713d
00000040: b3a4 9bbd 46b2 9abd 25be 4c3d 0965 853d
00000050: 4ab6 ad3d 68d3 163d 1390 143d cda0 2c3d
00000060: ed3f ba3d 29a0 c8bc ef2f 87bb 8280 bc3d
00000070: 6ac8 bebd e226 d9bc c554 803d 699f 1a3c
00000080: a920 053e 6e9e bfbd 0278 953d beba 943d
00000090: 2838 02be ad8b ab3b abae 983d 55bf 07be
000000a0: b554 f73b a7b6 b0bd b5b9 cebd e20e bd3d
000000b0: aa39 e13d 696a 52bd a871 153d 822d f53c
000000c0: 6b1b 63bd 7e84 6f3d f223 983d 7767 89bc
000000d0: c04e a8bc b46d 88bd ef02 96bd 487c eebc
000000e0: b52c b33d d8b2 2a3d 11e2 963c 684c 06be
000000f0: e23d 3b3e 8869 a4bc 841b 843d 4c4a 313e
00000100: 3a43 5ebd a640 e1bc e4cb ac3d 05c5 6c3d
00000110: b701 013e 0257 df3b ef54 153d 2ca7 3cbe
00000120: 9f61 433d 6281 efbc 2d9d 3fbd c254 b63d
00000130: 1fd3 03be 68f2 603d 13ca 503d 203f bebd
00000140: 7cc3 6cbd f649 843c 1f44 bc3b fbd5 ce3d
00000150: d277 93bd b86c 9e3d e5d0 193e d1a0 cdbc
00000160: aeff 483c 6e7d 0439 010c 013d ed3a 473d
00000170: 082e 86bd 5e9a 79bd cd0c 183d 84ad ff3b
00000180: db9c 693c b064 683b 2ae7 333d 426a 2b3d
00000190: b833 c9bd 132b a2bc 5b79 5e3d 68e7 4fbd
000001a0: b738 9ebd bc6d 6f3d 2393 1e3e af56 6a3d
000001b0: 7a62 b7bd f6ea d73d c9ca 5e3d 369f 253b
000001c0: d704 3a3d 980c 6a3d 6f0b a5bd c2e8 45bd
000001d0: 574c a7bd 6796 073d 0efe 163d 193d 84bd
000001e0: 0ac5 d23c 98d5 913d cea5 a13d 68a9 e73c
000001f0: 4282 ca3c 0105 4b3d 72d1 0ebd ab46 dc3d
00000200: 7715 43bd dc51 263c 6e19 8fbc e56e 2f3e
00000210: a89a 05be 76ea 04be f50f 75bd 7c32 49bb
00000220: 8e63 d8bd 43ee a13d 6794 04bc fdd7 573d
00000230: 10ed afbd ad8c 013d 9a9e bbbc 7f60 4b3d
00000240: 757e d83c 33b5 c6bc 2738 02be 2306 27bd
00000250: df87 373e a6e0 b83d cfeb f53c 1403 8fbb
00000260: 3190 fa3b 87b2 723c 9a6d 813c 4e52 993d
00000270: a6e0 c7bc 8cb3 74bc 8dc8 bc3c a19e 35bc
00000280: a06f 3a3e 854e e73d 9e16 a03c fa34 113c
00000290: 22bf 0ebd 8174 25bd 7ed1 d13c e2ad e73b
000002a0: e7c0 bf3d f1ac df3d 1213 3bbc 28cd e6bc
000002b0: 47c1 ea3d 6ec2 19bb 344d e43d 58d2 62bd
000002c0: dee2 77bd c89b 9d3a 4039 df3d db1e 79bd
000002d0: 1843 97bd 522c 3c3d 3718 2b3d 9e58 8f3d
000002e0: 30a9 67bc 3218 933c d5c5 e5bd d6db b73d
000002f0: 4a97 88bc a043 71bc 5210 2c3c 3594 d9bd
00000300: 06fe efba ec72 adbd 5063 973d 3f4a 803d
00000310: 0a12 b93d f41b c13c a78f 2e3d 7eb9 82bc
00000320: 6d57 96bd 9e2f e33d 7174 63bc 5945 4dbd
00000330: 9338 053d 13a1 173d 8b2b d83d f24b 0ebc
00000340: 9e21 92bc 2b4b 14bc 3eaa cdbd 0557 823b
00000350: 31c5 723d f25f f13d 1f06 c13d c62f 13bc
00000360: 91c9 7a3d 3124 f73d 7240 0abd cc8e 783d
00000370: 4b04 90bc c6ca 4ebd f6be 7ebd 88fb 533d
00000380: be39 c83d 4eb2 42bd beda 5abd f520 8f3d
00000390: 7c26 973d 98f9 a33d 77a5 073d bfee 8b3d
000003a0: 82d8 8d3d 7b63 333e 5c4d 443d 3c65 11bd
000003b0: 0e34 56bc 6b6c e43b d9f7 5abc f7b0 c73d
000003c0: c7e8 203d b72b 90bd 485d 14bd 3401 a7bc
000003d0: ca6b db3d e916 eb3d b1ec a53d f17b 363d
000003e0: 641c 463e 83c1 0abd bf4d 0fbd d159 e1bc
000003f0: 42b5 84bd e8cc 61bc ef7d dc3d 95a0 7ebd
-0.04350957 0.056835584 0.024320314 -0.01656955 -0.069088496 -0.058063745 0.050924074 0.07056542
0.098097704 -0.13627015 -0.0239337 -0.055169493 -0.002233383 0.11234166 0.030255836 0.058916345
-0.07599773 -0.07553534 0.049986023 0.065134116 0.084820345 0.036822706 0.036270212 0.04214554
0.09094224 -0.024490433 -0.004125587 0.092041984 -0.0931557 -0.026507799 0.062661685 0.00943742
0.1300074 -0.0935639 0.0729828 0.07262181 -0.12716734 0.0052351565 0.0745519 -0.13256581
0.0075479397 -0.08628588 -0.100940146 0.09231354 0.10997327 -0.051371012 0.036485344 0.029928926
-0.05544607 0.058475964 0.07428731 -0.016772969 -0.020545363 -0.06661549 -0.07324778 -0.029111996
0.087487616 0.041674465 0.018418344 -0.13115084 0.18285325 -0.020069852 0.06450561 0.17313498
-0.05426333 -0.027496647 0.084373266 0.05780508 0.1259831 0.006815792 0.036457952 -0.18423146
0.04770052 -0.0292365 -0.046780754 0.08902885 -0.12873505 0.054918677 0.050973963 -0.09289384
-0.057803616 0.016148549 0.0057454254 0.10099407 -0.07200588 0.0773558 0.15021093 -0.025101097
0.01226799 0.00012635227 0.03150559 0.04864018 -0.065517485 -0.06093823 0.037121583 0.007802667
0.014258589 0.0035460405 0.043921627 0.041849382 -0.09824318 -0.01979593 0.054314952 -0.050757796
-0.07725661 0.05845426 0.15485816 0.057211574 -0.0895433 0.10542862 0.05439261 0.00252719
0.045414772 0.057140917 -0.080588214 -0.04831768 -0.081688575 0.03310242 0.03686338 -0.06456966
0.025728721 0.07120818 0.07892953 0.028279021 0.024720315 0.04956532 -0.03486771 0.10755666
-0.047627892 0.010151353 -0.01746818 0.17132147 -0.13047278 -0.12980065 -0.05982967 -0.0030700257
-0.105658635 0.07906773 -0.0080920225 0.052696217 -0.08590138 0.0316283 -0.022902776 0.049652573
0.026427487 -0.024256324 -0.12716733 -0.040777337 0.17922924 0.09027223 0.030019669 -0.0043643806
0.0076465835 0.014813072 0.015799332 0.074864015 -0.024399113 -0.014935385 0.023044849 -0.011085183
0.18206644 0.11294273 0.019542035 0.008862728 -0.034850247 -0.04039431 0.025612589 0.007070289
0.09362965 0.10921658 -0.011418121 -0.028173998 0.11462646 -0.0023461836 0.11147538 -0.05537638
-0.06051909 0.0012024576 0.108995914 -0.06082044 -0.07385844 0.045940705 0.04177114 0.06999324
-0.014139459 0.017955873 -0.11219374 0.08977477 -0.016673703 -0.014725596 0.010501938 -0.106239714
-0.0018309958 -0.08469185 0.07391989 0.06264161 0.09036644 0.0235729 0.042617466 -0.01595759
-0.07340894 0.11093067 -0.013882742 -0.050114963 0.032524657 0.037018847 0.1055518 -0.008685099
-0.017838296 -0.009051125 -0.10042237 0.0039776587 0.059270088 0.11785878 0.09424996 -0.008983558
0.061227385 0.1206745 -0.033752866 0.060683057 -0.017580172 -0.05048635 -0.062193833 0.05175355
0.097766384 -0.047533326 -0.053431265 0.06988708 0.07380387 0.080065906 0.033116784 0.068326466
0.06926061 0.17518418 0.04792534 -0.035496935 -0.013073934 0.0069709322 -0.013364756 0.0975055
0.039284494 -0.07039588 -0.036221772 -0.020386316 0.107139185 0.11478979 0.08101786 0.044551793
0.19346768 -0.033875953 -0.034986254 -0.027508648 -0.06479885 -0.013781764 0.107662074 -0.06216486

layers.3.bias f4 [80]
00000000: 05cb ccbd 4a5b 8d3d 5a67 c6bd b983 69bd
00000010: 5feb bebd 964c 38be 065f ffbd 945f abbd
00000020: 7afb 0abb 7449 efbd e590 28bd 6756 e4bc
00000030: a006 03bd 992b d93b bc35 41bc cff1 9a3d
00000040: 3894 cdbb 826b 1b3d 6b9d 4fbd d17c 8bbc
00000050: b847 1abe 7c0a b6bd 9639 bc3c 583f 9ebb
00000060: 9e4f f9bc f463 01be da34 77bd 91ef a33c
00000070: 89d2 423d 4dba f7bc 0075 27be ed8d 33bd
00000080: 9558 9d3c c846 4a3d 2444 07be 0934 30be
00000090: c32d 47bc ada3 673d f042 403c 760a a0bd
000000a0: 2f27 89bd f836 86bc 3b4c 97bd 01f8 f03c
000000b0: f9eb 06bc 869e c6bd 4901 6dbd 5d44 09be
000000c0: 9476 91bd e19f 6f3d 2be9 d3bd d910 113b
000000d0: 7eb8 17be 6b94 b33c f016 13bd 9efb 22bb
000000e0: c3bc 53bd cabb 11be 62da fdbc 9ce6 a23d
000000f0: 6d40 903d dba5 04be 2557 2c3d 2429 b83c
00000100: 6771 64bd 631e 413c 402f 15bd cdbd 8cbd
00000110: 6b72 40bb c518 fdbd 91fe ce3c d000 ecbd
00000120: 1cc5 a4bb a084 3ebd 2d20 2cbe 0525 a1bd
00000130: 5b14 26be 2e5a fcbc 0811 e1bd 1495 28be
-0.099996604 0.06902178 -0.096876815 -0.057010386 -0.09322237 -0.17997965 -0.12469296 -0.083678395
-0.002120702 -0.11683932 -0.041153807 -0.027873231 -0.03198874 0.0066275117 -0.011792596 0.075656526
-0.0062737726 0.037944324 -0.050687235 -0.01702729 -0.15066421 -0.088887185 0.022976678 -0.0048293285
-0.030433472 -0.12635785 -0.060353138 0.020011695 0.047564063 -0.030240202 -0.16353226 -0.043836523
0.019207278 0.04938391 -0.13209587 -0.1720735 -0.012156907 0.056552578 0.011734709 -0.07814495
-0.06696927 -0.016383633 -0.07387587 0.029415132 -0.008234971 -0.09698205 -0.057862554 -0.13404985
-0.07102695 0.05850208 -0.10347208 0.0022135286 -0.14816472 0.021921357 -0.035910547 -0.0024869214
-0.05169369 -0.14231792 -0.030987922 0.079541415 0.07043538 -0.12953894 0.042075295 0.022480555
-0.05577221 0.01178703 -0.036422014 -0.06872139 -0.0029365073 -0.1235824 0.025267871 -0.115235925
-0.00502838 -0.0465132 -0.16809149 -0.07868389 -0.16218702 -0.03080472 -0.109895766 -0.16463119

layers.6.weight f4 [64, 80]
00000000: e42b 043e a0f5 0ebe 799d bcbc c3da 29bd
00000010: fb50 d73d d3b8 75bd c5e1 983c 5638 1b3d
00000020: beed fdbc cc9d a83b 2264 253e 1e74 3ebd
00000030: 5727 863d e965 88bd 6110 313e 0d87 50be
00000040: 126e 693d 94cb 1bbe bf90 403d 2447 433e
00000050: 4e21 753c 4076 95bd df57 b0bd 161f 8cbd
00000060: 766c 943c 3bda 7fbd bb54 893c 8b29 6fbd
00000070: e8df 893b ddba 15be 4a17 3e3e 3d06 373e
00000080: c048 38be ac9c 34be e9ed 663c bfbd d2bc
00000090: e048 6f3d 4c1e 2dbe fc96 ce3d 2d3d 8f3c
000000a0: 92de 653d 2deb 8abd 4cb7 1e3e 468c 1abd
000000b0: 2e8f 1ebe 8e58 ccbd ded6 ddbd d4fd f13d
000000c0: 2706 e03d 460f 25be 2ad9 223d 171d e8bd
000000d0: b33c 933d 0833 5fbd 2023 56bd 5f4e 2cbe
000000e0: e42d 9d3d fb0d d23d 49b8 bbbd 382d b2bd
000000f0: dd21 10be 4aff fe3d 5542 3ebd 456b fc3d
00000100: 252d 963d 3039 28be b683 acbc a140 1a3e
00000110: 04eb f4bc 6b1d 193e 1827 093d f5ee e33d
00000120: bc62 31be be64 eebc b269 1b3e ee92 d93d
00000130: 8509 203e 7046 d03d b9b1 583d 3b13 08bd
00000140: d05a 293e 7f58 75be 55a1 92bd 80cb f4bd
00000150: 6820 323e 1a16 17bd 3c55 d8bc bfb3 413e
00000160: 0670 8ebd 3035 b13d 7f49 2a3d f506 903c
00000170: b5b4 16bd 2098 e7bd 3f4b 6a3c 1ce6 50be
00000180: 8610 5f3d 69dd 14be 915a f73d 208d f83b
00000190: ad97 03bd bff6 a03d 4f6c c8bd 1730 abbd
000001a0: 1bc4 cd3d 378c 7fbd 630d 123e 1e1a f0bd
000001b0: 756b ef3d 05d0 67be 772a 773d 7d40 e13c
000001c0: 6570 9bbd 69b4 c5bd 66f5 0d3c 9cc1 0b3e
000001d0: d26f 23bc 1a8b 0ebe f1fd 513d 0bde 633d
000001e0: ce34 54bc 303c 39bd cd23 5f3e c508 3ebe
000001f0: ada9 45be aa26 2abe bbed 2dbe 1546 d83d
00000200: ca41 123e 958a c9bd fec4 f6bc 1e28 27be
00000210: b837 85bd 22b2 1cbe e956 03bd a727 3fbe
00000220: bfe1 e43d 4db1 f53c 86b1 c1bd e204 10be
00000230: 5795 29be f5d1 d43c e3e7 d4bc 177e 313e
00000240: 13d5 fdbc 7d8b 35be 1135 273d 6980 983d
00000250: 8d2a 2cbe 72be ff3d ff6b 013c 6e7f e13d
00000260: abd3 efbd bb00 c53c 94f0 373e cdf2 7ebc
00000270: 477f 0b3e c2ed 0a3d 199d cd3d a668 c9bc
00000280: 089f bfbc 86ce 583c 9a93 cfbd 23f8 9dbd
00000290: 66f7 193d 82b4 ba3a 8524 0dbc a75d 98bc
000002a0: 5dd1 4ebd 4e21 ddbc 1cf0 9a3d f0db 6b3d
000002b0: 8c59 a73d a56f 873d 9fab a0bd 5628 d0bc
000002c0: a4be bf3c 6af3 4fbd 862d 4a3d 20d8 99bd
000002d0: c6d5 d53d d1c3 d7bd fb49 99bd 2195 8f3c
000002e0: a6a2 4b3d cd3c 993d 3dec 563d 98af f23d
000002f0: acd1 b83d 75c6 ebbc 924f 4cbd cc5b 8dbd
00000300: 3a31 cebd 5ed8 8fbd b352 283d d06c 953c
00000310: f67e c13c 72e5 7ebc d327 bd3d 811c bcbd
00000320: 78c1 edbc f8bc 8bbd 5351 c93b d02c abbd
00000330: 23c5 71bd f545 203d b141 c1bd 63aa e03c
00000340: bc72 923d c742 3b3d 1cdd 263d f510 06be
00000350: b309 09bd 32c9 bbbc 6cb3 abbd 484a f9bd
00000360: 3bb9 5b3d 5a1f 363e 2169 c03c 7813 693d
00000370: c3a5 0cbe 80fd 763d b3b0 1e3b b12e a7bd
00000380: 8cab cabc 4c0b c0bc 675b 3f3d 95b7 243d
00000390: 2f8a e9bb 2988 533c 58dd 763d b7d8 203d
000003a0: 0a5a cfbd c143 f83c eaba 163d 0e71 95bc
000003b0: b1d0 b53c 53da b6bc 46ee ea3d b778 ae3d
000003c0: 9e39 b13d 9ceb 25be 9d7d 7a3d 28b2 afbd
000003d0: c0b9 2ebc 3034 d2bd 1a83 ac39 6725 0a3e
000003e0: caff 79bb 5eb7 c53d e9b6 aa3c 025f 963d
000003f0: 4bd0 96bc 9432 e2bd 8300 313e a56b 23be
0.12907368 -0.13960886 -0.023024308 -0.041468393 0.10513493 -0.059990715 0.018662343 0.037895523
-0.030997153 0.005145764 0.16151479 -0.046497457 0.06550472 -0.06660063 0.17291404 -0.20364018
0.056989737 -0.15214378 0.04701304 0.19070107 0.014961554 -0.07297945 -0.0861051 -0.06841867
0.018118124 -0.06246398 0.016764035 -0.058389228 0.0042076 -0.14622064 0.18563572 0.17873473
-0.17996502 -0.1763789 0.014094808 -0.025725244 0.05841911 -0.16906089 0.10087392 0.017485226
0.056120463 -0.067831375 0.1549961 -0.03773143 -0.15484306 -0.09977828 -0.10831998 0.11815992
0.109386735 -0.16119108 0.039757885 -0.113336734 0.07189312 -0.054492027 -0.05227959 -0.16826771
0.076747686 0.10256573 -0.09166009 -0.08700031 -0.14075418 0.12451036 -0.046449978 0.123251475
0.073328294 -0.16428065 -0.021058898 0.15063716 -0.02989722 0.14952628 0.03348455 0.11129562
-0.1732282 -0.029100772 0.15177038 0.10623728 0.15628631 0.10169685 0.052903865 -0.033221465
0.16538548 -0.2395954 -0.07159678 -0.11952877 0.17395175 -0.036886312 -0.02640783 0.18916224
-0.069549605 0.08652723 0.041573998 0.017581442 -0.03679343 -0.113083124 0.014300167 -0.2040028
0.054459117 -0.14537586 0.12077821 0.007585183 -0.03212707 0.07859563 -0.09786283 -0.08358782
0.1004717 -0.06238958 0.14262919 -0.117237315 0.11690418 -0.22637947 0.060343232 0.02749657
-0.07589797 -0.09653551 0.008664465 0.13648075 -0.0099753905 -0.1392025 0.051267568 0.05563168
-0.012952043 -0.045223415 0.21791 -0.18558033 -0.19303007 -0.16616312 -0.16985218 0.10560242
0.14282909 -0.098408855 -0.03012323 -0.16323897 -0.06504768 -0.15302327 -0.032065306 -0.1866747
0.1117587 0.02999177 -0.09457688 -0.14064363 -0.16560875 0.025979022 -0.025989478 0.17333256
-0.03098539 -0.17728992 0.040822092 0.07446367 -0.16813107 0.124874964 0.007899283 0.110106334
-0.11710294 0.0240482 0.17962867 -0.015560818 0.13622771 0.03391815 0.100397296 -0.024586033
-0.023391262 0.013232833 -0.10135575 -0.07713344 0.037589453 0.0014244469 -0.008614664 -0.018599344
-0.050492633 -0.02699342 0.075653285 0.057582796 0.081713766 0.066130914 -0.07845234 -0.025409859
0.023406334 -0.050769247 0.04935982 -0.07511926 0.10441165 -0.10535396 -0.07484814 0.017527165
0.04971566 0.074823 0.052471388 0.11849898 0.09024367 -0.028781155 -0.04988057 -0.069022745
-0.10067983 -0.07023691 0.041094493 0.018240362 0.02362011 -0.015557634 0.092361115 -0.09185124
-0.029022917 -0.06823152 0.006143728 -0.08358157 -0.059025895 0.039129216 -0.09436358 0.027424997
0.0715079 0.04571798 0.04073821 -0.13092406 -0.033456516 -0.022923086 -0.083838314 -0.12172371
0.053643446 0.17785397 0.02348763 0.056903332 -0.13735108 0.06030035 0.0024214208 -0.081632026
-0.024740003 -0.023442887 0.046718027 0.04021414 -0.0071270685 0.012910881 0.060269684 0.039269175
-0.101245955 0.030305745 0.03679935 -0.018242385 0.022194238 -0.022320902 0.11471228 0.08519118
0.08653568 -0.16203159 0.06115495 -0.085789025 -0.010664403 -0.1026386 0.00032904075 0.1349083
-0.0038146847 0.09654115 0.020839171 0.0734234 -0.018409869 -0.11044803 0.17285351 -0.15959032

layers.6.bias f4 [64]
00000000: 2b88 ed3d e994 413e a37d 32be 3df6 e13d
00000010: a5f7 1fbe b929 82be 9454 cc3d b6a2 863d
00000020: a652 be3d d3d0 f53d 235b d13d 03f5 9fbd
00000030: ad3b 4d3e 346c 403d 0eaa 173e 4780 d53d
00000040: 4271 093d 2bc3 76bd 3673 413e 026c 32bd
00000050: 79bf f93d 1acf e03d a414 3bbe c50d a33d
00000060: 064e fe3d 3355 89bd f0ef c83c 9a1c 60be
00000070: 5c49 f73d 93b6 303e 30db 0dbe e5d6 88be
00000080: afa7 4d3e 4067 5a3e 9250 a93d 9aa2 d7bc
00000090: 8018 2e3d ab20 463e a62c b33d bd21 e23d
000000a0: 3e44 b63d a908 373e 43b7 1f3e 3a72 2bbd
000000b0: 8390 e53d 3b01 593e 2ae1 a23d bb3f 67be
000000c0: d824 9b3d a54e 39be ff64 283e 34ea 30be
000000d0: a27a ef3d aa3d dbbd ff76 28bd 1239 043e
000000e0: c001 59bd c762 ef3d e49a 323e 4eaf 72bc
000000f0: 538d 053e a106 0a3e ca5a 3fba 61ab 85be
0.115982376 0.18904461 -0.17430739 0.11033294 -0.15621813 -0.25422457 0.099770695 0.065740034
0.09293108 0.12002721 0.10222461 -0.07810404 0.20042296 0.04697819 0.14810964 0.104248576
0.033555277 -0.06024472 0.18891606 -0.043560036 0.12194724 0.109770015 -0.18269593 0.07961611
0.124172255 -0.067057036 0.024528474 -0.2188591 0.12074539 0.17257147 -0.13853145 -0.26726452
0.20083497 0.21328449 0.08267321 -0.026322652 0.042503834 0.193484 0.087487504 0.11041591
0.08899735 0.17874397 0.15597253 -0.04185698 0.11209204 0.21191876 0.07953103 -0.22582905
0.07575387 -0.18096407 0.16444777 -0.17276841 0.11693312 -0.10705121 -0.04112911 0.12912396
-0.052980185 0.11688762 0.17441899 -0.014812304 0.13042192 0.13479091 -0.00072996004 -0.26107314

layers.8.weight f4 [1, 64]
00000000: 0237 b6bd 28d1 05be df60 3ebc c50e f9bd
00000010: c987 70bd 9d4e 0db9 4f2e 073e 6e14 cb3d
00000020: 17a3 303e 4dc0 ff3d e534 78bd ddbb afbb
00000030: f7bf 243e 6485 a4bd 2d54 343e 4fb8 003e
00000040: 40de 103e 3d76 a83d d309 03be 8085 4e3d
00000050: 737c 19be 5abe ba3d a7a1 5fbc 6348 5e3d
00000060: fa72 e03d ef29 9f3d a631 1e3e a87e a5bc
00000070: 961d 1fbe 9179 c2bd 4a06 853d 97c7 98bc
00000080: 7c98 1abe c7b7 1fbe 9126 2e3e 017a 7a3d
00000090: 7f9c d1bd 6539 6c3e 9acc 3f3e 31a0 03be
000000a0: 6551 b6bd 1228 2e3e 8fbb 5b3e cde6 edbb
000000b0: 9634 183e 2709 613e f8c7 4dbd 7f64 68bc
000000c0: 6fb6 0d3e bb2e 0cbb a279 e33d 5ec1 bdbb
000000d0: 4e9f 073e 194c 50bc 2a9e 25bd bc10 8cbd
000000e0: 4eb0 95bb 275c 1d3e e745 19be dbfe 7ebd
000000f0: 457b 05be 5f0b b5bd d4d9 103e 6968 a1bc
-0.08897211 -0.13068068 -0.011619776 -0.1216102 -0.058723245 -0.00013476094 0.13201259 0.09916006
0.17249714 0.1248785 -0.06059732 -0.005362971 0.16088854 -0.08033255 0.17610236 0.12570308
0.14147282 0.08225677 -0.12796716 0.050420284 -0.1498888 0.09118338 -0.013649381 0.054268252
0.1095943 0.0777167 0.15448627 -0.020201996 -0.1553863 -0.09495843 0.0649534 -0.01864986
-0.1509723 -0.15597449 0.170069 0.06115151 -0.102349274 0.2306877 0.18730393 -0.12854077
-0.089022435 0.17007473 0.21458267 -0.0072601796 0.1486381 0.21976148 -0.050239533 -0.014184116
0.13839124 -0.0021390158 0.11107184 -0.0057908734 0.13244364 -0.012713456 -0.04043404 -0.06839129
-0.0045681363 0.15367185 -0.14968072 -0.062254768 -0.13035305 -0.088400595 0.14145595 -0.019703107
