flwr-mlp/models/checkpoints/round_016.pt (torch, 127593 bytes, 7 tensors)

layers.0.weight f4 [256, 19]
0	0xbd70d97e	-0.058801167
1	0xbe1a2da3	-0.15056472
2	0xbb2f3134	-0.0026732208
3	0xbe82ee97	-0.25572655
4	0xbbe041cb	-0.0068437806
5	0xbe0e35fd	-0.13887782
6	0xbda936c5	-0.082623996
7	0xbe484db9	-0.19560899
8	0x3e344bce	0.17607042
9	0xbdfb6f79	-0.12277121
10	0x3d33b189	0.043870483
11	0x3e1d747f	0.15376471
12	0xbcd94d86	-0.026526224
13	0xbe0d1dfe	-0.13780972
14	0x3e4a7387	0.19770633
15	0xbd4f1883	-0.050560486
16	0xbe0f2312	-0.13978222
17	0x3d32d0e3	0.04365624
18	0xbe50bc0b	-0.20384233
19	0xbe315510	-0.17317605
20	0xbcf6df5e	-0.030135807
21	0x3dfe1ccc	0.12407836
22	0x3b94e94c	0.0045444127
23	0xbdb466dc	-0.08808681
24	0xbca5e019	-0.02024846
25	0x3e4766e4	0.19472843
26	0xbe572e66	-0.21013793
27	0x3da3e81c	0.08003256
28	0xbd1ead7c	-0.038739666
29	0x3e25e823	0.16201834
30	0x3e18857d	0.14894672
31	0xbde58bf6	-0.11208336
32	0xbd6dfe9d	-0.058104146
33	0x3d88516b	0.06656154
34	0xbd9d7fec	-0.07690415
35	0x3de87a16	0.11351411
36	0x3e442a57	0.19156776
37	0xbce7c109	-0.028290289
38	0x3d9e03f8	0.07715601
39	0x3ddff42b	0.10935243
40	0x3bf714e6	0.007540333
41	0xbe08b22b	-0.13349216
42	0x3d98a2de	0.074529395
43	0xbd80e2aa	-0.06293233
44	0x3de4ba2f	0.11168324
45	0xbe6a3f43	-0.22875695
46	0x3be67aa5	0.0070336633
47	0x3e75bf07	0.23998652
48	0x3dffaadb	0.1248376
49	0xbda4cc3a	-0.080467656
50	0x3d9e2d6d	0.07723508
51	0x3e1b4525	0.15163095
52	0x3ddbd3c8	0.107337534
53	0xbc1ac3fe	-0.009446142
54	0x3d42350e	0.04741388
55	0x3e090805	0.13381965
56	0xbdbb0dd1	-0.09133495
57	0x3e8bfcf7	0.27341434
58	0xbd4b8b3e	-0.04969334
59	0x3d65154a	0.055928506
60	0x3dbf2e30	0.093349814
61	0xbd96ea1d	-0.07368872
62	0xbe590d8f	-0.21196578
63	0xbe54b967	-0.2077385
64	0x3e638ba1	0.22221233
65	0xbd2b3994	-0.041802958
66	0xbc1d8913	-0.009615201
67	0x3e48c508	0.19606411
68	0xbdecc38b	-0.11560734
69	0xbd9b88e2	-0.07594468
70	0x3d6ead0f	0.05827051
71	0xbe06d2fd	-0.13166423
72	0xbda94ae3	-0.08266237
73	0xbd8a76b5	-0.06760923
74	0x3d4a900f	0.04945379
75	0x3e0c2f55	0.1368993
76	0xbdbd48e8	-0.092424214
77	0xbdb938df	-0.090440504
78	0x3e2e98a2	0.17050412
79	0x3b0b6009	0.0021266958
80	0x3e4bc035	0.1989754
81	0x3e2d0f98	0.1690048
82	0x3e4579e6	0.19284782
83	0x3e03da72	0.12876299
84	0x3e3afac9	0.1825973
85	0xbc9453b3	-0.018106317
86	0xbe131261	-0.1436248
87	0xbdd47fdc	-0.1037595
88	0xbe507dcc	-0.20360488
89	0xbd247ed5	-0.04016002
90	0xbdcfd268	-0.10147554
91	0x3dc61768	0.09672433
92	0xbd418212	-0.047243185
93	0xbd3d0f13	-0.046156954
94	0xbe2824ee	-0.16420338
95	0x3d8ac832	0.067764655
96	0x3e1361a7	0.1439272
97	0xbdee4d91	-0.11635888
98	0x3e481e88	0.19542897
99	0x3de32400	0.11090851
100	0xbe5da7c5	-0.2164603
101	0x3e19d4ae	0.15022537
102	0x3e658fb1	0.22418095
103	0xbdd19f02	-0.102354065
104	0xbe5a64df	-0.21327542
105	0x3db8a4d9	0.09015817
106	0xbe91268d	-0.28349724
107	0x3cb09a7f	0.021558044
108	0x3e31cba9	0.17362846
109	0x3e1c545c	0.15266556
110	0xba5561ae	-0.00081398606
111	0x3ddd8650	0.10816634
112	0xbcc6808b	-0.024231216
113	0xbe7fce50	-0.24981046
114	0x3de0aa47	0.10969978
115	0x3e30c1a3	0.17261367
116	0x3dbd2934	0.092363745
117	0xbc068614	-0.008210678
118	0xbdb16d78	-0.08663458
119	0xbdbd6f70	-0.09249771
120	0xbe1a1edc	-0.15050834
121	0xbe339fa2	-0.17541364
122	0xbe428009	-0.18994154
123	0x3e849a6c	0.25899065
124	0xbe627fe9	-0.22119106
125	0xbdc64ea1	-0.09682966
126	0x3d270732	0.040778346
127	0xbdff9b87	-0.12480836
128	0x3e11753a	0.14204875
129	0xbdd5ac79	-0.10433287
130	0x3cd711c8	0.026253596
131	0xbd3bf946	-0.045892023
132	0x3cb3384f	0.021877436
133	0x3e24aaa2	0.16080716
134	0xbe3baf9f	-0.18328713
135	0xbd1f1c6e	-0.038845472
136	0xbe055b62	-0.13023141
137	0x3d110f52	0.035415
138	0xbc4753a6	-0.012165939
139	0xbe2945c6	-0.16530523
140	0xbdd7475f	-0.1051166
141	0xbd4214dc	-0.047383174
142	0xbd2c79cd	-0.042108346
143	0x3cb2fdd5	0.021849552
144	0x3d604d1c	0.054761037
145	0x3e442846	0.19155988
146	0x3e0fe0f3	0.14050655
147	0xbcec0d29	-0.028814869
148	0xbd9ee074	-0.07757655
149	0xbe75e49c	-0.24012989
150	0x3b2b6ea0	0.0026158467
151	0xbd220095	-0.039551336
152	0xbd26bf7f	-0.04070997
153	0x3dc1e4ff	0.09467506
154	0x3db9ad1a	0.0906622
155	0xbd56f64f	-0.052480992
156	0x3de370fa	0.11105533
157	0x3e74febd	0.239253
158	0x3df12077	0.1177377
159	0x3e0f74c7	0.14009391
160	0x3e71c3b0	0.23609805
161	0x3d913efa	0.0709209
162	0xbdaf4da1	-0.085597284
163	0x3e8f488a	0.2798503
164	0xbe85dfc8	-0.26147294
165	0x3e224d54	0.15849811
166	0x3d2ed173	0.042680215
167	0x3da8df32	0.08245696
168	0x3cd8e691	0.02647713
169	0xbe3e6a85	-0.18595321
170	0xbe38b3fb	-0.18037407
171	0x3e66d1b5	0.22540934
172	0xbccad9db	-0.024762085
173	0xbd492dc0	-0.049115896
174	0xbd6ccb98	-0.05781135
175	0x3e563d2a	0.2092177
176	0xbdddd4e5	-0.10831622
177	0xbc9ddd7a	-0.019270647
178	0x3e3d97e7	0.18514977
179	0x3e3e1800	0.18563843
180	0xbd86f77c	-0.06590173
181	0xbccef3ea	-0.025262792
182	0xbca204ce	-0.019777682
183	0x3e180669	0.14846195
184	0x3d150dd9	0.03639016
185	0x3dff5ccc	0.124688715
186	0xbcc8e3c0	-0.024522662
187	0x3de07c0e	0.109611616
188	0x3dd49cb9	0.10381455
189	0x3b4350ce	0.0029802802
190	0xbda537a0	-0.0806725
191	0x3ca8e70c	0.020617984
192	0x3de1b098	0.11020011
193	0x3d8413fd	0.06449125
194	0xbd6555a7	-0.055989888
195	0x3dc920ac	0.09820685
196	0xbdde0754	-0.108412415
197	0x3e0eb9cf	0.13938068
198	0x3e199fcb	0.15002362
199	0xbea6f510	-0.32608843
200	0xbe6d5ee5	-0.2318073
201	0xbd0378da	-0.032097675
202	0xbdcc0bc5	-0.09963182
203	0xbe16f466	-0.14741668
204	0xbdc97c52	-0.09838165
205	0x3e10c08c	0.14135951
206	0x3e25cf42	0.16192344
207	0x3dee2c03	0.11629488
208	0x3c2f60b1	0.010704205
209	0x3e5f6e06	0.21819314
210	0xbdd5e03f	-0.10443162
211	0xbc6988f0	-0.01425384
212	0x3e3e60f7	0.18591677
213	0xbe5be56e	-0.21474239
214	0x3d9ce783	0.07661345
215	0xbe851c94	-0.25998366
216	0x3dc233dd	0.094825484
217	0x3e5a6147	0.21326171
218	0x3e186b82	0.14884761
219	0x3e2be11d	0.16785093
220	0xbe4fa05f	-0.2027602
221	0x3ce4af1d	0.027915532
222	0xbe432f59	-0.1906103
223	0xbc8ccae1	-0.017186584
224	0xbad23b38	-0.0016039377
225	0xbd8771ce	-0.066135034
226	0x3e2dbd55	0.16966756
227	0x3cc36c1c	0.023855262
228	0xbdc95ef3	-0.09832563
229	0x3e61e8b7	0.2206143
230	0xbd4ab821	-0.049492005
231	0xbc9d5413	-0.019205129
232	0x3dc9104c	0.098175615
233	0xbc80f7b0	-0.015743107
234	0xbe2d56a1	-0.16927578
235	0xbd8d5274	-0.06900492
236	0xbe84f880	-0.2597084
237	0x3e9cf51a	0.30655748
238	0xbe648c5f	-0.22319172
239	0xbc263914	-0.010145444
240	0x3e0cc7b9	0.13748063
241	0x3cecf2b9	0.028924333
242	0x3be2870c	0.0069130715
243	0x3dd6c1a3	0.10486152
244	0xbe5a2e41	-0.21306707
245	0x3ceb0439	0.028688537
246	0x3d2c29b4	0.04203196
247	0xbdcf1655	-0.10111681
248	0xbdb84133	-0.08996811
249	0x3c55bd02	0.013045551
250	0xbcc79694	-0.024363793
251	0x3de7c8f8	0.113176286
252	0xbe4df2e4	-0.20112187
253	0x3d710f57	0.05885252
254	0x3dd97483	0.10617926
255	0xbe1ffa6c	-0.15622872

layers.0.bias f4 [256]
0	0x3cc2d5e1	0.023783626
1	0xbd68e15e	-0.056855552
2	0xbe80ca73	-0.25154456
3	0xbe7e04d8	-0.24806535
4	0xbe567495	-0.2094291
5	0xbdfbfe3e	-0.12304352
6	0xbd363160	-0.04448068
7	0xbe267423	-0.1625524
8	0xbe5ed224	-0.2175985
9	0xbd600109	-0.054688487
10	0x3d8f2811	0.06990064
11	0xbda7e46c	-0.08197865
12	0x3d7766d5	0.060400803
13	0xbea76b2b	-0.3269895
14	0xbe42b6c2	-0.19015029
15	0xbe238322	-0.15967992
16	0x3d223ea7	0.03961053
17	0xbbe74595	-0.0070578554
18	0xbe19a094	-0.15002662
19	0xbe4371e6	-0.19086418
20	0xbdb7d19e	-0.08975528
21	0xbe197c9f	-0.14988945
22	0x3d865aa9	0.06560261
23	0xbe26276f	-0.1622598
24	0xbdcb3c3e	-0.099236
25	0xbe02f0ae	-0.12787125
26	0xbd023eff	-0.03179836
27	0xbe462f98	-0.19354093
28	0xbcab6c47	-0.020925654
29	0xbd656bc9	-0.056010995
30	0xbd7a989e	-0.061180703
31	0x3ce0d286	0.027444135
32	0xbe3c0b29	-0.18363632
33	0x3be729f1	0.0070545604
34	0xbe217211	-0.15766169
35	0xbda5da69	-0.08098299
36	0xbcfc8278	-0.030823931
37	0xbda02554	-0.0781962
38	0xbe42e9c4	-0.19034487
39	0x3d9fe58e	0.07807456
40	0xbe865205	-0.2623445
41	0xbe6a51b3	-0.22882728
42	0xbe60aea9	-0.21941628
43	0xbe665ab9	-0.22495545
44	0xbe61850a	-0.22023407
45	0xbe32f226	-0.17475185
46	0xbdbeedf9	-0.093227334
47	0x3cdec025	0.027191231
48	0xbe15a683	-0.146143
49	0xbe84141c	-0.25796592
50	0xbe4b43df	-0.1985011
51	0xbdd6ad44	-0.104822665
52	0xbe082576	-0.1329554
53	0xbd5d322c	-0.054002926
54	0xbe07389a	-0.13205186
55	0xb9048734	-0.00012638868
56	0xbe998852	-0.29986817
57	0xbc3bc3f6	-0.011460295
58	0xbe353a23	-0.17697959
59	0xbe28a0a9	-0.16467537
60	0xbeae5d56	-0.34055585
61	0xbe5d46a9	-0.21608986
62	0xbe066400	-0.13124084
63	0xbe99d4c5	-0.30045143
64	0xbd808a64	-0.06276396
65	0xbd0636b0	-0.032766998
66	0xbe696b16	-0.22794756
67	0xbec10aef	-0.37703654
68	0xbe983421	-0.2972727
69	0xbe426318	-0.18983114
70	0xbe9375fd	-0.28800955
71	0x3da9720f	0.08273708
72	0xbdc8019b	-0.09765931
73	0xbe860dfc	-0.26182544
74	0xbe50469a	-0.20339432
75	0xbdcf250a	-0.101144865
76	0xbe912f6f	-0.283565
77	0xbe72ac48	-0.23698533
78	0xbda310d3	-0.07962193
79	0xbc729328	-0.014805593
80	0x3b1e9104	0.0024195323
81	0xbe1e681c	-0.15469402
82	0x3c09bf3b	0.008407409
83	0xbe2f83a9	-0.17140068
84	0xbe8c9ae4	-0.27461922
85	0xbe6eeb2c	-0.23331898
86	0xbdb209ca	-0.08693273
87	0x3deb1ca8	0.11480075
88	0xbe19bada	-0.15012684
89	0x3b65110b	0.0034952785
90	0xbe8aef36	-0.27135628
91	0xbcdb2ada	-0.026753832
92	0xbe666ae3	-0.22501712
93	0xbd561b0d	-0.05227189
94	0xbe8abea1	-0.27098563
95	0xbe497eec	-0.19677323
96	0xbe94ee8d	-0.2908825
97	0xbe418188	-0.18897069
98	0xbeb497a6	-0.3527195
99	0xbe90d0c9	-0.2828429
100	0xbe1018f0	-0.14072013
101	0xbe291bcf	-0.16514514
102	0xbd834b6d	-0.06410871
103	0xbe7bd905	-0.24594505
104	0xbe78090c	-0.24222201
105	0xbe86fdbe	-0.26365465
106	0xbe5f0a13	-0.21781187
107	0xbe5a653a	-0.21327677
108	0x3ad485b2	0.0016214161
109	0xbe89296a	-0.2678941
110	0xbea49f1c	-0.3215264
111	0x3c088a56	0.008333763
112	0xbe121c57	-0.14268623
113	0xbe02798a	-0.12741676
114	0xbe7d361b	-0.24727671
115	0xbd59829c	-0.053103074
116	0x3d25800c	0.04040532
117	0xbdc6be63	-0.09704282
118	0xbd478581	-0.048711304
119	0xbe3b5eeb	-0.18297927
120	0xbe6b14d9	-0.22957171
121	0xbe27d692	-0.16390446
122	0xbe71fca7	-0.23631535
123	0xbe2a52b8	-0.16633117
124	0xbcd7d23e	-0.026345368
125	0xbe9e600c	-0.30932653
126	0x3dbfe5f0	0.09370029
127	0xbe0b88ac	-0.13626355
128	0x393d32aa	0.00018043318
129	0xbdd3f85f	-0.103501074
130	0xbcba12e0	-0.022714078
131	0xbe88d166	-0.26722258
132	0x3d084144	0.033265367
133	0xbe165964	-0.14682537
134	0xbc093668	-0.008374788
135	0xbe4ba5e7	-0.19887505
136	0x3d71de21	0.05904973
137	0xbdecf0f2	-0.11569394
138	0x3ccd249e	0.025041874
139	0xbe427990	-0.18991685
140	0xbe11e5ff	-0.14247893
141	0xbe587bf2	-0.21141031
142	0xbe180073	-0.14843921
143	0xbca35b2f	-0.01994094
144	0xbdbde836	-0.09272806
145	0xbe0c8471	-0.13722397
146	0xbcd08eee	-0.02545878
147	0x3db44f57	0.088041954
148	0xbe90a1f2	-0.28248554
149	0xbdef13ac	-0.11673674
150	0xbe985f39	-0.2976015
151	0xbdc9eedc	-0.09860012
152	0xbd5d209a	-0.05398617
153	0x3bc9362f	0.0061404924
154	0xbdedb088	-0.11605936
155	0xbe47034e	-0.19434854
156	0xbe093b41	-0.1340151
157	0xbe0a7a8e	-0.13523313
158	0xbde246c8	-0.11048657
159	0xbe171c37	-0.14756857
160	0xbe939694	-0.2882582
161	0xbdc5f76e	-0.09666334
162	0xbd0136d2	-0.03154642
163	0xbc8eaaa9	-0.017415361
164	0xbdfde188	-0.12396532
165	0xbd00c2f6	-0.03143593
166	0xbe7b59e3	-0.24546008
167	0xbe6c7a3a	-0.230935
168	0xbdb79aa4	-0.08965042
169	0xbe7f4146	-0.24927244
170	0x3c1d613c	0.009605702
171	0x3cdc1809	0.02686693
172	0xbe503f62	-0.20336679
173	0xbdd51260	-0.104038954
174	0xbe760eb2	-0.24029043
175	0xbe76f86c	-0.24118203
176	0xbe98a1db	-0.29810986
177	0xbd9bc2ee	-0.07605539
178	0xbd24c28f	-0.040224608
179	0xbdbf65be	-0.09345578
180	0x3d7e645a	0.06210742
181	0x3d96835a	0.07349272
182	0xbea113e3	-0.31460485
183	0xbe33ebac	-0.1757037
184	0x3ce62e78	0.02809833
185	0x3c4c95be	0.012486873
186	0xbc73bd6c	-0.014876705
187	0xbdf16034	-0.117859274
188	0xbe0e11a7	-0.13873921
189	0xbe78af7e	-0.24285695
190	0xbd799a82	-0.060938366
191	0xbdcf77ad	-0.10130248
192	0x3b95d3b1	0.0045723547
193	0x3d8dec66	0.06929855
194	0xbe5ecedc	-0.21758598
195	0xbdddcdaa	-0.10830243
196	0xbdab950c	-0.08378038
197	0xbe861374	-0.26186717
198	0xbdeb9698	-0.11503333
199	0xbda2584d	-0.07926998
200	0x3d098210	0.033571303
201	0x3d30f006	0.043197654
202	0xbe62bab2	-0.22141531
203	0xbd66ea8c	-0.056376025
204	0xbdd94a8c	-0.10609922
205	0xbea0c5c2	-0.31400877
206	0xbea163ac	-0.31521356
207	0xbd0bc968	-0.034127623
208	0xbb2aa1f7	-0.002603648
209	0x3c98d49a	0.018656064
210	0xbe1ee15c	-0.15515655
211	0xbe31c1a3	-0.17359023
212	0xbe999823	-0.29998884
213	0xbe881c92	-0.26584297
214	0xbd59e091	-0.05319268
215	0xbd305e44	-0.04305865
216	0xbe503223	-0.20331626
217	0xbe883a13	-0.26606807
218	0x3d8c7a1c	0.06859228
219	0xbe6ac1a8	-0.22925436
220	0xbe9910d4	-0.2989565
221	0xbd1dc88e	-0.038521342
222	0xbddbac0a	-0.10726173
223	0xbde4b3f7	-0.11167138
224	0xbeaf9fe0	-0.34301662
225	0xbd7c7ebb	-0.061644297
226	0x38e362a2	0.00010842575
227	0xbd40ac4d	-0.04703932
228	0xbe3fd8d7	-0.18735062
229	0xbe8ab2f4	-0.27089655
230	0xbe52c121	-0.20581485
231	0xbe6458d9	-0.22299518
232	0xbe2c5d49	-0.1683246
233	0xbe692df5	-0.22771437
234	0xbe6ff5ea	-0.23433653
235	0xbdcbec62	-0.09957196
236	0x3c239360	0.009983867
237	0xbd8f1d65	-0.069880284
238	0xbe835513	-0.25650844
239	0xbea10175	-0.31446424
240	0xbe545202	-0.20734408
241	0xbea371c0	-0.31922722
242	0xbe71f681	-0.2362919
243	0x3dcbf42c	0.099586815
244	0xbe54be17	-0.20775639
245	0xbdac2a05	-0.08406452
246	0xbe4d4860	-0.2004714
247	0xbc14d360	-0.009083599
248	0xbe8fc4ff	-0.28079984
249	0xbd165359	-0.03670058
250	0x3a5c9b77	0.00084155
251	0xbd56af14	-0.05241306
252	0x3d582051	0.052765194
253	0xbc6d7482	-0.01449311
254	0xbe4c433b	-0.19947521
255	0x3c9c1b45	0.019055972

layers.3.weight f4 [80, 256]
0	0xbd1c3950	-0.038140595
1	0x3d60cc61	0.05488241
2	0x3c8515bf	0.01624572
3	0xbc9fe722	-0.019519392
4	0xbd863a3c	-0.06554076
5	0xbd87dd5a	-0.06634016
6	0x3d805411	0.062660344
7	0x3d8e6f92	0.06954874
8	0x3dadc67d	0.08485124
9	0xbe02b950	-0.12766004
10	0xbcb4e430	-0.022081465
11	0xbd2d8406	-0.042362235
12	0x3bec988a	0.0072203325
13	0x3db76f98	0.08956832
14	0x3ce2b106	0.027672302
15	0x3d5db14b	0.054124158
16	0xbd8847d1	-0.06654323
17	0xbd89a37c	-0.06720635
18	0x3d154b8d	0.036449004
19	0x3d847d1f	0.064691775
20	0x3db6e7bc	0.089309186
21	0x3cfbd013	0.030738866
22	0x3d32f87f	0.043694016
23	0x3d1ff3ca	0.039050855
24	0x3dc8a6c6	0.097974345
25	0xbd0c8d5b	-0.034314495
26	0xba29d026	-0.0006477855
27	0x3d9a307e	0.075287804
28	0xbdb2c57e	-0.08729075
29	0xbceef002	-0.029167179
30	0x3d4e77ee	0.050407343
31	0x3b733b8d	0.0037114352
32	0x3ddea89f	0.10872006
33	0xbdc70876	-0.09718411
34	0x3d8e0852	0.06935181
35	0x3d8030b2	0.06259288
36	0xbe01e27d	-0.12684055
37	0x3b43bc1c	0.002986676
38	0x3d8c299a	0.06843872
39	0xbdfec5e7	-0.124400906
40	0x3ba0739c	0.004896594
41	0xbdb258cd	-0.08708344
42	0xbdc28ac0	-0.09499121
43	0x3d9e07b7	0.07716315
44	0x3db7875e	0.08961366
45	0xbd820ac9	-0.06349713
46	0x3cb0d43e	0.02158558
47	0x3d38c2f8	0.04510781
48	0xbd79ecac	-0.061016724
49	0x3d3312d8	0.043719143
50	0x3d45c245	0.048280973
51	0xbbfe3d9c	-0.0077588093
52	0xbccf4e41	-0.025305869
53	0xbd811a09	-0.06303794
54	0xbd77fd9e	-0.060544603
55	0xbcb3f1cd	-0.021965886
56	0x3daf47f0	0.08558643
57	0x3d20ed1a	0.039288618
58	0x3c176c48	0.009242125
59	0xbe0e175f	-0.13876103
60	0x3e2a5a65	0.16636045
61	0xbc4f37ee	-0.012647612
62	0x3d31f100	0.043442726
63	0x3e02d1d8	0.12775362
64	0xbd6378a9	-0.055534992
65	0xbcac2057	-0.021011515
66	0x3dacc80d	0.08436594
67	0x3d1f61df	0.038911697
68	0x3db765d0	0.08954966
69	0xbc265910	-0.01015307
70	0x3ce5ed8e	0.028067376
71	0xbe312ba7	-0.17301808
72	0x3d3286d0	0.0435856
73	0xbd07f6e2	-0.03319443
74	0xbd49e0b8	-0.049286574
75	0x3d922166	0.071352765
76	0xbdefe39f	-0.11713337
77	0x3cfc3f5d	0.030791933
78	0x3d58bd49	0.05291489
79	0xbdbe455b	-0.09290572
80	0xbd7751be	-0.06038069
81	0x3c89f5ae	0.016840782
82	0xba36c946	-0.0006972741
83	0x3dc0a29c	0.09406015
84	0xbdadf25a	-0.084934905
85	0x3d761c70	0.060085714
86	0x3e08ff93	0.13378744
87	0xbc60710f	-0.01369883
88	0x3cb0851e	0.02154785
89	0x3b7279ba	0.0036998824
90	0x3cfa8bd7	0.030584259
91	0x3d694ce4	0.056958094
92	0xbd717b0e	-0.058955245
93	0xbd56f9a9	-0.05248419
94	0x3ce0a1c6	0.02742089
95	0xbb80d9fa	-0.003932235
96	0x3c2adf2b	0.010429184
97	0x3af20ca0	0.0018466897
98	0x3c07717f	0.008266806
99	0x3cc1aa7c	0.023640864
100	0xbdc282b6	-0.094975874
101	0xbcbc42a8	-0.022981003
102	0x3d38bcc6	0.045101903
103	0xbd6183c5	-0.055057306
104	0xbdad48ca	-0.08461149
105	0x3d389be7	0.045070555
106	0x3e09420d	0.13404103
107	0x3d3a070e	0.045416884
108	0xbd9c19f9	-0.076221414
109	0x3dbd24d6	0.092355415
110	0x3d181a60	0.03713453
111	0xbad3e79c	-0.0016167047
112	0x3d134b12	0.035960265
113	0x3d6d3006	0.057907127
114	0xbda9a6fe	-0.08283804
115	0xbd3f7883	-0.04674579
116	0xbda1402b	-0.07873567
117	0x3cdd66bf	0.027026532
118	0x3cc85a8f	0.024457244
119	0xbd7ebfee	-0.062194757
120	0x3ce21431	0.027597519
121	0x3d7ad665	0.06123962
122	0x3d9dd9d9	0.07707567
123	0x3ca93b7b	0.020658245
124	0x3cab9f5e	0.020950016
125	0x3d23486e	0.039863996
126	0xbd006df8	-0.031354874
127	0x3dbf38f6	0.09337036
128	0xbd32fbb0	-0.04369706
129	0x3c53a383	0.012917402
130	0xbc9fabb9	-0.019491063
131	0x3e22ec5d	0.15910478
132	0xbde751b0	-0.112948775
133	0xbe021e7b	-0.1270694
134	0xbd69d129	-0.057084236
135	0xbc14afef	-0.009075149
136	0xbdbe5b46	-0.09294753
137	0x3d9b2e21	0.07577158
138	0xbc189827	-0.00931362
139	0x3d47db05	0.048792858
140	0xbda1265d	-0.07868645
141	0x3cd49eca	0.025954623
142	0xbcb614fa	-0.0222268
143	0x3d26c06d	0.040710855
144	0x3c87227b	0.016495934
145	0xbcae0ff3	-0.02124784
146	0xbdffbd13	-0.12487235
147	0xbd11dfe4	-0.03561391
148	0x3e2b859e	0.1675019
149	0x3d995bdc	0.07488224
150	0x3b0bd3ee	0.0021336037
151	0xbc34682a	-0.011011163
152	0xbb944cd8	-0.004525762
153	0x3c33b950	0.010969475
154	0xbb38995e	-0.0028167586
155	0x3d8f8a06	0.07008748
156	0xbd145445	-0.03621318
157	0xbc4f174a	-0.01263983
158	0x3c50ac0a	0.01273633
159	0xbca9b23f	-0.020714877
160	0x3e328b38	0.1743592
161	0x3ddd4f47	0.108061366
162	0x3c88b08c	0.016685747
163	0x3c5d28cc	0.013498496
164	0xbd054fc1	-0.032546762
165	0xbd2e61c3	-0.0425737
166	0x3c4675e8	0.012113072
167	0x3b19a080	0.0023441613
168	0x3d949db3	0.07256641
169	0x3dbeb3dc	0.09311649
170	0xbc0dac27	-0.008647001
171	0xbcab9b1d	-0.020947987
172	0x3dde24fe	0.108468994
173	0xbb86a72d	-0.0041092844
174	0x3ddb17e9	0.1069792
175	0xbd46541a	-0.04842005
176	0xbd7f3192	-0.062303133
177	0x3c8071ac	0.015679203
178	0x3dd69e51	0.10479415
179	0xbd7c4cb7	-0.0615966
180	0xbd8fe61d	-0.070263125
181	0x3d331986	0.043725513
182	0x3d341178	0.043961972
183	0x3d66b05e	0.05632054
184	0xbc7fe88b	-0.015619407
185	0x3cd37778	0.025813803
186	0xbdca57c2	-0.0988002
187	0x3da7d145	0.08194212
188	0xbb9bbe00	-0.0047528744
189	0xbcb0816f	-0.021546094
190	0x395e33b9	0.00021190838
191	0xbdc16050	-0.09442198
192	0x3c130bc0	0.008974969
193	0xbd9e80b5	-0.07739393
194	0x3d6176fd	0.055045117
195	0x3d2806e1	0.041022185
196	0x3daee656	0.08540027
197	0x3c828b73	0.015935635
198	0x3d46552d	0.048421074
199	0xbca14a52	-0.019688759
200	0xbd972f37	-0.073820524
201	0x3dc7f4ea	0.097635105
202	0xbc5458c7	-0.012960619
203	0xbd31dfbb	-0.043426257
204	0x3cfe6826	0.031055521
205	0x3d02db56	0.031947456
206	0x3dccb9c7	0.09996372
207	0xbc40f3f1	-0.01177691
208	0xbc847b47	-0.016172064
209	0xbc5bfa3a	-0.013426358
210	0xbdbbf2ec	-0.09177193
211	0x3a5373c4	0.00080662617
212	0x3d2cd0f3	0.042191457
213	0x3dac1a44	0.08403447
214	0x3dbfe504	0.09369853
215	0xba0d971b	-0.00054012396
216	0x3d5554e5	0.052082915
217	0x3dcbd35c	0.09952423
218	0xbcbc2e59	-0.022971319
219	0x3d2119f0	0.039331377
220	0xbd12deae	-0.035856895
221	0xbd545cef	-0.05184644
222	0xbd870354	-0.06592432
223	0x3d257740	0.04039693
224	0x3dc85eda	0.097837165
225	0xbd3ef29d	-0.046618093
226	0xbd570ced	-0.05250256
227	0x3d90bed8	0.070676506
228	0x3d97fd20	0.07421327
229	0x3d2a507f	0.041580673
230	0x3d146440	0.03622842
231	0x3d829baf	0.063773505
232	0x3d59b820	0.05315411
233	0x3e256300	0.16151047
234	0x3d326ba5	0.04355969
235	0xbd43e6fa	-0.0478277
236	0xbb732f48	-0.003710704
237	0x3c19f7c5	0.009397452
238	0xbc431e26	-0.011909043
239	0x3dbe9a65	0.09306792
240	0x3ce3d846	0.027813088
241	0xbd97c6e0	-0.07410979
242	0xbd26391f	-0.04058182
243	0xbc1bb8c0	-0.009504497
244	0x3da310fa	0.079622224
245	0x3dc586b8	0.09644836
246	0x3d94bfcb	0.07263144
247	0x3d26ff6f	0.040770944
248	0x3e1bdd9b	0.15221255
249	0xbce5359b	-0.027979663
250	0xbd00e910	-0.031472266
251	0xbccc2363	-0.024919217
252	0xbd83fb74	-0.06444445
253	0xbb168c2a	-0.0022971728
254	0x3dcfc778	0.101454675
255	0xbd6b45f2	-0.057439752

layers.3.bias f4 [80]
0	0xbd9dc91b	-0.077043734
1	0x3d8b6d0f	0.06807911
2	0xbd9bb0df	-0.07602095
3	0xbd4c77cc	-0.049918935
4	0xbd99c602	-0.0750847
5	0xbe20361c	-0.15645641
6	0xbdd1274c	-0.102125734
7	0xbd8f6cb9	-0.07003159
8	0x3a5e2131	0.0008473574
9	0xbdde63d2	-0.10858883
10	0xbcd59112	-0.026070151
11	0xbd1203ec	-0.03564827
12	0xbc81f479	-0.015863644
13	0x3b9c5f2f	0.004772089
14	0xbb02c7dd	-0.0019955554
15	0x3d940575	0.07227603
16	0xbc76676d	-0.015039307
17	0x3d2ba255	0.04190286
18	0xbd17ce53	-0.037062
19	0xbc0ab029	-0.008464851
20	0xbe099fc4	-0.13439852
21	0xbd9e8c72	-0.077416316
22	0x3c959d9e	0.018263634
23	0xba211726	-0.0006145112
24	0xbd24e078	-0.040253133
25	0xbe0139f9	-0.12619771
26	0xbd4c4f4d	-0.049880315
27	0x3cc08fb0	0.023506016
28	0x3d13b2c1	0.036059145
29	0xbcea46b9	-0.028598176
30	0xbe114ef3	-0.14190273
31	0xbcef853d	-0.029238338
32	0x3cb8546c	0.022501193
33	0x3d55c0e8	0.052185923
34	0xbde7ebe0	-0.113242865
35	0xbe15d201	-0.14630891
36	0xbca39850	-0.01997009
37	0x3d581a08	0.0527592
38	0x3c91075b	0.017703703
39	0xbd9c54a5	-0.07633332
40	0xbd48ca54	-0.04902108
41	0xbc224c47	-0.009905881
42	0xbd756e29	-0.05991951
43	0x3d078d54	0.033093765
44	0xbbb202fa	-0.0054324837
45	0xbdba1e3c	-0.09087798
46	0xbd69aa54	-0.057047203
47	0xbde68a2e	-0.112568244
48	0xbd521804	-0.051292434
49	0x3d7f3242	0.06230379
50	0xbda7c39f	-0.08191609
51	0x3baa583b	0.005198506
52	0xbe0e0505	-0.13869102
53	0x3cb2e219	0.021836327
54	0xbd0d0969	-0.034432802
55	0xbaeb3733	-0.0017945528
56	0xbd23874e	-0.03992396
57	0xbdf8c62d	-0.12147174
58	0xbcea55aa	-0.028605301
59	0x3dabb9ae	0.08385025
60	0x3da33497	0.07969015
61	0xbde1e7f7	-0.11030572
62	0x3d2da319	0.04239187
63	0x3cd95b3e	0.026532765
64	0xbd26f920	-0.040764928
65	0x3c1dee4c	0.009639334
66	0xbd16c82c	-0.036811993
67	0xbd483dc5	-0.048887033
68	0x3a4b6fba	0.0007760484
69	0xbde7ec73	-0.11324396
70	0x3cba1ddb	0.022719314
71	0xbdc7aaea	-0.09749396
72	0xbc3104ed	-0.010804397
73	0xbd3700f2	-0.044678636
74	0xbe14f569	-0.14546742
75	0xbd64db85	-0.055873413
76	0xbe0d90db	-0.13824789
77	0xbc9f18e4	-0.019421048
78	0xbddfaba7	-0.10921412
79	0xbe1265ac	-0.14296597

layers.6.weight f4 [64, 80]
0	0x3dff4fa9	0.12466366
1	0xbdfaf332	-0.12253417
2	0xbc864b30	-0.016393274
3	0xbce6d955	-0.028179804
4	0x3ddb2bc8	0.1070171
5	0xbd16dd86	-0.036832355
6	0x3ce36c33	0.027761554
7	0x3cfb1db6	0.030653816
8	0xbca5ef00	-0.020255566
9	0x3c0a38e9	0.00843642
10	0x3e21d770	0.15804839
11	0xbd279cc2	-0.04092098
12	0x3d80f227	0.06296187
13	0xbd1ffcf3	-0.03905959
14	0x3e2f8c07	0.1714326
15	0xbe3b67ce	-0.18301317
16	0x3d5d22ad	0.053988148
17	0xbe1e4fc1	-0.15460111
18	0x3cfdec28	0.030996397
19	0x3e3f0d0e	0.18657324
20	0x3ca99492	0.020700727
21	0xbd8677cd	-0.06565819
22	0xbd8eaeee	-0.06966959
23	0xbd5cdc2f	-0.05392092
24	0x3c6f8cc7	0.014620966
25	0xbcdcbab0	-0.026944488
26	0x3b912e9a	0.004430604
27	0xbd639f09	-0.05557159
28	0xbc56d743	-0.013112846
29	0xbe0379ec	-0.12839478
30	0x3e3c5e89	0.18395437
31	0x3e3771d9	0.17914523
32	0xbe193d05	-0.14964683
33	0xbe1daf21	-0.15398838
34	0x3c75930f	0.014988675
35	0xbccacedc	-0.024756841
36	0x3d61bbde	0.055110805
37	0xbe1ab387	-0.15107547
38	0x3dc247f4	0.0948638
39	0x3c8b99d1	0.017041119
40	0x3d5495aa	0.051900543
41	0xbd775d2a	-0.060391583
42	0x3e0eb883	0.13937573
43	0xbc7667a8	-0.015039362
44	0xbe02324f	-0.12714504
45	0xbd86f0c1	-0.06588889
46	0xbdba7d33	-0.09105911
47	0x3defb628	0.117046654
48	0x3dda8fbb	0.10671946
49	0xbe1effd8	-0.15527284
50	0x3d450d11	0.048108164
51	0xbdafefe2	-0.08590676
52	0x3d9f3d34	0.077753454
53	0xbd37d88a	-0.044884242
54	0xbd5a10a6	-0.053238533
55	0xbe103bad	-0.14085265
56	0x3d89fac2	0.067372814
57	0x3db79e95	0.08965794
58	0xbd8f03f2	-0.069831744
59	0xbd920641	-0.07130099
60	0xbe104fd8	-0.14092958
61	0x3de1ca51	0.11024917
62	0xbd11e9a9	-0.035623226
63	0x3df4c23e	0.11951111
64	0x3d8b7ece	0.068112954
65	0xbe0be435	-0.13661273
66	0xbcc96e12	-0.024588618
67	0x3e1b0737	0.15139471
68	0xbc28a94d	-0.010294271
69	0x3e16436e	0.1467416
70	0x3d1b7709	0.037955318
71	0x3de44ad7	0.11147087
72	0xbe144122	-0.14477971
73	0xbca45b61	-0.020063104
74	0x3e10f790	0.14156938
75	0x3dd8d31e	0.105871424
76	0x3e2151e3	0.15753894
77	0x3dc2b75c	0.09507629
78	0x3d490818	0.049079984
79	0xbd081fe4	-0.03323354
80	0x3e23b226	0.15985927
81	0xbe617e98	-0.22020948
82	0xbd88bed2	-0.06677021
83	0xbde4ebe5	-0.11177806
84	0x3e326df1	0.17424752
85	0xbc7c0fcf	-0.015384628
86	0xbc9f4204	-0.019440658
87	0x3e37b9ba	0.17941943
88	0xbd6254a5	-0.055256505
89	0x3db423bd	0.08795879
90	0x3d139a57	0.03603586
91	0x3d0895d5	0.033346016
92	0xbd27f9d6	-0.041009746
93	0xbd9ceab4	-0.076619536
94	0x3c2c4f5d	0.010516969
95	0xbe39ded8	-0.18151414
96	0x3d49dc4e	0.049282365
97	0xbe17db57	-0.14829765
98	0x3dd4dbeb	0.103935085
99	0x3893787b	7.0319475e-05
100	0xbce2bf89	-0.027679222
101	0x3dadb9a9	0.084826775
102	0xbd95824d	-0.073002435
103	0xbd8b8e0e	-0.06814204
104	0x3dc4a81d	0.096023776
105	0xbcc5eca9	-0.0241607
106	0x3e03815e	0.12842318
107	0xbded1d37	-0.11577838
108	0x3dcd6f4f	0.10030996
109	0xbe52e81a	-0.20596352
110	0x3d67b3a9	0.05656782
111	0x3cd23acf	0.025662808
112	0xbd4561ad	-0.048188854
113	0xbd8d67d9	-0.06904573
114	0x3bf62c28	0.007512588
115	0x3e0b7e2e	0.13622352
116	0xbc67114a	-0.014103243
117	0xbdf68c74	-0.12038508
118	0x3d2ddccf	0.042446908
119	0x3d62a1b4	0.055329993
120	0xbc9e780c	-0.019344352
121	0xbd125f82	-0.035735615
122	0x3e4de59b	0.20107119
123	0xbe2dad65	-0.16960676
124	0xbe32c028	-0.17456114
125	0xbe06079e	-0.13088843
126	0xbe18ee2b	-0.14934604
127	0x3dd2447c	0.102669686
128	0x3e0dea61	0.1385894
129	0xbdb545f9	-0.08851237
130	0xbcbdba2a	-0.023160059
131	0xbe0f733a	-0.14008799
132	0xbd7cfb23	-0.06176294
133	0xbe16fd73	-0.1474512
134	0xbd07d71a	-0.03316412
135	0xbe1fb569	-0.15596546
136	0x3dce0c3d	0.10060928
137	0x3c7fab88	0.015604861
138	0xbd8f1d06	-0.06987958
139	0xbe047f09	-0.12939085
140	0xbe23b798	-0.15988004
141	0x3c256a81	0.010096193
142	0xbc0c5578	-0.008565299
143	0x3e2ae30c	0.16688174
144	0xbd1bf7d5	-0.038078148
145	0xbe140ed6	-0.14458784
146	0x3d178cd8	0.036999553
147	0x3d9586c8	0.07301098
148	0xbe1ad84a	-0.1512157
149	0x3df45f0c	0.11932191
150	0x3c235dcc	0.009971093
151	0x3dde5bde	0.10857366
152	0xbdb9a80c	-0.090652555
153	0x3d2df395	0.042468626
154	0x3e2b9bd5	0.16758664
155	0xbc9449a1	-0.018101515
156	0x3e0afd79	0.13573255
157	0x3ccb6e30	0.024832815
158	0x3dc66e8b	0.09689053
159	0xbcd58d91	-0.02606848
160	0xbc114050	-0.008865431
161	0x3c99ed42	0.018789891
162	0xbdaa4cbc	-0.08315417
163	0xbdb99309	-0.09061248
164	0x3d57a11d	0.052643884
165	0x3cbc102a	0.022956926
166	0x3a61ae65	0.00086090557
167	0xbba8c624	-0.0051505733
168	0xbd48235c	-0.048861846
169	0xbc117482	-0.008877875
170	0x3dbaf0b1	0.091279395
171	0x3d3ea40f	0.046543177
172	0x3dc6961c	0.096966
173	0x3d1b27f3	0.037879895
174	0xbd84df59	-0.06487913
175	0xbcffa0f8	-0.031204686
176	0x3d1b07bb	0.03784917
177	0xbd6459c0	-0.055749655
178	0x3d501e8f	0.050810393
179	0xbd68d6f9	-0.05684564
180	0x3e00adb3	0.12566261
181	0xbdafa9fa	-0.08577342
182	0xbd918039	-0.07104535
183	0x3cbcb536	0.023035627
184	0x3d601471	0.054706994
185	0x3d7cc2f1	0.061709348
186	0x3d764cce	0.06013184
187	0x3dd986e9	0.10621435
188	0x3d96c8f8	0.073625505
189	0xbcdac444	-0.026704915
190	0xbd1c7173	-0.03819413
191	0xbd44fadd	-0.048090804
192	0xbdcfc5b3	-0.1014513
193	0xbda9ed15	-0.08297173
194	0x3d4f838b	0.05066256
195	0x3d0b5010	0.0340119
196	0x3bb8beb3	0.0056379675
197	0xbd16045a	-0.036625244
198	0x3ddf369a	0.10899086
199	0xbdbc84dc	-0.092050284
200	0xbc73eeaa	-0.014888445
201	0xbd905936	-0.07048266
202	0x3c907ba6	0.017637085
203	0xbde1b74e	-0.11021291
204	0xbd758d37	-0.059949126
205	0x3d42d518	0.047566503
206	0xbdd46d8d	-0.10372458
207	0x3d2be3a2	0.041965134
208	0x3db277fd	0.08714292
209	0x3cc9b3df	0.024621902
210	0x3d82bebf	0.06384038
211	0xbe15c158	-0.14624536
212	0xbc8b7af2	-0.017026398
213	0xbd440dfe	-0.047864906
214	0xbdabecf0	-0.083948016
215	0xbe142b79	-0.14469709
216	0x3d8b627b	0.06805893
217	0x3e3f370e	0.18673345
218	0x3caa99af	0.020825235
219	0x3d3dcef8	0.04633996
220	0xbe0c6458	-0.13710153
221	0x3d99e4dd	0.07514355
222	0xbcd1b16e	-0.0255973
223	0xbd81eb2f	-0.06343686
224	0xbc46680c	-0.012109768
225	0xbd16e53b	-0.036839705
226	0x3d49c226	0.04925742
227	0x3d72e5df	0.059301253
228	0xbc5a07b2	-0.013307499
229	0x3cf4d22a	0.02988537
230	0x3da50b23	0.08058765
231	0x3d6c952f	0.05775946
232	0xbddcb172	-0.107760325
233	0x3ca00a60	0.019536197
234	0x3d2aff26	0.041747235
235	0xbb3d745f	-0.0028908474
236	0x3d16d73c	0.036826357
237	0xbc32f56b	-0.01092277
238	0x3de97c9b	0.1140072
239	0x3dcf82a4	0.101323396
240	0x3da683cc	0.08130607
241	0xbe12d136	-0.1433762
242	0x3d87fb65	0.066397466
243	0xbd904e99	-0.07046241
244	0xbc2db299	-0.010601663
245	0xbda56161	-0.08075214
246	0x3bc5042e	0.006012461
247	0x3e00f16f	0.125921
248	0x3c6b3d91	0.01435794
249	0x3dc9f4ae	0.09861122
250	0x3c82eabd	0.015981073
251	0x3da9c07f	0.08288669
252	0xbcb5cdc1	-0.022192838
253	0xbdbafb72	-0.09129991
254	0x3e2df936	0.16989598
255	0xbe11e5ad	-0.1424777

layers.6.bias f4 [64]
0	0x3dc49319	0.09598369
1	0x3e2aad93	0.16667776
2	0xbe07d755	-0.13265736
3	0x3db431c4	0.087985545
4	0xbe0e18ee	-0.13876697
5	0xbe64b89b	-0.22336046
6	0x3dacc03e	0.08435105
7	0x3d845a4b	0.064625345
8	0x3db9afaa	0.090667084
9	0x3de4e03e	0.11175583
10	0x3daafa0c	0.08348474
11	0xbd3dcef2	-0.046339937
12	0x3e48c4e6	0.19606361
13	0x3cd3edf6	0.025870305
14	0x3e0d98d7	0.13827835
15	0x3db731bb	0.08945032
16	0x3ce4973e	0.02790415
17	0xbda5cd5b	-0.08095809
18	0x3e2ccf40	0.16875935
19	0xbd4d1472	-0.050068326
20	0x3dca4596	0.09876554
21	0x3de1d3a5	0.11026696
22	0xbe15d6f2	-0.14632776
23	0x3da28bbc	0.079368085
24	0x3deb67b5	0.1149439
25	0xbd9e9276	-0.07742779
26	0x3b81300b	0.0039424947
27	0xbe3f8bc5	-0.18705662
28	0x3dc9fc3c	0.09862563
29	0x3e1ca083	0.15295605
30	0xbe050d64	-0.1299339
31	0xbe7220e8	-0.23645365
32	0x3e38f504	0.18062216
33	0x3e452a70	0.1925447
34	0x3d889b71	0.06670273
35	0xbd18572e	-0.037192516
36	0x3ca80d42	0.020514134
37	0x3e3cdd38	0.18443763
38	0x3d903f63	0.0704334
39	0x3db52e76	0.08846752
40	0x3d8cae19	0.06869144
41	0x3e2ec63d	0.1706781
42	0x3e150a13	0.14554624
43	0xbc938f91	-0.018012794
44	0x3dc5d176	0.09659092
45	0x3e529e92	0.20568302
46	0x3d77b795	0.06047781
47	0xbe481ed4	-0.1954301
48	0x3d77b834	0.060478404
49	0xbe04a764	-0.1295448
50	0x3e2346e2	0.15945008
51	0xbdff9f78	-0.12481588
52	0x3dd10bd3	0.102073334
53	0xbda98f39	-0.08279271
54	0xbd164b54	-0.036692932
55	0x3de1c90e	0.11024676
56	0xbce36845	-0.02775968
57	0x3dd73450	0.10508025
58	0x3e1cfbac	0.1533038
59	0xbc267f6f	-0.0101622185
60	0x3ddc521c	0.107578486
61	0x3de8f32e	0.11374508
62	0xbccbc35f	-0.024873434
63	0xbe6939c3	-0.2277594

layers.8.weight f4 [1, 64]
0	0xbdada6b7	-0.08479064
1	0xbdf6776c	-0.12034497
2	0xbcc55ce7	-0.02409215
3	0xbdf095b6	-0.11747305
4	0xbd8c8791	-0.06861795
5	0xbc246d22	-0.010035785
6	0x3e02798f	0.12741683
7	0x3dad4a33	0.08461418
8	0x3e18bb0d	0.14915104
9	0x3df5ecf8	0.12008089
10	0xbd770264	-0.060305014
11	0xbc4a1074	-0.012333024
12	0x3e1a22e4	0.15052372
13	0xbdaa5d7a	-0.083186105
14	0x3e28d7e9	0.16488613
15	0x3df0226a	0.11725314
16	0x3e00adf0	0.12566352
17	0x3d8b7e08	0.06811148
18	0xbdfee5a4	-0.12446144
19	0x3d35a4ac	0.044346496
20	0xbe1893e8	-0.14900172
21	0x3d9f376f	0.07774245
22	0xbcc67d04	-0.024229534
23	0x3d646c5e	0.05576741
24	0x3dcba6ce	0.09943925
25	0x3d8378b1	0.064195044
26	0x3e14043f	0.14454745
27	0xbcd0fe8e	-0.025512006
28	0xbe1c8500	-0.1528511
29	0xbdb8b313	-0.09018531
30	0x3d7a7727	0.06114879
31	0xbcac9420	-0.021066725
32	0xbe11bd41	-0.14232351
33	0xbe19438d	-0.14967175
34	0x3e2244de	0.15846583
35	0x3d3a5306	0.045489334
36	0xbdd857d9	-0.105636306
37	0x3e61037a	0.21973982
38	0x3e30c73c	0.17263502
39	0xbe028824	-0.12747246
40	0xbdb3d4d4	-0.08780828
41	0x3e237db2	0.15965918
42	0x3e4f1f2b	0.20226733
43	0xbb8ab4bf	-0.0042329724
44	0x3e091060	0.13385153
45	0x3e5534bc	0.20820898
46	0xbd4f8680	-0.05066538
47	0xbc8028f0	-0.01564452
48	0x3dfe5a22	0.12419535
49	0xbca075d5	-0.019587437
50	0x3de029f1	0.109455
51	0xbbee0bbe	-0.0072645834
52	0x3dfb8e2c	0.122829765
53	0xba5e789c	-0.00084866
54	0xbd57b1dc	-0.052659854
55	0xbd7dda54	-0.061975792
56	0xbbe6de40	-0.0070455372
57	0x3e14a864	0.14517361
58	0xbe12c3d6	-0.14332518
59	0xbd84c8ae	-0.06483589
60	0xbe01973a	-0.12655345
61	0xbdad5f62	-0.084654585
62	0x3df41914	0.11918846
63	0xbca63aec	-0.020291768
