flwr-mlp/models/checkpoints/round_001.pt (torch, 127593 bytes, 7 tensors)

layers.0.weight f4 [256, 19]
00000000: 62ce 84bd 298a 0bbe 142f 25bc 59e9 e8bd
00000010: 2400 27ba 4509 e1bd e31d c8bd 01fa 40be
00000020: 84df 313e 035e 1dbe 24ed 463d 91f1 3b3e
00000030: aa3b c5bd 94d5 10be d621 443e 2112 3d3b
00000040: 63a1 b7bd 29e0 be3d 13e2 39be 618f 4dbe
00000050: a7bd 8fbd 576d d03c 9a08 4ebc 24af 85bd
00000060: 7281 4bbd 48da 563e 7ec3 4dbe dc2b 233e
00000070: 7a27 02bc 4f82 b03d 4b76 ed3d a801 23be
00000080: b620 aabd 0600 a63d 11f7 c8bd f662 cc3d
00000090: f390 f83d 85cc 23bd 5684 193e a250 093e
000000a0: 54fa 9cbd eb22 f1bd 1b09 893d 317f 59bd
000000b0: 41f6 ba3d 49a8 5dbe 0d3b bc3d 2672 693e
000000c0: 34cc 443e b171 2ebd 57c1 d03c 7c0b 353e
000000d0: a027 083e 59c8 fe3c 43da 023d 26d1 0e3e
000000e0: 767e 23be dd84 683e cb35 5dbd 5344 7a3d
000000f0: 493e d33d bcf4 b0bd 6510 44be d3c3 42be
00000100: aedc 363e 8a34 afbd 9cf6 5d3d 0d96 1f3e
00000110: f567 cbbd 06df f9bd 0059 e73d 7ce0 24be
00000120: ebb8 e1bd db80 9ebc 8ef4 783d 34f3 323e
00000130: 2a09 cebd a3a3 c3bd 7802 343e ed21 55bd
00000140: 48eb 253e 53de e83d 8d93 433e 11ec 463e
00000150: 2c0d 2a3e 964c 163d 10a6 22be fb01 0abe
00000160: a450 6abe 423a 85bd 8346 1dbe e698 d63d
00000170: 8c4e 47bd 73e9 22bd 3322 2abe 82d9 103d
00000180: b36c 2f3e 6fce 88bd c3f0 6c3e a40c 3a3e
00000190: 02bb 4dbe da52 e33d a1c0 4b3e 53df 1ebe
000001a0: 5bd5 05be dbb9 9f3d 5191 79be adc5 213d
000001b0: 47eb 193e 3118 323e 3abd 2ebc 3447 3c3e
000001c0: 4bf3 58bd fc07 4abe 6c12 8b3d fe7d 393e
000001d0: 17ca 073e a860 313d f60a 44be a770 92bd
000001e0: 9c5c 27be 0467 2fbe 03cc c4bd 7b4c 3a3e
000001f0: 7fea 65be e4c2 ecbd 4f7a 4f3d 1328 34be
00000200: 1bf5 e13d e177 27be 3235 85bc 49de 77bd
00000210: 7fc1 06bd 705e 313e 7420 27be a760 3cbd
00000220: 5f10 c4bd a102 e2bb eeb5 c0bb a154 2cbe
00000230: 9492 65bd d2e6 92bd 6fa4 3fbe 2d3d 523d
00000240: 988b 6a3d 5586 513e 42de 113e 9007 9d3c
00000250: 0476 85bd 18cf 54be 9a3a 1ebd 1fd4 54bd
00000260: 00c0 f6bc 20e4 4f3d 70d9 413d 5e97 d3bd
00000270: 5e16 c33d a0b4 eb3d 90d0 393e 566b 463e
00000280: 8a80 553e 7ccc 49b9 5b4b e0bd 9655 603e
00000290: d54c 5abe bbb0 0b3e b7fb 843d 2591 ff3d
000002a0: bc87 91b8 c76e ddbd a543 40be a550 573e
000002b0: aeec c3ba 922b 24bd c231 c8bd 6970 043e
000002c0: 3dc3 f8bd 3f19 de3c 0e82 5b3e ae9a be3d
000002d0: 6175 9fbc 8755 6cbd facb 61bc d283 303e
000002e0: 271d 893d 7e2b 063e 0627 413c 3126 083e
000002f0: db64 d03d 7371 c43c 2831 4bbd 5e84 373d
00000300: b6a4 143e 9bb6 d83d ade3 81bd ef37 063e
00000310: 5de9 dabd 9e41 343e 2527 c93d a6e0 3dbe
00000320: 922d 5ebe a940 c7bb ecaa ecbd 4f2f 1bbe
00000330: 57b3 e2bd 147b 3a3e dedd 403e e8b9 073e
00000340: 938d c43c 9fba 6a3e d7f8 debd f37e a43c
00000350: 2331 3a3e 1bb9 49be acdf e03d 46db 49be
00000360: 3905 c43d 6fcc 1d3e 4aae 413e 9e2e 073e
00000370: a3ec 43be 6f58 4b3d 6b62 e4bd 034d d73c
00000380: da8f 4f3d b2bd fcbc 4095 433e 3e02 c63d
00000390: 112f 00be 8484 5d3e 1345 0bbd 20fc d938
000003a0: b2ee be3d 2236 a73d 4807 6abe d3d6 f3bd
000003b0: 2b50 1dbe 77e4 7b3e 8535 4bbe a938 52bc
000003c0: 291b 413e ce00 313c 5aac 923c 3ae5 893d
000003d0: f0ba 63be 227b f13c 3596 c23c 860e fdbd
000003e0: eb33 f0bd 1c22 9f3d 5716 e53c 507d 873d
000003f0: 0e2d 10be 1089 f03d b3f5 d83d 6254 52be
-0.06484677 -0.13626923 -0.010082025 -0.113726325 -0.00063705654 -0.10988096 -0.097713254 -0.18845369
0.1737042 -0.15367894 0.048566 0.18353869 -0.09630521 -0.14143974 0.19153532 0.0028849917
-0.08966329 0.09320099 -0.18152647 -0.20074226 -0.07018595 0.025442762 -0.012575293 -0.06527546
-0.049683996 0.20981705 -0.20094106 0.159347 -0.007943982 0.086186044 0.11594828 -0.159186
-0.0830702 0.08105473 -0.09812749 0.09979813 0.12137022 -0.039989967 0.14991888 0.13409665
-0.07664934 -0.11774238 0.0669119 -0.053099815 0.091290005 -0.21646227 0.091909505 0.2279745
0.19218522 -0.042588893 0.025482817 0.17680162 0.13296366 0.031101393 0.03194643 0.13946971
-0.1596621 0.22706933 -0.05400638 0.061100315 0.10314614 -0.086404294 -0.19146879 -0.19020014
0.1785762 -0.08554943 0.054190263 0.15584584 -0.099319376 -0.122007415 0.11296272 -0.16101259
-0.110215984 -0.019348552 0.0607801 0.17475587 -0.10060342 -0.095526956 0.17579067 -0.052034307
0.16203034 0.1137053 0.19099255 0.1942599 0.16606587 0.03669413 -0.1588366 -0.13477318
-0.22882324 -0.065052524 -0.1535893 0.10478382 -0.048658893 -0.039773416 -0.16614608 0.03536368
0.17131309 -0.06679999 0.23138718 0.18168885 -0.20090869 0.11099787 0.19897701 -0.15514879
-0.1306967 0.07799121 -0.2437184 0.03949516 0.15031157 0.17392041 -0.010665232 0.18386537
-0.052966397 -0.19729608 0.06790623 0.18114468 0.13260685 0.04330507 -0.19144806 -0.07150393
-0.16343921 -0.17129141 -0.09609225 0.18193237 -0.22452734 -0.1156061 0.050653752 -0.17593412
0.11033078 -0.16354324 -0.016260717 -0.060514722 -0.032899376 0.17321181 -0.16320974 -0.045990612
-0.09573435 -0.006897286 -0.0058810627 -0.16829158 -0.05604799 -0.07172932 -0.1871507 0.051327873
0.057262033 0.204614 0.14244941 0.019168645 -0.0651665 -0.20782125 -0.038630106 -0.051960107
-0.03012085 0.050754666 0.047326505 -0.103316054 0.095257506 0.11509061 0.18145967 0.19376883
0.20849815 -0.0001924503 -0.10951873 0.21907648 -0.21318372 0.13641636 0.06493323 0.12478856
-6.939421e-05 -0.10812145 -0.18775804 0.21026857 -0.0014947855 -0.040080614 -0.097751155 0.12933506
-0.12146614 0.027111648 0.2143633 0.093068466 -0.01946515 -0.057698753 -0.013781542 0.17237785
0.066950135 0.13102528 0.011789089 0.13295819 0.10175487 0.023979878 -0.049607426 0.04480397
0.14515957 0.10581704 -0.06342254 0.13107274 -0.10689042 0.17603156 0.09821919 -0.18542728
-0.21697071 -0.006080706 -0.11556038 -0.15154766 -0.110693626 0.18211013 0.18834636 0.13254511
0.02399329 0.22922753 -0.10887306 0.020080065 0.18182807 -0.19699518 0.10980162 -0.19712552
0.09571309 0.15410016 0.18914142 0.13201377 -0.19133238 0.049644884 -0.11151584 0.02628184
0.050674297 -0.030852173 0.19099903 0.096683964 -0.12517954 0.21632582 -0.03400142 0.00010394328
0.09322871 0.08164622 -0.2285434 -0.11906209 -0.15362613 0.24598871 -0.19844635 -0.012830892
0.18858017 0.0108034145 0.01790445 0.067331746 -0.2223928 0.02947766 0.023753265 -0.12356286
-0.117286526 0.07770178 0.027964754 0.06615698 -0.14079687 0.117448926 0.105937384 -0.20540002

layers.0.bias f4 [256]
00000000: cefb 423e 8e11 903d 36cd d2bd 2367 44be
00000010: 0f8c 75bd 4f8b 6abd 2bd8 b03d 38e4 3cbc
00000020: 744c 3cbe f554 0b3d c69c ac3d b7c9 d83b
00000030: ede0 593e d51e 56be a778 25bc 894b 53bd
00000040: b221 3f3e 248c 0d3e 6588 583d 622a 27bc
00000050: ce89 793d 2a85 04bd 0044 533e 129b 3dbd
00000060: 2377 83bc aaa0 5d3d 6a67 8e3d fbb8 90bd
00000070: 0974 b03d 9561 143e 9592 8a3d 614f f03d
00000080: e0ce 9ebd dfc4 393e 9a2a 89bc 0f20 433d
00000090: 039b 8c3c 0f0b 413c 2657 97bd c250 523e
000000a0: 93ed 19be 6c91 0abe fa1d 2dbe 0837 febd
000000b0: d582 37be 7651 29be 1ae8 c73d dfba 073e
000000c0: 3d2e 85bd 6510 c0bd ce95 5ebc 2503 723c
000000d0: 9b84 b7bd d3b1 843d d42e 0dbd 8f72 163e
000000e0: aeff 36be 667d e73d b914 2fbe 0d20 b1bd
000000f0: 63e8 3abe a1d0 d4bd 43cc 74bb 9a3f 30be
00000100: cc29 5ebd 549b 023e 3367 04be 5388 69be
00000110: 2288 17be 2495 2cbd 941a 37be 18af 1e3e
00000120: 0bca 573c 911e 31be 72dd 58be 1d97 533c
00000130: 95ae 57be e457 bfbd 532f 843d 2640 cd3d
00000140: c87d 243e 4a38 503d 3b68 533e 970d 92bd
00000150: bc69 29be 8f18 11be 3512 213d 12d7 3f3e
00000160: 8109 f03b 6736 433e cdb8 4ebe d945 383e
00000170: cef9 06be 634c f23d d638 1dbe 5712 80bd
00000180: 074d 4cbe 61e8 85bd cfe5 38be f112 48be
00000190: bf51 793d 66cd 523d fc0f 803d d9e1 58be
000001a0: 3b06 77be 7e6b 01be 32f3 06be 2e57 86bd
000001b0: 4034 313e 882e cfbd 5921 34be e5b2 0d3e
000001c0: 3420 99bc 3b60 ff3c d902 3ebe 2615 1c3d
000001d0: 812b 173e 8d60 523d 4556 dd3d 0482 c2bd
000001e0: 4583 e6bd 5d9d 1bbd 6480 8fbd e0a5 853c
000001f0: 00cf f33d e571 14be d8a9 443e f108 91bd
00000200: 4471 a93d 9931 233c bf63 e23d 5000 96bd
00000210: 5c6b 243e beb3 dbbd 3d79 b63d 630c 1ebe
00000220: de39 193e 9bb0 833c 52ed 383e e915 e6bd
00000230: a708 10bd 9307 8abd 55dd 313d 814e 4c3e
00000240: a00a e43d d8cb 163c ff3a 1a3c 72ed 0f3e
00000250: 04c2 47be 81f1 033d 7ef2 32be 095c 383d
00000260: cee8 213e a5e5 6c3e 95b3 db3d 6e65 74bd
00000270: d046 90bd 237e 56bc e082 453d 8bd1 323d
00000280: f34a 3cbe fed6 fc3c f73d 043e d396 153e
00000290: ff2d 293d e8ff 383e a278 3fbe 35e0 3cbe
000002a0: 6548 3e3c d848 4dbe e734 473e e50f 3b3e
000002b0: af99 27be db75 b83c 75c4 d8bd 730b 49be
000002c0: c317 45be 5a2a 3a3d 003d c93d 5fa7 2e3d
000002d0: 4b29 4a3e ca8a 5a3e 9048 47be 443e d9bd
000002e0: b54a 273e 7403 233e 64f4 df3d 0285 223d
000002f0: 2deb 3bbd 64ad 25be 2db2 a33d 9a04 30bc
00000300: 1868 4e3e d872 503e e4ab d7bd 7896 c03d
00000310: 3909 913d 0531 33be 3f08 9ebc 72e6 853d
00000320: a1a0 3f3e 84e3 523e 8b09 93bd c702 b53d
00000330: bb7b 923d 0f72 28be 3421 1dbe b133 423d
00000340: 5297 293e 8480 0c3e 6893 18bd 2eb2 39bd
00000350: f528 71be 8630 1dbe 3204 833d c216 cf3d
00000360: 26d8 9ebd 8345 2bbe 8064 0f3e a8c0 cdbd
00000370: 1ec8 56be 5abe d03d 174c f5bc f9a3 9d3d
00000380: 0773 6ebe 1337 293d adba 173e dab7 513d
00000390: 4be3 4bbd 46e8 10be 6a84 0fbe 7d1a 38bd
000003a0: a420 86bd f6e3 fabd 03be 6ebd 3c5b 98bd
000003b0: e411 363e a569 c93d 5f37 2abe c4f6 0ebe
000003c0: 30a6 2abe 8d63 43be 0354 4fbe c6df 7d3e
000003d0: edaa 96bd 2efb 603a 3c96 ecbd 9e07 173e
000003e0: 3938 2bbe ad90 e43d b594 c63d 9357 083e
000003f0: 0c7c 423e bdf2 393e 225d 9bbd 30fc 0d3e
0.19041368 0.07034598 -0.10293047 -0.19179969 -0.059948023 -0.05726176 0.08634981 -0.011529021
-0.1838854 0.03401657 0.0842834 0.006615843 0.21277209 -0.20910199 -0.010099567 -0.051585708
0.18665197 0.1382299 0.05286445 -0.010202976 0.060922436 -0.032353558 0.20631409 -0.046290465
-0.01604802 0.0541083 0.069533184 -0.07066532 0.08615882 0.1449035 0.067662396 0.1173389
-0.07754302 0.18141507 -0.016743947 0.047637995 0.01716376 0.011782422 -0.07389669 0.20538619
-0.15032034 -0.13532037 -0.16905966 -0.1241284 -0.17921002 -0.16534981 0.09761067 0.1325488
-0.0650296 -0.09378127 -0.013585521 0.0147712575 -0.08960839 0.0647923 -0.034468487 0.14692138
-0.17870972 0.11303215 -0.17097749 -0.08648691 -0.18252711 -0.10391355 -0.0037353195 -0.17211762
-0.05423908 0.12754565 -0.12929992 -0.2280591 -0.14798024 -0.04213442 -0.17881233 0.1549648
0.013170729 -0.17296816 -0.21178225 0.012914446 -0.21062692 -0.09342936 0.06454339 0.10022001
0.16063607 0.05083493 0.2064523 -0.07131498 -0.1654424 -0.14169525 0.039324004 0.18734387
0.0073253517 0.19063722 -0.20187683 0.17995395 -0.1318123 0.11830976 -0.15353712 -0.06253498
-0.19951259 -0.065384634 -0.18056415 -0.19538476 0.060868975 0.051465414 0.06253049 -0.21179904
-0.2412347 -0.12638661 -0.13178709 -0.06559597 0.17305088 -0.10116297 -0.17590846 0.13837774
-0.018692113 0.031173816 -0.18555774 0.038106106 0.14762689 0.05136161 0.1080747 -0.09497455
-0.112555064 -0.03799187 -0.070069104 0.016314447 0.119047165 -0.14496572 0.19205415 -0.070817836
0.08273557 0.0099605555 0.11054181 -0.07324278 0.1605658 -0.107276425 0.08909843 -0.15434413
0.14963481 0.016075423 0.1805928 -0.11234648 -0.0351645 -0.06739726 0.04342397 0.19951822
0.11134839 0.009203874 0.00941348 0.14055422 -0.19507605 0.032212738 -0.17475316 0.045009647
0.15811464 0.23134477 0.10727612 -0.059667043 -0.070447564 -0.013091597 0.048220515 0.043656867
-0.18387966 0.030864235 0.12914263 0.14608316 0.04130363 0.1806637 -0.18698362 -0.18444903
0.01161394 -0.20047319 0.19453774 0.18267782 -0.1636722 0.022517135 -0.10584346 -0.19633274
-0.19247346 0.045450546 0.09826088 0.042640086 0.19742315 0.21342006 -0.19461274 -0.10607579
0.16337092 0.15919286 0.10935286 0.039677627 -0.045878578 -0.16179425 0.07992969 -0.010743285
0.20156896 0.2035631 -0.105308324 0.094037 0.07081837 -0.17499168 -0.019291041 0.065380946
0.18713619 0.20594603 -0.071795546 0.0883842 0.07152506 -0.1644976 -0.15344697 0.047412578
0.1656163 0.137209 -0.037249953 -0.04533594 -0.2355078 -0.15350541 0.063972846 0.101117626
-0.07756071 -0.16725735 0.14003181 -0.10046512 -0.20974776 0.10192557 -0.029943509 0.07697291
-0.23286067 0.04131229 0.14817305 0.051200725 -0.04977731 -0.14151105 -0.14015356 -0.044947136
-0.065491945 -0.12250511 -0.058286678 -0.074392766 0.17780262 0.09834603 -0.16622685 -0.13961321
-0.16664958 -0.19080944 -0.20246892 0.24792394 -0.0735682 0.00085823506 -0.115520924 0.14749
-0.16720666 0.11160407 0.09696332 0.13314657 0.18992633 0.18159004 -0.07586123 0.13865733

layers.3.weight f4 [80, 256]
00000000: 3e5c eebc e7e9 503d c1d6 dabc aa69 943b
00000010: ed12 d9bc 18f7 88bd 448d 913d 037a 583d
00000020: 4c1d e039 fb4c 8abd 171c c6bb ca6f 093d
00000030: aa74 763c 7d20 c83c 6c08 da3c 02c3 debb
00000040: 3e1f 463a bb22 b4bb bca8 a43b 601d 1c3d
00000050: 362e 843d 10e7 313d c4b2 a63c a98f 4a3d
00000060: 09cf 623d 7f08 6cbd 1f17 c93c a624 0a3d
00000070: 23b9 4ebc 5877 60bc 82df 56bc 7fb4 de3b
00000080: 9f6a 043d 4b14 1dbd fb45 5a3d 4cb6 843d
00000090: 8be8 85bd 6985 583c 3398 693c 63c3 8fbd
000000a0: fead df3c cd21 8bbd f92b 6abd c36a 013d
000000b0: ac25 1b3d 8b8e a2bc 78e6 a2ba f73a 753d
000000c0: 1daa 9f3b 246f 943b dac9 15bc c537 18bc
000000d0: 3cc3 9bbb d29d 973b 2dc2 20bc 5940 663a
000000e0: 28f0 323d 6ea4 8a3c a45d 8bbb d37f 2fbd
000000f0: 2098 8e3d 30c9 fbbc ae6e cabc 7639 9dbc
00000100: 05a0 4dbd b4ef 093d ef2c 6d3d fdd1 63bc
00000110: 8d02 28bd 0d3b 79bd 78b7 2cbd bc07 87bd
00000120: 32e5 85bc a087 42bd 3e49 23ba 5a6c 1cbc
00000130: b292 8bbd e92d 2fbd b5fb 333d 7e27 7ebd
00000140: 3960 8abc 4bcc 263d 3438 d1bc 639b 7d3d
00000150: e202 40bd 8e9e cebc 8675 763d 0b90 d63c
00000160: 4ee6 af3c 5087 86bb 0166 47bb 8805 b63d
00000170: 62b4 69bd 75c9 38bc ee43 7bbd 9821 59bd
00000180: a154 0ebd 1e04 f0bc 821e 4dbd 2afd 87bb
00000190: 6d1e 69bd fb98 47bd 569f 7c3c c9e2 0cbd
000001a0: 2f26 edbc 28eb 55bd 9404 2a3d 7123 02bd
000001b0: 862b 3e3c 6441 fe3c 7c5a cbbc 45ec db3a
000001c0: 1d28 a0bb 90f5 9a3d 75ed 9abd b9d0 9ebc
000001d0: 3693 28bd c7e9 86bc 3b16 f2bc 88a7 82bc
000001e0: 6056 3f3d d34a 093d d83e 443d a6db 3b3c
000001f0: 9fa4 8e3c 5a83 39bd 99dc 9e3b 6e21 5b3d
00000200: 483a f7bb 5dbe 123c 7586 7e3c 1ad6 a93d
00000210: 0b7a 39bd 52b2 81bd 1d29 51bd 6cdf 3bbc
00000220: b57e debc 5aea 463d b47f 22bd 79d9 813b
00000230: b2ae babc c2db 443c d3dd e2bc bcdf 373d
00000240: 805f 873c d1a3 0abd bf34 60bd 947a 033c
00000250: 08bb 853d c3ed a03c 4fb7 80bd 3f46 40bd
00000260: bcdf 34bd 3eeb 803c 74e3 debc f699 103d
00000270: fa07 efbc 2259 f1bc cd0b 91bc 2650 8cbd
00000280: dfbe de3c 4662 803d e21f 83bb 38c4 f83c
00000290: fb8d 14bd 758b 0dbd bcd8 afbc f473 2a3c
000002a0: c368 a93b e7da 793b 44b9 593c 5d25 283d
000002b0: 7ee1 0f3c 743c 97bb 504f 2b3d a6c0 7e3b
000002c0: cf46 76bd 9a47 4e3d 20a4 823d 4804 97bc
000002d0: b38f cebc 81fd 873c 91ce 123d 6ea8 6dbc
000002e0: 42fc 873b 8e5e c93c 4734 67bd bcb1 503d
000002f0: d1f2 133d b774 15bd 2fdc a7bc 8394 45bc
00000300: 956a 0f3d 89d8 ebbc 6e82 113d e46c c9bc
00000310: 195e 7c3d ecc3 64bd f398 1a3d 6e6c 7bbc
00000320: 4a03 25bd 767a 8e3d fb56 99bc 4ba7 50bc
00000330: 6ddd 773c 7475 02bc 3dc9 843d 4a55 d53c
00000340: 4f48 22bc 0314 0dbd d5a5 0ebd 7ff6 cc3c
00000350: 67ad b53c ec35 8eb9 3436 1d3d 96ab 243d
00000360: 503f a03c 6c43 80bc fe14 3c3d 41b1 55bd
00000370: 770c 97bd d097 74bd c4d4 80bc ad07 423d
00000380: 0e04 1d3d 4ec1 23bd 62ec 943b 67b8 0d3d
00000390: 5213 0f3d eff5 35bd 8f79 aa3c a202 d33c
000003a0: b9ce bcbc 1840 6f3d 66a5 773c 515b 8dbc
000003b0: 9557 643d b8c9 253d 5679 bd3c 4a08 7d3d
000003c0: 0827 05bd 27f7 87bd f261 0bbd 5c0d 323d
000003d0: 6b59 74bc 17f4 213d 21a1 6a3c eaeb 7b3b
000003e0: 06df 503d c0fa af3b 5fdd ac3c 8b50 6dba
000003f0: 7acb cdbc da08 e53c 8710 833d 9da0 c93c
-0.029096719 0.051004317 -0.02671373 0.0045291977 -0.026498282 -0.066877544 0.071070224 0.052850734
0.00042746437 -0.06752964 -0.006045829 0.033553876 0.015042463 0.024429554 0.026615344 -0.006798149
0.0007557756 -0.0054973043 0.0050249975 0.03811395 0.064541265 0.04343325 0.020348914 0.04945341
0.055373225 -0.05762529 0.024547158 0.033726357 -0.012617382 -0.013700329 -0.013114812 0.006796419
0.032328244 -0.03834943 0.053289395 0.06480083 -0.06538495 0.013215401 0.0142574785 -0.07019689
0.027304646 -0.06793556 -0.05717084 0.031595957 0.037877724 -0.01984336 -0.0012428304 0.059870686
0.004872574 0.0045298506 -0.009142363 -0.00929064 -0.0047534984 0.004626968 -0.00981192 0.0008783392
0.043686062 0.01692411 -0.004253106 -0.042846512 0.06962609 -0.030735582 -0.02471098 -0.019192439
-0.050201435 0.033675864 0.05790418 -0.013905046 -0.041018058 -0.06084733 -0.042167157 -0.06593272
-0.01634464 -0.047492623 -0.00062288705 -0.009547317 -0.06815089 -0.042768393 0.04394122 -0.06204938
-0.016891586 0.040722173 -0.025539495 0.061915766 -0.04687775 -0.02522209 0.060170673 0.026191732
0.021472123 -0.004105486 -0.003042579 0.08887774 -0.057056792 -0.0112785 -0.06134408 -0.053010553
-0.034748677 -0.029298838 -0.050077923 -0.0041500526 -0.056913782 -0.048729878 0.015418848 -0.034395967
-0.028948871 -0.052226216 0.041508272 -0.03177208 0.0116070565 0.03103704 -0.02482342 0.0016778788
-0.0048875944 0.075663686 -0.075648226 -0.019386636 -0.041156016 -0.016468896 -0.029551616 -0.015949026
0.046713233 0.033518624 0.047911495 0.0114659425 0.017412482 -0.045291282 0.0048480746 0.053498678
-0.0075447895 0.008956519 0.015534987 0.0829279 -0.045282405 -0.0633284 -0.0510646 -0.011466842
-0.027160028 0.04856334 -0.03967257 0.0039626923 -0.02278838 0.012015285 -0.027693665 0.044891104
0.01652503 -0.033847634 -0.054737803 0.00802483 0.06529814 0.019644624 -0.06284963 -0.046941992
-0.044158682 0.015737172 -0.027208067 0.03530308 -0.029178608 -0.029461447 -0.017705822 -0.068512246
0.027190624 0.06268744 -0.0040016035 0.030367002 -0.036268216 -0.034556825 -0.021465652 0.010403622
0.0051699593 0.003812486 0.0132888 0.041051257 0.008781789 -0.004615361 0.041823685 0.0038872152
-0.060126122 0.050361253 0.063789606 -0.018434659 -0.025215006 0.016600372 0.03584153 -0.014505489
0.0041499445 0.02458122 -0.05644634 0.05095075 0.03612024 -0.03648826 -0.020490734 -0.012059334
0.035013754 -0.028789775 0.035524778 -0.024588056 0.061613176 -0.05585091 0.03774352 -0.015345676
-0.04028634 0.06956951 -0.018718233 -0.012735198 0.015128476 -0.007962573 0.06483696 0.026041646
-0.009904935 -0.034442913 -0.03482612 0.025019882 0.022177411 -0.00027124526 0.03838177 0.0402027
0.01956144 -0.01565715 0.045918457 -0.052170996 -0.07375424 -0.059715092 -0.015726455 0.0473706
0.038333945 -0.03997927 0.0045447806 0.034599688 0.034930535 -0.044423994 0.020809917 0.025758091
-0.023047792 0.058410734 0.015115118 -0.017255457 0.055747587 0.040475577 0.023129147 0.061775483
-0.032507926 -0.066389374 -0.034028955 0.04346977 -0.014913897 0.039539423 0.014320643 0.0038440176
0.05099394 0.005370468 0.021101652 -0.00090528344 -0.02512144 0.027958322 0.06399637 0.02461272

layers.3.bias f4 [80]
00000000: 34a9 393c 9d1c 493d 8c8b d43b 255a 1ebd
00000010: 878c 643c 6230 68bd 4d68 6bbd 8623 6fbc
00000020: 9a82 003a 21a2 27bd fe97 443d fc9a 45bd
00000030: 88fb 603d 50b8 70bc bfbe 843d db60 483d
00000040: 5cb6 873c 1ab9 603d 5124 be3c af54 263d
00000050: 531c 57bd 0906 fbbc b6ae 43bb 52ef 9cbb
00000060: d55e 88bc 37d5 92bd 0d46 183c d357 433d
00000070: bb13 7a3c 33b1 4dbd a36b 68bd 23e2 1c3d
00000080: 250a a33c 73c1 3c3d 02cd 13bd c363 52bd
00000090: 1aa8 e6bc 7df8 403d 8e97 823d 2e72 83bd
000000a0: 8daf 8f3c 9d94 1d3b ea8d 2f3c 6708 c03c
000000b0: dcd4 a63b 0346 48bd a784 71bd 563e dcbc
000000c0: 3822 b53c 5ee6 683d f54d bcbb 0cc4 4e3c
000000d0: d5c2 59bd 47bd 3a3c 6116 bbbc 0d7a adbc
000000e0: bddf 233c e734 0bbd 4147 77bc 55d5 4a3d
000000f0: 4c7a 843d c83a 43bd a5dd 313d 34c3 9a3d
00000100: 51a3 0a3d 25c6 3cbc e6ac 93bc f405 e13c
00000110: 4324 8bbb b877 25bd 4cb6 8d3d 9ce8 24bd
00000120: f56a 47bd fa72 0dbd f6c5 5cbd 5b83 de3c
00000130: 1ee9 3ebd 5966 cc3c a634 61bd 3dfc 73bd
0.011331845 0.049099553 0.006486362 -0.038660187 0.01394952 -0.056686766 -0.057472516 -0.014595872
0.00049022736 -0.040926103 0.047996514 -0.048243508 0.05492738 -0.014692381 0.064816944 0.048920494
0.016566448 0.054864027 0.023210676 0.040608104 -0.052517246 -0.030642526 -0.0029858775 -0.0047892714
-0.016646782 -0.07169574 0.009294045 0.047691178 0.015263493 -0.05021782 -0.056743275 0.0383016
0.019902298 0.046082925 -0.036084183 -0.05136467 -0.028156329 0.047111977 0.06376563 -0.064182624
0.017539764 0.002404488 0.010714987 0.023441507 0.005091293 -0.048894893 -0.058964398 -0.026885193
0.022111043 0.05686032 -0.005746598 0.012619983 -0.053164322 0.011397666 -0.02283782 -0.021176362
0.010002074 -0.033986 -0.015092672 0.049519856 0.06468639 -0.04766348 0.043424267 0.07556763
0.033847157 -0.011521851 -0.01802678 0.027468659 -0.004246266 -0.040397376 0.06919536 -0.040260896
-0.048685987 -0.03453348 -0.053899728 0.027162245 -0.046609037 0.024951147 -0.05498185 -0.059566725

layers.6.weight f4 [64, 80]
00000000: 53db 773d 871c ecbc 9424 fcbc 0891 bd3c
00000010: 68f4 7c3d f62c 38bd 25b2 c4bb 2741 1ebd
00000020: 7b8a e23c 874b a7bc 66f3 0a3e 77f5 a1bd
00000030: e8d2 c83c 1c06 9c3c 108d fd3d 15f4 76bd
00000040: 3dcd 573d 8075 b5bd 364b 16bd d084 073e
00000050: c4a1 edbc 3404 8ebd bebd 9d3c db23 af3b
00000060: d5ef 32bc e7c7 0bbd 0ea8 8cbd 0f45 52bd
00000070: deaa 04bc b16b e9bc 8bfe f53d 2deb 0b3e
00000080: f45a 32bd b0a9 83bd 25e2 fdbc 9b89 6cbd
00000090: 0ecc 823d 2a8b 6ebd 0495 593d a827 043c
000000a0: a7b1 083d ebf6 1d3d ac31 583d 319b 793d
000000b0: 3986 83bc 1f3c 27bc 1a2d 44bc 3e9a ac3d
000000c0: bc42 a73d 87e4 8ebd 377c 3a3d 7706 193d
000000d0: e662 783d f36e 953c c6f3 87bd 6840 13bd
000000e0: e4c5 a5bb 4f1c 6ebc 7543 11bd 632f 50bc
000000f0: 3065 b0bd fc8b 843d 5f86 003c 67db af3d
00000100: 22dd f13c 0230 5bbd b822 74bd 9b53 fe3d
00000110: 5c80 b23d 36ac 063e 1471 be3c eeba 713d
00000120: 2e40 6cbb eb0a 8bbb b38c 863d 16ca b03d
00000130: 5d70 133e 5dc5 823d 6e7b 213c abf2 9cbd
00000140: 4f48 b53d 47db e0bd d4c6 b9bd 9bff 80bd
00000150: af20 f33d 8230 13bd e28d 6ebd 984f cd3d
00000160: 81b7 c43c 43a6 443d f99c 523b 2258 603d
00000170: 3286 babd e460 cebc 43cd 47bd 3e14 86bc
00000180: 98cb fc3c e252 cdbd b6b0 cc3c 80ae 88bd
00000190: 4b7b bebd 53b8 913d 3684 7a3d bcc6 a2bb
000001a0: 968a 853d 8c61 e0bc 2fed 3b3d 510d c4bd
000001b0: f57e dd3d bca1 a0bd 64eb 93bc 0329 efbc
000001c0: 5940 3f3d ec56 243d 3cd0 47bd 8765 c53d
000001d0: 9081 94bc e5a2 bfbc 024d c4bb f8b7 2f3d
000001e0: 5b91 4dbd 328d b23d 65a2 d53d 4af1 f6bd
000001f0: 2302 cdbd ce63 afbd 163e 5fbd ba9f 7b3d
00000200: e8d1 d83d de54 25bb 67d5 0fbd a5fd abbc
00000210: 2095 bbbd bb43 cabd 434f 3dbd 2712 08bd
00000220: ef7d 883c 4561 d1bd 1c64 4439 3127 b2bd
00000230: 88ad dbbd 053a 43bd ab06 9f3d 6745 fe3d
00000240: 6d31 babd ffcc 3fbd a261 483b 570d 113d
00000250: bc19 6dbd d819 bf3d 62e6 96bc 870a 353d
00000260: 46f3 503d 8e76 b63d 8328 ab3d e047 46bd
00000270: e147 ea3d 3805 95bc c865 5f3d 7a27 aebd
00000280: 18dd 3dbd 3835 b23d 5b12 a4bd 80bb 9bbd
00000290: bc50 b13c 503f dd3c 89dc f0bc 403f 34bd
000002a0: 99e4 cebc 4f4b c8bc e6fb d13d 8896 7839
000002b0: 4088 a73d fabf 7ebc 7de4 abbd c9a2 843d
000002c0: 2341 543d 5e9f b9bc 626a 933c 685c 86bd
000002d0: 5895 b63d 8f64 41bd 5fed 0abd 15cd a53d
000002e0: c71e cc3c fb1c 0e3d 2e84 a03c 840c c73d
000002f0: 8284 2e3d e867 4d3d 93bf a1bd a224 83bd
00000300: 4c86 44bd 803c 9fbd 0b4b 093d a650 493c
00000310: 3e47 3dbd 865a 803c 142d d93d 7c5f d1bd
00000320: 1fa9 00bc 0551 dfbd e2d5 edbc 2ff2 97bd
00000330: ef63 6b3c 6c3a ab3d 27b8 98bc 2f81 e23c
00000340: 1e97 ad3d 9642 563d 2675 bd3d 2c0c 9dbd
00000350: c20d 01bc 30eb c2bd 6492 c0bd 442f e1bd
00000360: 57df ec3c 39ce d73d 35d6 8b3d ceca 663c
00000370: 44da d4bd 3346 7d3d f9c8 ccbd 2fb7 3dbd
00000380: 0571 f4bc e786 0fbd c43c b53c d1c6 743d
00000390: 8ab1 893d 2b72 403d 4231 b93d c1c5 db3c
000003a0: 4da4 80bd 6eb6 aabc d171 46bb e990 143c
000003b0: f8ba 353d 958d 22bc c820 b03d 3c82 9f3d
000003c0: 8ef2 e03b 07c0 cabc 919d 323d 643a 90bc
000003d0: 989a 8dbd ad83 c8bd 738c efbc bff9 403d
000003e0: f2bb b33d f3b5 7d3d b2e8 84bc 5a9d b73d
000003f0: 1696 92bd 9f0a a7bd dda5 e83d 4842 8b3c
0.0605119 -0.028822197 -0.03077916 0.023140445 0.06175652 -0.044964753 -0.006002682 -0.038636353
0.027653923 -0.020421756 0.13569412 -0.07908147 0.02451463 0.019045882 0.12380421 -0.06029137
0.052685965 -0.08860302 -0.03669282 0.13234258 -0.0290078 -0.069343954 0.019255515 0.0053448505
-0.010921438 -0.03412619 -0.068679914 -0.05133539 -0.008097379 -0.028493734 0.12011441 0.13663931
-0.04354377 -0.0642885 -0.030991623 -0.05774842 0.063865766 -0.058238186 0.053120628 0.008066095
0.033372547 0.038565557 0.052781746 0.060939018 -0.016055213 -0.010207205 -0.011973644 0.08427857
0.081670254 -0.06977182 0.045528617 0.03735968 0.060641192 0.018241381 -0.06638293 -0.035950094
-0.005058991 -0.0145331165 -0.035464723 -0.01270661 -0.0861305 0.064720124 0.007844537 0.085867696
0.02952439 -0.05351258 -0.059603423 0.1241829 0.08715889 0.13151631 0.02324728 0.05901616
-0.0036048996 -0.004243245 0.06569805 0.08632295 0.14398332 0.063853 0.009856088 -0.07663473
0.088516824 -0.10979324 -0.090711266 -0.06298753 0.11871468 -0.035934933 -0.05824078 0.10024947
0.024013283 0.048010122 0.003213702 0.05477155 -0.09107627 -0.025192685 -0.048779737 -0.016367074
0.0308588 -0.10025574 0.024986606 -0.06673908 -0.0930086 0.07115235 0.061161242 -0.0049675386
0.06520574 -0.027390264 0.045880493 -0.095728524 0.10815231 -0.078433484 -0.018056579 -0.02919436
0.046692226 0.040121958 -0.048782572 0.096385054 -0.018128186 -0.023393104 -0.0059906254 0.042900056
-0.05018745 0.08718337 0.10431365 -0.12057741 -0.10010173 -0.08563958 -0.05450257 0.061431624
0.105869114 -0.0025227587 -0.035115626 -0.02099497 -0.09159303 -0.098762 -0.046218168 -0.033220436
0.016661612 -0.10223631 0.0001872931 -0.086988814 -0.10726458 -0.047662754 0.07764944 0.12415581
-0.090914585 -0.04682636 0.0030575772 0.035413112 -0.05788587 0.09331101 -0.018420402 0.044199493
0.051013254 0.08909331 0.08357336 -0.04840839 0.11439491 -0.018190965 0.054540426 -0.08503623
-0.04635343 0.08701557 -0.080113135 -0.07604122 0.021644942 0.027007729 -0.029402034 -0.044005632
-0.025255488 -0.024449972 0.10253124 0.000237072 0.081802845 -0.0155487005 -0.0839319 0.06476361
0.05181993 -0.022659 0.017995063 -0.06560594 0.08915204 -0.04721504 -0.03391778 0.08095757
0.02491702 0.034695607 0.019594278 0.09719184 0.042606838 0.05014792 -0.07897868 -0.064034715
-0.047979638 -0.07775211 0.033518832 0.0122872945 -0.04621052 0.015668165 0.10604301 -0.1022329
-0.007852822 -0.10904125 -0.029032651 -0.0741924 0.014367088 0.083607525 -0.018642498 0.02764949
0.08476089 0.052309595 0.0925086 -0.07668337 -0.007876815 -0.09517515 -0.09402922 -0.10995343
0.02891509 0.10537381 0.06827966 0.014086438 -0.10393193 0.061834525 -0.0999927 -0.046317276
-0.029839048 -0.035040762 0.022123702 0.05975992 0.06723316 0.04698388 0.09042598 0.026827695
-0.06281338 -0.020838942 -0.0030280242 0.009067752 0.04436776 -0.009921451 0.086000025 0.07788512
0.0068648523 -0.024749769 0.0436073 -0.017605968 -0.06914252 -0.0979074 -0.029241776 0.047113176
0.08776082 0.0619411 -0.016224239 0.08965559 -0.07157533 -0.08156323 0.11359761 0.016999379

layers.6.bias f4 [64]
00000000: 93a9 5d3d e5bd eb3d 7450 91bd fcb9 273d
00000010: bee6 dcbd c893 c9bd ad3a 2abd 9599 2f3d
00000020: 00f3 283d ccb7 2fbc 7746 453d 6d48 043d
00000030: 2a11 d23d 9e7e b7bc feeb dd3c bfe6 23bd
00000040: 9a41 59bd 0355 b9bd 513f f53d bc2c 05bb
00000050: 9849 3e3d 09fa 833d 2213 a9bd 59e2 0c3b
00000060: 2899 3f3c d044 b0bd 69f5 d5bd c1c7 55bd
00000070: 0d23 e03c e6b3 e73d 42cf e9bd f523 cbbd
00000080: c136 013e 52db 063e 7a49 b2bd 8060 9bb8
00000090: 0f78 97ba 33e5 8f3d 0a3b 9bbd a436 0f3d
000000a0: 1368 023d e613 8e3d 7231 a93c d288 6b3d
000000b0: 59dd d3bc 3e3e d73d deb1 203d 726c 94bd
000000c0: f33f b7bd 4293 8dbd c302 6e3d 501b 48bd
000000d0: 849e 1cbd 5486 8a3c 7888 07bd f6a3 9b3d
000000e0: 88f5 8a3d a59b 86bc efcf c63d 5aff 063b
000000f0: ae99 573d d99c 843d c0a4 c2bd 3fa4 a2bd
0.054116797 0.11510829 -0.07095423 0.040948853 -0.10786198 -0.0984264 -0.041559864 0.042871077
0.041247368 -0.010724973 0.048162904 0.032295633 0.1025718 -0.022399243 0.027090069 -0.04001498
-0.05304108 -0.09049418 0.11974967 -0.0020320853 0.046456903 0.06444175 -0.082556024 0.0021497218
0.01169423 -0.08606875 -0.10447199 -0.052192453 0.027360464 0.1131361 -0.114164844 -0.09918968
0.12618543 0.13169602 -0.08705421 -7.4089505e-05 -0.0011556166 0.07026138 -0.0757962 0.03496422
0.031837534 0.06937389 0.02065346 0.05750353 -0.025862383 0.10509919 0.039232127 -0.07247247
-0.08947744 -0.06912853 0.058108103 -0.048854172 -0.03823711 0.016909756 -0.03308913 0.075996324
0.067851126 -0.016431639 0.09707629 0.0020598979 0.052636795 0.06475229 -0.0950408 -0.07941484

layers.8.weight f4 [1, 64]
00000000: f727 94bd 3eba d6bd 9730 c0bd 06b8 d3bd
00000010: 1795 c7bd 87d4 42bd f25c c13d 7f49 183c
00000020: 8262 013d 8816 933d f5a8 52bd 34d1 12bd
00000030: b7c7 913d 517a ddbd f25e ce3d e1b6 d73d
00000040: a504 c13d 70a0 4b3c 21fe e9bd 7b32 593c
00000050: 002b 0ebe 4b80 f83c c5ee 52bd 18a0 a03c
00000060: a289 283d 601b 433d 0927 033e f778 b3bd
00000070: a319 0bbe d874 a7bd ed3c 703d 0cb9 7abd
00000080: 0b7a f4bd 64f1 07be 97a9 e13d 35af fd3c
00000090: 8f40 d8bd 5257 1a3e 3d17 d73d aea1 f0bd
000000a0: 418f bdbd 9532 b43d 4791 0a3e 7a13 1d3d
000000b0: 1db4 7b3d 82c7 013e 26b6 5bbd 14f8 11bd
000000c0: 5ffc 8d3d d249 7cbd d578 903d c0fc 71bd
000000d0: e847 c93d e1aa 02bd 10ac a8bd dd4d 48bd
000000e0: 6ec8 2cbd 71ae ee3d 3abf efbd cd82 b5bd
000000f0: f63f d6bd dea9 9abd 4111 883b c190 06bd
-0.07234185 -0.10484742 -0.09384268 -0.10337834 -0.097452335 -0.047565963 0.09441556 0.009294867
0.031588085 0.07182032 -0.05143066 -0.035844043 0.07118171 -0.10814346 0.10076703 0.10532928
0.09424714 0.012428388 -0.11425424 0.013256664 -0.1388359 0.030334612 -0.05149724 0.019607589
0.041146882 0.04763353 0.1280786 -0.087633066 -0.13583998 -0.08176583 0.058651853 -0.06121163
-0.1193734 -0.13275677 0.11018675 0.030967334 -0.105591886 0.15072373 0.10502479 -0.11749588
-0.09255839 0.0879871 0.13531981 0.038348652 0.061451066 0.12673762 -0.053640507 -0.035636976
0.069329016 -0.061593838 0.07054297 -0.05907893 0.09828168 -0.031901244 -0.08235943 -0.04890238
-0.042183332 0.11654366 -0.117063954 -0.08862839 -0.10461418 -0.07551931 0.0041524475 -0.03285289
