flwr-mlp/models/checkpoints/round_013.pt (torch, 127593 bytes, 7 tensors)

layers.0.weight f4 [256, 19]
000000 06 73 81 bd 8e 36 1f be 8d 6f 40 3c 6b 0e 6d be
       -0.06320767 -0.15548155 0.011745346 -0.23150031
000010 55 ae 25 3c eb 08 0b be 77 a5 a4 bd 7e cb 45 be
       0.010112365 -0.1357762 -0.080393724 -0.19315907
000020 c1 ec 30 3e 90 cb fc bd ca 78 1e 3d 33 12 1b 3e
       0.17277814 -0.12343514 0.038689412 0.15143661
000030 60 24 ff bc ed d2 0c be 52 90 4a 3e 5e f9 33 bd
       -0.031145275 -0.13752337 0.19781616 -0.043938987
000040 5b cf 0d be 6d 7b 45 3d 1d d8 4b be ee 06 3b be
       -0.13848631 0.04821341 -0.1990666 -0.18264362
000050 b6 34 10 bd be f5 e8 3d 46 e2 88 3a 33 c8 a5 bd
       -0.03520652 0.113749966 0.0010443411 -0.080948256
000060 0a 19 ae bc 84 b4 46 3e fb 8b 5a be 23 35 aa 3d
       -0.021252174 0.19404799 -0.21342461 0.08310916
000070 01 76 00 bd b5 23 16 3e 55 77 13 3e 9f a1 e9 bd
       -0.031362537 0.14662059 0.1440099 -0.1140778
000080 fd 7f 76 bd c2 fb 8b 3d c2 8b ab bd 8b d1 f0 3d
       -0.060180653 0.06835128 -0.08376266 0.11758717
000090 f8 06 34 3e a8 87 dc bc 6a 8e aa 3d d2 12 e1 3d
       0.17580783 -0.026920155 0.083279446 0.10989918
0000a0 85 86 8f ba 89 b3 0d be da cc 90 3d 20 35 89 bd
       -0.0010950124 -0.13838018 0.07070322 -0.06699586
0000b0 79 33 df 3d c5 24 67 be 7c 0c a6 3c c9 f1 76 3e
       0.108984895 -0.2257262 0.020269625 0.24115671
0000c0 71 9c 0a 3e 46 9f 9c bd 42 c2 9a 3d f5 81 1c 3e
       0.1353624 -0.076475665 0.07556583 0.1528395
0000d0 f9 17 ef 3d ec 18 dd bb 62 f9 4a 3d e1 00 0d 3e
       0.11674494 -0.0067473557 0.049554236 0.13769867
0000e0 59 4d c7 bd e7 7a 8a 3e 5c 38 5f bd 11 17 61 3d
       -0.0973155 0.27046892 -0.054497108 0.05495364
0000f0 15 e8 b3 3d 5d 6b a0 bd 7d 18 59 be 7d 1e 50 be
       0.087845005 -0.07832978 -0.21200748 -0.2032413
000100 eb dd 6a 3e b4 84 14 bd 04 e1 b9 3b 1c ab 43 3e
       0.22936217 -0.036259368 0.005672576 0.19108242
000110 3e d1 eb bd be 11 a1 bd f6 c6 92 3d 34 03 0d be
       -0.11514519 -0.07864712 0.07166855 -0.13770753
000120 0d 8d b5 bd ef 33 75 bd 4b 0b 60 3d 2a eb 0e 3e
       -0.08864794 -0.05986398 0.05469827 0.13956895
000130 44 41 c6 bd 42 99 b9 bd 4c 3e 32 3e 18 45 e2 bb
       -0.09680417 -0.09062435 0.17406577 -0.0069052093
000140 9b 8b 43 3e f0 dd 2b 3e f7 90 3c 3e 0b c6 0b 3e
       0.19096224 0.16783881 0.18414675 0.13649766
000150 52 37 40 3e 00 26 2c bc f4 f2 13 be fc ad de bd
       0.18771103 -0.010507107 -0.14448148 -0.10873029
000160 16 e5 4e be b3 71 39 bd e8 f2 e3 bd b0 70 c4 3d
       -0.20204577 -0.045274448 -0.11130315 0.09591806
000170 09 16 53 bd 59 ba 4a bd 3f 53 2e be ab 58 81 3d
       -0.051534686 -0.04949412 -0.17023943 0.0631574
000180 be a3 12 3e c6 4d c9 bd 86 56 42 3e 56 12 fc 3d
       0.14320275 -0.09829287 0.18978319 0.12308185
000190 98 ab 64 be a8 61 10 3e 43 fe 6c 3e 6c 70 bb bd
       -0.22331083 0.14099753 0.23143868 -0.09152302
0001a0 e5 9a 47 be e8 e0 b5 3d 1d 25 8f be 67 ab 17 3d
       -0.19492681 0.08880788 -0.27958003 0.037028696
0001b0 14 35 2f 3e 1a bb 25 3e 25 15 bb 3a c5 be fc 3d
       0.17110091 0.16184655 0.0014273269 0.12341074
0001c0 a4 17 ea bc 3d d7 76 be 1b c6 e3 3d af 1f 37 3e
       -0.028575726 -0.24105544 0.1112177 0.1788318
0001d0 0d b3 d7 3d 63 4e b3 ba 9e 26 dd bd 7b 83 b6 bd
       0.10532198 -0.0013679977 -0.10798381 -0.08911797
0001e0 f8 f8 18 be 72 72 30 be 50 32 3b be 6d d2 7f 3e
       -0.14938724 -0.17231157 -0.18280911 0.24982615
0001f0 ad fa 58 be 57 24 c6 bd 12 0e 33 3d 63 49 03 be
       -0.21189375 -0.096749 0.04371459 -0.12820964
000200 9a e8 12 3e a9 1b e9 bd 3c c3 c5 3c 2a 59 53 bd
       0.14346543 -0.11382229 0.024140947 -0.051598705
000210 bf 2d 7a 3c 9d c2 27 3e 82 ac 3d be 46 85 1f bd
       0.015269696 0.16382833 -0.18522838 -0.03894546
000220 ec 08 08 be 2e 91 0b 3d 0d 4f 74 bc fc 5e 2f be
       -0.13284653 0.034074 -0.014911425 -0.17126077
000230 47 92 d2 bd e9 7c 5b bd 33 54 73 bd 03 2e cf 3c
       -0.102818064 -0.05358592 -0.05940647 0.025290495
000240 0f 49 52 3d 02 de 4c 3e 63 9d 17 3e 20 bd ef bc
       0.051339205 0.20006564 0.14806132 -0.029264987
000250 c8 5a 8e bd 9a fb 79 be 7d ee 8d bb 07 7f 1e bd
       -0.06950909 -0.24412385 -0.0043314085 -0.03869536
000260 75 36 2f bd d8 99 af 3d 88 e1 af 3d 22 1c 4d bd
       -0.042776544 0.08574265 0.085879385 -0.050075658
000270 51 9b f6 3d e1 29 76 3e 80 61 06 3e 0a 58 14 3e
       0.12041343 0.24039413 0.13123131 0.14486709
000280 5d 02 6d 3e 5e 4d 81 3d 73 ac bf bd 02 25 8b 3e
       0.23145433 0.06313585 -0.09359064 0.27176672
000290 99 52 82 be 76 23 12 3e eb e2 1a 3d ea 7f b9 3d
       -0.25453642 0.1427134 0.037814062 0.09057601
0002a0 74 dd 9a 3c 94 42 3b be 4f 70 3a be a9 75 6d 3e
       0.018904425 -0.18287116 -0.18206905 0.23189415
0002b0 18 b0 a0 bc a0 4e 12 bd 3a 7d 7d bd 0e fc 50 3e
       -0.019615218 -0.035719514 -0.061887003 0.20408651
0002c0 2a f9 e2 bd 63 e2 ab bc cb cb 44 3e 3f 49 34 3e
       -0.110826805 -0.020981973 0.19218366 0.17606066
0002d0 50 3f 7d bd be 9b cf bc 26 aa 99 bc 1a 65 1d 3e
       -0.061827958 -0.025342818 -0.01875789 0.15370598
0002e0 4f 46 11 3d 71 9e fb 3d dd 25 98 bc 52 52 df 3d
       0.035467442 0.1228608 -0.018572742 0.10904373
0002f0 e3 3d d1 3d 51 c1 70 3b 17 7c 9c bd a9 bc b8 3c
       0.10216882 0.003673632 -0.07640856 0.022550898
000300 49 c5 ed 3d 35 a5 8e 3d d7 21 77 bd 39 b9 d1 3d
       0.11609895 0.069651045 -0.060335007 0.102404065
000310 44 7d dc bd 93 3a 16 3e 80 d1 17 3e 88 8d 9d be
       -0.1076608 0.14670782 0.14826012 -0.30772042
000320 eb 51 6c be ba d4 ea bc a1 98 c6 bd a6 f0 1b be
       -0.23078124 -0.028665889 -0.096970804 -0.15228519
000330 63 8a d1 bd 63 a3 19 3e f4 75 28 3e 2d 87 f0 3d
       -0.10231473 0.15003733 0.16451246 0.11744533
000340 29 2c 56 3c 42 31 67 3e 9d c1 d9 bd 4a a7 a5 ba
       0.013072052 0.22577384 -0.10632632 -0.0012638357
000350 e1 13 41 3e 1b d9 55 be 4f 80 b5 3d f5 eb 7f be
       0.1885524 -0.208836 0.088623635 -0.24992354
000360 43 73 d2 3d cf 35 56 3e 51 b9 1a 3e 3f bd 28 3e
       0.10275891 0.20918964 0.15109755 0.16478442
000370 b9 38 4e be ba f6 e0 3c bb 1b 37 be 63 e6 03 bc
       -0.20138825 0.027461398 -0.17881672 -0.008050534
000380 cc 04 13 bb 59 22 85 bd 63 f3 2c 3e cc 66 00 3d
       -0.002243328 -0.06500692 0.1688972 0.031348035
000390 85 20 cd bd e3 14 62 3e f9 48 5d bd b5 f4 8d bc
       -0.10015968 0.2207828 -0.05402467 -0.0173286
0003a0 ef c7 b8 3d 42 43 40 bc c1 98 36 be f8 58 92 bd
       0.09022509 -0.0117347855 -0.17831708 -0.07145876
0003b0 e1 e5 7e be ed ca 98 3e 01 3a 5e be a4 bd 10 bc
       -0.2489238 0.2984232 -0.21701814 -0.008834276
0003c0 e0 0b 12 3e 81 31 d6 3c 71 77 f9 3b 56 f8 d1 3d
       0.14262342 0.026146652 0.0076131155 0.102524444
0003d0 6a f9 64 be 36 c5 0f 3d 4e 8a 3c 3d 23 49 ba bd
       -0.22360769 0.035100184 0.046030335 -0.09095981
0003e0 21 78 c1 bd 0e 47 9c 3c 26 89 54 bc 96 9a e5 3d
       -0.09446741 0.01907685 -0.012972152 0.112111256
0003f0 7f 0b 3e be 74 0c 8e 3d 4f 0c ed 3d a0 d4 24 be
       -0.18559073 0.06935969 0.11574613 -0.16096735

layers.0.bias f4 [256]
000000 db 36 31 3d a5 ea 1e bd c2 7f 68 be 3e 8c 6c be
       0.043265205 -0.038797993 -0.22704986 -0.23100373
000010 da 56 46 be a5 65 e3 bd cd 33 90 bc 73 10 03 be
       -0.19369069 -0.111033715 -0.017602826 -0.12799244
000020 6b 29 53 be c4 84 3a bd 0c 19 93 3d 34 5a 87 bd
       -0.20621268 -0.04553677 0.07182512 -0.06609002
000030 28 36 b0 3d c2 f6 9e be 9b 78 2e be 9a b1 12 be
       0.086040795 -0.31047636 -0.17038195 -0.14325562
000040 17 e7 88 3d b5 6d 14 3c 26 a5 fa bd d3 45 29 be
       0.06684702 0.009059359 -0.12238531 -0.16530542
000050 c9 50 90 bd e8 ac f3 bd 43 82 ca 3d 88 6d 14 be
       -0.070466585 -0.118982136 0.09888127 -0.14494908
000060 35 55 a9 bd 3c 7f ec bd 68 d0 90 bc cb 72 26 be
       -0.08268205 -0.115477055 -0.0176775 -0.16254728
000070 30 4f 74 bc db f7 21 bd 8b 2f 19 bd b0 da 20 3d
       -0.014911458 -0.039543014 -0.037398856 0.039271057
000080 50 8d 2a be c4 d7 cb 3c e2 6d 08 be 30 db 69 bd
       -0.16655469 0.024883159 -0.13323167 -0.0570938
000090 f3 0a b0 bc a0 f6 8b bd ee 6b 2b be 06 fe b6 3d
       -0.021489596 -0.06834149 -0.1674039 0.0893517
0000a0 5b 52 7f be 68 0b 58 be 63 db 57 be 4d 77 56 be
       -0.2493376 -0.21098101 -0.21079783 -0.20943947
0000b0 96 b9 5a be 7c d9 2f be ce fc 93 bd 1d f6 e7 3c
       -0.21359858 -0.17172807 -0.07225953 0.028315598
0000c0 9c 89 06 be 5d ca 66 be 9c b4 2d be b0 a9 91 bd
       -0.13138431 -0.22538133 -0.16963428 -0.071124434
0000d0 b4 a1 02 be 0e 15 2a bd 39 60 07 be bd 59 b7 3c
       -0.12756997 -0.041523986 -0.132203 0.022381658
0000e0 05 8b 8b be 4a a1 10 3c 31 7d 36 be 65 f3 29 be
       -0.272545 0.008827517 -0.17821194 -0.16596754
0000f0 8f 2c 9e be 0c 59 49 be f8 32 e1 bd 5f 6f 8f be
       -0.3089337 -0.19662875 -0.1099605 -0.28014657
000100 3b e8 80 bd cb b9 9e bc 3d d0 52 be 6d 5d b6 be
       -0.062942944 -0.019375702 -0.20587249 -0.35618153
000110 07 10 8a be f2 4b 23 be c7 91 8b be 3a df b3 3d
       -0.26965353 -0.1594694 -0.27259657 0.087828115
000120 cd 11 9e bd ee a8 84 be 55 b4 4c be c8 58 ae bd
       -0.07718239 -0.25910133 -0.19990666 -0.085130274
000130 f8 e7 8d be fc ed 51 be ba ac 6f bd 00 7d 61 ba
       -0.2771604 -0.2050094 -0.058514334 -0.00086016953
000140 6b 33 a6 3c 27 ab 02 be 59 72 24 3d fc 64 1f be
       0.02028819 -0.12760602 0.040148113 -0.15565866
000150 b3 c2 86 be cd a2 5b be 60 0d 7a bd 47 1c 06 3e
       -0.2632042 -0.21448822 -0.06104791 0.13096724
000160 9b ad 02 be 18 d3 07 3d dd 26 83 be eb 46 11 39
       -0.12761538 0.0331603 -0.25615588 0.00013854697
000170 a6 ed 5c be 40 6a f6 bc 4e 15 7e be 88 51 32 be
       -0.2157503 -0.03007996 -0.24812815 -0.17413914
000180 0f 57 88 be 62 70 29 be 3a 9c a6 be aa ab 89 be
       -0.2662892 -0.16546777 -0.32541066 -0.26888782
000190 6a 96 f1 bd 50 29 09 be 75 21 61 bd f9 8a 70 be
       -0.11796267 -0.13394666 -0.054963548 -0.23490514
0001a0 b4 4f 74 be 65 f3 6f be 72 2f 53 be 0b 2b 41 be
       -0.2385853 -0.23432691 -0.20623568 -0.18864076
0001b0 92 60 61 3c 2d 84 70 be 9b 80 98 be 6b 32 9c 3c
       0.013755934 -0.23487921 -0.29785618 0.01906701
0001c0 da 81 f9 bd 86 8d d4 bd 98 e4 71 be cb 61 3d bd
       -0.1218297 -0.10378556 -0.23622358 -0.04623584
0001d0 d0 d0 5d 3d 35 6c 81 bd 86 74 6d bc 41 2f 31 be
       0.054154217 -0.06319467 -0.014493113 -0.17303182
0001e0 4c 88 63 be 5c a5 15 be 44 d7 5f be 39 dd 12 be
       -0.22219962 -0.14613861 -0.21859461 -0.14342202
0001f0 6c c6 19 bb 52 f5 8e be 50 bc df 3d ae 6b f0 bd
       -0.0023464216 -0.2792154 0.1092459 -0.11739288
000200 90 87 76 3c 54 0e 9f bd 28 08 0f bb be 84 74 be
       0.015046969 -0.07766405 -0.002182493 -0.23878762
000210 3d d3 50 3d 8f 68 0b be 44 9a 23 3c fe 92 44 be
       0.050982703 -0.13614105 0.00998551 -0.19196698
000220 60 7f 83 3d 0a e9 b6 bd 60 a9 59 3d 9a 61 2f be
       0.06420779 -0.089311674 0.053140044 -0.17127076
000230 f2 0a 03 be 19 10 3d be 7c b8 01 be 8a 5f 88 3c
       -0.12797144 -0.18463172 -0.12668031 0.01664712
000240 81 8d 86 bd f8 74 ee bd d3 9b c6 bc 0c f9 ae 3d
       -0.065699585 -0.11643404 -0.024244225 0.08543596
000250 b9 25 86 be 13 c8 bf bd 03 3e 8f be e5 b3 a8 bd
       -0.26200655 -0.09364333 -0.27977 -0.08237437
000260 37 b4 b6 bc 16 83 41 3d 5c 10 b9 bd 16 56 35 be
       -0.02230273 0.047244154 -0.090363234 -0.1770862
000270 00 83 04 be 95 a6 ec bd db 45 aa bd 66 74 f2 bd
       -0.12940598 -0.115552105 -0.08314105 -0.118386075
000280 5a 5e 87 be a2 ed a3 bd 6d 6b d5 bb 6b 9c 65 bc
       -0.26439172 -0.08004309 -0.0065130503 -0.014014344
000290 38 77 e3 bd 9c 22 c6 bb 89 67 6c be 85 22 64 be
       -0.111067235 -0.006046606 -0.2308637 -0.22278793
0002a0 54 dc 8e bd 66 72 6d be d3 23 13 3d 7f 89 41 3d
       -0.06975618 -0.23188171 0.035922837 0.047250267
0002b0 ca 0f 49 be a5 87 a2 bd b1 46 63 be 2b bb 69 be
       -0.1963493 -0.079360284 -0.22194935 -0.22825305
0002c0 5b 3c 93 be 84 cf a2 bd b7 45 a2 bc f0 f4 a0 bd
       -0.28756985 -0.07949737 -0.019808633 -0.07859218
0002d0 77 2c 9f 3d 35 6c ca 3d f0 90 94 be b9 49 2a be
       0.07772153 0.0988392 -0.2901683 -0.16629685
0002e0 70 fe 1d 3d 9d cf f7 3c 0e 23 40 bb 75 83 ce bd
       0.03857273 0.030250365 -0.002931777 -0.10083667
0002f0 65 7f 07 be cb 1a 69 be 18 63 11 bd 82 b9 d3 bd
       -0.13232191 -0.22764127 -0.035494894 -0.10338117
000300 0e c6 86 3c f1 b4 a2 3d f6 83 4b be a4 ad b7 bd
       0.016451862 0.07944668 -0.19874558 -0.08968666
000310 d2 2d 68 bd a7 b5 80 be 96 c9 d0 bd 13 7e 50 bd
       -0.056684323 -0.2513859 -0.101946995 -0.050901484
000320 3e c0 75 3d fd c1 8e 3d 3d 5f 4e be 36 c4 12 bd
       0.05999779 0.06970594 -0.20153518 -0.035831653
000330 5f 7f 9f bd 45 74 93 be ef c8 8e be 2a d8 d0 bc
       -0.07787966 -0.28799644 -0.27887675 -0.0254937
000340 1c 3a ca 3c 71 b8 3c 3d cb ec 0a be cf 1b 28 be
       0.024685912 0.046074335 -0.13566892 -0.16416858
000350 0a 2b 93 be 09 53 76 be 6d 32 fb bc c2 bd a3 bc
       -0.28743774 -0.24055113 -0.030663693 -0.019987945
000360 26 f9 39 be 07 51 82 be c9 a6 ac 3d 67 31 5d be
       -0.18161449 -0.25452444 0.08430249 -0.21600877
000370 c7 b1 96 be 2f 52 89 bb 94 e6 cd bd f9 6a ae bd
       -0.29432508 -0.0041907053 -0.10053745 -0.08516497
000380 e1 29 a5 be 2b 1b 36 bd e6 8d b7 3c b3 11 03 bd
       -0.32258514 -0.044459503 0.02240653 -0.0319993
000390 a6 70 1c be e0 28 73 be 8b 93 4c be d4 45 4b be
       -0.15277347 -0.23746061 -0.19978158 -0.19850856
0003a0 fb b8 1d be 11 df 55 be cc 9e 4a be b4 1c c1 bd
       -0.15402596 -0.20885874 -0.19787139 -0.09429303
0003b0 dd c2 dc 3c 85 7b 84 bd 71 d4 76 be b6 33 8f be
       0.026948387 -0.06468872 -0.24104477 -0.2796914
0003c0 c5 cf 43 be 8e 14 9d be bb 8e 68 be 12 11 e3 3d
       -0.19122227 -0.30679744 -0.22710697 0.1108724
0003d0 c0 96 42 be 14 15 63 bd 37 da 3e be e4 58 14 3c
       -0.19002819 -0.055440024 -0.1863793 0.009054396
0003e0 1b 8f 86 be b5 0b 55 3b f5 d2 eb 3c ae fd e7 bc
       -0.26281056 0.0032508199 0.028787116 -0.028319206
0003f0 db f5 8d 3d c1 2f 9b ba 67 4f 36 be 60 e7 e2 3c
       0.06931659 -0.0011839793 -0.17803727 0.027698219

layers.3.weight f4 [80, 256]
000000 96 05 4b bd 43 1b 5a 3d f8 88 f4 3b ae 54 c3 bc
       -0.049565874 0.053248655 0.007462617 -0.02384409
000010 16 fb 86 bd 49 61 8d bd 64 48 8c 3d 59 38 8b 3d
       -0.065908596 -0.06903321 0.06849745 0.06797857
000020 58 5c 91 3d c8 5f f3 bd fc 76 b6 bc d6 b8 c2 bc
       0.07097691 -0.11883503 -0.022273533 -0.023769777
000030 c3 ce 07 3c 39 74 6a 3d a8 c5 fc 3c b9 15 69 3d
       0.008289042 0.057239745 0.030855969 0.056905482
000040 48 4b 72 bd 5a 0e 82 bd f5 cc ef 3c b6 bc 6b 3d
       -0.059153825 -0.063503936 0.029272536 0.057553016
000050 c8 bc b2 3d 2b 6f e6 3c 88 67 37 3d 5a 1a 29 3d
       0.087274134 0.02812918 0.04477647 0.041284896
000060 47 2f d1 3d fe 8a 32 bd 34 6b 3f 3c ae 24 82 3d
       0.102140956 -0.043589585 0.011683274 0.06354652
000070 00 bf 93 bd 59 c6 d7 bc c9 75 17 3d e6 cf ce 3b
       -0.07214165 -0.026339697 0.036977563 0.0063114045
000080 b7 6b b0 3d 18 b9 d1 bd 62 cf 86 3d 04 ed 7d 3d
       0.08614295 -0.10240382 0.06582524 0.061993614
000090 90 28 f2 bd 9f 0c a0 bb 84 cf 83 3d 62 21 e8 bd
       -0.11824143 -0.004884317 0.06436065 -0.11334492
0000a0 b8 87 62 3a d2 7e a5 bd ba 55 b6 bd 39 08 62 3d
       0.00086414395 -0.0808083 -0.0890307 0.055183623
0000b0 d1 f7 9d 3d 5e 11 84 bd 52 1a b9 3b b9 56 70 3d
       0.07713283 -0.06448625 0.0056488896 0.058676455
0000c0 48 40 6a bd 2a 90 12 3d 76 c7 04 3d b6 3b f7 b9
       -0.05719021 0.035782017 0.032416783 -0.00047156
0000d0 62 2a b7 bc 62 22 41 bd 72 33 4f bd 0d 32 ad bc
       -0.022359077 -0.04715193 -0.05058617 -0.02114203
0000e0 28 01 a4 3d f5 df 17 3d 08 d6 95 ba 7c 22 08 be
       0.08008033 0.037078816 -0.0011431584 -0.13294405
0000f0 23 95 11 3e e7 40 86 bc f3 66 0b 3d 60 ea a3 3d
       0.14217047 -0.01638837 0.034033727 0.08003688
000100 87 21 6b bd 7a ec 8a bb 15 d4 af 3d 4f 73 fa 3c
       -0.05740502 -0.004239616 0.08585373 0.030572562
000110 30 24 85 3d e7 c9 c1 bc b6 51 95 3c f7 2c 22 be
       0.06501043 -0.023655845 0.01822744 -0.15837465
000120 6d ab 19 3d b3 6c 1c bd ea 92 36 bd d9 6d 84 3d
       0.037517 -0.0381896 -0.044573702 0.06466264
000130 45 51 ed bd a3 54 99 3b 00 d9 3e 3d 1b a7 9f bd
       -0.115877666 0.004679279 0.046593666 -0.07795545
000140 74 d5 5c bd 08 27 dd 3c a2 5b 24 bc 47 0f b7 3d
       -0.053914502 0.02699615 -0.010031613 0.08938461
000150 45 20 a1 bd ed 55 20 3d 53 25 f1 3d 8a c8 25 bc
       -0.07867483 0.039144445 0.11774697 -0.010118613
000160 2a 5d ac 3c fb 48 18 3c 3d 41 00 3d 09 61 85 3d
       0.021040518 0.009294744 0.031312216 0.065126486
000170 e3 28 7e bd 37 74 51 bd 52 6e 48 3c a9 1b 24 bc
       -0.06205071 -0.05113622 0.012233334 -0.01001636
000180 5a 0b 3c 3c f6 16 80 bb 2b 30 98 bc 7a 76 a9 3c
       0.011477316 -0.003908987 -0.018577656 0.020686377
000190 e6 08 be bd 0c 3b fa bc ee ec 1d 3d 80 8f 7e bd
       -0.09279041 -0.030545734 0.038556032 -0.06214857
0001a0 90 16 bf bd ab 06 08 3d f4 d9 f6 3d 24 a8 0d 3d
       -0.09330475 0.033209484 0.1205329 0.03458418
0001b0 33 8a 87 bd d8 bd 97 3d bc d5 ad 3c 1d bb ba bb
       -0.06618156 0.07409257 0.02122008 -0.005698575
0001c0 c6 86 03 3d 0b 2a 80 3d ee 38 b0 bd 9f a9 29 bd
       0.03211095 0.06258019 -0.086046085 -0.04142153
0001d0 6f 84 b3 bd 99 6c 51 3c a5 a7 03 3c 13 07 6c bd
       -0.08765494 0.012782239 0.008035575 -0.057623934
0001e0 e3 d8 05 3d b5 76 48 3d 84 dd 90 3d 53 63 45 3c
       0.032677542 0.048941333 0.07073501 0.0120476065
0001f0 7b a3 c8 3b f5 fd a0 3c 91 af d6 bc 6b 01 a6 3d
       0.006123004 0.019652346 -0.026206763 0.08105739
000200 44 af 31 bd 5c f2 84 3c bf 2a 95 bc 7d b8 14 3e
       -0.043380037 0.016228847 -0.01820886 0.14523502
000210 71 8b cc bd 19 97 ea bd a7 c7 4c bd 8b 7d 3a bc
       -0.09987534 -0.11454601 -0.04999509 -0.011382471
000220 b6 4c ae bd 08 3d 93 3d a1 65 3b bc ef ae 1a 3d
       -0.08510725 0.07189375 -0.011437804 0.037764486
000230 22 4c 87 bd a2 59 9d 3c 44 30 b3 bc 14 32 28 3d
       -0.06606318 0.01920778 -0.0218736 0.041063383
000240 98 2d fa 3b 27 89 b6 bc 48 fd ed bd 38 e7 25 bd
       0.0076348297 -0.022282196 -0.11620575 -0.04050371
000250 75 35 1e 3e 72 a4 72 3d 73 99 d5 bc cb f9 94 bc
       0.1545008 0.05923886 -0.026074147 -0.018185517
000260 73 75 82 bc 7f fd eb 3b 4e bd cd bb fc db 89 3d
       -0.015925145 0.00720185 -0.0062786704 0.06731412
000270 8f ee 25 bd d1 f6 28 bc 35 7f d7 ba 35 62 db bc
       -0.04051071 -0.010312752 -0.0016441109 -0.026780227
000280 51 32 1e 3e b1 81 ca 3d 06 31 8b 3c 6c bd 95 3c
       0.15448882 0.09888018 0.01699115 0.0182788
000290 b7 0f 09 bd 2b da 36 bd 33 8d 90 3b 1a 55 1c b9
       -0.033462252 -0.044641655 0.0044113635 -0.00014909022
0002a0 da ad 6a 3d a2 6c 9d 3d cb 9f 58 bc db 83 6e bc
       0.057294704 0.07686736 -0.013221691 -0.014557804
0002b0 7a b3 c4 3d 74 52 1f bc cb b7 d2 3d 4d a8 14 bd
       0.09604545 -0.009724248 0.10288962 -0.036293317
0002c0 3f ba 83 bd 0b cb e6 3c e9 b5 c8 3d 1b ec 4d bd
       -0.06432008 0.02817299 0.098003216 -0.050273996
0002d0 72 a5 95 bd 98 4a 21 3d 2a 27 46 3d 1a 0e 1c 3d
       -0.07306947 0.03937778 0.048377194 0.038099386
0002e0 31 af a8 bc 37 cf f7 3c 2d 33 b8 bd 24 fc 9e 3d
       -0.02059135 0.030250175 -0.08994136 0.07762936
0002f0 a6 34 14 3c 33 79 05 bd 17 78 ac bb c4 34 a4 bd
       0.0090457555 -0.032586288 -0.0052633393 -0.08017877
000300 a4 fe 82 3c e0 7a 9b bd 9a ad 40 3d 3a 89 b9 3c
       0.015990563 -0.07591796 0.04704056 0.022648443
000310 4b 05 a2 3d 78 38 0f 3c 72 f7 55 3d d5 6d d3 bc
       0.07911166 0.008741491 0.052237935 -0.025809208
000320 60 3a 8f bd 01 e8 bc 3d c5 3b 52 bc 76 a1 24 bd
       -0.06993556 0.09223939 -0.012831633 -0.040193044
000330 57 2c 0a 3d cd 7a db 3c b1 2d ba 3d 4d 27 8b bb
       0.033733692 0.026791954 0.09090746 -0.0042466284
000340 bf 01 44 bc 55 2f 91 bc dc 65 9f bd 84 05 d0 3b
       -0.011963307 -0.017722765 -0.077831 0.0063483138
000350 33 b5 26 3d 51 67 5a 3d 45 ef c2 3d 0b 7d a2 3b
       0.04070015 0.053321186 0.09518293 0.004958754
000360 ff 2a 21 3d a7 0f 9c 3d 5c c3 20 bc c5 cb 8c 3c
       0.039347645 0.07620173 -0.009812202 0.017187009
000370 34 21 32 bd 37 b5 59 bd 44 18 88 bd a2 8a 25 3d
       -0.043488696 -0.053151336 -0.06645253 0.040415414
000380 06 72 c9 3d 0c ae 46 bd 48 75 48 bd 99 97 88 3d
       0.09836201 -0.048505828 -0.048939973 0.0666954
000390 20 b2 9f 3d fe 83 e7 3b ac 9b 08 3d 6f d9 67 3d
       0.077976465 0.0070652952 0.033351585 0.056603845
0003a0 a6 5d 26 3d 29 0b 16 3e 73 23 16 3d 29 c1 55 bd
       0.040616654 0.14652695 0.0366549 -0.052186165
0003b0 fd 03 5c 3b 1a 1d c1 3b 5b 67 7f bc 39 b6 c1 3d
       0.0033571713 0.0058933618 -0.015588607 0.09458584
0003c0 e0 00 26 bb 9f ed a6 bd 6e fd 3c bd 25 5e 09 bb
       -0.0025330111 -0.081507914 -0.046140127 -0.0020960656
0003d0 17 00 3a 3d f8 88 a4 3d 01 10 6b 3d 5e be e8 3c
       0.045410242 0.08033937 0.05738831 0.028411087
0003e0 3e 45 ec 3d 42 09 9b bc b7 23 aa bc 74 13 a1 bc
       0.115366444 -0.018925313 -0.020768983 -0.019662596
0003f0 f7 f6 7f bd 07 69 48 3c 6e ec c0 3d aa 2f 36 bd
       -0.062491383 0.012232072 0.094200954 -0.04447905

layers.3.bias f4 [80]
000000 87 e2 64 bd 10 47 8f 3d f9 c2 6f bd 8c 32 47 bd
       -0.055880096 0.06995976 -0.05853555 -0.04863219
000010 de a5 6b bd f9 f1 0c be 49 08 a1 bd 0e 1d 74 bd
       -0.05753123 -0.1376418 -0.078629084 -0.05959802
000020 bd c2 fa b9 a5 00 c1 bd b4 e3 64 bc e4 9e 2e bd
       -0.00047828807 -0.09423951 -0.013970304 -0.042632
000030 86 b6 19 bb 0b 30 2f 3b d0 b9 3c 3c eb 2e 80 3d
       -0.002345474 0.0026731517 0.0115189105 0.06258949
000040 b2 67 86 bc 59 0d 45 3d 27 26 e0 bc 44 1b 39 bb
       -0.016406868 0.048108432 -0.027361942 -0.0028245011
000050 01 8b f2 bd 36 34 90 bd 81 fe 87 3c 3e 76 9f 39
       -0.11842919 -0.070412084 0.01660085 0.0003041494
000060 d6 bd 27 bd b0 a3 fa bd 37 68 13 bd cd c1 e5 3c
       -0.040952526 -0.12238252 -0.03598806 0.028046513
000070 0d ed 9a 3c 2f 47 0a bd 4a 83 fb bd f2 b7 8f bc
       0.018911863 -0.033759292 -0.12280901 -0.017543767
000080 26 2f bb 3c 38 23 58 3d 77 f6 cb bd e2 59 fc bd
       0.02284963 0.052767962 -0.09959119 -0.12321831
000090 1d 97 d8 bc 29 04 45 3d 17 e2 c6 3c 39 ef 95 bd
       -0.026439244 0.04809967 0.02427773 -0.07321019
0000a0 a8 61 1a bd d7 07 f7 bb ee cd 3b bd f1 f0 04 3d
       -0.03769079 -0.0075387764 -0.045850687 0.032456342
0000b0 44 3f 97 bb 31 9e aa bd 27 15 78 bd 9b 12 c3 bd
       -0.004615696 -0.08330954 -0.060567047 -0.09525033
0000c0 34 95 10 bd 42 f5 82 3d b9 82 84 bd 00 38 c5 3b
       -0.03529854 0.063944355 -0.06470246 0.0060186386
0000d0 b2 03 f6 bd 40 74 95 3c cf fc 03 bd d9 4c fb bb
       -0.120124236 0.018243909 -0.03222352 -0.007669073
0000e0 a3 cf 00 bd f2 4f d4 bd 69 a5 f8 bc f8 b8 a6 3d
       -0.031448018 -0.10366811 -0.030352311 0.08140749
0000f0 94 cc 9c 3d f2 24 be bd da 8c 33 3d 9a f3 16 3d
       0.07656208 -0.092843905 0.0438355 0.03685341
000100 d2 c7 c7 bc 90 32 af 3b 86 9d 25 bd 53 a4 07 bd
       -0.024387274 0.0053466037 -0.04043343 -0.033115696
000110 93 06 a3 3a 0c e9 d2 bd 29 bf cb 3c 11 a0 aa bd
       0.0012437872 -0.102983564 0.024871426 -0.083313115
000120 a0 5d a2 bc 25 38 37 bd 06 60 fa bd db 42 17 bd
       -0.019820035 -0.044731278 -0.12225346 -0.036928993
000130 4b 2a f4 bd 89 b5 2b bc 28 7f d5 bd 70 64 f8 bd
       -0.11922129 -0.010480293 -0.10424644 -0.12128532

layers.6.weight f4 [64, 80]
000000 0b ec f9 3d 71 86 e5 bd 8a 9e 17 bc dc 34 9a bc
       0.12203225 -0.11207283 -0.009254107 -0.018824033
000010 95 6f d0 3d f1 51 cd bc 74 4d c5 3c 7d 76 bb 3c
       0.101775326 -0.025063487 0.024084784 0.022883648
000020 36 c1 13 bc 73 fb 0e 3c dd 67 1e 3e 02 b0 2a bd
       -0.009018233 0.008726942 0.15469308 -0.04167176
000030 1a 02 76 3d 7d ec bd bc 75 67 29 3e 45 0c 25 be
       0.060060598 -0.023184055 0.16543372 -0.16117962
000040 c3 9a 6f 3d e7 53 1a be ba 6c 93 3c 91 91 36 3e
       0.0584972 -0.15071069 0.01799618 0.17828967
000050 89 c1 ae 3c 78 eb 82 bd 78 2b 59 bd 11 91 27 bd
       0.02133252 -0.06392568 -0.05301997 -0.04090983
000060 34 ab 2c 3c 8a b9 67 bc 44 b3 07 bc d0 b3 38 bd
       0.010538865 -0.014143357 -0.008282486 -0.045093358
000070 7a e1 b4 bc 0e f8 d1 bd 29 49 35 3e b7 21 30 3e
       -0.022080172 -0.10252391 0.1770369 0.17200361
000080 84 ae ff bd c8 9a 0b be b3 a2 1f 3c e3 08 ba bc
       -0.12484458 -0.13633263 0.00974338 -0.022709316
000090 35 19 67 3d 07 2a 11 be 89 c3 b8 3d 8d 08 7c 3c
       0.056420524 -0.14176188 0.0902167 0.015382898
0000a0 c4 1c 64 3d 81 ad 07 bd 55 d9 f1 3d 69 f2 21 3c
       0.055691496 -0.03312445 0.11809031 0.009884455
0000b0 68 4f cf bd f1 56 36 bd c5 0a 9f bd 06 c5 e9 3d
       -0.101225674 -0.044516508 -0.07765726 0.11414532
0000c0 a8 80 d0 3d 43 26 17 be 67 46 53 3d 28 97 6b bd
       0.10180789 -0.1476069 0.051580813 -0.0575172
0000d0 04 73 a1 3d 5f d1 e7 bc 0c 2e 6d bd 55 7a ec bd
       0.078832656 -0.028298078 -0.05790524 -0.115467705
0000e0 02 73 6e 3d 28 54 92 3d a0 3c 58 bd 48 11 65 bd
       0.05821515 0.07144958 -0.05279219 -0.055924684
0000f0 16 7e 0a be 91 f6 d2 3d 0e c3 14 bd 23 51 e5 3d
       -0.1352466 0.10300935 -0.03631883 0.11197116
000100 a9 76 82 3d 06 d8 e2 bd 4c b3 11 bd f6 18 1a 3e
       0.06370289 -0.110763595 -0.03557138 0.15048584
000110 25 5e e8 3b 29 15 10 3e 3e 72 47 3d 67 03 d0 3d
       0.007091301 0.14070572 0.048692934 0.10156899
000120 78 41 e9 bd 84 77 95 bc f8 b4 fc 3d f2 bc d7 3d
       -0.1138944 -0.018245466 0.123392045 0.10534085
000130 73 1b 25 3e cc 94 b9 3d 0b 60 34 3d 67 18 0d bd
       0.16123752 0.09061584 0.044036906 -0.0344471
000140 a5 d3 1f 3e 33 89 53 be 14 9e 7c bd 4f 1c cf bd
       0.1560808 -0.20657806 -0.061674193 -0.10112821
000150 07 e5 2b 3e f8 3b 99 bb 87 28 bf bc 5d 34 2e 3e
       0.16786586 -0.0046763383 -0.023334755 0.17012163
000160 c8 61 18 bd 63 57 b2 3d ec f1 fa 3c a4 dc 4c 3d
       -0.037202626 0.08708074 0.030632935 0.050015107
000170 f9 74 3b bd c1 d2 7e bd 23 a6 1d 3b 33 eb 13 be
       -0.04576585 -0.06221271 0.0024055324 -0.1444519
000180 33 c5 52 3d 02 f7 17 be 56 82 b7 3d 8c 55 20 bc
       0.051457595 -0.1484032 0.089604065 -0.009786021
000190 c0 b0 f2 bc 14 ff ad 3d 02 fe 22 bd 8e 8e 61 bd
       -0.029625297 0.08495918 -0.039793022 -0.05506759
0001a0 4b 3e bc 3d e8 4f 21 bc 01 6f ea 3d 67 84 d9 bd
       0.09191569 -0.009845711 0.114469536 -0.10620957
0001b0 9f d5 c0 3d d5 99 34 be a5 31 41 3d 7b 01 89 3c
       0.09415745 -0.17636807 0.047166485 0.016724339
0001c0 6e ee ab bc 36 9f 3f bd c8 3f 4b 3a a1 34 0c 3e
       -0.020987716 -0.046782695 0.00077533396 0.13691951
0001d0 b7 07 6b bc 01 e2 e0 bd d3 fb 11 3d 85 6c 5c 3d
       -0.014345101 -0.10980607 0.03564055 0.05381443
0001e0 a0 33 92 bc 3d a6 09 bc 5e c3 36 3e 6f 14 1f be
       -0.017846882 -0.008401451 0.17847964 -0.15535139
0001f0 a4 2d 1f be 64 62 da bd fe 7e 06 be 59 44 c9 3d
       -0.15544754 -0.10663298 -0.13134381 0.098274894
000200 9d 1d 07 3e 83 7f 93 bd 9b b8 aa bc 01 66 e2 bd
       0.1319489 -0.07202055 -0.02083998 -0.11054612
000210 3e 09 7e bd 16 cd 09 be c5 33 19 bd 11 5c 00 be
       -0.062020533 -0.1345714 -0.037402887 -0.1253512
000220 38 25 b7 3d 51 bd a1 bb 39 77 39 bd 1e b1 f1 bd
       0.08942646 -0.0049358984 -0.045279715 -0.118013605
000230 23 e2 1d be 62 d5 43 3a 20 5e 72 3b 69 52 21 3e
       -0.15418296 0.0007470456 0.0036982372 0.15754093
000240 1e e7 36 bd a8 01 f1 bd a8 36 e9 3c 04 81 8f 3d
       -0.044654004 -0.11767894 0.028468445 0.0700703
000250 82 87 0e be ce 75 e4 3d fa f6 96 3c 07 05 c6 3d
       -0.1391888 0.11155282 0.018428314 0.09668928
000260 f4 a9 7b bd 68 83 55 3d f4 b3 17 3e 34 60 ab bc
       -0.061441377 0.052127272 0.1481474 -0.020919897
000270 f4 1c 0d 3e 2f 57 95 3c 44 23 c3 3d 17 64 eb bc
       0.13780576 0.018230049 0.09528211 -0.02873425
000280 f4 28 21 39 b7 29 46 3c 24 6a 8a bd cd f0 bb bd
       0.00015369413 0.0120949065 -0.06758526 -0.091767885
000290 50 b0 71 3d 68 9d 2d 3d d4 4a 86 3b 88 4c 23 3b
       0.059006035 0.042386442 0.0040982757 0.0024917442
0002a0 50 36 5e bd 51 57 33 39 5a c6 d6 3d f3 b8 e8 3c
       -0.054251015 0.00017103298 0.10487051 0.028408503
0002b0 c3 f6 d9 3d e8 a8 86 3c c4 4b 5a bd 56 f3 ff bc
       0.10642769 0.016437963 -0.053294912 -0.031243961
0002c0 35 a9 5b 3d bf 5e 9e bd c8 d5 61 3d 20 72 3c bd
       0.053628165 -0.07732915 0.05513552 -0.046007276
0002d0 ec c0 0a 3e a3 06 88 bd 4d 40 99 bd 41 c2 e2 3c
       0.13550156 -0.06641891 -0.074829675 0.027680518
0002e0 6f de 62 3d d3 8d 81 3d d6 27 82 3d 60 c0 ea 3d
       0.05538791 0.06325879 0.06355254 0.11462474
0002f0 06 63 5f 3d 4d 5b 2f bc 93 c5 04 bd 4d a8 24 bd
       0.054537795 -0.01070292 -0.032414984 -0.040199567
000300 ca f9 cd bd d0 01 d8 bd 46 5e 7d 3d a5 32 3a 3d
       -0.10057409 -0.10547221 0.061857484 0.045458455
000310 8e 74 a4 ba 18 ee 55 bd 26 3c fd 3d ee 9f c1 bd
       -0.0012546943 -0.052229017 0.12364988 -0.09454332
000320 08 d9 da 39 cb c7 b3 bd 1b 4b 87 3c 97 8c d5 bd
       0.000417419 -0.08778342 0.016515305 -0.10427206
000330 24 3c 51 bd 9a 58 6f 3d 7a 20 d1 bd cb fa 53 3d
       -0.051082745 0.058434106 -0.102112725 0.051752847
000340 d6 ea c2 3d 8a 46 81 3c fd d3 9f 3d 11 11 0e be
       0.09517448 0.015780706 0.078041054 -0.13873698
000350 2c 14 67 bb 43 c8 7b bd eb 3f b3 bd 2d f0 1a be
       -0.0035259826 -0.06147028 -0.08752426 -0.15130682
000360 01 e0 9b 3d 0d f1 39 3e d4 05 de 3c cb 6d 23 3d
       0.07611085 0.1815836 0.027102388 0.03989963
000370 66 f7 0b be 3f ef a9 3d ad 90 60 bd a3 7d 49 bd
       -0.13668594 0.08297586 -0.054825474 -0.049192082
000380 59 88 d9 ba f1 7b 00 bd 66 40 28 3d 16 04 91 3d
       -0.0016596421 -0.0313682 0.04107704 0.070808575
000390 a1 ad 8d bc 95 bc 2d 3d 33 5f d3 3d 21 f5 80 3d
       -0.017294707 0.042416174 0.10320892 0.06296755
0003a0 06 b1 e3 bd 20 b2 48 3a 21 06 13 3d 64 4a 43 3c
       -0.11117749 0.0007655937 0.035894517 0.011919592
0003b0 2f dd 53 3d 35 a6 02 3a 1c 1b ea 3d 79 3f e4 3d
       0.05172461 0.0004983873 0.11430952 0.11144919
0003c0 f1 5b 9e 3d a7 ce ff bd f9 5b 93 3d 76 87 77 bd
       0.0773238 -0.12490588 0.07195277 -0.06043192
0003d0 da d6 8d bc b4 52 8e bd 5a 3f 14 3b 7a ed ef 3d
       -0.017314363 -0.06949368 0.0022620768 0.11715217
0003e0 40 1a 21 3d 56 37 c8 3d 5b 8e 38 3c 29 30 bf 3d
       0.039331675 0.097761795 0.011264409 0.09335358
0003f0 4c e0 d9 bc 8d 57 be bd 61 36 26 3e 5d 0a e0 bd
       -0.02659621 -0.09294043 0.16231681 -0.10939477

layers.6.bias f4 [64]
000000 bd e5 a5 3d 06 4a 1c 3e 54 43 d1 bd 59 a4 94 3d
       0.0810046 0.15262613 -0.1021792 0.07257909
000010 20 6f 01 be 2d b4 46 be ea 83 80 3d ef d3 6c 3d
       -0.12640047 -0.19404669 0.062751606 0.057819303
000020 d0 69 9f 3d 7f d2 c4 3d 9f 75 8b 3d b8 ef 65 3a
       0.07783854 0.096104614 0.06809544 0.00087713776
000030 92 13 39 3e 79 c9 2b 3c a5 52 fc 3d 88 00 8d 3d
       0.18073872 0.010485047 0.12320451 0.06884867
000040 59 20 67 3c 39 77 cf bd 15 a5 1d 3e cd c9 50 bd
       0.014106833 -0.10130162 0.15395005 -0.050973702
000050 89 b0 a5 3d 95 81 d5 3d 06 1c f7 bd 3f 13 8c 3d
       0.08090312 0.104251064 -0.12065892 0.068396084
000060 21 15 cd 3d 9b 26 b3 bd 99 07 fd bc 4b bc 1e be
       0.10013796 -0.08747598 -0.030887412 -0.15501516
000070 eb 54 a5 3d 01 60 0f 3e bb 7b 12 be f9 30 4c be
       0.080728374 0.14001466 -0.14305012 -0.19940557
000080 7b e5 27 3e 77 82 35 3e da 63 33 3d da 5d 3f bd
       0.16396134 0.1772555 0.043796398 -0.046720363
000090 4f 30 16 3c 41 80 2e 3e 74 cc 59 3d a7 3b 90 3d
       0.009166791 0.17041112 0.053173497 0.07042628
0000a0 53 b2 60 3d b8 c3 20 3e a8 01 04 3e 35 44 d1 3b
       0.054857563 0.15699661 0.12891257 0.0063863047
0000b0 3d 3d a2 3d 0c df 45 3e e9 ea 47 3d 48 4f 2b be
       0.079218365 0.19323367 0.048808012 -0.16729462
0000c0 16 89 14 3d 8e a8 cc bd df 1d 16 3e 99 e2 a2 bd
       0.036263548 -0.09993087 0.14659832 -0.07953376
0000d0 05 8a a2 3d c7 df 28 bd 4c bf 14 bd dd ea c5 3d
       0.079364814 -0.041229036 -0.036315247 0.09663937
0000e0 eb 72 81 ba 5c 38 b6 3d fa 7a 0c 3e 4c 34 12 bc
       -0.0009876167 0.088974684 0.13718787 -0.008923601
0000f0 f7 ef b8 3d b6 d9 c7 3d 35 63 53 bd 1c de 45 be
       0.09030145 0.09758322 -0.051608283 -0.19323009

layers.8.weight f4 [1, 64]
000000 66 c6 a7 bd de dd e4 bd 51 6c 20 bd a1 3d ea bd
       -0.081921384 -0.1117513 -0.0391658 -0.11437536
000010 99 55 a0 bd c2 55 ec bb 90 cd f0 3d 80 15 90 3d
       -0.078288265 -0.0072123716 0.11757958 0.07035351
000020 2e 52 e6 3d 52 c6 e1 3d da 91 79 bd 48 f8 2b bc
       0.11246143 0.11024155 -0.06093011 -0.010496207
000030 92 03 0c 3e 0f 4b b1 bd 11 8a 1a 3e b4 07 de 3d
       0.13673237 -0.086568944 0.1509173 0.10841313
000040 db 67 e3 3d 94 e1 56 3d 32 cd f8 bd e0 16 1d 3d
       0.11103793 0.05246122 -0.12148513 0.038351893
000050 ef c2 18 be a2 da 8a 3d 07 40 01 bd 35 68 4f 3d
       -0.14918111 0.06779982 -0.0315552 0.05063649
000060 14 5c b1 3d 1e a7 6e 3d 3c ad 02 3e 46 3d aa bc
       0.08660141 0.058264844 0.12761396 -0.02078117
000070 3c 90 1a be 86 6c b0 bd 67 ee 12 3d 12 02 81 bc
       -0.15094084 -0.08614449 0.03587189 -0.015748058
000080 e3 e2 0a be 04 e6 14 be 22 2e 14 3e f9 54 02 3d
       -0.13563113 -0.14540869 0.14470723 0.031819317
000090 b6 2f e0 bd 71 60 52 3e 40 8c 1f 3e c1 6b 01 be
       -0.109466 0.20544602 0.15580845 -0.12638761
0000a0 1c b8 b6 bd bd c2 15 3e be 04 41 3e 89 6b 86 bc
       -0.08921835 0.14625068 0.18849465 -0.016408699
0000b0 bb ed ef 3d 2a c9 46 3e da 7b 56 bd b4 36 06 bc
       0.11715265 0.19412675 -0.052364208 -0.008191753
0000c0 df c8 dc 3d 37 c2 08 bd 1c 5b cc 3d 65 fb d9 bc
       0.107805006 -0.033388343 0.09978315 -0.026609132
0000d0 f7 96 e5 3d c8 21 2b bc a4 4c 7e bd 3a 60 6d bd
       0.11210435 -0.010445066 -0.06208481 -0.057953097
0000e0 ad 99 e7 b8 c9 53 0a 3e 3e 8d 0e be 48 1d 8c bd
       -0.00011043563 0.13508524 -0.13921067 -0.068415225
0000f0 43 38 fe bd 32 94 a9 bd 90 8c b8 3d 47 2c 6c bc
       -0.12413075 -0.08280219 0.09011185 -0.014414853
