flwr-mlp/models/checkpoints/round_011.pt (torch, 127593 bytes, 7 tensors)

layers.0.weight f4 [256, 19]
0	0xbd89ab5e	-0.06722139
1	0xbe18c2a3	-0.14917998
2	0x3c46ff97	0.012145898
3	0xbe506077	-0.20349298
4	0x3cc4a86b	0.02400609
5	0xbe0502a4	-0.12989289
6	0xbdaaa660	-0.08332515
7	0xbe47acb5	-0.19499476
8	0x3e2c77e8	0.16842616
9	0xbdffc744	-0.12489179
10	0x3d2a1d24	0.041531697
11	0x3e23d245	0.1599818
12	0xbd193f6e	-0.037414007
13	0xbe0ef776	-0.13961586
14	0x3e49001b	0.19628946
15	0xbd20f70d	-0.039298106
16	0xbe08080c	-0.1328432
17	0x3d5cbc0e	0.05389028
18	0xbe4538bc	-0.19259924
19	0xbe3a4f67	-0.18194352
20	0xbd17cd05	-0.037060756
21	0x3dd1b59f	0.102397196
22	0x3a6552fc	0.00087480224
23	0xbda32a9a	-0.0796711
24	0xbcb84885	-0.022495518
25	0x3e455e7e	0.19274327
26	0xbe5b93d5	-0.21443112
27	0x3dba569e	0.09098552
28	0xbc9fe77e	-0.019519564
29	0x3e0fe71f	0.1405301
30	0x3e114c9f	0.14189385
31	0xbdfaccbf	-0.122460835
32	0xbd6be10f	-0.05758768
33	0x3d8dc84b	0.069229685
34	0xbda5797b	-0.08079811
35	0x3dfaa2f1	0.1223811
36	0x3e2f586f	0.17123578
37	0xbcda14a9	-0.02662118
38	0x3db08151	0.08618415
39	0x3dedbf0a	0.116087034
40	0xbb9b462a	-0.004738589
41	0xbe1127f2	-0.14175394
42	0x3d81db4f	0.06340658
43	0xbd8c2bbe	-0.06844281
44	0x3dda19d1	0.10649455
45	0xbe6b92d4	-0.23005229
46	0x3cd75d35	0.026289562
47	0x3e725809	0.23666395
48	0x3e140eca	0.14458767
49	0xbd8acfe6	-0.06777935
50	0x3d8f3de1	0.06994224
51	0x3e1bd68d	0.15218563
52	0x3dfe5042	0.12417652
53	0xbc04af88	-0.008098491
54	0x3d45a4c6	0.048252843
55	0x3e110cc2	0.14165023
56	0xbdc80a3b	-0.09767576
57	0x3e89a626	0.26884574
58	0xbd655e62	-0.055998214
59	0x3d4e8634	0.050420955
60	0x3dba0426	0.090828225
61	0xbd9d0713	-0.07667365
62	0xbe5b3f96	-0.21410975
63	0xbe532658	-0.20620096
64	0x3e6ed846	0.2332469
65	0xbd241d03	-0.04006673
66	0x3c23c8b3	0.009996581
67	0x3e43400b	0.19067399
68	0xbdea8817	-0.11451738
69	0xbdb35ee8	-0.08758336
70	0x3d94e97c	0.07271096
71	0xbe11d061	-0.14239646
72	0xbdbb26c4	-0.09138253
73	0xbd52fc1f	-0.051509973
74	0x3d5562aa	0.052096047
75	0x3e0f01f8	0.13965595
76	0xbdb7d82a	-0.08976777
77	0xbda608d6	-0.08107154
78	0x3e36ed77	0.17864023
79	0xbbe81907	-0.0070830616
80	0x3e43c257	0.19117104
81	0x3e2f79fb	0.17136376
82	0x3e33a662	0.17543939
83	0x3e0e96b4	0.13924676
84	0x3e3d4824	0.1848455
85	0xbc19813d	-0.009369192
86	0xbe0cc55b	-0.1374716
87	0xbdd0ff97	-0.10205
88	0xbe4da2f8	-0.20081699
89	0xbd29eb28	-0.041484028
90	0xbde62985	-0.11238388
91	0x3dce0b27	0.10060721
92	0xbd469426	-0.04848113
93	0xbd3e003e	-0.04638695
94	0xbe2be519	-0.16786613
95	0x3d7ee2c5	0.062227983
96	0x3e155623	0.1458364
97	0xbdbcaf32	-0.09213103
98	0x3e4278e8	0.18991435
99	0x3e05691d	0.13028379
100	0xbe64db35	-0.22349246
101	0x3e035f5d	0.12829347
102	0x3e6a9b90	0.22910905
103	0xbdb96bc6	-0.09053759
104	0xbe3e82c0	-0.18604565
105	0x3db4117b	0.08792397
106	0xbe8ccd70	-0.27500486
107	0x3d18f817	0.037345972
108	0x3e31f224	0.17377526
109	0x3e29089b	0.16507189
110	0x3b11c18a	0.0022240602
111	0x3e028909	0.12747587
112	0xbcdf319e	-0.027245339
113	0xbe6fdfc6	-0.23425207
114	0x3de509f9	0.11183543
115	0x3e3bf3a4	0.1835466
116	0x3df15ea1	0.11785627
117	0x3bf2ef69	0.007413794
118	0xbdf48494	-0.1193935
119	0xbdb828b0	-0.089921355
120	0xbe18e740	-0.14931965
121	0xbe2ffd48	-0.17186463
122	0xbe36f473	-0.17866687
123	0x3e76813d	0.24072738
124	0xbe568683	-0.2094975
125	0xbdc9631d	-0.098333575
126	0x3d54ba62	0.05193556
127	0xbe0467d3	-0.12930231
128	0x3e09d759	0.13461055
129	0xbdf0e15f	-0.11761736
130	0x3c628469	0.013825514
131	0xbd4dba1b	-0.050226312
132	0x3b5b2f00	0.0033444762
133	0x3e278447	0.16359054
134	0xbe3ce7c5	-0.18447788
135	0xbd1cf133	-0.038315963
136	0xbe0c32fc	-0.13691324
137	0x3cffdc08	0.031232849
138	0xbcd59ac4	-0.026074775
139	0xbe30db76	-0.17271218
140	0xbdcf4eb6	-0.10122435
141	0xbd6126ff	-0.05496883
142	0xbd921ba7	-0.071341805
143	0x3ce93a0a	0.028470058
144	0x3d51e517	0.051243868
145	0x3e511bfa	0.20420828
146	0x3e1a1a65	0.15049131
147	0xbcc3115e	-0.023811992
148	0xbd849066	-0.06472854
149	0xbe753f10	-0.23949838
150	0xbc04d2e4	-0.008106921
151	0xbd07a6b5	-0.03311797
152	0xbd255137	-0.040360656
153	0x3dafd563	0.08585622
154	0x3dac92e0	0.08426452
155	0xbd4c4758	-0.049872726
156	0x3e01d389	0.1267835
157	0x3e759971	0.23984315
158	0x3e0d66db	0.13808767
159	0x3e15233a	0.14564219
160	0x3e674759	0.2258581
161	0x3d5cab78	0.053874463
162	0xbdbdfb88	-0.092764914
163	0x3e8aadba	0.27085668
164	0xbe7baeca	-0.24578395
165	0x3e0bf823	0.13668875
166	0x3d0d6b25	0.03452601
167	0x3dbfe71c	0.093702525
168	0x3c6f149b	0.014592315
169	0xbe384f83	-0.17999081
170	0xbe3d39e4	-0.18479115
171	0x3e6b5f94	0.22985679
172	0xbc600b1b	-0.013674523
173	0xbd215e05	-0.039396305
174	0xbd815302	-0.063146606
175	0x3e498e92	0.19683293
176	0xbde64a92	-0.11244692
177	0xbcd4aecb	-0.025962254
178	0x3e494b9b	0.19657747
179	0x3e2d8488	0.16945088
180	0xbd6ea23e	-0.058260195
181	0xbcde1ba9	-0.027112799
182	0xbc8be422	-0.017076556
183	0x3e179ba4	0.14805466
184	0x3d1416d9	0.0361546
185	0x3dfffd44	0.124994785
186	0xbc2f09b4	-0.010683466
187	0x3de58b7c	0.11208245
188	0x3dd25b52	0.10271324
189	0x3bc38000	0.0059661865
190	0xbd97abc6	-0.0740581
191	0x3cb27d49	0.021788256
192	0x3df585b0	0.119883895
193	0x3da48ebc	0.08035037
194	0xbd5596bd	-0.05214571
195	0x3ddde396	0.10834424
196	0xbddeb647	-0.108746104
197	0x3e183656	0.14864478
198	0x3e147425	0.1449743
199	0xbe96de63	-0.29466543
200	0xbe6d0d95	-0.23149712
201	0xbce5b4f1	-0.028040381
202	0xbdbb1349	-0.09134538
203	0xbe1d8d9c	-0.15386051
204	0xbdd476ad	-0.10374198
205	0x3e1d3315	0.15351517
206	0x3e2c13da	0.16804448
207	0x3df4ade1	0.11947227
208	0x3c61abc7	0.013773865
209	0x3e6ae86c	0.22940224
210	0xbdd67e9c	-0.104733676
211	0x3bea50a4	0.0071507264
212	0x3e3b36c8	0.18282616
213	0xbe529f3b	-0.20568554
214	0x3db958a1	0.09050108
215	0xbe7d8d6a	-0.24760976
216	0x3dd8ea2d	0.105915405
217	0x3e519f5a	0.20470944
218	0x3e1b492b	0.1516463
219	0x3e2783cd	0.16358872
220	0xbe49d5ad	-0.19710417
221	0x3cedcce6	0.029028367
222	0xbe2f5832	-0.17123488
223	0xba0c0716	-0.0005341632
224	0xba932fbe	-0.0011229438
225	0xbd7acf49	-0.06123284
226	0x3e2c0c63	0.168016
227	0x3d2862e9	0.041109953
228	0xbdd6d57b	-0.10489937
229	0x3e5e331b	0.21699183
230	0xbd4e3f6e	-0.05035346
231	0xbc718812	-0.014741914
232	0x3db49063	0.08816602
233	0xbb8e60af	-0.0043450217
234	0xbe3b9acc	-0.18320769
235	0xbd8d0868	-0.06886369
236	0xbe72fd1c	-0.23729366
237	0x3e983757	0.2972972
238	0xbe5bf813	-0.21481352
239	0xbc7316b2	-0.014836954
240	0x3e1cde76	0.15319237
241	0x3cb908fa	0.022587288
242	0x3bee0ace	0.0072644716
243	0x3dc9eb49	0.0985933
244	0xbe6e3632	-0.23262861
245	0x3d0adef0	0.033904016
246	0x3d30b837	0.04314443
247	0xbdb6e32d	-0.08930049
248	0xbdc93b17	-0.098257236
249	0x3cdb50fc	0.026772015
250	0xbb891ff1	-0.004184716
251	0x3de3f75d	0.11131165
252	0xbe302b78	-0.17204082
253	0x3da6099f	0.08107304
254	0x3dfd3f15	0.123655476
255	0xbe262a1b	-0.16227

layers.0.bias f4 [256]
0	0x3d645d8a	0.05575327
1	0xbcafffb3	-0.021484232
2	0xbe58263b	-0.21108334
3	0xbe5e9d89	-0.21739782
4	0xbe413ff2	-0.1887205
5	0xbddc9850	-0.10771239
6	0xba33a76c	-0.0006853256
7	0xbde8e928	-0.11372596
8	0xbe4a2f98	-0.19744718
9	0xbd35c069	-0.04437295
10	0x3d98ad4f	0.07454931
11	0xbd7532e2	-0.05986298
12	0x3de66158	0.112490356
13	0xbe9883c0	-0.29788017
14	0xbe1ed18d	-0.15509625
15	0xbe012f25	-0.1261564
16	0x3da9f313	0.08298316
17	0x3c9a7967	0.018856717
18	0xbdcf8740	-0.10133219
19	0xbe12c7e5	-0.14334066
20	0xbd5abfbd	-0.053405512
21	0xbdcef2c4	-0.101048976
22	0x3df06cb0	0.117394805
23	0xbdfe7a9e	-0.12425731
24	0xbd880e62	-0.06643368
25	0xbdcdc6dd	-0.10047696
26	0x3b48e56a	0.003065432
27	0xbe136074	-0.14392263
28	0xbbde2226	-0.006778973
29	0xbcbc8b83	-0.023015743
30	0xbc8ae8f4	-0.016956784
31	0x3d3a4911	0.045479838
32	0xbe1b1396	-0.1514419
33	0x3d11b462	0.035572417
34	0xbdeb5eec	-0.11492714
35	0xbd29ceca	-0.041456975
36	0xbc6ec5eb	-0.0145735545
37	0xbd790da1	-0.060804013
38	0xbe1c5154	-0.15265399
39	0x3dd100e8	0.10205251
40	0xbe79d601	-0.24398042
41	0xbe4d6de1	-0.20061447
42	0xbe50eaec	-0.20402116
43	0xbe46092a	-0.19339433
44	0xbe5b1c96	-0.21397623
45	0xbe2e56e0	-0.17025328
46	0xbd5c112f	-0.053727325
47	0x3d04fb95	0.03246649
48	0xbdfb654d	-0.12275181
49	0xbe4fd949	-0.20297731
50	0xbe159908	-0.14609158
51	0xbd4a6494	-0.049412325
52	0xbe051f78	-0.13000286
53	0xbd00ef62	-0.031478293
54	0xbe001fab	-0.1251208
55	0x3d20a770	0.03922218
56	0xbe835341	-0.25649455
57	0x3ca1b6de	0.019740518
58	0xbe36eeeb	-0.17864577
59	0xbe2ae3bb	-0.16688435
60	0xbe9487b6	-0.2900979
61	0xbe3a476d	-0.1819131
62	0xbdcdf7e6	-0.100570485
63	0xbe87d197	-0.26527092
64	0xbd84248b	-0.064522825
65	0xbacd7b17	-0.0015676942
66	0xbe443bde	-0.19163463
67	0xbeb0aefe	-0.34508508
68	0xbe818123	-0.25293836
69	0xbe12ffea	-0.14355436
70	0xbe82c5a0	-0.255414
71	0x3db7c1ce	0.08972512
72	0xbd7b09a3	-0.061288487
73	0xbe7df8bf	-0.2480192
74	0xbe4c8924	-0.1997419
75	0xbd90d6ee	-0.070722446
76	0xbe8c14d9	-0.27359655
77	0xbe3dd4e6	-0.18538246
78	0xbd3eae36	-0.04655286
79	0x3bc603c5	0.00604293
80	0x3d1021b7	0.035188403
81	0xbde2c5df	-0.11072897
82	0x3d8b333f	0.06796884
83	0xbe18ed32	-0.14934233
84	0xbe81be1c	-0.25340354
85	0xbe4f9456	-0.2027143
86	0xbd344dac	-0.044019386
87	0x3e0eef27	0.13958417
88	0xbdeac55b	-0.11463424
89	0x3d615116	0.05500897
90	0xbe77c13f	-0.24194811
91	0x3cf68ebc	0.030097358
92	0xbe5807ac	-0.21096677
93	0xbc2a8be2	-0.010409327
94	0xbe6ead8b	-0.23308389
95	0xbe25d04a	-0.16192737
96	0xbe834289	-0.256367
97	0xbe1d5fe9	-0.15368618
98	0xbe9e0a7b	-0.3086737
99	0xbe83dfe6	-0.25756758
100	0xbdc7d333	-0.0975708
101	0xbdd9b942	-0.10631038
102	0xbd495406	-0.049152397
103	0xbe683a87	-0.22678576
104	0xbe7146cc	-0.23562163
105	0xbe5e3158	-0.2169851
106	0xbe4c00c9	-0.19922175
107	0xbe30f597	-0.17281185
108	0x3cbbffd6	0.02294914
109	0xbe5c3456	-0.2150434
110	0xbe8f699a	-0.28010255
111	0x3cdf2fb8	0.027244434
112	0xbde1d9d6	-0.11027877
113	0xbdb36a34	-0.08760491
114	0xbe67267e	-0.22573277
115	0xbd1c8bdf	-0.03821933
116	0x3d685948	0.05672577
117	0xbd3039b6	-0.043023787
118	0x3bbaba6b	0.0056984923
119	0xbe27ad61	-0.16374733
120	0xbe603d20	-0.21898317
121	0xbe04ef13	-0.12981825
122	0xbe4af31e	-0.19819304
123	0xbdfceb30	-0.12349546
124	0x3c92db33	0.017926788
125	0xbe83f733	-0.25774536
126	0x3df38d1c	0.11892149
127	0xbdd79899	-0.105271526
128	0x3cd036dc	0.025416784
129	0xbd7d851c	-0.06189452
130	0x3c1bbb98	0.009505175
131	0xbe59c008	-0.2126466
132	0x3d7e50c1	0.06208873
133	0xbe05822b	-0.13037936
134	0x3cbd9741	0.023143413
135	0xbe3cdf94	-0.18444663
136	0x3d8d39fc	0.06895825
137	0xbd9f9046	-0.0779119
138	0x3d9886d3	0.07447591
139	0xbe203d67	-0.15648423
140	0xbdeb1ab4	-0.114797026
141	0xbe2a8c2f	-0.16655038
142	0xbddc203a	-0.10748334
143	0x3d26b2ca	0.04069785
144	0xbd2d92ea	-0.042376436
145	0xbdcd18da	-0.10014506
146	0xbc7b24ff	-0.015328645
147	0x3da61793	0.08109965
148	0xbe814c5d	-0.25253573
149	0xbda52e5b	-0.08065482
150	0xbe86bfaa	-0.26318103
151	0xbd94ffcf	-0.07275354
152	0x3b1743d9	0.0023081212
153	0x3d992cfa	0.07479282
154	0xbd9a89da	-0.07545824
155	0xbe2edd6f	-0.17076658
156	0xbe0247b4	-0.12722665
157	0xbdd666ed	-0.1046885
158	0xbd7eaf0f	-0.062178668
159	0xbdc92bd0	-0.0982281
160	0xbe7b35f5	-0.24532302
161	0xbd90afcc	-0.070647806
162	0x3c32b29d	0.010906843
163	0xbc2583cf	-0.010102226
164	0xbdd2c499	-0.10291404
165	0x3caeb679	0.021327244
166	0xbe697651	-0.2279904
167	0xbe5ea2ee	-0.2174184
168	0xbd6182b5	-0.055056293
169	0xbe5e9bad	-0.21739073
170	0x3d5b499e	0.053537004
171	0x3d895a13	0.067066334
172	0xbe41af59	-0.18914546
173	0xbd75a1d3	-0.05996878
174	0xbe52521a	-0.20539132
175	0xbe632183	-0.22180752
176	0xbe905827	-0.28192255
177	0xbd9beb4a	-0.07613237
178	0x3a2d1933	0.0006603181
179	0xbd865f09	-0.06561095
180	0x3db10b04	0.08644679
181	0x3df7c5a9	0.120982476
182	0xbe8a3794	-0.26995528
183	0xbe1fab58	-0.15592706
184	0x3d496956	0.04917272
185	0x3d36ee01	0.044660572
186	0x3b8521f8	0.0040628873
187	0xbdb8318a	-0.08993824
188	0xbe04e09c	-0.12976307
189	0xbe5f0788	-0.21780217
190	0xbc545257	-0.0129590845
191	0xbdcee59c	-0.10102388
192	0x3d043296	0.032274805
193	0x3dba7c0f	0.091056935
194	0xbe3bb743	-0.18331628
195	0xbd92a96b	-0.0716122
196	0xbd200ef4	-0.03907676
197	0xbe757f7e	-0.23974416
198	0xbdaf6375	-0.08563892
199	0xbd0c036a	-0.034182943
200	0x3da75eac	0.08172354
201	0x3dc12ff9	0.09432978
202	0xbe3f35d5	-0.18672879
203	0xbcade9c3	-0.02122963
204	0xbd79ad26	-0.060956143
205	0xbe8bf213	-0.27333125
206	0xbe82b5d6	-0.25529355
207	0xbc5254e8	-0.012837626
208	0x3d388b82	0.04505492
209	0x3d7a8238	0.061159343
210	0xbe023a04	-0.12717444
211	0xbe1e2c45	-0.15446575
212	0xbe931b23	-0.2873164
213	0xbe6c0676	-0.2304934
214	0xbc42d31c	-0.011891153
215	0xbaf6b982	-0.0018823596
216	0xbe264273	-0.16236286
217	0xbe7bda95	-0.24595101
218	0x3db94868	0.090470135
219	0xbe54159a	-0.20711365
220	0xbe94a11b	-0.29029164
221	0x3c4f2141	0.012642206
222	0xbdcd7f31	-0.100340255
223	0xbd86a3cf	-0.06574213
224	0xbe9c61a2	-0.30543238
225	0xbd27b1f5	-0.040941197
226	0x3d131b84	0.035914913
227	0xbca5dff5	-0.020248393
228	0xbe073031	-0.13201977
229	0xbe5c967d	-0.21541782
230	0xbe46ae10	-0.19402337
231	0xbe3657c7	-0.17806922
232	0xbe146a04	-0.14493567
233	0xbe4720ab	-0.19446056
234	0xbe3709a3	-0.1787477
235	0xbdb71dae	-0.08941208
236	0x3d2acece	0.04170113
237	0xbd7a2aec	-0.06107609
238	0xbe6dac34	-0.23210222
239	0xbe84df14	-0.25951445
240	0xbe357c98	-0.1772331
241	0xbe96ad64	-0.29429162
242	0xbe65b46f	-0.22432111
243	0x3e03405b	0.12817518
244	0xbe31d2ab	-0.1736552
245	0xbd293568	-0.041310698
246	0xbe308dfc	-0.17241663
247	0x3ce2d7f6	0.027690869
248	0xbe7faa42	-0.24967292
249	0x3cc9795e	0.024594005
250	0x3d3eb0b3	0.046555232
251	0xbba9bb50	-0.0051798
252	0x3dae8af1	0.08522595
253	0x3c32676c	0.0108889155
254	0xbe225979	-0.15854444
255	0x3cf60e30	0.030036062

layers.3.weight f4 [80, 256]
0	0xbd619da6	-0.055081986
1	0x3d5072c0	0.050890684
2	0xba807f0c	-0.0009803488
3	0xbcaf6c67	-0.021413995
4	0xbd8549eb	-0.06508239
5	0xbd930973	-0.07179537
6	0x3d925166	0.07144432
7	0x3d885700	0.06657219
8	0x3d83b9d9	0.06431932
9	0xbde3b416	-0.11118333
10	0xbc865923	-0.016399926
11	0xbc675067	-0.0141182905
12	0x3c776896	0.015100619
13	0x3d3f6412	0.046726294
14	0x3cf5e210	0.030015022
15	0x3d5de4e3	0.05417336
16	0xbd513587	-0.05107644
17	0xbd6e4d22	-0.05817903
18	0x3ccc13ba	0.02491175
19	0x3d4c9f5d	0.04995667
20	0x3db1f178	0.08688635
21	0x3d04819b	0.032350164
22	0x3d2feade	0.042948596
23	0x3d38cac4	0.045115247
24	0x3dd26b05	0.102743186
25	0xbd472cb0	-0.0486266
26	0x3ca4a1d4	0.020096697
27	0x3d79bfa0	0.060973763
28	0xbd858b11	-0.065206654
29	0xbcb848ca	-0.022495646
30	0x3cf9ba1a	0.030484248
31	0x3c102cec	0.008799773
32	0x3d9b7864	0.07591322
33	0xbdbe11cf	-0.092807405
34	0x3d889ed9	0.06670923
35	0x3d776280	0.06039667
36	0xbde5bdcb	-0.11217841
37	0xbc26c91b	-0.010179783
38	0x3d50326d	0.05082934
39	0xbddb11bc	-0.10696742
40	0x3b0634a5	0.0020478156
41	0xbd9d7d3b	-0.076899014
42	0xbda29542	-0.07938625
43	0x3d41b2b4	0.047289565
44	0x3d93c5b9	0.07215447
45	0xbd81fe52	-0.06347336
46	0xb903b4dc	-0.00012560509
47	0x3d863ea3	0.06554916
48	0xbd6405ae	-0.05566948
49	0x3d113dae	0.035459213
50	0x3caff77b	0.021480313
51	0x3b651cc5	0.0034959775
52	0xbc60c602	-0.013719084
53	0xbd2192f9	-0.039446805
54	0xbd4088e4	-0.04700555
55	0xbc4e952f	-0.01260881
56	0x3d9af14c	0.07565555
57	0x3d187bed	0.03722756
58	0x3b7f13b5	0.0038921658
59	0xbdeed832	-0.1166233
60	0x3e0659bf	0.13120173
61	0xbcbc5e44	-0.022994168
62	0x3c5f9c17	0.013648055
63	0x3d8e62f7	0.0695247
64	0xbd706b96	-0.058696352
65	0xb9b83040	-0.00035131164
66	0x3dbc3972	0.09190644
67	0x3c778b9c	0.015108969
68	0x3d40934c	0.047015473
69	0xbd0e776d	-0.034781862
70	0x3c04f14d	0.008114171
71	0xbe14d703	-0.14535145
72	0x3cea7bcc	0.028623484
73	0xbd13c327	-0.036074784
74	0xbd108b84	-0.035289302
75	0x3d678b9f	0.056529637
76	0xbddccb5e	-0.10780977
77	0xbc3dd7e2	-0.011587115
78	0x3d2e9d62	0.04263056
79	0xbd96305f	-0.07333445
80	0xbd517c87	-0.05114415
81	0x3cc9143d	0.024545783
82	0xbc527cc1	-0.012847126
83	0x3db156db	0.086591445
84	0xbda183bc	-0.078864545
85	0x3cf6e565	0.03013868
86	0x3ddc278d	0.10749731
87	0xbb9f9fe8	-0.004871357
88	0x3c9e2ca1	0.01930839
89	0x3c64e659	0.013970935
90	0x3cc7e0c2	0.024399165
91	0x3d84078d	0.06446753
92	0xbd7354a5	-0.059406895
93	0xbd3142f2	-0.043276735
94	0xbae27f4d	-0.001728037
95	0xbc424b3a	-0.011858756
96	0x3bcc997c	0.0062438827
97	0xbb93fad3	-0.0045159846
98	0xbd12fde6	-0.035886668
99	0x3c4ea32e	0.012612147
100	0xbdb75365	-0.08951453
101	0xbd14c19d	-0.036317457
102	0x3d0d5f4b	0.034514707
103	0xbd8654ca	-0.06559141
104	0xbdb61299	-0.08890266
105	0x3cb6079b	0.022220423
106	0x3de1de63	0.11028745
107	0x3cb70421	0.022340836
108	0xbd5bb8da	-0.053643085
109	0x3d7ff0f7	0.06248566
110	0x3c59fa85	0.013304357
111	0xbc5aa90a	-0.013345966
112	0x3d03eb0a	0.032206573
113	0x3d817603	0.06321337
114	0xbdb0822b	-0.086185776
115	0xbd17b582	-0.037038334
116	0xbdb3e2f2	-0.08783521
117	0x3c3e5166	0.011616087
118	0xbb9f6e93	-0.0048654764
119	0xbd794142	-0.06085325
120	0x3d1825ec	0.03714554
121	0x3d41f1b4	0.047349647
122	0x3d9475fd	0.07249067
123	0x3c421aec	0.011847239
124	0x3c33f898	0.010984562
125	0x3c06c7bb	0.00822633
126	0xbcc3fc72	-0.023924086
127	0x3da6865e	0.08131097
128	0xbd27b3a5	-0.040942807
129	0x3c8e492f	0.017368881
130	0xbc64f019	-0.013973259
131	0x3e0f636a	0.14002767
132	0xbdc58a09	-0.09645469
133	0xbdddf212	-0.10837187
134	0xbd3e6fc1	-0.046493296
135	0xbc5f3579	-0.013623589
136	0xbd8f949c	-0.07010767
137	0x3d8f617c	0.070010155
138	0xbc6db5d8	-0.014508687
139	0x3cf55897	0.02994947
140	0xbd6de208	-0.05807689
141	0x3c58ab44	0.013224427
142	0xbca4e072	-0.020126555
143	0x3d268574	0.040654615
144	0x3c60da2a	0.013723889
145	0xbce3df47	-0.027816428
146	0xbde69f4a	-0.11260851
147	0xbd0985bc	-0.033574805
148	0x3e162603	0.14662938
149	0x3d47250e	0.048619322
150	0xbd15e616	-0.03659638
151	0xbcb8d280	-0.022561312
152	0xbc82cf7d	-0.015968079
153	0x3c1685be	0.00918716
154	0xbc6c3ca1	-0.014418752
155	0x3d7d57b1	0.061851207
156	0xbd3bebf9	-0.045879338
157	0xbc33f01d	-0.01098254
158	0xbb01674c	-0.0019745408
159	0xbd1adc97	-0.037808027
160	0x3e153e19	0.1457447
161	0x3dae4cc7	0.08510738
162	0x3c6addf9	0.014335149
163	0x3cb14f5e	0.02164429
164	0xbd1c2ed4	-0.038130596
165	0xbd2e5b6e	-0.042567663
166	0xb8fafbb0	-0.000119678094
167	0xba3d9c06	-0.0007233027
168	0x3d4e35b5	0.050344188
169	0x3d849d9a	0.064753726
170	0xbc74720f	-0.014919772
171	0xbc001a92	-0.007818835
172	0x3db54965	0.088518895
173	0xbc329ebd	-0.010902104
174	0x3dc64596	0.09681241
175	0xbd05ef3e	-0.032698862
176	0xbd5a9600	-0.053365707
177	0x3cf62373	0.0300462
178	0x3dbf4f3b	0.09341284
179	0xbd3371c3	-0.043809664
180	0xbd8b7631	-0.068096526
181	0x3d1e2197	0.038606253
182	0x3d444b9e	0.047923677
183	0x3d077776	0.03307291
184	0xbc6fd0d3	-0.01463719
185	0x3cfaa9c4	0.030598529
186	0xbda448e7	-0.080217175
187	0x3d959953	0.07304635
188	0x3c8c6423	0.017137593
189	0xbd1642f9	-0.036684964
190	0xbc1e4abd	-0.009661374
191	0xbd8a23c8	-0.06745106
192	0x3ca903ec	0.020631753
193	0xbd83cc46	-0.064354464
194	0x3d3a379c	0.04546319
195	0x3c530022	0.01287845
196	0x3d9a8ba8	0.075461686
197	0x39fa60da	0.00047755876
198	0x3d5a8857	0.05335268
199	0xbc8f0011	-0.017456086
200	0xbd855790	-0.06510842
201	0x3dc113cc	0.09427604
202	0xbc67d5d8	-0.014150105
203	0xbd14e42b	-0.03635041
204	0x3cfc47c4	0.03079594
205	0x3ca88574	0.020571448
206	0x3db46a5c	0.08809349
207	0xbb25298a	-0.002520176
208	0xbc6e47a4	-0.014543448
209	0xbc9539d6	-0.018216055
210	0xbd8afdef	-0.06786715
211	0x3b832fca	0.0040034996
212	0x3d0030d4	0.031296566
213	0x3d22bc1f	0.039730188
214	0x3dbaae8f	0.09115326
215	0x3b105934	0.0022025825
216	0x3cf94217	0.030427022
217	0x3d827857	0.06370609
218	0xbb210f6c	-0.0024575843
219	0xba7a536d	-0.00095491746
220	0xbd528542	-0.051396616
221	0xbd535a2c	-0.051599666
222	0xbd862251	-0.06549514
223	0x3d11b300	0.0355711
224	0x3dc71794	0.09721294
225	0xbd4e3894	-0.050346926
226	0xbd2987ac	-0.041389152
227	0x3d864079	0.06555266
228	0x3d93852d	0.07203136
229	0x3ab0b0ab	0.0013480386
230	0x3cf14a9b	0.02945452
231	0x3d56b3f5	0.052417714
232	0x3d03069f	0.031988736
233	0x3e109931	0.14120938
234	0x3d0f6575	0.035008866
235	0xbd621750	-0.055198014
236	0x3c028f00	0.007968664
237	0x3c14ec06	0.0090894755
238	0xbc6bdbc5	-0.014395659
239	0x3dba69d2	0.09102215
240	0xbc2a0819	-0.010377907
241	0xbdb4bd77	-0.088252
242	0xbd4f8265	-0.050661463
243	0x3b17b572	0.0023148921
244	0x3cd1d44e	0.02561393
245	0x3d91cae1	0.07118774
246	0x3d3c8545	0.046025533
247	0x3cbd41f2	0.023102734
248	0x3db4c1d3	0.088260315
249	0xbc6e09ee	-0.014528735
250	0xbca64e8b	-0.020301124
251	0xbc343e1d	-0.011001137
252	0xbd7fd47d	-0.062458504
253	0x3c86ccc4	0.016455062
254	0x3dbf2f99	0.093352504
255	0xbd1905dd	-0.037359107

layers.3.bias f4 [80]
0	0xbd31e345	-0.04342963
1	0x3d8659da	0.065601066
2	0xbd425ac9	-0.04744986
3	0xbd43601f	-0.04769909
4	0xbd3738e2	-0.044731982
5	0xbdfa791f	-0.12230133
6	0xbd96fe17	-0.073726825
7	0xbd44a5fc	-0.048009858
8	0x3b1609d1	0.0022894035
9	0xbdabe200	-0.083927155
10	0xbbae4fb2	-0.005319559
11	0xbd42e91e	-0.0475856
12	0x3b9fc178	0.004875358
13	0x3ad33625	0.0016114159
14	0x3ca632e7	0.020287944
15	0x3d616f2d	0.055037666
16	0xbc595aa4	-0.013266239
17	0x3d5a67d2	0.053321667
18	0xbcb3e6f0	-0.021960706
19	0x3b7f3cc6	0.0038946136
20	0xbdd6c2f2	-0.104864016
21	0xbd83e6ce	-0.06440507
22	0x3c3e2746	0.011606043
23	0xba85aa69	-0.0010197881
24	0xbd2c8590	-0.042119563
25	0xbdf0740a	-0.11740883
26	0xbce53b7c	-0.027982466
27	0x3cfc721a	0.030816127
28	0x3c6e728e	0.014553679
29	0xbd274197	-0.040834036
30	0xbde0b0f6	-0.109712526
31	0xbbc56266	-0.006023693
32	0x3cb1e739	0.0217167
33	0x3d4d9acb	0.05019645
34	0xbdb1f642	-0.08689548
35	0xbddfac37	-0.10921519
36	0xbcf51f07	-0.029922022
37	0x3d3b4c3a	0.045726992
38	0x3ce50aaa	0.027959187
39	0xbd9124e7	-0.07087117
40	0xbcf01586	-0.029307138
41	0xbbaf8c57	-0.005357306
42	0xbd0f8d0c	-0.035046622
43	0x3ceb472e	0.028720465
44	0xbb6685cb	-0.0035174962
45	0xbd9fc431	-0.078010924
46	0xbd758320	-0.059939504
47	0xbdad2ef2	-0.0845622
48	0xbcba01e3	-0.022705978
49	0x3d85c274	0.065312296
50	0xbd657528	-0.056019932
51	0x3b677171	0.003531542
52	0xbde23a71	-0.11046303
53	0x3c862366	0.016374301
54	0xbcf7b922	-0.030239645
55	0xbc3b9cf3	-0.011450994
56	0xbca68e23	-0.020331448
57	0xbdb9bd8a	-0.09069355
58	0xbcd51cde	-0.026014742
59	0x3da83894	0.082139164
60	0x3d9adad6	0.07561271
61	0xbdad2c89	-0.0845576
62	0x3d390a19	0.045175646
63	0x3d386162	0.045014746
64	0xbc848834	-0.016178228
65	0x39362df7	0.00017373996
66	0xbd2801c9	-0.041017327
67	0xbca70920	-0.020390093
68	0x3b7b0c95	0.003830706
69	0xbdc464cc	-0.09589538
70	0x3ceadee4	0.028670736
71	0xbd97122b	-0.07376512
72	0xbcef83cc	-0.02923765
73	0xbd215731	-0.039389793
74	0xbdd8a09c	-0.10577509
75	0xbcb976fb	-0.022639742
76	0xbddd139e	-0.10794757
77	0xbba8ed09	-0.00515521
78	0xbdc503e3	-0.09619882
79	0xbdde86b5	-0.10865537

layers.6.weight f4 [64, 80]
0	0x3dec93c1	0.11551619
1	0xbddba0ff	-0.10724067
2	0xbc521344	-0.012821976
3	0xbc41127a	-0.01178419
4	0x3dc80ba1	0.09767843
5	0xbcd02fc1	-0.025413396
6	0x3c2ae71b	0.010431076
7	0x3c638e21	0.013888867
8	0xbb8838b2	-0.0041571492
9	0x3c101382	0.0087937135
10	0x3e1e936c	0.15485924
11	0xbd12536a	-0.03572408
12	0x3d6d0299	0.057863805
13	0xbc8abfc5	-0.016937146
14	0x3e225d50	0.15855908
15	0xbe14d39e	-0.1453385
16	0x3d86aed3	0.06576314
17	0xbe11522f	-0.14191507
18	0x3b3ada85	0.0028511595
19	0x3e2d3877	0.16916071
20	0x3ca15199	0.01969223
21	0xbd825fe0	-0.06365943
22	0xbd20d72a	-0.039267696
23	0xbd23bff2	-0.039977975
24	0x3c445dbf	0.011985241
25	0xbb543dd8	-0.0032385495
26	0xbcacc674	-0.021090724
27	0xbd35fb3c	-0.04442905
28	0xbc9c9eb9	-0.019118654
29	0xbda37df2	-0.079830065
30	0x3e2faeba	0.17156497
31	0x3e2eefa3	0.17083602
32	0xbde65e64	-0.11248472
33	0xbe0402f1	-0.12891747
34	0x3bc4f623	0.006010787
35	0xbccb6247	-0.024827136
36	0x3d785d56	0.060635887
37	0xbe0418d4	-0.12900096
38	0x3daaae5a	0.08334036
39	0x3c6bdb1f	0.014395504
40	0x3d52c1c1	0.05145431
41	0xbc880c08	-0.0166073
42	0x3dcea60a	0.10090263
43	0x3cac0f36	0.021003347
44	0xbda085e6	-0.07838039
45	0xbcdda0f9	-0.027054297
46	0xbd960b6c	-0.07326397
47	0x3de0e071	0.10980309
48	0x3dce3a1d	0.10069678
49	0xbe0ed79b	-0.13949434
50	0x3d53e7af	0.051734623
51	0xbcfb3b6f	-0.030667989
52	0x3da102c9	0.07861859
53	0xbcad69d9	-0.021168636
54	0xbd74a05d	-0.059723247
55	0xbdc9ffa6	-0.09863214
56	0x3d5f3d39	0.054501746
57	0x3d7c4f32	0.061598964
58	0xbd66393b	-0.056206923
59	0xbd4f46bc	-0.050604567
60	0xbdf7f901	-0.121080406
61	0x3dc4528e	0.095860586
62	0xbd00c97d	-0.031442154
63	0x3de13822	0.109970346
64	0x3d7e7e4b	0.06213216
65	0xbdc8577c	-0.09782311
66	0xbd1d7312	-0.038439818
67	0x3e15d17e	0.14630696
68	0x3c8dca85	0.017308483
69	0x3e11290d	0.14175816
70	0x3d55d055	0.052200634
71	0x3dccfe4b	0.1000944
72	0xbdc2bfc2	-0.09509231
73	0xbc42b93e	-0.0118849855
74	0x3de8b0e7	0.113618664
75	0x3dd271e6	0.10275631
76	0x3e2608f6	0.16214356
77	0x3db02228	0.08600265
78	0x3d3b9453	0.04579575
79	0xbd090ff6	-0.033462487
80	0x3e187265	0.14887388
81	0xbe4e4bbd	-0.2014608
82	0xbd887693	-0.06663241
83	0xbdc97344	-0.09836438
84	0x3e264682	0.16237834
85	0xbbd2f411	-0.0064377864
86	0xbd1910cc	-0.037369534
87	0x3e238a89	0.15970816
88	0xbd09bc07	-0.033626582
89	0x3dafbebe	0.08581303
90	0x3cef5775	0.029216507
91	0x3d832a0d	0.06404505
92	0xbd4a6f91	-0.049422804
93	0xbd59db45	-0.053187627
94	0xbbc69485	-0.0060601854
95	0xbe02bc7c	-0.12767214
96	0x3d66c9c6	0.05634477
97	0xbe1880d2	-0.14892891
98	0x3d96b022	0.073578134
99	0xbca8a913	-0.020588433
100	0xbd069d1a	-0.032864667
101	0x3dad2f2b	0.08456262
102	0xbcccfbd2	-0.025022421
103	0xbd518d72	-0.051160283
104	0x3dbf1e60	0.093319654
105	0x3bb5b47b	0.0055451966
106	0x3dce86f9	0.10084338
107	0xbde11314	-0.10989967
108	0x3dc89878	0.09794706
109	0xbe1d3cc5	-0.15355213
110	0x3d254123	0.040345322
111	0x3c5fad0b	0.0136520965
112	0xbb976ebc	-0.004621355
113	0xbd23489f	-0.03986418
114	0xbb7ed0c4	-0.0038881758
115	0x3e099b0b	0.1343805
116	0xbc5d6f56	-0.013515314
117	0xbdc16b61	-0.09444309
118	0x3ce4c6ea	0.02792688
119	0x3d56480d	0.052314807
120	0xbcbf62c2	-0.023362521
121	0x3badc80b	0.005303388
122	0x3e22a9d4	0.15885097
123	0xbe1bc32d	-0.15211172
124	0xbe0acdb7	-0.13555036
125	0xbdbf0952	-0.093279496
126	0xbe0562bb	-0.13025944
127	0x3dbd87c1	0.09254409
128	0x3e04789b	0.12936632
129	0xbd86024a	-0.06543405
130	0xbcb3781b	-0.021907857
131	0xbdb1226b	-0.08649143
132	0xbd820627	-0.0634883
133	0xbe05e308	-0.13074887
134	0xbd20c8ab	-0.039253872
135	0xbddc161c	-0.107464045
136	0x3dad139c	0.08451006
137	0xbc85deb4	-0.016341545
138	0xbd3a7fb3	-0.04553194
139	0xbdf17898	-0.117905796
140	0xbe16de62	-0.1473327
141	0xbbfe4325	-0.007759469
142	0x3c467119	0.0121119255
143	0x3e1dc92e	0.15408775
144	0xbd43e2d9	-0.04782376
145	0xbdd60425	-0.10450009
146	0x3ce20417	0.02758984
147	0x3d83ff83	0.06445219
148	0xbe096d26	-0.13420543
149	0x3de3e6db	0.111280166
150	0x3cab2a4a	0.020894188
151	0x3dc0a00f	0.09405529
152	0xbd387cce	-0.045040898
153	0x3d73f401	0.059558872
154	0x3e0cf875	0.13766654
155	0xbccc86f6	-0.024966698
156	0x3e0ce404	0.13758856
157	0x3c4659ce	0.012106372
158	0x3dc64338	0.0968079
159	0xbcedeaba	-0.02904259
160	0xbaa85b96	-0.0012844678
161	0x3c2aeaec	0.010431986
162	0xbd89c8d2	-0.067277566
163	0xbdb994fb	-0.09061619
164	0x3d6f0065	0.058349986
165	0x3d3ac9d4	0.045602635
166	0xbc3f3f59	-0.011672818
167	0xb8959056	-7.131758e-05
168	0xbd4e53eb	-0.050373
169	0x3b55988c	0.0032592146
170	0x3de304ea	0.11084922
171	0x3cdf8def	0.027289359
172	0x3ddfc9ad	0.109271385
173	0x3c0b840e	0.008515371
174	0xbd65e7dc	-0.05612932
175	0xbcb4a1b3	-0.02204976
176	0x3d852e56	0.065029785
177	0xbda0431e	-0.078253016
178	0x3d42c5fb	0.04755209
179	0xbd456683	-0.048193466
180	0x3e0a70f6	0.13519654
181	0xbd69fccf	-0.057125863
182	0xbda6c48a	-0.081429556
183	0x3cdc0960	0.02685994
184	0x3d6c47e9	0.057685766
185	0x3d911e53	0.07085862
186	0x3d6702f4	0.0563993
187	0x3de45972	0.11149873
188	0x3d5a0913	0.05323131
189	0x3c17433e	0.00923234
190	0xbcff741e	-0.031183299
191	0xbd1afa02	-0.037836082
192	0xbdb1b93c	-0.08677909
193	0xbdd9890b	-0.10621842
194	0x3d80b2a0	0.0628407
195	0x3d3ca509	0.046055827
196	0x3b1657b5	0.002294046
197	0xbd29bf95	-0.041442472
198	0x3dfc18c2	0.1230941
199	0xbdc22006	-0.09478764
200	0x39c58636	0.00037674763
201	0xbdb87eef	-0.09008586
202	0x3bbadfa6	0.0057029305
203	0xbdcda66c	-0.10041508
204	0xbd0c56f3	-0.03426261
205	0x3d8c69bc	0.06856105
206	0xbdd17cfc	-0.10228917
207	0x3d521412	0.05128867
208	0x3dc99cf8	0.098443925
209	0x3c3fb2df	0.011700361
210	0x3daf21b3	0.085513495
211	0xbdfe366c	-0.12412724
212	0x3aebc5a4	0.0017987979
213	0xbd808553	-0.062754296
214	0xbdb6132a	-0.08890374
215	0xbe1557b3	-0.14584236
216	0x3d9cb0b5	0.07650892
217	0x3e356a55	0.17716344
218	0x3cc4e2a0	0.024033844
219	0x3d23aa38	0.039957255
220	0xbe02be8d	-0.12768002
221	0x3da645e3	0.081187986
222	0xbd73befa	-0.0595083
223	0xbd2e7f60	-0.042601943
224	0xb86ab23c	-5.595594e-05
225	0xbcfab4f8	-0.03060387
226	0x3d1d79ee	0.03844636
227	0x3d90a187	0.07062059
228	0xbc661995	-0.014044185
229	0x3d44b0e8	0.048020273
230	0x3de7b671	0.11314095
231	0x3d868e2f	0.06570088
232	0xbdd535a3	-0.10410621
233	0xbc275744	-0.010213677
234	0x3d0343b4	0.03204699
235	0x3c568491	0.01309313
236	0x3d666439	0.056247924
237	0x3a66d27c	0.00088051683
238	0x3df5c2e8	0.12000066
239	0x3dede0fa	0.116151765
240	0x3d8fd830	0.07023656
241	0xbdecc0ad	-0.115601875
242	0x3d8ac258	0.067753494
243	0xbd5dd7a9	-0.054160748
244	0xbcb9f0b3	-0.022697782
245	0xbd8f094f	-0.06984197
246	0xbc334218	-0.010941051
247	0x3ddb3cfe	0.10704993
248	0x3d2bbfa9	0.04193083
249	0x3dc7328d	0.09726439
250	0x3c27ec60	0.010249227
251	0x3dd6e0a4	0.104920655
252	0xbcf3fa20	-0.029782355
253	0xbdc00d4e	-0.09377538
254	0x3e1e6ba6	0.15470752
255	0xbdba910e	-0.09109698

layers.6.bias f4 [64]
0	0x3d90d94b	0.07072695
1	0x3e0f4558	0.13991296
2	0xbdc006e8	-0.09376317
3	0x3d7e2f1d	0.06205665
4	0xbdf74960	-0.12074542
5	0xbe330c99	-0.17485274
6	0x3d3a8c68	0.045544058
7	0x3d469d2f	0.048489746
8	0x3d8fa503	0.07013895
9	0x3da2a81f	0.07942223
10	0x3d705843	0.058677923
11	0x3c82fc54	0.01598946
12	0x3e2d870f	0.16946052
13	0x3b638067	0.0034713985
14	0x3de24974	0.11049166
15	0x3d4ebbaf	0.050471958
16	0xbace813c	-0.0015755068
17	0xbde41c3a	-0.11138196
18	0x3e14586e	0.14486858
19	0xbd578a9c	-0.052622423
20	0x3d90b856	0.07066409
21	0x3dc87a2a	0.09788926
22	0xbddf4342	-0.109015
23	0x3d64ccc5	0.055859346
24	0x3dacecf3	0.08443632
25	0xbdc6e10e	-0.097108945
26	0xbd4a5c0e	-0.049404196
27	0xbe068ebf	-0.13140391
28	0x3d8b79f6	0.068103716
29	0x3e0663f5	0.13124068
30	0xbe13dd11	-0.14439799
31	0xbe31806d	-0.17334147
32	0x3e1d147a	0.15339842
33	0x3e2b6720	0.16738558
34	0x3cd79a96	0.02631883
35	0xbd37c5a4	-0.04486622
36	0x3b495855	0.0030722816
37	0x3e20e787	0.1571332
38	0x3d1193b3	0.035541248
39	0x3d779314	0.060443
40	0x3d3809c1	0.044931177
41	0x3e158738	0.14602363
42	0x3deaecbd	0.114709355
43	0x3c369a0c	0.011145126
44	0x3d7d62c8	0.061861783
45	0x3e395278	0.18097866
46	0x3d2e5f14	0.042571142
47	0xbe083cbc	-0.13304418
48	0x3c78801a	0.015167261
49	0xbdb995ee	-0.090618
50	0x3e09a199	0.13440551
51	0xbd8da11a	-0.06915493
52	0x3d6c867b	0.057745438
53	0xbc81d962	-0.015850727
54	0xbd210f71	-0.039321367
55	0x3db1c412	0.086799756
56	0x3ced2ae3	0.028951114
57	0x3d93d88a	0.07219036
58	0x3e003c2f	0.12522958
59	0xbc055a4f	-0.008139207
60	0x3da565bd	0.08076046
61	0x3db0f630	0.086407065
62	0xbd83080f	-0.063980214
63	0xbe2e8bdd	-0.17045541

layers.8.weight f4 [1, 64]
0	0xbda53a81	-0.08067799
1	0xbdde4384	-0.10852721
2	0xbd4d9538	-0.050191134
3	0xbde80e57	-0.1133086
4	0xbdabeec0	-0.08395147
5	0xbc163992	-0.009168999
6	0x3de2ff61	0.11083866
7	0x3d773f32	0.060363002
8	0x3db45afe	0.08806418
9	0x3dd061e7	0.101749234
10	0xbd78025f	-0.060549136
11	0xbcaaa18d	-0.020828987
12	0x3e0176ac	0.12642926
13	0xbdb50c5b	-0.08840247
14	0x3e10aac1	0.14127637
15	0x3dd13cdc	0.10216686
16	0x3dd51cb7	0.104058675
17	0x3d35ea00	0.044412613
18	0xbdf50361	-0.11963535
19	0x3d041a9b	0.032251935
20	0xbe1750df	-0.14776944
21	0x3d68c13d	0.05682491
22	0xbd17ecc5	-0.037091035
23	0x3d49853e	0.049199335
24	0x3da0e9d9	0.07857103
25	0x3d1c8568	0.038213164
26	0x3deb9777	0.11503499
27	0xbcd850e9	-0.026405768
28	0xbe18eedb	-0.14934866
29	0xbdad34fa	-0.0845737
30	0x3cf4f4a2	0.029901806
31	0xbcc1cd81	-0.023657562
32	0xbe0736c4	-0.13204485
33	0xbe110622	-0.14162496
34	0x3e0c159e	0.13680121
35	0x3cea9bfb	0.02863883
36	0xbde681d4	-0.112552315
37	0x3e47efe2	0.19525102
38	0x3e134d25	0.14384897
39	0xbe01a69d	-0.12661214
40	0xbdb89b7d	-0.09014032
41	0x3e0c14a4	0.13679749
42	0x3e36e11f	0.17859314
43	0xbbdb1144	-0.006685408
44	0x3dd7f5f7	0.10544961
45	0x3e3a96ad	0.18221541
46	0xbd56c608	-0.05243495
47	0xbc873b26	-0.016507696
48	0x3dcb0f6f	0.09915053
49	0xbd25a9f6	-0.04044529
50	0x3dbdbce4	0.09264544
51	0xbd0e7481	-0.034779076
52	0x3dda987c	0.10673615
53	0xbca031c8	-0.019554988
54	0xbd8a4df2	-0.06753148
55	0xbd64559d	-0.05574571
56	0xbc262b83	-0.01014221
57	0x3e028c3f	0.12748812
58	0xbe0ba61f	-0.13637589
59	0xbd93107d	-0.07180879
60	0xbdfadcda	-0.12249155
61	0xbda78857	-0.08180302
62	0x3d94e39b	0.07269975
63	0xbc6f2a4e	-0.014597489
